pid/result/ml100k-PIDMF-debug2023-03-14-10-32-30/ckpt/epoch_0.pth (torch_old, 543278 bytes, 5 tensors)

users f4 [945, 64]
0.14397606 -0.069534846 -0.025201784 0.08403725 0.05620167 -0.006366414 0.070813514 -0.013725844
-0.11270687 -0.052526735 0.11215994 -0.12518914 -0.035333626 0.0548503 0.11000616 -0.032575093
0.13349374 0.0799032 0.12601331 0.10804935 0.107868835 0.013914963 -0.079738244 -0.042626187
0.05833653 0.045674153 0.03549408 0.008096348 -0.12451329 -0.06765396 -0.048368376 0.045289382
-0.10987105 -0.0949395 -0.105897926 -0.061273035 -0.07534483 -0.073064536 -0.10611609 -0.06382645
-0.10551609 0.07915276 -0.057159863 0.063536316 -0.105991565 -0.08464622 0.114717595 0.08679848
-0.05522291 0.010625096 -0.06568932 -0.106119275 0.10749527 -0.026310192 0.005836398 0.09636427
0.026435697 0.05036514 0.02248074 0.10078214 -0.008080924 -0.09700321 0.06027596 0.022194067
0.12586273 -0.113890834 -0.041183047 -0.08482347 -0.057360213 -0.12452826 0.07985185 0.07612298
-0.007850613 -0.09297384 -0.06562876 -0.04954371 -0.0005698271 0.0856633 0.06400102 -0.08571472
-0.107187964 0.014397053 0.088007376 0.0822263 0.053017903 0.078491956 0.068935074 0.046719372
0.115522236 0.12705679 -0.10375323 -0.12704475 -0.13439561 -0.096796475 -0.031495478 -0.07077884
0.14212894 0.028243134 0.09027667 0.054965843 0.07682169 0.08909769 -0.1208864 -0.12829046
0.0054756016 0.020721082 0.090837836 -0.07931841 0.020360362 -0.08302207 -0.0154369455 -0.077872016
0.0735247 -0.102840945 0.10982552 -0.032063197 -0.046441276 0.019856026 -0.017211657 -0.121571004
0.11051103 -0.005591139 0.04728875 -0.045877434 0.050182004 -0.005642744 -0.04409457 0.06770987
-0.03337121 -0.028197737 -0.042654157 -0.06820606 -0.06117527 0.10866926 0.103170365 -0.01907253
0.099071406 -0.08578971 0.11328526 0.009150686 -0.051867094 0.0836464 0.117546596 -0.11315322
-0.057940997 0.04281101 0.09163222 -0.0043222522 -0.08489029 0.017669057 -0.12688608 0.10966663
-0.097465605 0.09694023 0.06781859 -0.11985482 0.027794404 -0.03386288 -0.038363464 -0.09887269
-0.075026505 0.034392383 -0.08929949 0.013778091 0.07875324 0.043449312 0.037416182 -0.072711885
0.02392845 0.042397667 -0.06615427 -0.05218511 -0.058405768 0.039692003 0.07791138 -0.12805708
0.044127107 -0.0020897985 -0.075282075 -0.07898387 -0.11131252 0.0440075 0.026440812 -0.06741256
0.046292704 0.049912088 0.08062954 0.062710464 -0.01658194 0.12288424 0.0108089475 0.15959871
0.07141235 -0.039255172 0.08345011 0.049149245 -0.08308359 0.017273705 0.124832444 -0.027548071
-0.056585435 0.031138465 0.119878426 -0.06684042 0.03230105 0.020037677 0.08660452 -0.05317452
0.0060644597 0.04432491 0.040488765 0.01100191 -0.078108646 -0.05689884 -0.083402514 0.018738171
-0.07902192 0.0014550639 0.06303335 -0.05812892 0.08600911 -0.029431084 0.105724424 0.0559829
0.053319756 -0.09937785 -0.00021771026 -0.07821279 -0.031062203 -0.043754604 -0.070784785 0.033805568
-0.11014314 -0.06400988 -0.004982539 0.07532722 -0.101607606 0.057828184 0.008568238 0.03434384
-0.049879298 0.10278181 0.036021635 -0.020017065 0.12826729 -0.071715094 0.045527387 -0.082854845
-0.03366656 0.10766197 0.038956217 0.03557579 -0.07406213 -0.0019139266 -0.020463653 0.011910151
00000000: 766e 133e 4968 8ebd f973 cebc b91b ac3d
00000010: b933 663d 5a9d d0bb ad06 913d 5de2 60bc
00000020: dcd2 e6bd 4626 57bd 1cb4 e53d 9531 00be
00000030: feb9 10bd b5aa 603d e94a e13d 766d 05bd
00000040: 95b2 083e 4aa4 a33d a209 013e fa48 dd3d
00000050: 56ea dc3d 96fb 633c ce4d a3bd cc98 2ebd
00000060: 49f2 6e3d d214 3b3d 3e62 113d 8ba6 043c
00000070: d300 ffbd 298e 8abd eb1d 46bd 5c81 393d
00000080: 1304 e1bd a46f c2bd 03e1 d8bd 6ff9 7abd
00000090: 644e 9abd dca2 95bd 6553 d9bd 71b7 82bd
000000a0: d218 d8bd d81a a23d 7620 6abd 541f 823d
000000b0: 1b12 d9bd ff5a adbd 0ff1 ea3d 67c3 b13d
000000c0: 6b31 62bd e214 2e3c 1f88 86bd 1055 d9bd
000000d0: 7b26 dc3d 7988 d7bc 413f bf3b a15a c53d
000000e0: ad8f d83c ad4b 4e3d 8729 b83c de66 ce3d
000000f0: da65 04bc 9ea9 c6bd ede3 763d 55d0 b53c
00000100: 29e2 003e 993f e9bd 8eaf 28bd edb7 adbd
00000110: 8bf2 6abd ac08 ffbd 5e89 a33d 5de6 9b3d
00000120: dc9f 00bc 1269 bebd 5f68 86bd 58ee 4abd
00000130: 7360 15ba 3d70 af3d f712 833d 338b afbd
00000140: 5d85 dbbd 9ee1 6b3c 363d b43d 4366 a83d
00000150: 4d29 593d 64c0 a03d d52d 8d3d d05c 3f3d
00000160: ec96 ec3d 2d1b 023e 937c d4bd 0518 02be
00000170: 019f 09be 3b3d c6bd 6701 01bd 7ff4 90bd
00000180: 408a 113e 255e e73c fae2 b83d dd23 613d
00000190: b154 9d3d da78 b63d 4a93 f7bd 935e 03be
000001a0: ad6c b33b 42bf a93c 3009 ba3d b171 a2bd
000001b0: c6ca a63c 7a07 aabd 3eeb 7cbc 5d7b 9fbd
000001c0: 1e94 963d 469e d2bd 34ec e03d b354 03bd
000001d0: 3539 3ebd 1ba9 a23c 76ff 8cbc 38fa f8bd
000001e0: 9b53 e23d e035 b7bb d9b1 413d fae9 3bbd
000001f0: a58b 4d3d c4e6 b8bb 829c 34bd 79ab 8a3d
00000200: 40b0 08bd f1fe e6bc 20b6 2ebd 9eaf 8bbd
00000210: eb92 7abd fd8d de3d fc4a d33d ff3d 9cbc
00000220: f3e5 ca3d 84b2 afbd 1a02 e83d c2ec 153c
00000230: 9772 54bd ce4e ab3d 45bc f03d e0bc e7bd
00000240: 8a53 6dbd 995a 2f3d aca9 bb3d aea1 8dbb
00000250: f6da adbd b3be 903c 6dee 01be e698 e03d
00000260: 0c9c c7bd 9988 c63d 79e4 8a3d 7276 f5bd
00000270: 17b1 e33c ceb3 0abd 0223 1dbd c47d cabd
00000280: 7fa7 99bd 07df 0c3d a7e2 b6bd 81bd 613c
00000290: 6149 a13d e8f7 313d b641 193d f8e9 94bd
000002a0: 9905 c43c 2da9 2d3d e47b 87bd 0ec0 55bd
000002b0: e33a 6fbd 1594 223d 0090 9f3d 6521 03be
000002c0: a0be 343d 00f5 08bb 7d2d 9abd 4cc2 a1bd
000002d0: d2f7 e3bd 3541 343d 679a d83c 990f 8abd
000002e0: 6b9d 3d3d 9e70 4c3d 1a21 a53d 586e 803d
000002f0: d9d6 87bc bbaa fb3d 0318 313c d86d 233e
00000300: a340 923d 08ca 20bd e4e7 aa3d b850 493d
00000310: bb27 aabd 9681 8d3c 27a8 ff3d 7eac e1bc
00000320: 21c6 67bd 1816 ff3c d282 f53d a1e3 88bd
00000330: 1b4e 043d 0e26 a43c b65d b13d 87cd 59bd
00000340: 60b8 c63b 098e 353d 8cd7 253d 5b41 343c
00000350: 6df7 9fbd c20e 69bd f0ce aabd cb80 993c
00000360: 3fd6 a1bd d8b7 be3a a117 813d 9718 6ebd
00000370: 8b25 b03d 7519 f1bc 0c86 d83d 534e 653d
00000380: d165 5a3d 9d86 cbbd 2749 64b9 072e a0bd
00000390: 2976 febc 0738 33bd 9df7 90bd b577 0a3d
000003a0: ba92 e1bd 9d17 83bd 9144 a3bb 2845 9a3d
000003b0: a617 d0bd 3fdd 6c3d cb61 0c3c 20ac 0c3d
000003c0: 3c4e 4cbd 457f d23d 6c8b 133d d4fa a3bc
000003d0: 8058 033e 5ddf 92bd ed7a 3a3d cdaf a9bd
000003e0: f2e5 09bd e17d dc3d 8e90 1f3d ebb7 113d
000003f0: e3ad 97bd b8dc faba 64a3 a7bc cb22 433c

items_id f4 [1154, 63]
0.07179088 0.22098252 -0.024694588 -0.03377598 0.12985434 0.10994771 0.19600062 0.18409295
0.10480202 -0.1882651 0.1417938 0.018977959 -0.046185557 0.10834267 0.10762973 -0.14056824
-0.0041852146 -0.09954635 0.075353086 0.14668208 0.09679439 -0.017019995 -0.17495756 0.032212578
-0.027832508 0.038759075 0.14892116 0.17728525 -0.06691541 -0.15406506 0.03419192 0.11438834
0.01038264 -0.09657448 0.09507609 0.06695778 0.22213554 0.18251854 -0.08566417 -9.326191e-05
0.036770128 0.07093939 0.10375405 -0.046675384 -0.18997894 -0.115123615 0.12367016 -0.02247295
0.1359056 -0.15511017 -0.13552473 -0.011455203 0.086296886 -0.031741604 -0.108259775 0.14961907
-0.16136761 0.00939151 -0.07134071 -0.061282963 0.045036748 -0.10300951 0.05660929 0.16243312
0.20659949 0.1481397 -0.04741465 0.109320424 0.08620616 0.14241116 0.016841052 0.08185268
-0.04371193 -0.020703027 -0.0067319274 -0.1838006 -0.018275032 -0.016865296 -0.09574371 -0.020680463
-0.14096627 0.1601344 0.052787486 0.21338117 0.16265519 -0.01725156 0.209841 -0.17652471
-0.15013772 0.03382645 -0.029039036 0.009296753 0.04390683 0.032855827 0.057664547 -0.13134474
-0.19620016 0.07643412 0.06277658 0.23171397 0.08577293 -0.034905523 -0.063098826 -0.059414692
0.19694807 -0.030440247 -0.13306819 -0.16812223 -0.04383039 -0.032659467 -0.08410915 0.02109884
-0.02084022 -0.01866402 0.006916766 0.17729571 0.17974737 -0.0010321769 0.14874578 -0.19757822
-0.10244542 0.039986186 -0.06362131 -0.04984328 -0.095181145 -0.0075884876 0.1625536 0.2125531
0.07484526 -0.12750402 0.21446353 0.13697731 0.10283655 -0.010184525 0.21324357 -0.19872767
0.21737474 -0.19926539 -0.16003995 -0.0064167343 0.05959406 0.008880155 -0.011258172 0.035965785
-0.03313345 0.04855637 0.12995084 -0.03307036 -0.12008429 0.10209308 -0.007904099 -0.013842419
-0.021976274 0.19046709 -0.016138272 0.04133598 0.1305503 -0.015099633 -0.1803284 -0.20153162
0.062062167 0.006319652 0.14224866 0.0015187018 -0.0045371987 -0.15973333 -0.011862702 -0.020634219
0.17003593 -0.13917506 -0.11870242 -0.15967174 -0.009507974 -0.119155705 0.06865974 -0.15222943
-0.19482078 0.005375061 0.15103397 0.14611393 -0.19923 -0.03566202 -0.049268924 -0.0017392025
-0.010773235 -0.099459335 -0.041683104 -0.06929139 0.14646067 0.23279844 0.014114754 0.07536573
-0.23484452 0.17006764 -0.025721574 0.18664156 0.19406494 0.2072261 -0.18993336 -0.015531431
-0.1771841 -0.053249985 0.1458383 0.0522075 -0.17934144 -0.11562528 -0.115716055 0.0037985784
0.012575118 0.18000297 -0.025650296 -0.016629608 0.0008872956 -0.025698546 -0.12892555 0.12527521
0.13468148 -0.16950572 -0.071741 0.18769152 0.07978529 0.009823924 -0.1349126 0.20462617
0.02012952 0.040153615 -0.009164328 -0.14955606 -0.12652496 -0.05212425 0.012181046 0.027139412
-0.21870655 -0.0032287072 0.012992635 -0.019574197 -0.03258002 -0.04244964 -0.16679628 -0.07588218
0.062026635 0.03757322 0.16553867 -0.2195969 0.18194138 -0.045836482 -0.059205342 0.041818716
-0.03718629 0.06341736 -0.16558151 0.033064604 0.20527737 0.08962388 0.19235913 -0.07357105
00000000: 1907 933d 3e49 623e 4e4c cabc af58 0abd
00000010: 89f8 043e 442c e13d 63b4 483e dd82 3c3e
00000020: 71a2 d63d 91c8 40be 6532 113e aa77 9b3c
00000030: 112d 3dbd c3e2 dd3d fa6c dc3d 1ff1 0fbe
00000040: 2024 89bb f5de cbbd b852 9a3d d433 163e
00000050: 233c c63d 846d 8bbc 1328 33be 56f1 033d
00000060: 0001 e4bc d6c1 1e3d ca7e 183e 448a 353e
00000070: f20a 89bd 3bc3 1dbe d40c 0c3d 6f44 ea3d
00000080: f31b 2a3c d7c8 c5bd 41b7 c23d 2921 893d
00000090: 8077 633e 24e6 3a3e b270 afbd 9b95 c3b8
000000a0: 469c 163d ac48 913d 017d d43d b02e 3fbd
000000b0: d789 42be eec5 ebbd c846 fd3d 3119 b8bc
000000c0: d62a 0b3e 33d5 1ebe ffc6 0abe 9bae 3bbc
000000d0: 6cbc b03d 7c03 02bd 4db7 ddbd be35 193e
000000e0: 8d3d 25be d9de 193c 141b 92bd d803 7bbd
000000f0: 7478 383d a6f6 d2bd 25df 673d de54 263e
00000100: d18e 533e efb1 173e dd35 42bd 63e3 df3d
00000110: db8c b03d 3bd4 113e 3ff6 893c 61a2 a73d
00000120: 480b 33bd 6599 a9bc 8097 dcbb 3936 3cbe
00000130: 85b5 95bc 1729 8abc 4715 c4bd 136a a9bc
00000140: 7659 10be 46fa 233e b137 583d 9880 5a3e
00000150: 158f 263e 2553 8dbc 8fe0 563e e5c2 34be
00000160: b4bd 19be 9b8d 0a3d 46e3 edbc 6951 183c
00000170: a6d7 333d d593 063d a931 6c3d 3c7f 06be
00000180: b2e8 48be 7e89 9c3d 0291 803d 6d46 6d3e
00000190: b8a9 af3d 18f9 0ebd f539 81bd d25c 73bd
000001a0: c1ac 493e d35d f9bc 0743 08be 3c28 2cbe
000001b0: 7f87 33bd efc5 05bd 6b41 acbd 79d7 ac3c
000001c0: 1cb9 aabc 49e5 98bc 0aa6 e23b 028d 353e
000001d0: b20f 383e 1c4a 87ba d050 183e f251 4abe
000001e0: e8ce d1bd 8ec8 233d e44b 82bd 7828 4cbd
000001f0: 55ee c2bd d9a8 f8bb 7374 263e 85a7 593e
00000200: 7948 993d 6a90 02be 549c 5b3e c843 0c3e
00000210: f89b d23d fedc 26bc 865c 5a3e 447f 4bbe
00000220: 7c97 5e3e 3a0c 4cbe 83e1 23be 7843 d2bb
00000230: e718 743d 127e 113c 3274 38bc dc50 133d
00000240: f1b6 07bd 0be3 463d d511 053e c974 07bd
00000250: c1ee f5bd 2d16 d13d 3280 01bc 50cb 62bc
00000260: 9607 b4bc ce09 433e 6934 84bc eb4f 293d
00000270: faae 053e 7364 77bc 02a8 38be 4e5e 4ebe
00000280: e634 7e3d 1515 cf3b a2a9 113e 2d0f c73a
00000290: c8ac 94bb 2291 23be c75b 42bc 1809 a9bc
000002a0: e61d 2e3e e883 0ebe 411a f3bd fd80 23be
000002b0: 55c7 1bbc e807 f4bd 7a9d 8c3d 08e2 1bbe
000002c0: 197f 47be 4821 b03b a6a8 1a3e e49e 153e
000002d0: f302 4cbe 5712 12bd 36ce 49bd f4f5 e3ba
000002e0: 3982 30bc 56b1 cbbd e7bb 2abd a5e8 8dbd
000002f0: c9f9 153e b762 6e3e 9241 673c 5959 9a3d
00000300: 157b 70be 3626 2e3e 0db6 d2bc f71e 3f3e
00000310: f6b8 463e 1433 543e e47d 42be 8b77 7ebc
00000320: c06f 35be a81c 5abd a356 153e 88d7 553d
00000330: 48a5 37be f2cc ecbd 8afc ecbd 92f1 783b
00000340: de07 4e3c b352 383e 9220 d2bc d13a 88bc
00000350: 6699 683a c285 d2bc 0f05 04be 2548 003e
00000360: f1e9 093e e892 2dbe f2ec 92bd 3532 403e
00000370: 7866 a33d 86f4 203c 8726 0abe 8689 513e
00000380: aae6 a43c 1e78 243d fa25 16bc 3925 19be
00000390: c28f 01be 3d80 55bd 0393 473c 7953 de3c
000003a0: 9cf4 5fbe b898 53bb 10df 543c 115a a0bc
000003b0: a172 05bd acdf 2dbd a5cc 2abe 1e68 9bbd
000003c0: a40f 7e3d 60e6 193d f882 293e 02de 60be
000003d0: d74e 3a3e 09bf 3bbd 4d81 72bd 1a4a 2b3d
000003e0: a750 18bd f6e0 813d 338e 29be c06e 073d
000003f0: 3b34 523e ba8c b73d cbf9 443e 6bac 96bd

item_pop f4 [1154, 1]
1.0 0.8159806 0.8498789 0.86440676 0.8062954 0.8062954 0.7990315 0.75060534
0.72397095 0.71670705 0.6779661 0.7118644 0.6416465 0.62711865 0.6585956 0.6513317
0.63438255 0.6150121 0.63438255 0.56658596 0.5786925 0.5811138 0.53268766 0.55690074
0.5544794 0.51331717 0.527845 0.51331717 0.50363195 0.47941887 0.52300245 0.5108959
0.50363195 0.50121063 0.4552058 0.47215497 0.5108959 0.4866828 0.5108959 0.44067797
0.44309926 0.4915254 0.4866828 0.527845 0.4552058 0.4552058 0.43099272 0.44552058
0.43825665 0.4479419 0.45762712 0.46004844 0.41888618 0.44552058 0.44309926 0.44309926
0.46246973 0.4479419 0.41888618 0.4261501 0.39225182 0.43341404 0.4213075 0.43099272
0.3946731 0.39951575 0.4261501 0.4164649 0.3946731 0.3898305 0.40920097 0.39951575
0.37288135 0.43583536 0.3946731 0.41404358 0.37530267 0.40920097 0.39709443 0.40435836
0.3898305 0.3559322 0.36077482 0.3898305 0.346247 0.36077482 0.38256657 0.3849879
0.36319613 0.3559322 0.36803874 0.37288135 0.33656174 0.3510896 0.33656174 0.34382567
0.3535109 0.36077482 0.33171913 0.36561742 0.33898306 0.34140435 0.3559322 0.34382567
0.34866828 0.3244552 0.3220339 0.34382567 0.34140435 0.3220339 0.33414045 0.3244552
0.35835353 0.29539952 0.3220339 0.3196126 0.3220339 0.32687652 0.3244552 0.30750605
0.31719127 0.3220339 0.3220339 0.33656174 0.30992737 0.29539952 0.2905569 0.30508474
0.30266345 0.31476998 0.31719127 0.2929782 0.31719127 0.28329298 0.27118644 0.2857143
0.28329298 0.30024213 0.2905569 0.29539952 0.27602905 0.28329298 0.29539952 0.26150122
0.26876512 0.28329298 0.27118644 0.2857143 0.27360776 0.26634383 0.24939467 0.27845037
0.28329298 0.31476998 0.28329298 0.28329298 0.27602905 0.25665858 0.27118644 0.27118644
0.29539952 0.2905569 0.27845037 0.26634383 0.2857143 0.27118644 0.2542373 0.27602905
0.24939467 0.2905569 0.28087166 0.30024213 0.2542373 0.26876512 0.25665858 0.29539952
0.27360776 0.2590799 0.2590799 0.27845037 0.24697337 0.23244552 0.24939467 0.24455206
0.24697337 0.27602905 0.26634383 0.23002422 0.24455206 0.24697337 0.2590799 0.27118644
0.26876512 0.2639225 0.20096852 0.24213076 0.21549636 0.2542373 0.25665858 0.27118644
0.24455206 0.21791768 0.26150122 0.24939467 0.2276029 0.2276029 0.21791768 0.21065375
0.21307506 0.2251816 0.23244552 0.21791768 0.22033899 0.2276029 0.24455206 0.2251816
0.22276029 0.20338982 0.21549636 0.20338982 0.2251816 0.21307506 0.21307506 0.22276029
0.2276029 0.2276029 0.19612591 0.20823245 0.19612591 0.20823245 0.22033899 0.18886198
0.20581114 0.21307506 0.20338982 0.19612591 0.21307506 0.2251816 0.20338982 0.21549636
0.22033899 0.20581114 0.1937046 0.20823245 0.18159807 0.22276029 0.18886198 0.19128329
0.21549636 0.21065375 0.19612591 0.20338982 0.20581114 0.20338982 0.17675544 0.19612591
00000000: 0000 803f 1be4 503f aa91 593f c349 5d3f
00000010: 6069 4e3f 6069 4e3f 548d 4c3f ac27 403f
00000020: 2956 393f 1d7a 373f 308f 2d3f bf3c 363f
00000030: f242 243f d98a 203f b999 283f adbd 263f
00000040: e566 223f 6f71 1d3f e566 223f c70b 113f
00000050: 3125 143f e0c3 143f 385e 083f 0c91 0e3f
00000060: 5df2 0d3f c168 033f da20 073f c168 033f
00000070: 06ee 003f 6476 f53e 7de3 053f 13ca 023f
00000080: 06ee 003f 574f 003f bc10 e93e 4cbe f13e
00000090: 13ca 023f 7d2e f93e 13ca 023f 8ba0 e13e
000000a0: e8dd e23e 38a9 fb3e 7d2e f93e da20 073f
000000b0: bc10 e93e bc10 e93e 14ab dc3e 461b e43e
000000c0: 2d63 e03e a458 e53e 1a4e ea3e 788b eb3e
000000d0: 4078 d63e 461b e43e e8dd e23e e8dd e23e
000000e0: d5c8 ec3e a458 e53e 4078 d63e 5930 da3e
000000f0: 3bd5 c83e 72e8 dd3e 9eb5 d73e 14ab dc3e
00000100: 9812 ca3e 548d cc3e 5930 da3e e33a d53e
00000110: 9812 ca3e dd97 c73e ca82 d13e 548d cc3e
00000120: 4eea be3e d025 df3e 9812 ca3e 85fd d33e
00000130: ac27 c03e ca82 d13e f64f cb3e 0f08 cf3e
00000140: dd97 c73e bf3c b63e 7ab7 b83e dd97 c73e
00000150: 4947 b13e 7ab7 b83e c4df c33e 221d c53e
00000160: d8f4 b93e bf3c b63e 936f bc3e 4eea be3e
00000170: d251 ac3e 04c2 b33e d251 ac3e eb09 b03e
00000180: 61ff b43e 7ab7 b83e 17d7 a93e 3532 bb3e
00000190: 308f ad3e 8dcc ae3e bf3c b63e eb09 b03e
000001a0: a684 b23e fe1e a63e a1e1 a43e eb09 b03e
000001b0: 8dcc ae3e a1e1 a43e 7514 ab3e fe1e a63e
000001c0: 1d7a b73e 9b3e 973e a1e1 a43e 43a4 a33e
000001d0: a1e1 a43e 5c5c a73e fe1e a63e 6f71 9d3e
000001e0: e566 a23e a1e1 a43e a1e1 a43e d251 ac3e
000001f0: cdae 9e3e 9b3e 973e e0c3 943e 1134 9c3e
00000200: b4f6 9a3e 8829 a13e e566 a23e 3d01 963e
00000210: e566 a23e c70b 913e f3d8 8a3e 2549 923e
00000220: c70b 913e 56b9 993e e0c3 943e 9b3e 973e
00000230: ae53 8d3e c70b 913e 9b3e 973e 7de3 853e
00000240: 959b 893e c70b 913e f3d8 8a3e 2549 923e
00000250: 5116 8c3e 385e 883e 5161 7f3e 0c91 8e3e
00000260: c70b 913e 8829 a13e c70b 913e c70b 913e
00000270: ae53 8d3e c168 833e f3d8 8a3e f3d8 8a3e
00000280: 9b3e 973e e0c3 943e 0c91 8e3e 385e 883e
00000290: 2549 923e f3d8 8a3e 642b 823e ae53 8d3e
000002a0: 5161 7f3e e0c3 943e 69ce 8f3e 56b9 993e
000002b0: 642b 823e 959b 893e c168 833e 9b3e 973e
000002c0: 5116 8c3e 1fa6 843e 1fa6 843e 0c91 8e3e
000002d0: 96e6 7c3e 3306 6e3e 5161 7f3e db6b 7a3e
000002e0: 96e6 7c3e ae53 8d3e 385e 883e 788b 6b3e
000002f0: db6b 7a3e 96e6 7c3e 1fa6 843e f3d8 8a3e
00000300: 959b 893e da20 873e b1ca 4d3e 20f1 773e
00000310: 14ab 5c3e 642b 823e c168 833e f3d8 8a3e
00000320: db6b 7a3e d025 5f3e 7de3 853e 5161 7f3e
00000330: bc10 693e bc10 693e d025 5f3e 9eb5 573e
00000340: 5930 5a3e 0196 663e 3306 6e3e d025 5f3e
00000350: 8ba0 613e bc10 693e db6b 7a3e 0196 663e
00000360: 461b 643e 6c45 503e 14ab 5c3e 6c45 503e
00000370: 0196 663e 5930 5a3e 5930 5a3e 461b 643e
00000380: bc10 693e bc10 693e 3bd5 483e e33a 553e
00000390: 3bd5 483e e33a 553e 8ba0 613e 0965 413e
000003a0: 28c0 523e 5930 5a3e 6c45 503e 3bd5 483e
000003b0: 5930 5a3e 0196 663e 6c45 503e 14ab 5c3e
000003c0: 8ba0 613e 28c0 523e 805a 463e e33a 553e
000003d0: d8f4 393e 461b 643e 0965 413e c4df 433e
000003e0: 14ab 5c3e 9eb5 573e 3bd5 483e 6c45 503e
000003f0: 28c0 523e 6c45 503e 61ff 343e 3bd5 483e

item_pop_true f4 [1154, 1]
1.0 0.8159806 0.8498789 0.86440676 0.8062954 0.8062954 0.7990315 0.75060534
0.72397095 0.71670705 0.6779661 0.7118644 0.6416465 0.62711865 0.6585956 0.6513317
0.63438255 0.6150121 0.63438255 0.56658596 0.5786925 0.5811138 0.53268766 0.55690074
0.5544794 0.51331717 0.527845 0.51331717 0.50363195 0.47941887 0.52300245 0.5108959
0.50363195 0.50121063 0.4552058 0.47215497 0.5108959 0.4866828 0.5108959 0.44067797
0.44309926 0.4915254 0.4866828 0.527845 0.4552058 0.4552058 0.43099272 0.44552058
0.43825665 0.4479419 0.45762712 0.46004844 0.41888618 0.44552058 0.44309926 0.44309926
0.46246973 0.4479419 0.41888618 0.4261501 0.39225182 0.43341404 0.4213075 0.43099272
0.3946731 0.39951575 0.4261501 0.4164649 0.3946731 0.3898305 0.40920097 0.39951575
0.37288135 0.43583536 0.3946731 0.41404358 0.37530267 0.40920097 0.39709443 0.40435836
0.3898305 0.3559322 0.36077482 0.3898305 0.346247 0.36077482 0.38256657 0.3849879
0.36319613 0.3559322 0.36803874 0.37288135 0.33656174 0.3510896 0.33656174 0.34382567
0.3535109 0.36077482 0.33171913 0.36561742 0.33898306 0.34140435 0.3559322 0.34382567
0.34866828 0.3244552 0.3220339 0.34382567 0.34140435 0.3220339 0.33414045 0.3244552
0.35835353 0.29539952 0.3220339 0.3196126 0.3220339 0.32687652 0.3244552 0.30750605
0.31719127 0.3220339 0.3220339 0.33656174 0.30992737 0.29539952 0.2905569 0.30508474
0.30266345 0.31476998 0.31719127 0.2929782 0.31719127 0.28329298 0.27118644 0.2857143
0.28329298 0.30024213 0.2905569 0.29539952 0.27602905 0.28329298 0.29539952 0.26150122
0.26876512 0.28329298 0.27118644 0.2857143 0.27360776 0.26634383 0.24939467 0.27845037
0.28329298 0.31476998 0.28329298 0.28329298 0.27602905 0.25665858 0.27118644 0.27118644
0.29539952 0.2905569 0.27845037 0.26634383 0.2857143 0.27118644 0.2542373 0.27602905
0.24939467 0.2905569 0.28087166 0.30024213 0.2542373 0.26876512 0.25665858 0.29539952
0.27360776 0.2590799 0.2590799 0.27845037 0.24697337 0.23244552 0.24939467 0.24455206
0.24697337 0.27602905 0.26634383 0.23002422 0.24455206 0.24697337 0.2590799 0.27118644
0.26876512 0.2639225 0.20096852 0.24213076 0.21549636 0.2542373 0.25665858 0.27118644
0.24455206 0.21791768 0.26150122 0.24939467 0.2276029 0.2276029 0.21791768 0.21065375
0.21307506 0.2251816 0.23244552 0.21791768 0.22033899 0.2276029 0.24455206 0.2251816
0.22276029 0.20338982 0.21549636 0.20338982 0.2251816 0.21307506 0.21307506 0.22276029
0.2276029 0.2276029 0.19612591 0.20823245 0.19612591 0.20823245 0.22033899 0.18886198
0.20581114 0.21307506 0.20338982 0.19612591 0.21307506 0.2251816 0.20338982 0.21549636
0.22033899 0.20581114 0.1937046 0.20823245 0.18159807 0.22276029 0.18886198 0.19128329
0.21549636 0.21065375 0.19612591 0.20338982 0.20581114 0.20338982 0.17675544 0.19612591
00000000: 0000 803f 1be4 503f aa91 593f c349 5d3f
00000010: 6069 4e3f 6069 4e3f 548d 4c3f ac27 403f
00000020: 2956 393f 1d7a 373f 308f 2d3f bf3c 363f
00000030: f242 243f d98a 203f b999 283f adbd 263f
00000040: e566 223f 6f71 1d3f e566 223f c70b 113f
00000050: 3125 143f e0c3 143f 385e 083f 0c91 0e3f
00000060: 5df2 0d3f c168 033f da20 073f c168 033f
00000070: 06ee 003f 6476 f53e 7de3 053f 13ca 023f
00000080: 06ee 003f 574f 003f bc10 e93e 4cbe f13e
00000090: 13ca 023f 7d2e f93e 13ca 023f 8ba0 e13e
000000a0: e8dd e23e 38a9 fb3e 7d2e f93e da20 073f
000000b0: bc10 e93e bc10 e93e 14ab dc3e 461b e43e
000000c0: 2d63 e03e a458 e53e 1a4e ea3e 788b eb3e
000000d0: 4078 d63e 461b e43e e8dd e23e e8dd e23e
000000e0: d5c8 ec3e a458 e53e 4078 d63e 5930 da3e
000000f0: 3bd5 c83e 72e8 dd3e 9eb5 d73e 14ab dc3e
00000100: 9812 ca3e 548d cc3e 5930 da3e e33a d53e
00000110: 9812 ca3e dd97 c73e ca82 d13e 548d cc3e
00000120: 4eea be3e d025 df3e 9812 ca3e 85fd d33e
00000130: ac27 c03e ca82 d13e f64f cb3e 0f08 cf3e
00000140: dd97 c73e bf3c b63e 7ab7 b83e dd97 c73e
00000150: 4947 b13e 7ab7 b83e c4df c33e 221d c53e
00000160: d8f4 b93e bf3c b63e 936f bc3e 4eea be3e
00000170: d251 ac3e 04c2 b33e d251 ac3e eb09 b03e
00000180: 61ff b43e 7ab7 b83e 17d7 a93e 3532 bb3e
00000190: 308f ad3e 8dcc ae3e bf3c b63e eb09 b03e
000001a0: a684 b23e fe1e a63e a1e1 a43e eb09 b03e
000001b0: 8dcc ae3e a1e1 a43e 7514 ab3e fe1e a63e
000001c0: 1d7a b73e 9b3e 973e a1e1 a43e 43a4 a33e
000001d0: a1e1 a43e 5c5c a73e fe1e a63e 6f71 9d3e
000001e0: e566 a23e a1e1 a43e a1e1 a43e d251 ac3e
000001f0: cdae 9e3e 9b3e 973e e0c3 943e 1134 9c3e
00000200: b4f6 9a3e 8829 a13e e566 a23e 3d01 963e
00000210: e566 a23e c70b 913e f3d8 8a3e 2549 923e
00000220: c70b 913e 56b9 993e e0c3 943e 9b3e 973e
00000230: ae53 8d3e c70b 913e 9b3e 973e 7de3 853e
00000240: 959b 893e c70b 913e f3d8 8a3e 2549 923e
00000250: 5116 8c3e 385e 883e 5161 7f3e 0c91 8e3e
00000260: c70b 913e 8829 a13e c70b 913e c70b 913e
00000270: ae53 8d3e c168 833e f3d8 8a3e f3d8 8a3e
00000280: 9b3e 973e e0c3 943e 0c91 8e3e 385e 883e
00000290: 2549 923e f3d8 8a3e 642b 823e ae53 8d3e
000002a0: 5161 7f3e e0c3 943e 69ce 8f3e 56b9 993e
000002b0: 642b 823e 959b 893e c168 833e 9b3e 973e
000002c0: 5116 8c3e 1fa6 843e 1fa6 843e 0c91 8e3e
000002d0: 96e6 7c3e 3306 6e3e 5161 7f3e db6b 7a3e
000002e0: 96e6 7c3e ae53 8d3e 385e 883e 788b 6b3e
000002f0: db6b 7a3e 96e6 7c3e 1fa6 843e f3d8 8a3e
00000300: 959b 893e da20 873e b1ca 4d3e 20f1 773e
00000310: 14ab 5c3e 642b 823e c168 833e f3d8 8a3e
00000320: db6b 7a3e d025 5f3e 7de3 853e 5161 7f3e
00000330: bc10 693e bc10 693e d025 5f3e 9eb5 573e
00000340: 5930 5a3e 0196 663e 3306 6e3e d025 5f3e
00000350: 8ba0 613e bc10 693e db6b 7a3e 0196 663e
00000360: 461b 643e 6c45 503e 14ab 5c3e 6c45 503e
00000370: 0196 663e 5930 5a3e 5930 5a3e 461b 643e
00000380: bc10 693e bc10 693e 3bd5 483e e33a 553e
00000390: 3bd5 483e e33a 553e 8ba0 613e 0965 413e
000003a0: 28c0 523e 5930 5a3e 6c45 503e 3bd5 483e
000003b0: 5930 5a3e 0196 663e 6c45 503e 14ab 5c3e
000003c0: 8ba0 613e 28c0 523e 805a 463e e33a 553e
000003d0: d8f4 393e 461b 643e 0965 413e c4df 433e
000003e0: 14ab 5c3e 9eb5 573e 3bd5 483e 6c45 503e
000003f0: 28c0 523e 6c45 503e 61ff 343e 3bd5 483e

lr1.weight f4 [1, 63]
0.102742925 0.12401333 0.17479442 -0.0999189 0.10396411 0.1321086 0.08517082 0.11902314
0.09754007 -0.17320779 0.11453469 -0.18436858 -0.14353164 0.12959845 0.13517235 -0.122705705
-0.0895251 -0.13169123 0.1261311 0.095524885 0.10585733 0.069038466 -0.1910998 0.12571813
-0.15082148 -0.17008334 0.18531998 0.20589186 -0.17182782 -0.19118243 0.107148156 0.16213211
-0.17816818 -0.14050418 0.13100898 0.1496694 0.1046412 0.15073942 -0.13275138 -0.15358533
-0.12395782 0.15935877 0.17071661 -0.10673735 -0.086041555 -0.15432075 0.125232 -0.1684557
0.14125241 -0.16283253 -0.157369 0.11763118 0.21534373 0.14933929 -0.101254314 0.18458961
-0.11418731 -0.18485542 -0.1416582 -0.18839255 0.15625149 -0.11477517 0.10049159
00000000: e26a d23d b3fa fd3d 4ffd 323e 48a2 ccbd
00000010: 23eb d43d 7a47 073e 0a6e ae3d 67c2 f33d
00000020: 17c3 c73d 625d 31be 2a91 ea3d 1ecb 3cbe
00000030: f5f9 12be 75b5 043e 9f6a 0a3e 214d fbbd
00000040: f058 b7bd 11da 06be 8328 013e 8da2 c33d
00000050: bacb d83d 0a64 8d3d aaaf 43be 41bc 003e
00000060: f270 1abe 542a 2ebe 85c4 3d3e 51d5 523e
00000070: a2f3 2fbe 54c5 43be 7e70 db3d f605 263e
00000080: b871 36be 54e0 0fbe 3827 063e ef42 193e
00000090: 204e d63d 6f5b 1a3e faef 07be 7945 1dbe
000000a0: 99dd fdbd f22e 233e 56d0 2e3e 1d99 dabd
000000b0: 8e36 b0bd 4206 1ebe d13c 003e a77f 2cbe
000000c0: 79a4 103e 92bd 26be 5725 21be 9ee8 f03d
000000d0: 1183 5c3e 66ec 183e 6c5e cfbd 0f05 3d3e
000000e0: 09db e9bd bd4a 3dbe d90e 11be fae9 40be
000000f0: 6400 203e 3f0f ebbd 89ce cd3d
