pid/result/ml100k-PIDMF-debug2023-03-14-10-32-30/ckpt/epoch_29.pth (torch_old, 543278 bytes, 5 tensors)

users f4 [945, 64]
000000 e6 1e a0 3f e2 dc 8f be 7e 8c f0 be 25 56 7b 3e
       1.250943 -0.28098208 -0.46982187 0.2454458
000010 c0 42 75 3d 6e 68 3d be 4a 0b d6 3e fe 8d c6 be
       0.05987811 -0.18496868 0.41805488 -0.38780206
000020 04 63 11 bf 35 e0 f5 bd 6d f5 10 3f 83 82 af be
       -0.5679171 -0.12005655 0.5662449 -0.3427926
000030 ee 04 d8 be 58 f1 5a 3e 09 99 21 3f cd bb 20 be
       -0.4219126 0.21381128 0.6312414 -0.1569664
000040 b5 aa 86 3f 79 5e e4 3e b7 25 4b 3f 24 9f ce 3e
       1.0520846 0.44603327 0.79354423 0.4035579
000050 5e 20 1c 3f 9f 18 94 be 07 ea 3d bf 2c ad a5 be
       0.6098689 -0.28925034 -0.7418522 -0.32358682
000060 d3 28 3d 3f 6d 2d 3d 3f ef 96 30 bc c6 88 6a be
       0.7389042 0.7389744 -0.010778173 -0.22903737
000070 a1 2f 2b bf 16 c4 1b bf a4 b3 f7 be 49 d2 b8 3d
       -0.6686955 -0.6084608 -0.48379242 0.09024484
000080 fb 98 0f bf f8 62 24 bf c2 16 de be 78 c8 f7 be
       -0.56092805 -0.64213514 -0.43376738 -0.48395133
000090 2c 78 28 bf f7 11 9e 3b 2d 15 07 bf 35 28 57 bf
       -0.6580837 0.004823919 -0.52766687 -0.84045726
0000a0 71 66 dc be 1d c0 db 3e f7 9e c7 be 74 fb 93 3d
       -0.43046907 0.42920008 -0.38988468 0.07225695
0000b0 d0 56 77 bf 83 7e 35 bf 31 28 32 3f b0 52 00 be
       -0.9661684 -0.70896167 0.6959258 -0.12531543
0000c0 06 ac f1 3d fc a9 3f 3e de 02 49 bf 19 c3 1d bf
       0.11800389 0.18717188 -0.7852 -0.6162582
0000d0 06 01 3d 3f 4b 88 6f bf c9 79 6f bd 94 6b 60 3f
       0.73829687 -0.9356734 -0.058465753 0.8766415
0000e0 5f 80 0b 3e 78 5b f8 3e b1 6d 2f 3e 30 de 6d 3f
       0.13623188 0.48507285 0.17131688 0.92917156
0000f0 da 2d 95 3e c8 5c e6 be a0 f6 34 be fd 62 12 3e
       0.29136544 -0.4499266 -0.17672205 0.14295574
000100 66 8c 08 3f 38 7f 8c be 5a 14 10 3e b1 ec 2d bf
       0.5333923 -0.2744081 0.14070264 -0.6793929
000110 51 45 48 bf 68 bd 91 be af da 3a 3f ac 6a 25 3f
       -0.7823077 -0.28464818 0.72989935 0.64615893
000120 e2 e0 d4 3d 4b 53 2a be 50 41 4c bd fa 55 40 bf
       0.103944555 -0.16633336 -0.049866974 -0.7513119
000130 8d f6 b0 bd 7f c1 99 bc 4d 41 ac 3e 09 fe ce bd
       -0.08640776 -0.018769024 0.3364357 -0.10107047
000140 fc 90 4d 3e 43 77 30 3c 4e d7 93 3e e9 07 f4 3e
       0.20074838 0.010770622 0.28875202 0.47662285
000150 0e 38 3f 3e 55 94 95 bd 0f 52 36 3f 96 06 aa be
       0.18673727 -0.07303683 0.7121896 -0.3320815
000160 49 a9 a4 3e d4 4b 97 3f 7f f5 57 bf 4d fc 75 bf
       0.32160404 1.1820016 -0.8435897 -0.96088105
000170 e4 a1 66 bf 01 22 69 bf 8b bc aa 3e e2 a2 6d bf
       -0.90090775 -0.9106751 0.33346972 -0.92826664
000180 29 e9 3e 3f 81 69 b3 3d 82 ae b1 3e 72 c0 e1 3e
       0.74574524 0.08760358 0.3470345 0.44092137
000190 b5 a6 ad be cc 14 da 3d 1f 47 41 bf 5d 0d 9e bf
       -0.3391625 0.10648498 -0.7549915 -1.2347828
0001a0 d9 1e 69 3e 24 2e 6c be 45 71 30 3f 0b 5a ab be
       0.22765674 -0.23064476 0.68922836 -0.33467135
0001b0 ee 48 2f 3f 9b 4d 23 bf de 73 bf be aa 62 14 bf
       0.68470657 -0.6379029 -0.37393087 -0.5796305
0001c0 74 43 57 3e 45 10 79 bf 8c 8e 53 3e 3b 05 2c bf
       0.21021825 -0.9729045 0.20659846 -0.6719548
0001d0 03 89 fb be b8 85 74 3e 8e 10 d7 be 45 c1 2d bf
       -0.4912797 0.23879135 -0.42004818 -0.6787303
0001e0 7e 15 f0 3e a0 80 41 3e 15 c6 8d bd ea 48 eb 3e
       0.46891397 0.18896723 -0.06922547 0.45954067
0001f0 3f 6e b7 3d 84 ef 50 3f ae 9f c3 be 0a bf 4c be
       0.08956575 0.8161547 -0.38207763 -0.1999475
000200 7c ee 16 bf 0a de 95 be 21 e5 e0 be 6a 08 8b be
       -0.5895765 -0.29270965 -0.4392481 -0.27154857
000210 d0 0d 02 be 68 7c 1f 3f 0a 14 03 3f 05 7d a2 3c
       -0.12700582 0.62299204 0.5120245 0.019835005
000220 ab 1e b2 3e 40 5b 61 bf 09 c0 cb 3e a9 cf d4 3c
       0.34789023 -0.8802986 0.3979495 0.025977926
000230 b4 ca 14 bf 6f 47 08 3f 5f 84 d7 3e 0e 3e b0 be
       -0.581218 0.53234 0.4209318 -0.34422344
000240 6b 5b 5c bf 1e bd 07 be 59 43 7c 3f 9f a4 b3 3e
       -0.8607699 -0.13255736 0.98540264 0.35086533
000250 0a 3a e7 be aa cb eb 3e 3d 01 37 bf 71 3f 18 3e
       -0.45161468 0.4605382 -0.71486264 0.14867951
000260 1c 43 73 be 3f ed 72 3f f6 06 0d bd ab fc 54 bf
       -0.23756069 0.9489326 -0.034430467 -0.8319804
000270 da 34 1d be ab ec 92 be e1 29 ae be 58 d6 46 bf
       -0.15352193 -0.28696188 -0.34016326 -0.7767081
000280 cd e6 3d bf c1 c8 11 bd b3 81 64 bf ae 64 ff bd
       -0.741803 -0.035591844 -0.89260405 -0.12470375
000290 b0 fc 3d 3f 3f 0b 02 3e 0d 2a 93 be a0 a6 56 bf
       0.74213696 0.12699603 -0.2874302 -0.83848
0002a0 b3 ea 01 3f 80 b3 cb 3d 8f 4b cc be b2 74 11 bf
       0.5074875 0.09946346 -0.39901397 -0.5681869
0002b0 b8 af 45 bf 7a 94 08 3e de 2c fe 3e 8b 9b 86 bf
       -0.7722125 0.1333789 0.49643606 -1.0516218
0002c0 79 2d 5e 3e 47 e3 57 3e a3 11 3a be c4 f2 16 3e
       0.21697034 0.21082793 -0.1817079 0.14741045
0002d0 23 a4 72 bf 9d c9 83 bd 55 69 dd 3e 43 c1 ba be
       -0.947817 -0.06434939 0.43244424 -0.36475572
0002e0 72 e6 ca be ae ef 6f 3e 78 e0 86 3e 6a 98 d5 bc
       -0.3962894 0.23431274 0.2634313 -0.026073653
0002f0 3b 8a 19 3e 03 23 31 3f fe 5d d5 be fb b9 e3 3d
       0.14994137 0.6919405 -0.41673273 0.11119457
000300 1a 7a 0d 3f a2 6e eb be 31 b1 3f 3f 51 39 0a be
       0.5526444 -0.45982844 0.7487975 -0.13498427
000310 e6 63 46 bf b0 ad ad 3c d9 c7 85 3f e2 33 62 be
       -0.7749618 0.021200985 1.0451614 -0.22090104
000320 46 9d 2e 3e 9f aa 3e 3e 63 1a 61 3f d3 f5 5d bf
       0.17052183 0.18619774 0.8793089 -0.86703223
000330 69 93 0d 3d ac 6b 95 3e 83 6f 2b 3f 22 b8 7d be
       0.03456441 0.2918371 0.6696703 -0.24777272
000340 ad e3 f3 3e d0 bb 60 3d 31 fa e0 3e 61 a8 ff bd
       0.4763464 0.054866612 0.4394088 -0.124832876
000350 3e a2 fc bd 27 9d fe be b6 91 05 bf 01 80 8d be
       -0.12335633 -0.49729273 -0.5217546 -0.27636722
000360 4e 6d 2d bf 03 c6 a2 be c3 f3 69 3f d8 f8 21 bf
       -0.6774491 -0.31791696 0.91387576 -0.6327033
000370 9c 8d 6a 3e 7e 6a 31 be 6e 32 53 3f da 7d f5 3e
       0.22905582 -0.1732578 0.82498825 0.4794758
000380 5b 55 3c 3f d8 81 40 bf 72 de 8a be df 27 ba be
       0.7356774 -0.75198126 -0.27122837 -0.36358544
000390 49 c1 c9 bd 5f 0d 38 bf fd 33 1a 3c 33 22 8e 3e
       -0.09851319 -0.718954 0.009411809 0.27760467
0003a0 b3 3c 0a bf 58 80 b1 3d 8d d7 d6 3d 00 16 21 3e
       -0.5399887 0.08667058 0.10490332 0.15731049
0003b0 66 dc 46 bf 55 c1 b2 3c 96 8a de 3e ed 9c 5d 3c
       -0.7768005 0.021820704 0.43465108 0.013526184
0003c0 15 9f 61 3e 93 d6 58 3e 68 2c 08 be a5 e9 1e bf
       0.22033341 0.21175604 -0.1329819 -0.62075263
0003d0 57 07 c1 3f 3a 6d 65 bf 41 0a ca 3e a2 b9 49 bf
       1.5080365 -0.8961979 0.39460948 -0.7879888
0003e0 26 28 27 be 2f e5 ef 3e 0d cf 66 3e 0a 6d 04 3f
       -0.16323909 0.4685454 0.22539921 0.5172888
0003f0 6c 70 36 be 1e 98 86 3e 94 49 2d 3e a4 d0 cb 3d
       -0.17816323 0.2628793 0.16922599 0.099519044

items_id f4 [1154, 63]
000000 93 98 10 3f 13 23 0c 3f 9a ce 33 3e ae ba e8 bd
       0.5648281 0.5474102 0.17559281 -0.11363731
000010 bf 15 fb 3d c6 3a db 3e 4c fa ff 3e 84 1a 09 3f
       0.12260007 0.42818278 0.4999565 0.53556085
000020 df 57 0d 3f 51 b9 c6 be ed e4 19 3f c2 2e e2 bd
       0.55212206 -0.3881326 0.6011494 -0.110440746
000030 a2 92 b5 be e1 69 f8 3e b8 72 de 3e 6a e5 ca be
       -0.35463434 0.4851828 0.43446898 -0.39628154
000040 dc 7c f7 bd 61 37 8c be 13 75 9e 3e dd 54 27 3f
       -0.12084362 -0.27386 0.30948696 0.65363866
000050 4e ec 19 3f ee bb cb 3e 88 ea a2 be bb 06 86 3e
       0.601262 0.39791816 -0.31819558 0.2617701
000060 ce cc 7d be 8b ad f9 3c ac 27 9e 3e a7 dd 6a 3e
       -0.24785158 0.03047826 0.30889642 0.22936116
000070 39 bc 64 be 0b aa a7 be 15 fa ce 3e 73 bc 08 3e
       -0.22337426 -0.3274692 0.40425172 0.13353138
000080 4c 5a 18 be f9 da de be 6c 1b 77 3e 09 1c 71 3e
       -0.14878196 -0.43526438 0.24131554 0.23545851
000090 f6 1b 39 3f d5 22 a0 3e 41 d1 97 be 47 11 55 be
       0.7230829 0.31276575 -0.29651836 -0.20807372
0000a0 1f e3 84 be 39 3d 83 3e 22 b0 8f 3e 94 d5 0b bf
       -0.2595453 0.25632647 0.28064066 -0.5462277
0000b0 be c4 10 bf a4 70 6c be 59 da e3 3e a1 90 56 3d
       -0.56550205 -0.23089844 0.44502524 0.052384023
0000c0 7d 51 c6 3d 89 d9 a0 be 27 d1 92 be 64 d4 3c 3d
       0.096835114 -0.31415966 -0.28675196 0.04610099
0000d0 9c 87 51 3e e7 56 d4 bc a6 7e 24 bf 83 16 58 3e
       0.20461887 -0.025920345 -0.6425575 0.21102338
0000e0 b0 2f 0f bf 84 ef 5d 3c 4e dd 9e be 10 1e 07 be
       -0.5593214 0.0135458745 -0.31028217 -0.13195062
0000f0 0a 9a 96 3e f9 9e 20 be e6 ed d9 3e 9f cb 2d 3e
       0.29414397 -0.15685643 0.42564315 0.16972207
000100 8f cd 8c 3e 79 af 0e 3e 47 b1 91 bc bc 08 fe 3e
       0.2750058 0.13934125 -0.017784728 0.4961604
000110 91 1b 9c 3d e4 1c 0f 3f fa d3 a3 3d 83 18 2c 3d
       0.076224454 0.5590346 0.07999416 0.042015564
000120 81 c1 60 bd c5 0e 98 bb c2 55 eb bc 64 b2 6c be
       -0.05487204 -0.0046404325 -0.028727416 -0.23114926
000130 16 41 36 3d 13 a3 03 3c 4a 76 58 be 59 0d 8f be
       0.044495665 0.008034485 -0.21138874 -0.2793987
000140 fc b3 fd bd 43 ab 6e 3e 55 0f 47 3c 30 d8 85 3e
       -0.12387845 0.23307519 0.012149652 0.261415
000150 aa a1 8c 3e 65 aa a2 bd 23 72 a5 3e 39 aa 45 be
       0.2746709 -0.079426564 0.32313642 -0.19303216
000160 7f 93 48 be b7 9c 74 3d 58 af 05 3d 57 ff 6a 3c
       -0.19587515 0.059719767 0.032637924 0.014343104
000170 f9 44 55 3c 1e 50 dc bc 15 a5 c0 3d 22 af 39 be
       0.013016933 -0.026893672 0.09406487 -0.18133214
000180 10 0e 85 be c0 43 57 3e b4 67 e3 3d c3 46 9e 3e
       -0.2598729 0.21021938 0.11103764 0.30913362
000190 33 0e 0c 3e f3 00 ab bd 03 24 ab bd 0e ed 08 be
       0.13677292 -0.083497904 -0.08356478 -0.13371679
0001a0 7a 68 6a 3e 7b 39 d1 bc fb 9a 92 bd 8a 7a 5e be
       0.22891417 -0.025540104 -0.071584664 -0.21726432
0001b0 ee e8 8e bd 2b 41 54 3c 87 d7 f4 bd 39 fe b6 3d
       -0.069780216 0.01295499 -0.11955171 0.08935208
0001c0 5e 05 6c bb 27 4a 0c bd 0b 88 19 3d f0 43 49 3e
       -0.0036013941 -0.034250405 0.037483256 0.19654822
0001d0 3c 57 65 3e 2c 67 9d 3d 8e 23 4f 3e f7 6d b1 be
       0.22396559 0.07685694 0.20228407 -0.3465421
0001e0 7e e6 f5 bd a1 d1 5e 3c 62 21 03 be 05 c0 11 bc
       -0.120068535 0.013599784 -0.12805703 -0.008895879
0001f0 b5 e5 87 be 86 37 84 3d 17 39 a1 3e 14 e2 b3 3e
       -0.2654244 0.06455903 0.3148887 0.3513342
000200 9d ba 14 3e f8 f3 f3 bd 33 45 a3 3e 56 ca 80 3e
       0.14524312 -0.11911768 0.31888732 0.2515437
000210 eb 71 0f 3e e0 62 0a 3e f9 5b ba 3e 6c d3 8d be
       0.140083 0.1351428 0.36398295 -0.27700365
000220 0a fd bf 3e d9 3e 83 be 69 bb 88 be f6 4c 05 3e
       0.3749774 -0.25633886 -0.26705483 0.1301764
000230 58 d3 1f 3e e3 57 02 be 72 c1 56 be 2b 1d b8 b9
       0.15607965 -0.12728839 -0.20972231 -0.00035116947
000240 1b 97 8b 3d 3e 8a 56 3e 83 07 a0 3e 1e 07 85 3e
       0.068159305 0.20951173 0.3125573 0.25981992
000250 b9 c3 3f be 7f 7a 5d 3e ad 69 b6 bd 70 ed 57 bd
       -0.18727006 0.2162876 -0.08906875 -0.052716672
000260 cc 71 60 3d 78 0c 6b 3e 97 ff b7 bd 4c 47 e0 bc
       0.054796025 0.22953975 -0.08984297 -0.027377747
000270 06 dc 76 3e a9 14 07 3d 4b fb 85 be 49 90 ad be
       0.2410737 0.032978687 -0.26168284 -0.33899143
000280 ee 0e 01 3e b6 d7 91 3d b4 b9 c0 3e 34 b5 b3 3d
       0.12603351 0.07121222 0.3764168 0.08774796
000290 12 a0 c3 bd 3c 61 78 be 3e 47 18 be c0 bc ac 3d
       -0.09552015 -0.24255842 -0.14870927 0.08434439
0002a0 2f c7 77 3e ec 34 a1 be f1 f4 75 be 35 34 56 be
       0.24197076 -0.3148569 -0.24019219 -0.20918353
0002b0 73 33 13 3e 10 c4 05 be a2 22 a5 3d 7c 3d 43 be
       0.14375095 -0.13063073 0.08063246 -0.19066423
0002c0 f2 b6 81 be c2 51 9b 3d 56 34 4c 3e fc 9e 31 3e
       -0.2533489 0.075839534 0.1994184 0.17345804
0002d0 42 c6 bf be 57 b3 df b7 3b 58 7c be 4a ff 3b bd
       -0.37455946 -2.6667183e-05 -0.24643032 -0.04589776
0002e0 e0 87 d3 bd c0 fa 1c be 17 35 5c 3d f5 76 14 be
       -0.103286505 -0.15330029 0.053761568 -0.14498504
0002f0 bc 0a 8e 3e 1e 9b c6 3e 42 13 08 3e 0a 9e 22 3e
       0.27742565 0.3879022 0.13288596 0.158806
000300 2b 77 7f be 65 89 57 3e b6 53 ab 3d 6e 0f a7 3e
       -0.24947803 0.21048506 0.08365576 0.3262896
000310 21 2a 9c 3e 63 7a b8 3e d4 cd 81 be e9 4f 0f 3e
       0.30500892 0.36030874 -0.25352347 0.13995327
000320 31 1b 6d be ed 42 0c be 7e a0 80 3e 0a 47 27 3e
       -0.23154904 -0.13697405 0.25122446 0.16335693
000330 16 eb ab be 97 2a 55 be 83 36 24 be eb 37 aa 3d
       -0.33577794 -0.20817028 -0.1603642 0.08311447
000340 81 d9 1f 3e d6 a9 b5 3e 9a 52 e5 3d f7 fc 9f bd
       0.15610315 0.35481137 0.111973956 -0.07811921
000350 0f c8 86 3d 6e 7a a8 bd 8d 90 1e be 0a 19 4a 3e
       0.06581127 -0.082264766 -0.15484829 0.19736114
000360 8c bb 27 3e b1 38 5a be f1 43 05 be 06 fd 9a 3e
       0.16380137 -0.21310689 -0.13014199 0.30271167
000370 27 9a 02 3e 03 0b 62 bd d3 c4 7f be cc a1 8f 3e
       0.12754117 -0.055186283 -0.24977426 0.2805313
000380 7b 43 b7 3d 13 48 76 3e d7 84 5a 3d bd a7 67 be
       0.08948418 0.24050932 0.053349342 -0.22622581
000390 45 67 46 be fa 36 22 be a7 9e 95 3d ac 11 bc 3d
       -0.19375332 -0.15841284 0.07305651 0.09183058
0003a0 ca 9c b4 be 7c 58 2a be 07 6a 1f bd 7e a7 a0 3d
       -0.3527587 -0.16635317 -0.038919475 0.078444466
0003b0 10 8f 7e bc 67 46 76 bd 44 9e 60 be 60 e5 0b be
       -0.015537038 -0.060125735 -0.21935374 -0.13661718
0003c0 2a 5e 9d 3d 7b d2 b7 3d 2b de 31 3e aa 90 c3 be
       0.07683976 0.08975693 0.17369907 -0.38196307
0003d0 1f 85 58 3e 74 a2 41 be 73 92 a0 bd 47 af 34 bd
       0.21144532 -0.18909627 -0.07840433 -0.04411247
0003e0 4e b1 b5 bd 6d 33 18 3e 05 5e 85 be ba ab 23 3e
       -0.08871709 0.14863367 -0.26048294 0.15983477
0003f0 04 a9 ab 3e 6c 9e 66 3e 0e 5d 79 3e 1a 50 83 3c
       0.33527386 0.2252137 0.24351904 0.016029406

item_pop f4 [1154, 1]
000000 00 00 80 3f 1b e4 50 3f aa 91 59 3f c3 49 5d 3f
       1.0 0.8159806 0.8498789 0.86440676
000010 60 69 4e 3f 60 69 4e 3f 54 8d 4c 3f ac 27 40 3f
       0.8062954 0.8062954 0.7990315 0.75060534
000020 29 56 39 3f 1d 7a 37 3f 30 8f 2d 3f bf 3c 36 3f
       0.72397095 0.71670705 0.6779661 0.7118644
000030 f2 42 24 3f d9 8a 20 3f b9 99 28 3f ad bd 26 3f
       0.6416465 0.62711865 0.6585956 0.6513317
000040 e5 66 22 3f 6f 71 1d 3f e5 66 22 3f c7 0b 11 3f
       0.63438255 0.6150121 0.63438255 0.56658596
000050 31 25 14 3f e0 c3 14 3f 38 5e 08 3f 0c 91 0e 3f
       0.5786925 0.5811138 0.53268766 0.55690074
000060 5d f2 0d 3f c1 68 03 3f da 20 07 3f c1 68 03 3f
       0.5544794 0.51331717 0.527845 0.51331717
000070 06 ee 00 3f 64 76 f5 3e 7d e3 05 3f 13 ca 02 3f
       0.50363195 0.47941887 0.52300245 0.5108959
000080 06 ee 00 3f 57 4f 00 3f bc 10 e9 3e 4c be f1 3e
       0.50363195 0.50121063 0.4552058 0.47215497
000090 13 ca 02 3f 7d 2e f9 3e 13 ca 02 3f 8b a0 e1 3e
       0.5108959 0.4866828 0.5108959 0.44067797
0000a0 e8 dd e2 3e 38 a9 fb 3e 7d 2e f9 3e da 20 07 3f
       0.44309926 0.4915254 0.4866828 0.527845
0000b0 bc 10 e9 3e bc 10 e9 3e 14 ab dc 3e 46 1b e4 3e
       0.4552058 0.4552058 0.43099272 0.44552058
0000c0 2d 63 e0 3e a4 58 e5 3e 1a 4e ea 3e 78 8b eb 3e
       0.43825665 0.4479419 0.45762712 0.46004844
0000d0 40 78 d6 3e 46 1b e4 3e e8 dd e2 3e e8 dd e2 3e
       0.41888618 0.44552058 0.44309926 0.44309926
0000e0 d5 c8 ec 3e a4 58 e5 3e 40 78 d6 3e 59 30 da 3e
       0.46246973 0.4479419 0.41888618 0.4261501
0000f0 3b d5 c8 3e 72 e8 dd 3e 9e b5 d7 3e 14 ab dc 3e
       0.39225182 0.43341404 0.4213075 0.43099272
000100 98 12 ca 3e 54 8d cc 3e 59 30 da 3e e3 3a d5 3e
       0.3946731 0.39951575 0.4261501 0.4164649
000110 98 12 ca 3e dd 97 c7 3e ca 82 d1 3e 54 8d cc 3e
       0.3946731 0.3898305 0.40920097 0.39951575
000120 4e ea be 3e d0 25 df 3e 98 12 ca 3e 85 fd d3 3e
       0.37288135 0.43583536 0.3946731 0.41404358
000130 ac 27 c0 3e ca 82 d1 3e f6 4f cb 3e 0f 08 cf 3e
       0.37530267 0.40920097 0.39709443 0.40435836
000140 dd 97 c7 3e bf 3c b6 3e 7a b7 b8 3e dd 97 c7 3e
       0.3898305 0.3559322 0.36077482 0.3898305
000150 49 47 b1 3e 7a b7 b8 3e c4 df c3 3e 22 1d c5 3e
       0.346247 0.36077482 0.38256657 0.3849879
000160 d8 f4 b9 3e bf 3c b6 3e 93 6f bc 3e 4e ea be 3e
       0.36319613 0.3559322 0.36803874 0.37288135
000170 d2 51 ac 3e 04 c2 b3 3e d2 51 ac 3e eb 09 b0 3e
       0.33656174 0.3510896 0.33656174 0.34382567
000180 61 ff b4 3e 7a b7 b8 3e 17 d7 a9 3e 35 32 bb 3e
       0.3535109 0.36077482 0.33171913 0.36561742
000190 30 8f ad 3e 8d cc ae 3e bf 3c b6 3e eb 09 b0 3e
       0.33898306 0.34140435 0.3559322 0.34382567
0001a0 a6 84 b2 3e fe 1e a6 3e a1 e1 a4 3e eb 09 b0 3e
       0.34866828 0.3244552 0.3220339 0.34382567
0001b0 8d cc ae 3e a1 e1 a4 3e 75 14 ab 3e fe 1e a6 3e
       0.34140435 0.3220339 0.33414045 0.3244552
0001c0 1d 7a b7 3e 9b 3e 97 3e a1 e1 a4 3e 43 a4 a3 3e
       0.35835353 0.29539952 0.3220339 0.3196126
0001d0 a1 e1 a4 3e 5c 5c a7 3e fe 1e a6 3e 6f 71 9d 3e
       0.3220339 0.32687652 0.3244552 0.30750605
0001e0 e5 66 a2 3e a1 e1 a4 3e a1 e1 a4 3e d2 51 ac 3e
       0.31719127 0.3220339 0.3220339 0.33656174
0001f0 cd ae 9e 3e 9b 3e 97 3e e0 c3 94 3e 11 34 9c 3e
       0.30992737 0.29539952 0.2905569 0.30508474
000200 b4 f6 9a 3e 88 29 a1 3e e5 66 a2 3e 3d 01 96 3e
       0.30266345 0.31476998 0.31719127 0.2929782
000210 e5 66 a2 3e c7 0b 91 3e f3 d8 8a 3e 25 49 92 3e
       0.31719127 0.28329298 0.27118644 0.2857143
000220 c7 0b 91 3e 56 b9 99 3e e0 c3 94 3e 9b 3e 97 3e
       0.28329298 0.30024213 0.2905569 0.29539952
000230 ae 53 8d 3e c7 0b 91 3e 9b 3e 97 3e 7d e3 85 3e
       0.27602905 0.28329298 0.29539952 0.26150122
000240 95 9b 89 3e c7 0b 91 3e f3 d8 8a 3e 25 49 92 3e
       0.26876512 0.28329298 0.27118644 0.2857143
000250 51 16 8c 3e 38 5e 88 3e 51 61 7f 3e 0c 91 8e 3e
       0.27360776 0.26634383 0.24939467 0.27845037
000260 c7 0b 91 3e 88 29 a1 3e c7 0b 91 3e c7 0b 91 3e
       0.28329298 0.31476998 0.28329298 0.28329298
000270 ae 53 8d 3e c1 68 83 3e f3 d8 8a 3e f3 d8 8a 3e
       0.27602905 0.25665858 0.27118644 0.27118644
000280 9b 3e 97 3e e0 c3 94 3e 0c 91 8e 3e 38 5e 88 3e
       0.29539952 0.2905569 0.27845037 0.26634383
000290 25 49 92 3e f3 d8 8a 3e 64 2b 82 3e ae 53 8d 3e
       0.2857143 0.27118644 0.2542373 0.27602905
0002a0 51 61 7f 3e e0 c3 94 3e 69 ce 8f 3e 56 b9 99 3e
       0.24939467 0.2905569 0.28087166 0.30024213
0002b0 64 2b 82 3e 95 9b 89 3e c1 68 83 3e 9b 3e 97 3e
       0.2542373 0.26876512 0.25665858 0.29539952
0002c0 51 16 8c 3e 1f a6 84 3e 1f a6 84 3e 0c 91 8e 3e
       0.27360776 0.2590799 0.2590799 0.27845037
0002d0 96 e6 7c 3e 33 06 6e 3e 51 61 7f 3e db 6b 7a 3e
       0.24697337 0.23244552 0.24939467 0.24455206
0002e0 96 e6 7c 3e ae 53 8d 3e 38 5e 88 3e 78 8b 6b 3e
       0.24697337 0.27602905 0.26634383 0.23002422
0002f0 db 6b 7a 3e 96 e6 7c 3e 1f a6 84 3e f3 d8 8a 3e
       0.24455206 0.24697337 0.2590799 0.27118644
000300 95 9b 89 3e da 20 87 3e b1 ca 4d 3e 20 f1 77 3e
       0.26876512 0.2639225 0.20096852 0.24213076
000310 14 ab 5c 3e 64 2b 82 3e c1 68 83 3e f3 d8 8a 3e
       0.21549636 0.2542373 0.25665858 0.27118644
000320 db 6b 7a 3e d0 25 5f 3e 7d e3 85 3e 51 61 7f 3e
       0.24455206 0.21791768 0.26150122 0.24939467
000330 bc 10 69 3e bc 10 69 3e d0 25 5f 3e 9e b5 57 3e
       0.2276029 0.2276029 0.21791768 0.21065375
000340 59 30 5a 3e 01 96 66 3e 33 06 6e 3e d0 25 5f 3e
       0.21307506 0.2251816 0.23244552 0.21791768
000350 8b a0 61 3e bc 10 69 3e db 6b 7a 3e 01 96 66 3e
       0.22033899 0.2276029 0.24455206 0.2251816
000360 46 1b 64 3e 6c 45 50 3e 14 ab 5c 3e 6c 45 50 3e
       0.22276029 0.20338982 0.21549636 0.20338982
000370 01 96 66 3e 59 30 5a 3e 59 30 5a 3e 46 1b 64 3e
       0.2251816 0.21307506 0.21307506 0.22276029
000380 bc 10 69 3e bc 10 69 3e 3b d5 48 3e e3 3a 55 3e
       0.2276029 0.2276029 0.19612591 0.20823245
000390 3b d5 48 3e e3 3a 55 3e 8b a0 61 3e 09 65 41 3e
       0.19612591 0.20823245 0.22033899 0.18886198
0003a0 28 c0 52 3e 59 30 5a 3e 6c 45 50 3e 3b d5 48 3e
       0.20581114 0.21307506 0.20338982 0.19612591
0003b0 59 30 5a 3e 01 96 66 3e 6c 45 50 3e 14 ab 5c 3e
       0.21307506 0.2251816 0.20338982 0.21549636
0003c0 8b a0 61 3e 28 c0 52 3e 80 5a 46 3e e3 3a 55 3e
       0.22033899 0.20581114 0.1937046 0.20823245
0003d0 d8 f4 39 3e 46 1b 64 3e 09 65 41 3e c4 df 43 3e
       0.18159807 0.22276029 0.18886198 0.19128329
0003e0 14 ab 5c 3e 9e b5 57 3e 3b d5 48 3e 6c 45 50 3e
       0.21549636 0.21065375 0.19612591 0.20338982
0003f0 28 c0 52 3e 6c 45 50 3e 61 ff 34 3e 3b d5 48 3e
       0.20581114 0.20338982 0.17675544 0.19612591

item_pop_true f4 [1154, 1]
000000 00 00 80 3f 1b e4 50 3f aa 91 59 3f c3 49 5d 3f
       1.0 0.8159806 0.8498789 0.86440676
000010 60 69 4e 3f 60 69 4e 3f 54 8d 4c 3f ac 27 40 3f
       0.8062954 0.8062954 0.7990315 0.75060534
000020 29 56 39 3f 1d 7a 37 3f 30 8f 2d 3f bf 3c 36 3f
       0.72397095 0.71670705 0.6779661 0.7118644
000030 f2 42 24 3f d9 8a 20 3f b9 99 28 3f ad bd 26 3f
       0.6416465 0.62711865 0.6585956 0.6513317
000040 e5 66 22 3f 6f 71 1d 3f e5 66 22 3f c7 0b 11 3f
       0.63438255 0.6150121 0.63438255 0.56658596
000050 31 25 14 3f e0 c3 14 3f 38 5e 08 3f 0c 91 0e 3f
       0.5786925 0.5811138 0.53268766 0.55690074
000060 5d f2 0d 3f c1 68 03 3f da 20 07 3f c1 68 03 3f
       0.5544794 0.51331717 0.527845 0.51331717
000070 06 ee 00 3f 64 76 f5 3e 7d e3 05 3f 13 ca 02 3f
       0.50363195 0.47941887 0.52300245 0.5108959
000080 06 ee 00 3f 57 4f 00 3f bc 10 e9 3e 4c be f1 3e
       0.50363195 0.50121063 0.4552058 0.47215497
000090 13 ca 02 3f 7d 2e f9 3e 13 ca 02 3f 8b a0 e1 3e
       0.5108959 0.4866828 0.5108959 0.44067797
0000a0 e8 dd e2 3e 38 a9 fb 3e 7d 2e f9 3e da 20 07 3f
       0.44309926 0.4915254 0.4866828 0.527845
0000b0 bc 10 e9 3e bc 10 e9 3e 14 ab dc 3e 46 1b e4 3e
       0.4552058 0.4552058 0.43099272 0.44552058
0000c0 2d 63 e0 3e a4 58 e5 3e 1a 4e ea 3e 78 8b eb 3e
       0.43825665 0.4479419 0.45762712 0.46004844
0000d0 40 78 d6 3e 46 1b e4 3e e8 dd e2 3e e8 dd e2 3e
       0.41888618 0.44552058 0.44309926 0.44309926
0000e0 d5 c8 ec 3e a4 58 e5 3e 40 78 d6 3e 59 30 da 3e
       0.46246973 0.4479419 0.41888618 0.4261501
0000f0 3b d5 c8 3e 72 e8 dd 3e 9e b5 d7 3e 14 ab dc 3e
       0.39225182 0.43341404 0.4213075 0.43099272
000100 98 12 ca 3e 54 8d cc 3e 59 30 da 3e e3 3a d5 3e
       0.3946731 0.39951575 0.4261501 0.4164649
000110 98 12 ca 3e dd 97 c7 3e ca 82 d1 3e 54 8d cc 3e
       0.3946731 0.3898305 0.40920097 0.39951575
000120 4e ea be 3e d0 25 df 3e 98 12 ca 3e 85 fd d3 3e
       0.37288135 0.43583536 0.3946731 0.41404358
000130 ac 27 c0 3e ca 82 d1 3e f6 4f cb 3e 0f 08 cf 3e
       0.37530267 0.40920097 0.39709443 0.40435836
000140 dd 97 c7 3e bf 3c b6 3e 7a b7 b8 3e dd 97 c7 3e
       0.3898305 0.3559322 0.36077482 0.3898305
000150 49 47 b1 3e 7a b7 b8 3e c4 df c3 3e 22 1d c5 3e
       0.346247 0.36077482 0.38256657 0.3849879
000160 d8 f4 b9 3e bf 3c b6 3e 93 6f bc 3e 4e ea be 3e
       0.36319613 0.3559322 0.36803874 0.37288135
000170 d2 51 ac 3e 04 c2 b3 3e d2 51 ac 3e eb 09 b0 3e
       0.33656174 0.3510896 0.33656174 0.34382567
000180 61 ff b4 3e 7a b7 b8 3e 17 d7 a9 3e 35 32 bb 3e
       0.3535109 0.36077482 0.33171913 0.36561742
000190 30 8f ad 3e 8d cc ae 3e bf 3c b6 3e eb 09 b0 3e
       0.33898306 0.34140435 0.3559322 0.34382567
0001a0 a6 84 b2 3e fe 1e a6 3e a1 e1 a4 3e eb 09 b0 3e
       0.34866828 0.3244552 0.3220339 0.34382567
0001b0 8d cc ae 3e a1 e1 a4 3e 75 14 ab 3e fe 1e a6 3e
       0.34140435 0.3220339 0.33414045 0.3244552
0001c0 1d 7a b7 3e 9b 3e 97 3e a1 e1 a4 3e 43 a4 a3 3e
       0.35835353 0.29539952 0.3220339 0.3196126
0001d0 a1 e1 a4 3e 5c 5c a7 3e fe 1e a6 3e 6f 71 9d 3e
       0.3220339 0.32687652 0.3244552 0.30750605
0001e0 e5 66 a2 3e a1 e1 a4 3e a1 e1 a4 3e d2 51 ac 3e
       0.31719127 0.3220339 0.3220339 0.33656174
0001f0 cd ae 9e 3e 9b 3e 97 3e e0 c3 94 3e 11 34 9c 3e
       0.30992737 0.29539952 0.2905569 0.30508474
000200 b4 f6 9a 3e 88 29 a1 3e e5 66 a2 3e 3d 01 96 3e
       0.30266345 0.31476998 0.31719127 0.2929782
000210 e5 66 a2 3e c7 0b 91 3e f3 d8 8a 3e 25 49 92 3e
       0.31719127 0.28329298 0.27118644 0.2857143
000220 c7 0b 91 3e 56 b9 99 3e e0 c3 94 3e 9b 3e 97 3e
       0.28329298 0.30024213 0.2905569 0.29539952
000230 ae 53 8d 3e c7 0b 91 3e 9b 3e 97 3e 7d e3 85 3e
       0.27602905 0.28329298 0.29539952 0.26150122
000240 95 9b 89 3e c7 0b 91 3e f3 d8 8a 3e 25 49 92 3e
       0.26876512 0.28329298 0.27118644 0.2857143
000250 51 16 8c 3e 38 5e 88 3e 51 61 7f 3e 0c 91 8e 3e
       0.27360776 0.26634383 0.24939467 0.27845037
000260 c7 0b 91 3e 88 29 a1 3e c7 0b 91 3e c7 0b 91 3e
       0.28329298 0.31476998 0.28329298 0.28329298
000270 ae 53 8d 3e c1 68 83 3e f3 d8 8a 3e f3 d8 8a 3e
       0.27602905 0.25665858 0.27118644 0.27118644
000280 9b 3e 97 3e e0 c3 94 3e 0c 91 8e 3e 38 5e 88 3e
       0.29539952 0.2905569 0.27845037 0.26634383
000290 25 49 92 3e f3 d8 8a 3e 64 2b 82 3e ae 53 8d 3e
       0.2857143 0.27118644 0.2542373 0.27602905
0002a0 51 61 7f 3e e0 c3 94 3e 69 ce 8f 3e 56 b9 99 3e
       0.24939467 0.2905569 0.28087166 0.30024213
0002b0 64 2b 82 3e 95 9b 89 3e c1 68 83 3e 9b 3e 97 3e
       0.2542373 0.26876512 0.25665858 0.29539952
0002c0 51 16 8c 3e 1f a6 84 3e 1f a6 84 3e 0c 91 8e 3e
       0.27360776 0.2590799 0.2590799 0.27845037
0002d0 96 e6 7c 3e 33 06 6e 3e 51 61 7f 3e db 6b 7a 3e
       0.24697337 0.23244552 0.24939467 0.24455206
0002e0 96 e6 7c 3e ae 53 8d 3e 38 5e 88 3e 78 8b 6b 3e
       0.24697337 0.27602905 0.26634383 0.23002422
0002f0 db 6b 7a 3e 96 e6 7c 3e 1f a6 84 3e f3 d8 8a 3e
       0.24455206 0.24697337 0.2590799 0.27118644
000300 95 9b 89 3e da 20 87 3e b1 ca 4d 3e 20 f1 77 3e
       0.26876512 0.2639225 0.20096852 0.24213076
000310 14 ab 5c 3e 64 2b 82 3e c1 68 83 3e f3 d8 8a 3e
       0.21549636 0.2542373 0.25665858 0.27118644
000320 db 6b 7a 3e d0 25 5f 3e 7d e3 85 3e 51 61 7f 3e
       0.24455206 0.21791768 0.26150122 0.24939467
000330 bc 10 69 3e bc 10 69 3e d0 25 5f 3e 9e b5 57 3e
       0.2276029 0.2276029 0.21791768 0.21065375
000340 59 30 5a 3e 01 96 66 3e 33 06 6e 3e d0 25 5f 3e
       0.21307506 0.2251816 0.23244552 0.21791768
000350 8b a0 61 3e bc 10 69 3e db 6b 7a 3e 01 96 66 3e
       0.22033899 0.2276029 0.24455206 0.2251816
000360 46 1b 64 3e 6c 45 50 3e 14 ab 5c 3e 6c 45 50 3e
       0.22276029 0.20338982 0.21549636 0.20338982
000370 01 96 66 3e 59 30 5a 3e 59 30 5a 3e 46 1b 64 3e
       0.2251816 0.21307506 0.21307506 0.22276029
000380 bc 10 69 3e bc 10 69 3e 3b d5 48 3e e3 3a 55 3e
       0.2276029 0.2276029 0.19612591 0.20823245
000390 3b d5 48 3e e3 3a 55 3e 8b a0 61 3e 09 65 41 3e
       0.19612591 0.20823245 0.22033899 0.18886198
0003a0 28 c0 52 3e 59 30 5a 3e 6c 45 50 3e 3b d5 48 3e
       0.20581114 0.21307506 0.20338982 0.19612591
0003b0 59 30 5a 3e 01 96 66 3e 6c 45 50 3e 14 ab 5c 3e
       0.21307506 0.2251816 0.20338982 0.21549636
0003c0 8b a0 61 3e 28 c0 52 3e 80 5a 46 3e e3 3a 55 3e
       0.22033899 0.20581114 0.1937046 0.20823245
0003d0 d8 f4 39 3e 46 1b 64 3e 09 65 41 3e c4 df 43 3e
       0.18159807 0.22276029 0.18886198 0.19128329
0003e0 14 ab 5c 3e 9e b5 57 3e 3b d5 48 3e 6c 45 50 3e
       0.21549636 0.21065375 0.19612591 0.20338982
0003f0 28 c0 52 3e 6c 45 50 3e 61 ff 34 3e 3b d5 48 3e
       0.20581114 0.20338982 0.17675544 0.19612591

lr1.weight f4 [1, 63]
000000 c1 c5 70 3d 6a aa a2 3c 47 82 dd 3d cc 6a 44 be
       0.058782343 0.01985665 0.10815864 -0.19181365
000010 b3 b5 19 3e 2a 67 05 3d a3 ff 10 3e cd e5 12 bc
       0.15010719 0.032569088 0.14160018 -0.008965922
000020 f5 ae 1d 3a f0 5b f5 bd 44 c2 6d bc bd 93 2f be
       0.00060151453 -0.11980426 -0.014511649 -0.17146201
000030 dc b3 4f bd ea 53 06 bd c3 e3 ef 39 72 16 c6 bb
       -0.050708637 -0.03279487 0.00045755328 -0.006045156
000040 a2 19 be bd 01 13 f3 bd 0f 1b 02 3d 5c 1c e0 bc
       -0.09282233 -0.11868859 0.031764086 -0.027357273
000050 e5 f6 9e 3c 3d 68 3f bd f7 01 79 bd ec 57 10 3d
       0.019404838 -0.04673027 -0.06079289 0.0352401
000060 9c 55 57 3c 78 c1 46 be b2 76 5b 3d fe 7e 6b 3e
       0.013142969 -0.1940974 0.053579994 0.22997662
000070 85 9d ae bd 7a 69 c6 bd 35 fe 9e 3d 00 65 41 3e
       -0.08526138 -0.09688087 0.0776333 0.18886185
000080 5f d7 51 bd 02 dc 3c bd 2f db 90 3d 3b f5 08 3d
       -0.051230785 -0.046108253 0.07073056 0.033436995
000090 ee 3d 94 3b 97 e8 17 3e 49 18 9c bd 94 5d 95 bd
       0.004523984 0.1483482 -0.076218195 -0.07293239
0000a0 51 29 85 3d 15 cb 80 3d da a6 92 3d ff 4a 8f bc
       0.06502021 0.06288735 0.07160731 -0.017491816
0000b0 0b 51 89 bc e3 b4 f0 bd 53 41 60 bd 70 45 a5 be
       -0.016762277 -0.117532514 -0.054749798 -0.3227954
0000c0 38 e1 82 3e fd 34 d0 bd 7b 9a 03 be e4 b9 bf 3d
       0.25562453 -0.10166357 -0.12851898 0.09361628
0000d0 ca 94 2a 3e 4c e7 2f 3e 44 dd a5 bc ac ef 57 3e
       0.16658321 0.17178077 -0.02024711 0.21087521
0000e0 d5 6d 86 3a d2 06 83 be 9d 65 0e bc c5 10 21 be
       0.0010256121 -0.2559114 -0.008691219 -0.15729053
0000f0 fe 1b 04 3d bd 0c 17 be 0a d9 ec 3b
       0.032253258 -0.14750953 0.0072280215
