pid/result/ml100k-PIDMF-debug2023-03-14-10-32-30/ckpt/epoch_7.pth (torch_old, 543278 bytes, 5 tensors)

users f4 [945, 64]
0.4963714 0.0027761373 -0.014991221 0.18930577 -0.054029405 0.05892598 0.10851991 -0.012021856
-0.18202789 -0.13564208 0.32454804 -0.23215458 -0.25778937 0.21293171 0.3889115 -0.14041597
0.36919716 0.16993874 0.39924508 0.3107557 0.31460014 0.02486662 -0.23353246 -0.111649625
0.13021275 0.24671793 0.094060846 -0.0720095 -0.38436788 -0.28112826 -0.12558307 0.01194339
-0.24509478 -0.37525785 -0.15376593 -0.054412637 -0.046679076 -0.00081228005 -0.2638219 -0.3002548
-0.33598796 0.1986542 -0.007379326 -0.06583575 -0.3074456 -0.26710936 0.38033798 0.15169801
-0.18748043 0.06478594 -0.2845417 -0.26233694 0.31072834 -0.33419988 -0.14937688 0.2547329
0.006081705 0.16075304 -0.107252926 0.24265897 0.20448917 -0.2499932 0.067106195 0.18597107
0.35965776 -0.02784195 0.14590915 -0.2262882 -0.4113954 -0.04346518 0.15583566 0.22721368
0.09095719 -0.2108908 0.04315888 -0.25144985 -0.13623717 0.07601774 0.27145752 -0.094976544
0.08303873 -0.08857474 0.2175891 0.34833473 0.17295477 0.022992251 0.26586843 -0.083899744
0.07377045 0.5525953 -0.37012514 -0.3849016 -0.44507346 -0.3702543 0.24638717 -0.3793876
0.34731823 -0.02082612 0.07856491 0.15810841 0.04295924 -0.019592771 -0.35242814 -0.484796
-0.006430231 -0.020426072 0.3868381 -0.31556305 0.19292763 -0.26911908 -0.11263356 -0.038198415
0.0010854513 -0.39772478 0.04741353 -0.18568987 -0.09945843 -0.0009089224 -0.33189392 -0.23136668
0.21577977 0.041164707 -0.13606401 0.119136915 0.16641057 0.3202456 -0.009466891 -0.041168436
-0.1292657 0.0014842701 -0.11953237 -0.17511576 -0.13587771 0.353813 0.20536107 0.059245322
0.26184785 -0.29165822 0.34215614 -0.09360597 -0.2710572 0.30889738 0.32086065 -0.13261384
-0.21995588 -0.15999556 0.26338062 0.17159842 -0.14076516 0.062363066 -0.30482608 0.2541349
-0.18398431 0.2551394 0.15058848 -0.39351812 -0.000806933 -0.10205631 -0.05189417 -0.28000626
-0.24269041 -0.015067246 -0.23277994 0.026158081 0.22779493 0.08148523 -0.11567301 -0.3769458
0.0629299 0.18095528 -0.07830818 -0.3243965 -0.36090392 0.096551545 0.29635906 -0.33351704
0.11292733 -0.07010832 -0.008581744 0.044226076 -0.2691868 -0.011353807 0.14713584 -0.18040654
-0.15149245 0.19749029 0.114103116 0.22861725 0.1584752 0.455039 -0.094719216 0.24575043
0.29426137 -0.062903464 0.33488077 -0.006791565 -0.37550294 0.19631647 0.2841064 0.06168433
0.18722768 -0.052173197 0.49913666 -0.35578492 -0.13277252 0.2653741 0.4227778 -0.06814148
0.18831342 -0.07132418 0.21490555 0.14583163 0.04997465 -0.13377497 -0.24048175 0.025746059
-0.31555045 -0.029992793 0.3811702 -0.29164723 0.02463292 -0.14792046 0.38501832 0.069582894
0.1337116 -0.35987836 -0.12148707 -0.08455952 0.038244702 -0.16859637 -0.07310592 -0.07273725
-0.33728412 0.13644047 0.13009955 -0.10898121 -0.31643736 0.018375374 0.326809 0.0660702
-0.030470949 -0.01828853 -0.101483636 -0.14987214 0.5043603 -0.33550057 0.0314758 -0.29368722
-0.16415827 0.25504518 0.031536043 0.28004488 0.034827277 0.22666408 0.041408062 0.16392113
00000000: 6424 fe3e dbef 353b bd9d 75bc 5fd9 413e
00000010: f04d 5dbd 5e5c 713d b03f de3d 52f7 44bc
00000020: 8565 3abe c2e5 0abe 292b a63e eeb9 6dbe
00000030: f8fc 83be c50a 5a3e 681f c73e 34c9 0fbe
00000040: 6907 bd3e 6c04 2e3e da69 cc3e 5f1b 9f3e
00000050: 4513 a13e 15b5 cb3c 2223 6fbe 8fa8 e4bd
00000060: 7e56 053e a0a3 7c3e f9a2 c03d b779 93bd
00000070: decb c4be 0bf0 8fbe d998 00be 35ae 433c
00000080: 20fa 7abe cc21 c0be d174 1dbe c9df 5ebd
00000090: 8f32 3fbd 31ef 54ba aa13 87be ffba 99be
000000a0: 9d06 acbe 026c 4b3e 46ce f1bb e5d4 86bd
000000b0: 8269 9dbe 8fc2 88be a9bb c23e b956 1b3e
000000c0: dffa 3fbe 7eae 843d 73af 91be 0751 86be
000000d0: c917 9f3e 3f1c abbe 41f6 18be 5a6c 823e
000000e0: 0a49 c73b 729c 243e 6ca7 dbbd 987b 783e
000000f0: 9c65 513e 38fe 7fbe f96e 893d 336f 3e3e
00000100: 1025 b83e cd14 e4bc 3569 153e 18b8 67be
00000110: 6ba2 d2be 8b08 32bd 6293 1f3e b4aa 683e
00000120: c347 ba3d c2f3 57be 5ec7 303d 09be 80be
00000130: c281 0bbe 30af 9b3d 7bfc 8a3e 1083 c2bd
00000140: 3610 aa3d ac66 b5bd adcf 5e3e ee58 b23e
00000150: 0e1b 313e 3f5a bc3c e81f 883e a1d3 abbd
00000160: f614 973d e376 0d3f 0b81 bdbe d311 c5be
00000170: abe0 e3be f991 bdbe eb4c 7c3e 173f c2be
00000180: b2d3 b13e 8a9b aabc a4e6 a03d 2ce7 213e
00000190: 07f6 2f3d 0581 a0bc 7671 b4be 2e37 f8be
000001a0: b0b4 d2bb 9454 a7bc a50f c63e 7b91 a1be
000001b0: d28e 453e fac9 89be 6dac e6bd f175 1cbd
000001c0: b445 8e3a 95a2 cbbe b134 423d 7c25 3ebe
000001d0: ddb0 cbbd c044 6eba 00ee a9be 63eb 6cbe
000001e0: 5ff5 5c3e 539c 283d 5d54 0bbe 0efe f33d
000001f0: 8867 2a3e 3bf7 a33e 051b 1bbc 3ca0 28bd
00000200: 3a5e 04be d78b c23a 63cd f4bd 8c51 33be
00000210: 8723 0bbe fa26 b53e 2c4a 523e 39ab 723d
00000220: ec10 863e 3a54 95be 172f af3e 7db4 bfbd
00000230: 02c8 8abe cc27 9e3e d947 a43e eccb 07be
00000240: 1d3c 61be e0d5 23be d3d9 863e 7fb7 2f3e
00000250: be24 10be 6a70 7f3d 2a12 9cbe f81d 823e
00000260: 6266 3cbe a2a1 823e de33 1a3e 357b c9be
00000270: 5b88 53ba e602 d1bd fb8e 54bd fb5c 8fbe
00000280: d683 78be 9cdc 76bc dd5d 6ebe 7949 d63c
00000290: 1343 693e bae1 a63d f9e5 ecbd 0aff c0be
000002a0: 64e1 803d 574c 393e 0a60 a0bd 4c17 a6be
000002b0: 66c8 b8be d1bc c53d 60bc 973e bfc2 aabe
000002c0: 7246 e73d f394 8fbd 719a 0cbc 6726 353d
000002d0: dad2 89be 5105 3abc c7aa 163e 7ebc 38be
000002e0: d620 1bbe e53a 4a3e e5ae e93d a41a 6a3e
000002f0: 5347 223e dffa e83e 26fc c1bd 00a6 7b3e
00000300: 6da9 963e 88d3 80bd 7e75 ab3e c78b debb
00000310: ec41 c0be 2f07 493e 6576 913e b5a8 7c3d
00000320: 9db8 3f3e 90b3 55bd d78e ff3e 7129 b6be
00000330: 85f5 07be 1ddf 873e 5576 d83e c38d 8bbd
00000340: 3cd5 403e 6912 92bd 3310 5c3e e354 153e
00000350: 38b2 4c3d 4efc 08be d940 76be 66e9 d23c
00000360: d48f a1be 72b3 f5bc be28 c33e c952 95be
00000370: faca c93c 7678 17be 1f21 c53e 7a81 8e3d
00000380: b2eb 083e fa41 b8be 37ce f8bd 8b2d adbd
00000390: 7aa6 1c3d 87a4 2cbe 8eb8 95bd 44f7 94bd
000003a0: 81b0 acbe 0db7 0b3e d138 053e 8a31 dfbd
000003b0: 1404 a2be f487 963c 8253 a73e d04f 873d
000003c0: 369e f9bc d4d1 95bc a7d6 cfbd 1578 19be
000003d0: c21d 013f bbc6 abbe c5ec 003d 2c5e 96be
000003e0: 1b19 28be 4895 823e f02b 013d 0b62 8f3e
000003f0: 0ca7 0e3d a11a 683e 809b 293d f1da 273e

items_id f4 [1154, 63]
0.3133429 0.38097125 0.08201502 -0.11385568 0.0988975 0.28996408 0.29609522 0.33278477
0.3331329 -0.2878683 0.36191294 -0.055869374 -0.1938834 0.28007242 0.2702452 -0.24328393
-0.022209581 -0.19565912 0.18274239 0.3996694 0.31742954 0.13165274 -0.23646389 0.121041104
-0.13492092 0.02438588 0.22377716 0.20302445 -0.14705117 -0.23900126 0.23222375 0.13113809
-0.059044905 -0.24952704 0.1505019 0.14782159 0.4600322 0.23581438 -0.19859986 -0.10126576
-0.09053762 0.1665864 0.20022717 -0.31530285 -0.3369235 -0.1824371 0.26747957 -0.015065637
0.12784924 -0.24399327 -0.21872889 0.03819021 0.15370633 -0.024154507 -0.3919427 0.1932913
-0.33767006 -0.012330837 -0.18803033 -0.10082594 0.16566642 -0.12385432 0.21495312 0.18374059
0.23497133 0.16187471 -0.09623029 0.2190174 0.10378042 0.26408693 0.045730837 0.10225298
-0.063061684 -0.0020384907 -0.026750948 -0.20450465 0.0052696373 -0.0006971146 -0.13258153 -0.10056648
-0.15744905 0.18395123 0.05592296 0.2419922 0.19274397 -0.041929014 0.24909262 -0.19250011
-0.17994738 0.053539507 0.00037209943 -0.0027795676 0.026802834 0.045401283 0.08972042 -0.1519094
-0.22036862 0.11921889 0.08718741 0.2644287 0.11608323 -0.05992938 -0.08012527 -0.07842029
0.21722852 -0.015142694 -0.13888192 -0.19735025 -0.06830945 -0.009975452 -0.11454431 0.05831007
-0.03688483 -0.039804693 0.03478575 0.1987665 0.21277785 -0.009828774 0.1761035 -0.2439666
-0.12610331 0.025759155 -0.093612336 -0.03202133 -0.15293027 0.020666583 0.22273408 0.25905544
0.10765047 -0.17336763 0.25985003 0.18499984 0.17088675 0.03365185 0.27388778 -0.23197691
0.27401933 -0.22814459 -0.19881177 0.040242426 0.09820262 -0.03513603 -0.073966645 0.005362728
0.0003371098 0.10424848 0.18922624 0.022063676 -0.14662711 0.14094241 -0.03979229 -0.03984983
0.006219857 0.21364321 -0.043843906 0.0125786485 0.18269213 0.011963933 -0.20884477 -0.246214
0.09251837 0.03691412 0.21160324 0.031667594 -0.04165503 -0.19209455 -0.04837396 0.015808132
0.20054936 -0.20333187 -0.16610572 -0.1904099 0.03602507 -0.14095199 0.09118516 -0.18140672
-0.22395743 0.035477765 0.17858247 0.17014451 -0.2690599 -0.009991548 -0.10485371 -0.027489193
-0.045313455 -0.12682763 -0.008082763 -0.10218837 0.19618595 0.28795853 0.057356488 0.1060826
-0.26449615 0.18940534 0.019164482 0.23651929 0.23178008 0.26244655 -0.21637093 0.036268868
-0.19932745 -0.085914195 0.18127154 0.089775376 -0.21853986 -0.14599016 -0.14073922 0.03244183
0.06486429 0.23898429 0.013482014 -0.037384074 0.024243046 -0.05034408 -0.14305063 0.1489005
0.15201247 -0.19021423 -0.09471443 0.23636985 0.09909004 -0.010986399 -0.17357476 0.23036054
0.044181995 0.10093662 0.012178555 -0.18076779 -0.15234944 -0.0829961 0.037412886 0.05477805
-0.27597582 -0.048884116 -0.01229465 0.013091827 -0.042608686 -0.03469395 -0.19204494 -0.10151238
0.08055512 0.060264047 0.17955786 -0.28670952 0.2009592 -0.094555445 -0.07429621 0.009380486
-0.059430167 0.094123535 -0.19544668 0.074605025 0.257555 0.13717228 0.22082442 -0.11793379
00000000: 7b6e a03e aa0e c33e 7ef7 a73d 2b2d e9bd
00000010: c68a ca3d 2c76 943e cb99 973e c462 aa3e
00000020: 6590 aa3e 7963 93be a74c b93e 49d7 64bd
00000030: 5f89 46be a765 8f3e 945d 8a3e 6c1f 79be
00000040: def0 b5bc dd5a 48be d220 3b3e 78a1 cc3e
00000050: 2086 a23e facf 063e 9723 72be 66e4 f73d
00000060: b628 0abe e6c4 c73c d725 653e a4e5 4f3e
00000070: 9594 16be bfbc 74be 10cc 6d3e 1049 063e
00000080: 12d9 71bd 0484 7fbe 2c1d 1a3e 8b5e 173e
00000090: 5789 eb3e 5379 713e c35d 4bbe 6c64 cfbd
000000a0: ca6b b9bd a095 2a3e 5a08 4d3e 606f a1be
000000b0: 3d81 acbe cbd0 3abe 15f3 883e ddd5 76bc
000000c0: e9ea 023e 5fd9 79be 77fa 5fbe 566d 1c3d
000000d0: 3165 1d3e acdf c5bc b7ac c8be 28ee 453e
000000e0: 17e3 acbe 4707 4abc 068b 40be d57d cebd
000000f0: 75a4 293e 55a7 fdbd ac1c 5c3e 7e26 3c3e
00000100: 539c 703e 7cc2 253e 6314 c5bd 1946 603e
00000110: d48a d43d 6736 873e 4250 3b3d 036a d13d
00000120: 7c26 81bd 3398 05bb ce24 dbbc ab69 51be
00000130: ecac ac3b 92be 36ba 74c3 07be ccf5 cdbd
00000140: 533a 21be b65d 3c3e 790f 653d cecc 773e
00000150: ad5e 453e c2bd 2bbd 2312 7f3e c01e 45be
00000160: 2044 38be 3e4c 5b3d 5716 c339 6829 36bb
00000170: 9e91 db3c b2f6 393d 57bf b73d 238e 1bbe
00000180: 50a8 61be 0929 f43d 508f b23d 3363 873e
00000190: 0bbd ed3d 8278 75bd b818 a4bd d19a a0bd
000001a0: 2771 5e3e 1019 78bc 1037 0ebe 2f16 4abe
000001b0: d3e5 8bbd 1470 23bc 3596 eabd 8ad6 6e3d
000001c0: 8c14 17bd 3f0a 23bd 817b 0e3d 7289 4b3e
000001d0: 70e2 593e de08 21bc 7a54 343e 61d2 79be
000001e0: 3a21 01be dd04 d33c d3b7 bfbd cc28 03bd
000001f0: c199 1cbe f74c a93c 6714 643e eaa2 843e
00000200: da77 dc3d 4987 31be 100b 853e 9970 3d3e
00000210: f0fc 2e3e 86d6 093d 053b 8c3e 5b8b 6dbe
00000220: 434c 8c3e bc9e 69be 5095 4bbe 3ed5 243d
00000230: 751e c93d ccea 0fbd d37b 97bd d3b9 af3b
00000240: 1dbe b039 3a80 d53d 86c4 413e e2be b43c
00000250: 6b25 16be 3553 103e 3efd 22bd 9339 23bd
00000260: f1cf cb3b 49c5 5a3e ab95 33bd ad16 4e3c
00000270: a513 3b3e 5f04 443c 67db 55be 861f 7cbe
00000280: 457a bd3d 4333 173d 85ae 583e e1b5 013d
00000290: 779e 2abd 6fb4 44be c623 46bd 0e80 813c
000002a0: d05c 4d3e 3b36 50be 9e17 2abe d0fa 42be
000002b0: 068f 133d b855 10be 49bf ba3d afc2 39be
000002c0: 1955 65be 2251 113d 53de 363e 5d3a 2e3e
000002d0: 38c2 89be 97b3 23bc 8bbd d6bd 0431 e1bc
000002e0: 9a9a 39bd 1adf 01be 916d 04bc 2348 d1bd
000002f0: f8e4 483e 4d6f 933e a3ee 6a3d d641 d93d
00000300: 0a6c 87be 79f3 413e d5fe 9c3c 1d32 723e
00000310: c257 6d3e 655f 863e 5790 5dbe aa8e 143d
00000320: 7f1c 4cbe c8f3 afbd 3f9f 393e 27dc b73d
00000330: eac8 5fbe 727e 15be f11d 10be b9e1 043d
00000340: 92d7 843d 4cb8 743e aae3 5c3c 0b20 19bd
00000350: 5a99 c63c 9835 4ebd dd7b 12be 5f79 183e
00000360: 28a9 1b3e 85c7 42be a4f9 c1bd f00a 723e
00000370: b8ef ca3d 4c00 34bc 95bd 31be a2e3 6b3e
00000380: 2ef8 343d dcb7 ce3d 9088 473c 311b 39be
00000390: 7e01 1cbe dcf9 a9bd 413e 193d f35e 603d
000003a0: b44c 8dbe b63a 48bd 806f 49bc 1a7f 563c
000003b0: 7286 2ebd 3e1b 0ebd 6ea7 44be b9e5 cfbd
000003c0: 15fa a43d 6fd7 763d 04de 373e 97cb 92be
000003d0: 40c8 4d3e 49a6 c1bd 9d28 98bd 9cb0 193c
000003e0: 0c6d 73bd d7c3 c03d 2d23 48be 85ca 983d
000003f0: 40de 833e e476 0c3e cc1f 623e 4587 f1bd

item_pop f4 [1154, 1]
1.0 0.8159806 0.8498789 0.86440676 0.8062954 0.8062954 0.7990315 0.75060534
0.72397095 0.71670705 0.6779661 0.7118644 0.6416465 0.62711865 0.6585956 0.6513317
0.63438255 0.6150121 0.63438255 0.56658596 0.5786925 0.5811138 0.53268766 0.55690074
0.5544794 0.51331717 0.527845 0.51331717 0.50363195 0.47941887 0.52300245 0.5108959
0.50363195 0.50121063 0.4552058 0.47215497 0.5108959 0.4866828 0.5108959 0.44067797
0.44309926 0.4915254 0.4866828 0.527845 0.4552058 0.4552058 0.43099272 0.44552058
0.43825665 0.4479419 0.45762712 0.46004844 0.41888618 0.44552058 0.44309926 0.44309926
0.46246973 0.4479419 0.41888618 0.4261501 0.39225182 0.43341404 0.4213075 0.43099272
0.3946731 0.39951575 0.4261501 0.4164649 0.3946731 0.3898305 0.40920097 0.39951575
0.37288135 0.43583536 0.3946731 0.41404358 0.37530267 0.40920097 0.39709443 0.40435836
0.3898305 0.3559322 0.36077482 0.3898305 0.346247 0.36077482 0.38256657 0.3849879
0.36319613 0.3559322 0.36803874 0.37288135 0.33656174 0.3510896 0.33656174 0.34382567
0.3535109 0.36077482 0.33171913 0.36561742 0.33898306 0.34140435 0.3559322 0.34382567
0.34866828 0.3244552 0.3220339 0.34382567 0.34140435 0.3220339 0.33414045 0.3244552
0.35835353 0.29539952 0.3220339 0.3196126 0.3220339 0.32687652 0.3244552 0.30750605
0.31719127 0.3220339 0.3220339 0.33656174 0.30992737 0.29539952 0.2905569 0.30508474
0.30266345 0.31476998 0.31719127 0.2929782 0.31719127 0.28329298 0.27118644 0.2857143
0.28329298 0.30024213 0.2905569 0.29539952 0.27602905 0.28329298 0.29539952 0.26150122
0.26876512 0.28329298 0.27118644 0.2857143 0.27360776 0.26634383 0.24939467 0.27845037
0.28329298 0.31476998 0.28329298 0.28329298 0.27602905 0.25665858 0.27118644 0.27118644
0.29539952 0.2905569 0.27845037 0.26634383 0.2857143 0.27118644 0.2542373 0.27602905
0.24939467 0.2905569 0.28087166 0.30024213 0.2542373 0.26876512 0.25665858 0.29539952
0.27360776 0.2590799 0.2590799 0.27845037 0.24697337 0.23244552 0.24939467 0.24455206
0.24697337 0.27602905 0.26634383 0.23002422 0.24455206 0.24697337 0.2590799 0.27118644
0.26876512 0.2639225 0.20096852 0.24213076 0.21549636 0.2542373 0.25665858 0.27118644
0.24455206 0.21791768 0.26150122 0.24939467 0.2276029 0.2276029 0.21791768 0.21065375
0.21307506 0.2251816 0.23244552 0.21791768 0.22033899 0.2276029 0.24455206 0.2251816
0.22276029 0.20338982 0.21549636 0.20338982 0.2251816 0.21307506 0.21307506 0.22276029
0.2276029 0.2276029 0.19612591 0.20823245 0.19612591 0.20823245 0.22033899 0.18886198
0.20581114 0.21307506 0.20338982 0.19612591 0.21307506 0.2251816 0.20338982 0.21549636
0.22033899 0.20581114 0.1937046 0.20823245 0.18159807 0.22276029 0.18886198 0.19128329
0.21549636 0.21065375 0.19612591 0.20338982 0.20581114 0.20338982 0.17675544 0.19612591
00000000: 0000 803f 1be4 503f aa91 593f c349 5d3f
00000010: 6069 4e3f 6069 4e3f 548d 4c3f ac27 403f
00000020: 2956 393f 1d7a 373f 308f 2d3f bf3c 363f
00000030: f242 243f d98a 203f b999 283f adbd 263f
00000040: e566 223f 6f71 1d3f e566 223f c70b 113f
00000050: 3125 143f e0c3 143f 385e 083f 0c91 0e3f
00000060: 5df2 0d3f c168 033f da20 073f c168 033f
00000070: 06ee 003f 6476 f53e 7de3 053f 13ca 023f
00000080: 06ee 003f 574f 003f bc10 e93e 4cbe f13e
00000090: 13ca 023f 7d2e f93e 13ca 023f 8ba0 e13e
000000a0: e8dd e23e 38a9 fb3e 7d2e f93e da20 073f
000000b0: bc10 e93e bc10 e93e 14ab dc3e 461b e43e
000000c0: 2d63 e03e a458 e53e 1a4e ea3e 788b eb3e
000000d0: 4078 d63e 461b e43e e8dd e23e e8dd e23e
000000e0: d5c8 ec3e a458 e53e 4078 d63e 5930 da3e
000000f0: 3bd5 c83e 72e8 dd3e 9eb5 d73e 14ab dc3e
00000100: 9812 ca3e 548d cc3e 5930 da3e e33a d53e
00000110: 9812 ca3e dd97 c73e ca82 d13e 548d cc3e
00000120: 4eea be3e d025 df3e 9812 ca3e 85fd d33e
00000130: ac27 c03e ca82 d13e f64f cb3e 0f08 cf3e
00000140: dd97 c73e bf3c b63e 7ab7 b83e dd97 c73e
00000150: 4947 b13e 7ab7 b83e c4df c33e 221d c53e
00000160: d8f4 b93e bf3c b63e 936f bc3e 4eea be3e
00000170: d251 ac3e 04c2 b33e d251 ac3e eb09 b03e
00000180: 61ff b43e 7ab7 b83e 17d7 a93e 3532 bb3e
00000190: 308f ad3e 8dcc ae3e bf3c b63e eb09 b03e
000001a0: a684 b23e fe1e a63e a1e1 a43e eb09 b03e
000001b0: 8dcc ae3e a1e1 a43e 7514 ab3e fe1e a63e
000001c0: 1d7a b73e 9b3e 973e a1e1 a43e 43a4 a33e
000001d0: a1e1 a43e 5c5c a73e fe1e a63e 6f71 9d3e
000001e0: e566 a23e a1e1 a43e a1e1 a43e d251 ac3e
000001f0: cdae 9e3e 9b3e 973e e0c3 943e 1134 9c3e
00000200: b4f6 9a3e 8829 a13e e566 a23e 3d01 963e
00000210: e566 a23e c70b 913e f3d8 8a3e 2549 923e
00000220: c70b 913e 56b9 993e e0c3 943e 9b3e 973e
00000230: ae53 8d3e c70b 913e 9b3e 973e 7de3 853e
00000240: 959b 893e c70b 913e f3d8 8a3e 2549 923e
00000250: 5116 8c3e 385e 883e 5161 7f3e 0c91 8e3e
00000260: c70b 913e 8829 a13e c70b 913e c70b 913e
00000270: ae53 8d3e c168 833e f3d8 8a3e f3d8 8a3e
00000280: 9b3e 973e e0c3 943e 0c91 8e3e 385e 883e
00000290: 2549 923e f3d8 8a3e 642b 823e ae53 8d3e
000002a0: 5161 7f3e e0c3 943e 69ce 8f3e 56b9 993e
000002b0: 642b 823e 959b 893e c168 833e 9b3e 973e
000002c0: 5116 8c3e 1fa6 843e 1fa6 843e 0c91 8e3e
000002d0: 96e6 7c3e 3306 6e3e 5161 7f3e db6b 7a3e
000002e0: 96e6 7c3e ae53 8d3e 385e 883e 788b 6b3e
000002f0: db6b 7a3e 96e6 7c3e 1fa6 843e f3d8 8a3e
00000300: 959b 893e da20 873e b1ca 4d3e 20f1 773e
00000310: 14ab 5c3e 642b 823e c168 833e f3d8 8a3e
00000320: db6b 7a3e d025 5f3e 7de3 853e 5161 7f3e
00000330: bc10 693e bc10 693e d025 5f3e 9eb5 573e
00000340: 5930 5a3e 0196 663e 3306 6e3e d025 5f3e
00000350: 8ba0 613e bc10 693e db6b 7a3e 0196 663e
00000360: 461b 643e 6c45 503e 14ab 5c3e 6c45 503e
00000370: 0196 663e 5930 5a3e 5930 5a3e 461b 643e
00000380: bc10 693e bc10 693e 3bd5 483e e33a 553e
00000390: 3bd5 483e e33a 553e 8ba0 613e 0965 413e
000003a0: 28c0 523e 5930 5a3e 6c45 503e 3bd5 483e
000003b0: 5930 5a3e 0196 663e 6c45 503e 14ab 5c3e
000003c0: 8ba0 613e 28c0 523e 805a 463e e33a 553e
000003d0: d8f4 393e 461b 643e 0965 413e c4df 433e
000003e0: 14ab 5c3e 9eb5 573e 3bd5 483e 6c45 503e
000003f0: 28c0 523e 6c45 503e 61ff 343e 3bd5 483e

item_pop_true f4 [1154, 1]
1.0 0.8159806 0.8498789 0.86440676 0.8062954 0.8062954 0.7990315 0.75060534
0.72397095 0.71670705 0.6779661 0.7118644 0.6416465 0.62711865 0.6585956 0.6513317
0.63438255 0.6150121 0.63438255 0.56658596 0.5786925 0.5811138 0.53268766 0.55690074
0.5544794 0.51331717 0.527845 0.51331717 0.50363195 0.47941887 0.52300245 0.5108959
0.50363195 0.50121063 0.4552058 0.47215497 0.5108959 0.4866828 0.5108959 0.44067797
0.44309926 0.4915254 0.4866828 0.527845 0.4552058 0.4552058 0.43099272 0.44552058
0.43825665 0.4479419 0.45762712 0.46004844 0.41888618 0.44552058 0.44309926 0.44309926
0.46246973 0.4479419 0.41888618 0.4261501 0.39225182 0.43341404 0.4213075 0.43099272
0.3946731 0.39951575 0.4261501 0.4164649 0.3946731 0.3898305 0.40920097 0.39951575
0.37288135 0.43583536 0.3946731 0.41404358 0.37530267 0.40920097 0.39709443 0.40435836
0.3898305 0.3559322 0.36077482 0.3898305 0.346247 0.36077482 0.38256657 0.3849879
0.36319613 0.3559322 0.36803874 0.37288135 0.33656174 0.3510896 0.33656174 0.34382567
0.3535109 0.36077482 0.33171913 0.36561742 0.33898306 0.34140435 0.3559322 0.34382567
0.34866828 0.3244552 0.3220339 0.34382567 0.34140435 0.3220339 0.33414045 0.3244552
0.35835353 0.29539952 0.3220339 0.3196126 0.3220339 0.32687652 0.3244552 0.30750605
0.31719127 0.3220339 0.3220339 0.33656174 0.30992737 0.29539952 0.2905569 0.30508474
0.30266345 0.31476998 0.31719127 0.2929782 0.31719127 0.28329298 0.27118644 0.2857143
0.28329298 0.30024213 0.2905569 0.29539952 0.27602905 0.28329298 0.29539952 0.26150122
0.26876512 0.28329298 0.27118644 0.2857143 0.27360776 0.26634383 0.24939467 0.27845037
0.28329298 0.31476998 0.28329298 0.28329298 0.27602905 0.25665858 0.27118644 0.27118644
0.29539952 0.2905569 0.27845037 0.26634383 0.2857143 0.27118644 0.2542373 0.27602905
0.24939467 0.2905569 0.28087166 0.30024213 0.2542373 0.26876512 0.25665858 0.29539952
0.27360776 0.2590799 0.2590799 0.27845037 0.24697337 0.23244552 0.24939467 0.24455206
0.24697337 0.27602905 0.26634383 0.23002422 0.24455206 0.24697337 0.2590799 0.27118644
0.26876512 0.2639225 0.20096852 0.24213076 0.21549636 0.2542373 0.25665858 0.27118644
0.24455206 0.21791768 0.26150122 0.24939467 0.2276029 0.2276029 0.21791768 0.21065375
0.21307506 0.2251816 0.23244552 0.21791768 0.22033899 0.2276029 0.24455206 0.2251816
0.22276029 0.20338982 0.21549636 0.20338982 0.2251816 0.21307506 0.21307506 0.22276029
0.2276029 0.2276029 0.19612591 0.20823245 0.19612591 0.20823245 0.22033899 0.18886198
0.20581114 0.21307506 0.20338982 0.19612591 0.21307506 0.2251816 0.20338982 0.21549636
0.22033899 0.20581114 0.1937046 0.20823245 0.18159807 0.22276029 0.18886198 0.19128329
0.21549636 0.21065375 0.19612591 0.20338982 0.20581114 0.20338982 0.17675544 0.19612591
00000000: 0000 803f 1be4 503f aa91 593f c349 5d3f
00000010: 6069 4e3f 6069 4e3f 548d 4c3f ac27 403f
00000020: 2956 393f 1d7a 373f 308f 2d3f bf3c 363f
00000030: f242 243f d98a 203f b999 283f adbd 263f
00000040: e566 223f 6f71 1d3f e566 223f c70b 113f
00000050: 3125 143f e0c3 143f 385e 083f 0c91 0e3f
00000060: 5df2 0d3f c168 033f da20 073f c168 033f
00000070: 06ee 003f 6476 f53e 7de3 053f 13ca 023f
00000080: 06ee 003f 574f 003f bc10 e93e 4cbe f13e
00000090: 13ca 023f 7d2e f93e 13ca 023f 8ba0 e13e
000000a0: e8dd e23e 38a9 fb3e 7d2e f93e da20 073f
000000b0: bc10 e93e bc10 e93e 14ab dc3e 461b e43e
000000c0: 2d63 e03e a458 e53e 1a4e ea3e 788b eb3e
000000d0: 4078 d63e 461b e43e e8dd e23e e8dd e23e
000000e0: d5c8 ec3e a458 e53e 4078 d63e 5930 da3e
000000f0: 3bd5 c83e 72e8 dd3e 9eb5 d73e 14ab dc3e
00000100: 9812 ca3e 548d cc3e 5930 da3e e33a d53e
00000110: 9812 ca3e dd97 c73e ca82 d13e 548d cc3e
00000120: 4eea be3e d025 df3e 9812 ca3e 85fd d33e
00000130: ac27 c03e ca82 d13e f64f cb3e 0f08 cf3e
00000140: dd97 c73e bf3c b63e 7ab7 b83e dd97 c73e
00000150: 4947 b13e 7ab7 b83e c4df c33e 221d c53e
00000160: d8f4 b93e bf3c b63e 936f bc3e 4eea be3e
00000170: d251 ac3e 04c2 b33e d251 ac3e eb09 b03e
00000180: 61ff b43e 7ab7 b83e 17d7 a93e 3532 bb3e
00000190: 308f ad3e 8dcc ae3e bf3c b63e eb09 b03e
000001a0: a684 b23e fe1e a63e a1e1 a43e eb09 b03e
000001b0: 8dcc ae3e a1e1 a43e 7514 ab3e fe1e a63e
000001c0: 1d7a b73e 9b3e 973e a1e1 a43e 43a4 a33e
000001d0: a1e1 a43e 5c5c a73e fe1e a63e 6f71 9d3e
000001e0: e566 a23e a1e1 a43e a1e1 a43e d251 ac3e
000001f0: cdae 9e3e 9b3e 973e e0c3 943e 1134 9c3e
00000200: b4f6 9a3e 8829 a13e e566 a23e 3d01 963e
00000210: e566 a23e c70b 913e f3d8 8a3e 2549 923e
00000220: c70b 913e 56b9 993e e0c3 943e 9b3e 973e
00000230: ae53 8d3e c70b 913e 9b3e 973e 7de3 853e
00000240: 959b 893e c70b 913e f3d8 8a3e 2549 923e
00000250: 5116 8c3e 385e 883e 5161 7f3e 0c91 8e3e
00000260: c70b 913e 8829 a13e c70b 913e c70b 913e
00000270: ae53 8d3e c168 833e f3d8 8a3e f3d8 8a3e
00000280: 9b3e 973e e0c3 943e 0c91 8e3e 385e 883e
00000290: 2549 923e f3d8 8a3e 642b 823e ae53 8d3e
000002a0: 5161 7f3e e0c3 943e 69ce 8f3e 56b9 993e
000002b0: 642b 823e 959b 893e c168 833e 9b3e 973e
000002c0: 5116 8c3e 1fa6 843e 1fa6 843e 0c91 8e3e
000002d0: 96e6 7c3e 3306 6e3e 5161 7f3e db6b 7a3e
000002e0: 96e6 7c3e ae53 8d3e 385e 883e 788b 6b3e
000002f0: db6b 7a3e 96e6 7c3e 1fa6 843e f3d8 8a3e
00000300: 959b 893e da20 873e b1ca 4d3e 20f1 773e
00000310: 14ab 5c3e 642b 823e c168 833e f3d8 8a3e
00000320: db6b 7a3e d025 5f3e 7de3 853e 5161 7f3e
00000330: bc10 693e bc10 693e d025 5f3e 9eb5 573e
00000340: 5930 5a3e 0196 663e 3306 6e3e d025 5f3e
00000350: 8ba0 613e bc10 693e db6b 7a3e 0196 663e
00000360: 461b 643e 6c45 503e 14ab 5c3e 6c45 503e
00000370: 0196 663e 5930 5a3e 5930 5a3e 461b 643e
00000380: bc10 693e bc10 693e 3bd5 483e e33a 553e
00000390: 3bd5 483e e33a 553e 8ba0 613e 0965 413e
000003a0: 28c0 523e 5930 5a3e 6c45 503e 3bd5 483e
000003b0: 5930 5a3e 0196 663e 6c45 503e 14ab 5c3e
000003c0: 8ba0 613e 28c0 523e 805a 463e e33a 553e
000003d0: d8f4 393e 461b 643e 0965 413e c4df 433e
000003e0: 14ab 5c3e 9eb5 573e 3bd5 483e 6c45 503e
000003f0: 28c0 523e 6c45 503e 61ff 343e 3bd5 483e

lr1.weight f4 [1, 63]
0.04850141 0.038507096 0.10216994 -0.20021203 0.1978074 0.04286617 0.18199222 0.041619822
0.040187128 -0.120698586 0.003336488 -0.14274648 -0.041773573 0.00412271 0.012909268 -0.07328877
-0.14465916 -0.10905264 0.027542064 -0.032547 0.04113863 -0.019717807 -0.116500996 0.098755345
-0.027651645 -0.22615251 0.097322255 0.26593065 -0.06256227 -0.08987253 0.063161306 0.23961529
-0.08209083 -0.05386413 0.14799303 0.09127817 0.016080374 0.16266304 -0.07733955 -0.07144815
0.029179666 0.07320439 0.08538873 -0.012776746 -0.03428151 -0.16287671 -0.009041843 -0.28783923
0.2714433 -0.13773143 -0.12790921 0.1300738 0.17747296 0.22819097 -0.010203321 0.22633745
-0.04220755 -0.25380546 -0.025361924 -0.20933406 0.027792577 -0.1766256 0.02781476
00000000: 6aa9 463d 9eb9 1d3d 793e d13d 6204 4dbe
00000010: 068e 4a3e 7094 2f3d 2b5c 3a3e 8c79 2a3d
00000020: 429b 243d d230 f7bd fba8 5a3b 222c 12be
00000030: c41a 2bbd cc17 873b 6581 533c 6c18 96bd
00000040: 8821 14be fe56 dfbd e59f e13c 0150 05bd
00000050: fb80 283d 3d87 a1bc 1398 eebd 3e40 ca3d
00000060: b485 e2bc 8694 67be e450 c73d 1028 883e
00000070: a620 80bd 170f b8bd b75a 813d b65d 753e
00000080: 3d1f a8bd a2a0 5cbd 7c8b 173e 0df0 ba3d
00000090: fdba 833c 2491 263e 3364 9ebd 6853 92bd
000000a0: 320a ef3c 2fec 953d 49e0 ae3d 8f55 51bc
000000b0: c56a 0cbd 27c9 26be 3d24 14bc aa5f 93be
000000c0: 9efa 8a3e 7809 0dbe a2fa 02be 1132 053e
000000d0: 79bb 353e e5aa 693e d52b 27bc 01c5 673e
000000e0: d3e1 2cbd caf2 81be cfc3 cfbc ab5b 56be
000000f0: 42ad e33c 57dd 34be c8db e33c
