pid/result/ml100k-PIDMF-debug2023-03-14-10-32-30/ckpt/epoch_16.pth (torch_old, 543278 bytes, 5 tensors)

users f4 [945, 64]
0	0x3f525bc9	0.82171303
1	0xbe402475	-0.18763907
2	0xbe8b8a35	-0.2725388
3	0x3e777db8	0.24169052
4	0x3cecd36c	0.028909408
5	0xbdfcc47e	-0.123421654
6	0x3e96eb0b	0.294762
7	0xbe597fd7	-0.21240173
8	0xbedd8c14	-0.43270934
9	0xbdc1c2aa	-0.09460957
10	0x3ecc170a	0.39861327
11	0xbe899670	-0.26872587
12	0xbe9b7559	-0.30362967
13	0x3e33521e	0.17511794
14	0x3eeea575	0.4661061
15	0xbe263ec1	-0.16234876
16	0x3f337946	0.70106924
17	0x3eb28c77	0.3487279
18	0x3f1f015b	0.62111443
19	0x3ea4041c	0.32034385
20	0x3eddab53	0.43294773
21	0xbe2921a3	-0.16516738
22	0xbef84caf	-0.48496005
23	0xbe72c33c	-0.23707289
24	0x3ef160d3	0.47144184
25	0x3ef3dddf	0.47630212
26	0x3ceb85b8	0.028750286
27	0xbe17373a	-0.14767161
28	0xbf04f0e6	-0.5193008
29	0xbee3319b	-0.44373783
30	0xbeb457e7	-0.35223314
31	0x3d228324	0.039675847
32	0xbec4cafa	-0.3843611
33	0xbf072f21	-0.5280629
34	0xbe704ad3	-0.23466043
35	0xbe80b1a7	-0.25135538
36	0xbebbf16a	-0.36707622
37	0x3ba59e4a	0.00505427
38	0xbec67c1e	-0.3876657
39	0xbf06db3a	-0.52678263
40	0xbec9ddbb	-0.3942698
41	0x3e87c09c	0.26514137
42	0xbe582996	-0.21109614
43	0x3d5ecb38	0.054393023
44	0xbf1aa575	-0.6040872
45	0xbf0760ac	-0.52881885
46	0x3f100664	0.5625975
47	0xba17be6e	-0.0005788569
48	0xbd0f5117	-0.034989443
49	0x3e335d58	0.17516077
50	0xbf036be4	-0.51336503
51	0xbeebec6b	-0.4607881
52	0x3efb4e76	0.49083298
53	0xbf2e77b0	-0.6815138
54	0xbd875a0f	-0.06608974
55	0x3f206283	0.62650317
56	0x3d6e542b	0.058185738
57	0x3ebc77eb	0.3681024
58	0x3d426db1	0.04746789
59	0x3f184ac6	0.59489095
60	0x3e5cba3b	0.21555416
61	0xbec8fec9	-0.39256886
62	0xbdb2d32a	-0.087316826
63	0x3df26a70	0.118367076
64	0x3eed1d78	0.46311545
65	0xbe3a1ffb	-0.18176262
66	0x3e0b5a81	0.13608743
67	0xbf054278	-0.5205455
68	0xbf300a38	-0.6876559
69	0xbe1f4db5	-0.15556987
70	0x3ecfa455	0.40555063
71	0x3ebdcf4f	0.37072226
72	0x3db0c8c7	0.08632045
73	0xbe5458de	-0.20737025
74	0xbd0ab9bf	-0.033868548
75	0xbef94c54	-0.48691046
76	0xbdc41fa5	-0.09576348
77	0xbd0db928	-0.034600407
78	0x3e8f8205	0.28028885
79	0xbaa7aca9	-0.0012792546
80	0x3e7eae6f	0.24871229
81	0xbdd63c96	-0.104607746
82	0x3e7224fa	0.23646918
83	0x3ed9a196	0.42506093
84	0x3e13e124	0.14441353
85	0xbe03288b	-0.12808435
86	0x3f0a2dc0	0.5397606
87	0xbe975f84	-0.2956506
88	0x3e726f02	0.23675159
89	0x3f777d2c	0.9667537
90	0xbf36f6b7	-0.71470207
91	0xbf3873fd	-0.72051984
92	0xbf305ba2	-0.6888982
93	0xbf200808	-0.62512255
94	0x3ea4ad42	0.32163435
95	0xbf373de4	-0.7157881
96	0x3f22a7bd	0.635372
97	0x3def1407	0.11673742
98	0x3e2f4057	0.17114387
99	0x3e8d6341	0.27614787
100	0xbe59ea0b	-0.21280687
101	0xbd81118f	-0.06302177
102	0xbf12e34e	-0.5737809
103	0xbf5f1f6a	-0.8715731
104	0x3e5462b5	0.20740779
105	0xbe2c0970	-0.16800475
106	0x3f12df2b	0.5737178
107	0xbeb0e5d4	-0.34550345
108	0x3ef8f450	0.48623896
109	0xbf05bff9	-0.5224605
110	0xbea1c2ec	-0.31594026
111	0xbead95de	-0.33903402
112	0x3e140035	0.14453204
113	0xbf3ffa91	-0.7499171
114	0x3db0a959	0.086260505
115	0xbed1f2db	-0.41005597
116	0xbe9c3c0b	-0.3051456
117	0x3dd0eaeb	0.10201057
118	0xbecfd037	-0.40588543
119	0xbed63348	-0.41836
120	0x3ed5f7d8	0.41790652
121	0x3dc1075a	0.0942523
122	0xbded291a	-0.11580105
123	0x3eae5551	0.34049466
124	0x3dcc6948	0.09981018
125	0x3f25c174	0.6474831
126	0xbe530c19	-0.20610084
127	0xbe503d97	-0.20335995
128	0xbebc2c22	-0.3675242
129	0xbe01ec7a	-0.12687865
130	0xbe9e433b	-0.30910668
131	0xbe5d61d5	-0.21619351
132	0xbdc98e7d	-0.098416306
133	0x3eebe782	0.46075064
134	0x3eda31f1	0.42616227
135	0x3cfb7723	0.030696457
136	0x3e9fc31a	0.31203538
137	0xbf151020	-0.5822773
138	0x3ec10d52	0.37705475
139	0xbd6b75e6	-0.057485484
140	0xbed6a217	-0.4192054
141	0x3eee3104	0.4652177
142	0x3ec40329	0.3828366
143	0xbe7e3f97	-0.24828945
144	0xbf14fed4	-0.58201337
145	0xbe234c8f	-0.15947174
146	0x3f0fdb1d	0.56193715
147	0x3e68cb2a	0.22733751
148	0xbea39c94	-0.31955397
149	0x3e73ce02	0.23809054
150	0xbf0b65c3	-0.5445215
151	0x3e985ce7	0.2975838
152	0xbe566bca	-0.20939556
153	0x3f1440c3	0.5791132
154	0x3df683ac	0.12036833
155	0xbf269c50	-0.65082264
156	0xbc26bc65	-0.010176753
157	0xbe3a5ae7	-0.18198739
158	0xbe6b0bce	-0.22953722
159	0xbf09499f	-0.5362796
160	0xbef8a55e	-0.48563665
161	0xbb9b5dd7	-0.004741411
162	0xbf093ee7	-0.53611606
163	0xbd19a3db	-0.03750978
164	0x3eda9b04	0.42696393
165	0x3e0f2ee5	0.13982733
166	0xbe449048	-0.19195664
167	0xbf1ba9d2	-0.60806
168	0x3e8a9ee1	0.2707434
169	0x3e2046b1	0.15651967
170	0xbe7218ee	-0.23642322
171	0xbed22352	-0.41042572
172	0xbf1ccf33	-0.6125366
173	0x3e3ae37f	0.18250845
174	0x3ed72d85	0.42026916
175	0xbf2fe56d	-0.6870945
176	0x3e56e791	0.20986773
177	0x3d906289	0.07050044
178	0xbcf6e5a1	-0.030138792
179	0x3da2b30b	0.07944306
180	0xbf15736e	-0.58379257
181	0xbc40b1c2	-0.011761131
182	0x3eb211b1	0.34779122
183	0xbe9f7dd9	-0.31150702
184	0xbea569d2	-0.32307297
185	0x3e857f87	0.26073858
186	0x3e5b8bd4	0.21440059
187	0x3e5172a1	0.20453884
188	0x3e2ad85b	0.16684096
189	0x3f1bfed9	0.6093574
190	0xbe99131d	-0.29897395
191	0x3e1f1f5c	0.15539306
192	0x3ec3376d	0.38128224
193	0xbe9a1f99	-0.30102232
194	0x3f04d38d	0.518853
195	0xbdbec4f9	-0.09314913
196	0xbf128ba6	-0.57244337
197	0x3dff1459	0.12455053
198	0x3f2f1b41	0.6840096
199	0xbda0ef5c	-0.07858154
200	0x3e3ad636	0.18245777
201	0x3d35d203	0.044389736
202	0x3f34d680	0.706398
203	0xbf1d69a3	-0.61489314
204	0xbc76c4cb	-0.015061568
205	0x3e9dbe01	0.30809024
206	0x3f1457d0	0.5794649
207	0xbe0db718	-0.13839376
208	0x3ead216e	0.33814567
209	0xbd822839	-0.06355328
210	0x3e87d8c7	0.26532575
211	0x3a833860	0.0010011308
212	0xbd6e14fe	-0.05812549
213	0xbecabef0	-0.395988
214	0xbed37de7	-0.41306993
215	0xbd832360	-0.064032316
216	0xbf035392	-0.51299393
217	0xbe3f0b9f	-0.18656777
218	0x3f35a28a	0.7095114
219	0xbf013b27	-0.50480884
220	0x3e33b781	0.1755047
221	0xbdcb54b3	-0.099282645
222	0x3f1501f5	0.5820611
223	0x3e9b69e2	0.3035422
224	0x3ed23bd8	0.41061282
225	0xbf00d7c8	-0.50329256
226	0xbe70e8bd	-0.23526283
227	0xbe6f92e8	-0.23395884
228	0xbd66986b	-0.0562977
229	0xbed7067b	-0.41997132
230	0x3ba8e06d	0.0051537068
231	0x3dcfbc77	0.10143369
232	0xbeedae03	-0.46421823
233	0x3de45a01	0.111499794
234	0x3dadb41e	0.0848162
235	0x3d3db30b	0.046313327
236	0xbf13e9d1	-0.5777865
237	0x3d89023f	0.066898815
238	0x3ecdcb65	0.4019424
239	0x3d4de3d3	0.0502661
240	0x3dc18928	0.094499886
241	0x3d7d25c8	0.06180361
242	0xbdd413bf	-0.10355329
243	0xbedb0a93	-0.42781505
244	0x3f8475d6	1.0348461
245	0xbf160f74	-0.5861733
246	0x3e79c2f1	0.2439077
247	0xbf1cd4b2	-0.6126205
248	0xbded4de8	-0.11587125
249	0x3ec7ae0c	0.38999975
250	0x3e3b3480	0.18281746
251	0x3ede631f	0.43434998
252	0xbde3aec6	-0.1111732
253	0x3e968389	0.29397228
254	0x3d86c5c1	0.06580687
255	0x3dbf5e0b	0.09344109

items_id f4 [1154, 63]
0	0x3ef406dd	0.47661486
1	0x3efa3150	0.48865747
2	0x3e0ebcaf	0.13939165
3	0xbded5aa6	-0.115895554
4	0x3dbd3e7b	0.09240433
5	0x3ec53b60	0.38521862
6	0x3ec67558	0.387614
7	0x3ee4a8b4	0.4465996
8	0x3ef498f9	0.4777296
9	0xbeb293fc	-0.34878528
10	0x3f01c119	0.5068527
11	0xbdbde627	-0.09272414
12	0xbe95ae7a	-0.29234678
13	0x3ecf5d67	0.40500948
14	0x3ebf07cf	0.37310645
15	0xbeab7cf9	-0.33493784
16	0xbd6f659b	-0.058446508
17	0xbe77ad90	-0.24187303
18	0x3e86fb3b	0.2636355
19	0x3f104bac	0.56365466
20	0x3ef7ba8f	0.4838452
21	0x3e94f65b	0.29094204
22	0xbe904430	-0.28177023
23	0x3e49e0df	0.19714688
24	0xbe5250c5	-0.20538624
25	0x3ce6a1d5	0.02815334
26	0x3e8d2bdb	0.27572522
27	0x3e5ba656	0.21450171
28	0xbe47a268	-0.19495547
29	0xbe95e4e0	-0.2927618
30	0x3eae68f4	0.34064448
31	0x3e03607c	0.12829775
32	0xbde19aad	-0.1101583
33	0xbeb86130	-0.36011648
34	0x3e48d05d	0.19610734
35	0x3e4bbd1c	0.19896358
36	0x3f21ecb2	0.63251793
37	0x3e8cca26	0.27497977
38	0xbe86ff86	-0.26366824
39	0xbe28adad	-0.16472502
40	0xbe45fce5	-0.19334753
41	0x3e689dd2	0.22716454
42	0x3e81f387	0.2538111
43	0xbef022e8	-0.4690163
44	0xbeeff9f8	-0.468704
45	0xbe59542e	-0.21223518
46	0x3ec222da	0.37917215
47	0x3cae2dec	0.021262132
48	0x3dd15c16	0.10222642
49	0xbe924778	-0.2857015
50	0xbe862e5a	-0.26207238
51	0x3d5459b1	0.05184335
52	0x3e3f545b	0.18684523
53	0xbd128606	-0.035772346
54	0xbf0eb76a	-0.5574862
55	0x3e534135	0.20630343
56	0xbef405c8	-0.4766066
57	0xbb08cfc0	-0.0020875782
58	0xbe882ca0	-0.26596546
59	0xbdf5be49	-0.11999185
60	0x3e7b5e87	0.24547778
61	0xbe126068	-0.14294589
62	0x3eaa5372	0.3326679
63	0x3e29352f	0.16524194
64	0x3e775049	0.2415172
65	0x3e19111a	0.1494793
66	0xbd9839a6	-0.074328706
67	0x3eb66aba	0.356283
68	0x3dae0f6e	0.08499037
69	0x3ecf91c7	0.40540907
70	0x3d5fad44	0.0546086
71	0x3d8aeb3b	0.06783148
72	0xbd6fe731	-0.05857009
73	0xbc13885a	-0.009004677
74	0xbce3a83c	-0.027790181
75	0xbe55a328	-0.2086302
76	0x3c825e67	0.015914155
77	0xbb95c79b	-0.004570914
78	0xbe2a858e	-0.1665251
79	0xbe44f854	-0.19235355
80	0xbe0fa651	-0.14028288
81	0x3e4c6851	0.19961669
82	0x3cca7e32	0.024718378
83	0x3e76ec66	0.24113616
84	0x3e6344dd	0.22194238
85	0xbd7539dd	-0.059869636
86	0x3e903d13	0.28171596
87	0xbe418e55	-0.18901952
88	0xbe462673	-0.19350605
89	0x3d67da06	0.056604408
90	0x3c9bdc0b	0.019025823
91	0x3b9f4001	0.004859925
92	0x3cbee05b	0.02330034
93	0x3bc52b81	0.006017149
94	0x3dca382f	0.098739974
95	0xbe270627	-0.1631094
96	0xbe6e0d2b	-0.2324721
97	0x3e2701e5	0.16309316
98	0x3dc90e11	0.09817136
99	0x3e8d0e74	0.2755009
100	0x3e03393f	0.12814806
101	0xbd8483d5	-0.064704575
102	0xbda21b26	-0.079153344
103	0xbdc4fbfb	-0.09618374
104	0x3e60d2d7	0.21955429
105	0xbcb17df8	-0.021666512
106	0xbdc37615	-0.09544007
107	0xbe51ba95	-0.20481332
108	0xbd8e510c	-0.06949052
109	0xbbbfd2d9	-0.0058539924
110	0xbe019773	-0.1265543
111	0x3da0a046	0.0784307
112	0xbcabd95c	-0.020977668
113	0xbd17d1d5	-0.037065346
114	0x3d11aef4	0.03556724
115	0x3e4bf7a7	0.1991869
116	0x3e6942ff	0.22779463
117	0x3d34ad55	0.044110615
118	0x3e42c102	0.19018939
119	0xbe8fe79f	-0.281064
120	0xbe068932	-0.13138273
121	0x3cd64827	0.026157452
122	0xbde7c5df	-0.11317038
123	0xbcda4ca5	-0.026647875
124	0xbe5af770	-0.21383452
125	0x3d0a86d9	0.033820007
126	0x3e8ca47c	0.27469242
127	0x3e9bf0d1	0.30457166
128	0x3e02c258	0.12769449
129	0xbe20bf8b	-0.15698068
130	0x3e8fdb6f	0.28097102
131	0x3e63941d	0.2222447
132	0x3e2915a4	0.16512161
133	0x3da57608	0.08079153
134	0x3ea823a9	0.32839707
135	0xbe82c34d	-0.25539628
136	0x3ea8f1d6	0.32997006
137	0xbe799188	-0.24371922
138	0xbe6e51b8	-0.2327336
139	0x3db21878	0.08696073
140	0x3e0625f2	0.13100412
141	0xbd9e1132	-0.077181235
142	0xbe007b60	-0.12547064
143	0xbaf1ba5e	-0.0018442383
144	0x3d0a2ef0	0.03373617
145	0x3e26fee0	0.16308165
146	0x3e815e56	0.25267285
147	0x3dff197f	0.12456035
148	0xbe2ad7ed	-0.16683932
149	0x3e33621b	0.17517893
150	0xbd881535	-0.0664467
151	0xbd3979c1	-0.04528213
152	0x3cf0bae4	0.029385991
153	0x3e61d5a6	0.22054157
154	0xbd85d8c8	-0.06535488
155	0xbbd8cbe5	-0.006616103
156	0x3e5f8c5b	0.21830885
157	0x3ca760df	0.020431934
158	0xbe701c8f	-0.23448394
159	0xbe93f7d5	-0.28900018
160	0x3dde3b32	0.10851134
161	0x3d65b0f4	0.05607696
162	0x3e963dd1	0.29344037
163	0x3d59e7e1	0.053199653
164	0xbd8e2f78	-0.06942648
165	0xbe5e9bbe	-0.21739098
166	0xbdc4ec6a	-0.09615405
167	0x3d44162d	0.04787271
168	0x3e6343e3	0.22193865
169	0xbe8744c7	-0.2641966
170	0xbe58cda1	-0.21172191
171	0xbe4e81e9	-0.20166744
172	0x3db380b5	0.08764783
173	0xbe0a1198	-0.13483274
174	0x3dabf22e	0.083958015
175	0xbe42f72b	-0.190396
176	0xbe74eef0	-0.23919272
177	0x3d5a96ed	0.05336659
178	0x3e429274	0.1900118
179	0x3e309940	0.1724596
180	0xbea9686d	-0.33087483
181	0xbbb76e24	-0.0055978466
182	0xbe2d67fb	-0.16934197
183	0xbd0da222	-0.03457845
184	0xbd9c6a2d	-0.07637439
185	0xbe0ef19a	-0.13959351
186	0x3cbe95c8	0.02326478
187	0xbdef4094	-0.11682239
188	0x3e77857a	0.24172011
189	0x3eaffcf9	0.3437269
190	0x3dc88d7a	0.097926095
191	0x3e06d394	0.13166648
192	0xbe858116	-0.26075047
193	0x3e424c4b	0.18974416
194	0x3d54a7a5	0.05191769
195	0x3e8ceb00	0.2752304
196	0x3e89034a	0.26760322
197	0x3e9d6bc0	0.3074627
198	0xbe6ff3ed	-0.23432894
199	0x3dae57d2	0.08512844
200	0xbe5bd0b9	-0.2146634
201	0xbde641b3	-0.11243
202	0x3e5bfa39	0.21482171
203	0x3e003c5c	0.12523025
204	0xbe88cd1f	-0.26718995
205	0xbe28f94b	-0.16501348
206	0xbe1c4039	-0.15258874
207	0x3d7398f8	0.059472054
208	0x3de6d901	0.11271859
209	0x3e99a123	0.3000575
210	0x3d8bb26f	0.06821143
211	0xbd5a0f0e	-0.053237014
212	0x3d1e55e6	0.038656138
213	0xbd8e0831	-0.06935156
214	0xbe17f0f2	-0.14838007
215	0x3e2d6aa4	0.16935211
216	0x3e22c049	0.15893663
217	0xbe519b7a	-0.20469466
218	0xbde7af57	-0.1131274
219	0x3e8d0353	0.275416
220	0x3de043d4	0.10950437
221	0xbcdf8fad	-0.02729019
222	0xbe56fdee	-0.20995304
223	0x3e802754	0.25030005
224	0x3d7d341a	0.061817266
225	0x3e2e2030	0.17004466
226	0x3cf54152	0.029938374
227	0xbe525995	-0.20541985
228	0xbe302263	-0.17200617
229	0xbdf04387	-0.1173163
230	0x3d60ab1a	0.054850675
231	0x3d9a25c0	0.075267315
232	0xbea4772e	-0.32122177
233	0xbdc4f122	-0.09616305
234	0xbce97d81	-0.028502228
235	0x3d2bce9d	0.04194509
236	0xbd04ab89	-0.03239015
237	0xbd38ce64	-0.045118704
238	0xbe546f3c	-0.20745558
239	0xbdf5b750	-0.11997855
240	0x3da88966	0.08229332
241	0x3d9aca0b	0.07558068
242	0x3e35cadf	0.1775317
243	0xbeaf3815	-0.34222475
244	0x3e5660b6	0.2093533
245	0xbe0b044e	-0.13575861
246	0xbda21768	-0.07914621
247	0xbc9615a4	-0.018320866
248	0xbd988f88	-0.074492514
249	0x3df9907b	0.121857606
250	0xbe66d2b6	-0.22541317
251	0x3debe172	0.1151761
252	0x3e94f5be	0.29093736
253	0x3e31c6e0	0.17361021
254	0x3e6c50d1	0.23077704
255	0xbd970e25	-0.07375745

item_pop f4 [1154, 1]
0	0x3f800000	1.0
1	0x3f50e41b	0.8159806
2	0x3f5991aa	0.8498789
3	0x3f5d49c3	0.86440676
4	0x3f4e6960	0.8062954
5	0x3f4e6960	0.8062954
6	0x3f4c8d54	0.7990315
7	0x3f4027ac	0.75060534
8	0x3f395629	0.72397095
9	0x3f377a1d	0.71670705
10	0x3f2d8f30	0.6779661
11	0x3f363cbf	0.7118644
12	0x3f2442f2	0.6416465
13	0x3f208ad9	0.62711865
14	0x3f2899b9	0.6585956
15	0x3f26bdad	0.6513317
16	0x3f2266e5	0.63438255
17	0x3f1d716f	0.6150121
18	0x3f2266e5	0.63438255
19	0x3f110bc7	0.56658596
20	0x3f142531	0.5786925
21	0x3f14c3e0	0.5811138
22	0x3f085e38	0.53268766
23	0x3f0e910c	0.55690074
24	0x3f0df25d	0.5544794
25	0x3f0368c1	0.51331717
26	0x3f0720da	0.527845
27	0x3f0368c1	0.51331717
28	0x3f00ee06	0.50363195
29	0x3ef57664	0.47941887
30	0x3f05e37d	0.52300245
31	0x3f02ca13	0.5108959
32	0x3f00ee06	0.50363195
33	0x3f004f57	0.50121063
34	0x3ee910bc	0.4552058
35	0x3ef1be4c	0.47215497
36	0x3f02ca13	0.5108959
37	0x3ef92e7d	0.4866828
38	0x3f02ca13	0.5108959
39	0x3ee1a08b	0.44067797
40	0x3ee2dde8	0.44309926
41	0x3efba938	0.4915254
42	0x3ef92e7d	0.4866828
43	0x3f0720da	0.527845
44	0x3ee910bc	0.4552058
45	0x3ee910bc	0.4552058
46	0x3edcab14	0.43099272
47	0x3ee41b46	0.44552058
48	0x3ee0632d	0.43825665
49	0x3ee558a4	0.4479419
50	0x3eea4e1a	0.45762712
51	0x3eeb8b78	0.46004844
52	0x3ed67840	0.41888618
53	0x3ee41b46	0.44552058
54	0x3ee2dde8	0.44309926
55	0x3ee2dde8	0.44309926
56	0x3eecc8d5	0.46246973
57	0x3ee558a4	0.4479419
58	0x3ed67840	0.41888618
59	0x3eda3059	0.4261501
60	0x3ec8d53b	0.39225182
61	0x3edde872	0.43341404
62	0x3ed7b59e	0.4213075
63	0x3edcab14	0.43099272
64	0x3eca1298	0.3946731
65	0x3ecc8d54	0.39951575
66	0x3eda3059	0.4261501
67	0x3ed53ae3	0.4164649
68	0x3eca1298	0.3946731
69	0x3ec797dd	0.3898305
70	0x3ed182ca	0.40920097
71	0x3ecc8d54	0.39951575
72	0x3ebeea4e	0.37288135
73	0x3edf25d0	0.43583536
74	0x3eca1298	0.3946731
75	0x3ed3fd85	0.41404358
76	0x3ec027ac	0.37530267
77	0x3ed182ca	0.40920097
78	0x3ecb4ff6	0.39709443
79	0x3ecf080f	0.40435836
80	0x3ec797dd	0.3898305
81	0x3eb63cbf	0.3559322
82	0x3eb8b77a	0.36077482
83	0x3ec797dd	0.3898305
84	0x3eb14749	0.346247
85	0x3eb8b77a	0.36077482
86	0x3ec3dfc4	0.38256657
87	0x3ec51d22	0.3849879
88	0x3eb9f4d8	0.36319613
89	0x3eb63cbf	0.3559322
90	0x3ebc6f93	0.36803874
91	0x3ebeea4e	0.37288135
92	0x3eac51d2	0.33656174
93	0x3eb3c204	0.3510896
94	0x3eac51d2	0.33656174
95	0x3eb009eb	0.34382567
96	0x3eb4ff61	0.3535109
97	0x3eb8b77a	0.36077482
98	0x3ea9d717	0.33171913
99	0x3ebb3235	0.36561742
100	0x3ead8f30	0.33898306
101	0x3eaecc8d	0.34140435
102	0x3eb63cbf	0.3559322
103	0x3eb009eb	0.34382567
104	0x3eb284a6	0.34866828
105	0x3ea61efe	0.3244552
106	0x3ea4e1a1	0.3220339
107	0x3eb009eb	0.34382567
108	0x3eaecc8d	0.34140435
109	0x3ea4e1a1	0.3220339
110	0x3eab1475	0.33414045
111	0x3ea61efe	0.3244552
112	0x3eb77a1d	0.35835353
113	0x3e973e9b	0.29539952
114	0x3ea4e1a1	0.3220339
115	0x3ea3a443	0.3196126
116	0x3ea4e1a1	0.3220339
117	0x3ea75c5c	0.32687652
118	0x3ea61efe	0.3244552
119	0x3e9d716f	0.30750605
120	0x3ea266e5	0.31719127
121	0x3ea4e1a1	0.3220339
122	0x3ea4e1a1	0.3220339
123	0x3eac51d2	0.33656174
124	0x3e9eaecd	0.30992737
125	0x3e973e9b	0.29539952
126	0x3e94c3e0	0.2905569
127	0x3e9c3411	0.30508474
128	0x3e9af6b4	0.30266345
129	0x3ea12988	0.31476998
130	0x3ea266e5	0.31719127
131	0x3e96013d	0.2929782
132	0x3ea266e5	0.31719127
133	0x3e910bc7	0.28329298
134	0x3e8ad8f3	0.27118644
135	0x3e924925	0.2857143
136	0x3e910bc7	0.28329298
137	0x3e99b956	0.30024213
138	0x3e94c3e0	0.2905569
139	0x3e973e9b	0.29539952
140	0x3e8d53ae	0.27602905
141	0x3e910bc7	0.28329298
142	0x3e973e9b	0.29539952
143	0x3e85e37d	0.26150122
144	0x3e899b95	0.26876512
145	0x3e910bc7	0.28329298
146	0x3e8ad8f3	0.27118644
147	0x3e924925	0.2857143
148	0x3e8c1651	0.27360776
149	0x3e885e38	0.26634383
150	0x3e7f6151	0.24939467
151	0x3e8e910c	0.27845037
152	0x3e910bc7	0.28329298
153	0x3ea12988	0.31476998
154	0x3e910bc7	0.28329298
155	0x3e910bc7	0.28329298
156	0x3e8d53ae	0.27602905
157	0x3e8368c1	0.25665858
158	0x3e8ad8f3	0.27118644
159	0x3e8ad8f3	0.27118644
160	0x3e973e9b	0.29539952
161	0x3e94c3e0	0.2905569
162	0x3e8e910c	0.27845037
163	0x3e885e38	0.26634383
164	0x3e924925	0.2857143
165	0x3e8ad8f3	0.27118644
166	0x3e822b64	0.2542373
167	0x3e8d53ae	0.27602905
168	0x3e7f6151	0.24939467
169	0x3e94c3e0	0.2905569
170	0x3e8fce69	0.28087166
171	0x3e99b956	0.30024213
172	0x3e822b64	0.2542373
173	0x3e899b95	0.26876512
174	0x3e8368c1	0.25665858
175	0x3e973e9b	0.29539952
176	0x3e8c1651	0.27360776
177	0x3e84a61f	0.2590799
178	0x3e84a61f	0.2590799
179	0x3e8e910c	0.27845037
180	0x3e7ce696	0.24697337
181	0x3e6e0633	0.23244552
182	0x3e7f6151	0.24939467
183	0x3e7a6bdb	0.24455206
184	0x3e7ce696	0.24697337
185	0x3e8d53ae	0.27602905
186	0x3e885e38	0.26634383
187	0x3e6b8b78	0.23002422
188	0x3e7a6bdb	0.24455206
189	0x3e7ce696	0.24697337
190	0x3e84a61f	0.2590799
191	0x3e8ad8f3	0.27118644
192	0x3e899b95	0.26876512
193	0x3e8720da	0.2639225
194	0x3e4dcab1	0.20096852
195	0x3e77f120	0.24213076
196	0x3e5cab14	0.21549636
197	0x3e822b64	0.2542373
198	0x3e8368c1	0.25665858
199	0x3e8ad8f3	0.27118644
200	0x3e7a6bdb	0.24455206
201	0x3e5f25d0	0.21791768
202	0x3e85e37d	0.26150122
203	0x3e7f6151	0.24939467
204	0x3e6910bc	0.2276029
205	0x3e6910bc	0.2276029
206	0x3e5f25d0	0.21791768
207	0x3e57b59e	0.21065375
208	0x3e5a3059	0.21307506
209	0x3e669601	0.2251816
210	0x3e6e0633	0.23244552
211	0x3e5f25d0	0.21791768
212	0x3e61a08b	0.22033899
213	0x3e6910bc	0.2276029
214	0x3e7a6bdb	0.24455206
215	0x3e669601	0.2251816
216	0x3e641b46	0.22276029
217	0x3e50456c	0.20338982
218	0x3e5cab14	0.21549636
219	0x3e50456c	0.20338982
220	0x3e669601	0.2251816
221	0x3e5a3059	0.21307506
222	0x3e5a3059	0.21307506
223	0x3e641b46	0.22276029
224	0x3e6910bc	0.2276029
225	0x3e6910bc	0.2276029
226	0x3e48d53b	0.19612591
227	0x3e553ae3	0.20823245
228	0x3e48d53b	0.19612591
229	0x3e553ae3	0.20823245
230	0x3e61a08b	0.22033899
231	0x3e416509	0.18886198
232	0x3e52c028	0.20581114
233	0x3e5a3059	0.21307506
234	0x3e50456c	0.20338982
235	0x3e48d53b	0.19612591
236	0x3e5a3059	0.21307506
237	0x3e669601	0.2251816
238	0x3e50456c	0.20338982
239	0x3e5cab14	0.21549636
240	0x3e61a08b	0.22033899
241	0x3e52c028	0.20581114
242	0x3e465a80	0.1937046
243	0x3e553ae3	0.20823245
244	0x3e39f4d8	0.18159807
245	0x3e641b46	0.22276029
246	0x3e416509	0.18886198
247	0x3e43dfc4	0.19128329
248	0x3e5cab14	0.21549636
249	0x3e57b59e	0.21065375
250	0x3e48d53b	0.19612591
251	0x3e50456c	0.20338982
252	0x3e52c028	0.20581114
253	0x3e50456c	0.20338982
254	0x3e34ff61	0.17675544
255	0x3e48d53b	0.19612591

item_pop_true f4 [1154, 1]
0	0x3f800000	1.0
1	0x3f50e41b	0.8159806
2	0x3f5991aa	0.8498789
3	0x3f5d49c3	0.86440676
4	0x3f4e6960	0.8062954
5	0x3f4e6960	0.8062954
6	0x3f4c8d54	0.7990315
7	0x3f4027ac	0.75060534
8	0x3f395629	0.72397095
9	0x3f377a1d	0.71670705
10	0x3f2d8f30	0.6779661
11	0x3f363cbf	0.7118644
12	0x3f2442f2	0.6416465
13	0x3f208ad9	0.62711865
14	0x3f2899b9	0.6585956
15	0x3f26bdad	0.6513317
16	0x3f2266e5	0.63438255
17	0x3f1d716f	0.6150121
18	0x3f2266e5	0.63438255
19	0x3f110bc7	0.56658596
20	0x3f142531	0.5786925
21	0x3f14c3e0	0.5811138
22	0x3f085e38	0.53268766
23	0x3f0e910c	0.55690074
24	0x3f0df25d	0.5544794
25	0x3f0368c1	0.51331717
26	0x3f0720da	0.527845
27	0x3f0368c1	0.51331717
28	0x3f00ee06	0.50363195
29	0x3ef57664	0.47941887
30	0x3f05e37d	0.52300245
31	0x3f02ca13	0.5108959
32	0x3f00ee06	0.50363195
33	0x3f004f57	0.50121063
34	0x3ee910bc	0.4552058
35	0x3ef1be4c	0.47215497
36	0x3f02ca13	0.5108959
37	0x3ef92e7d	0.4866828
38	0x3f02ca13	0.5108959
39	0x3ee1a08b	0.44067797
40	0x3ee2dde8	0.44309926
41	0x3efba938	0.4915254
42	0x3ef92e7d	0.4866828
43	0x3f0720da	0.527845
44	0x3ee910bc	0.4552058
45	0x3ee910bc	0.4552058
46	0x3edcab14	0.43099272
47	0x3ee41b46	0.44552058
48	0x3ee0632d	0.43825665
49	0x3ee558a4	0.4479419
50	0x3eea4e1a	0.45762712
51	0x3eeb8b78	0.46004844
52	0x3ed67840	0.41888618
53	0x3ee41b46	0.44552058
54	0x3ee2dde8	0.44309926
55	0x3ee2dde8	0.44309926
56	0x3eecc8d5	0.46246973
57	0x3ee558a4	0.4479419
58	0x3ed67840	0.41888618
59	0x3eda3059	0.4261501
60	0x3ec8d53b	0.39225182
61	0x3edde872	0.43341404
62	0x3ed7b59e	0.4213075
63	0x3edcab14	0.43099272
64	0x3eca1298	0.3946731
65	0x3ecc8d54	0.39951575
66	0x3eda3059	0.4261501
67	0x3ed53ae3	0.4164649
68	0x3eca1298	0.3946731
69	0x3ec797dd	0.3898305
70	0x3ed182ca	0.40920097
71	0x3ecc8d54	0.39951575
72	0x3ebeea4e	0.37288135
73	0x3edf25d0	0.43583536
74	0x3eca1298	0.3946731
75	0x3ed3fd85	0.41404358
76	0x3ec027ac	0.37530267
77	0x3ed182ca	0.40920097
78	0x3ecb4ff6	0.39709443
79	0x3ecf080f	0.40435836
80	0x3ec797dd	0.3898305
81	0x3eb63cbf	0.3559322
82	0x3eb8b77a	0.36077482
83	0x3ec797dd	0.3898305
84	0x3eb14749	0.346247
85	0x3eb8b77a	0.36077482
86	0x3ec3dfc4	0.38256657
87	0x3ec51d22	0.3849879
88	0x3eb9f4d8	0.36319613
89	0x3eb63cbf	0.3559322
90	0x3ebc6f93	0.36803874
91	0x3ebeea4e	0.37288135
92	0x3eac51d2	0.33656174
93	0x3eb3c204	0.3510896
94	0x3eac51d2	0.33656174
95	0x3eb009eb	0.34382567
96	0x3eb4ff61	0.3535109
97	0x3eb8b77a	0.36077482
98	0x3ea9d717	0.33171913
99	0x3ebb3235	0.36561742
100	0x3ead8f30	0.33898306
101	0x3eaecc8d	0.34140435
102	0x3eb63cbf	0.3559322
103	0x3eb009eb	0.34382567
104	0x3eb284a6	0.34866828
105	0x3ea61efe	0.3244552
106	0x3ea4e1a1	0.3220339
107	0x3eb009eb	0.34382567
108	0x3eaecc8d	0.34140435
109	0x3ea4e1a1	0.3220339
110	0x3eab1475	0.33414045
111	0x3ea61efe	0.3244552
112	0x3eb77a1d	0.35835353
113	0x3e973e9b	0.29539952
114	0x3ea4e1a1	0.3220339
115	0x3ea3a443	0.3196126
116	0x3ea4e1a1	0.3220339
117	0x3ea75c5c	0.32687652
118	0x3ea61efe	0.3244552
119	0x3e9d716f	0.30750605
120	0x3ea266e5	0.31719127
121	0x3ea4e1a1	0.3220339
122	0x3ea4e1a1	0.3220339
123	0x3eac51d2	0.33656174
124	0x3e9eaecd	0.30992737
125	0x3e973e9b	0.29539952
126	0x3e94c3e0	0.2905569
127	0x3e9c3411	0.30508474
128	0x3e9af6b4	0.30266345
129	0x3ea12988	0.31476998
130	0x3ea266e5	0.31719127
131	0x3e96013d	0.2929782
132	0x3ea266e5	0.31719127
133	0x3e910bc7	0.28329298
134	0x3e8ad8f3	0.27118644
135	0x3e924925	0.2857143
136	0x3e910bc7	0.28329298
137	0x3e99b956	0.30024213
138	0x3e94c3e0	0.2905569
139	0x3e973e9b	0.29539952
140	0x3e8d53ae	0.27602905
141	0x3e910bc7	0.28329298
142	0x3e973e9b	0.29539952
143	0x3e85e37d	0.26150122
144	0x3e899b95	0.26876512
145	0x3e910bc7	0.28329298
146	0x3e8ad8f3	0.27118644
147	0x3e924925	0.2857143
148	0x3e8c1651	0.27360776
149	0x3e885e38	0.26634383
150	0x3e7f6151	0.24939467
151	0x3e8e910c	0.27845037
152	0x3e910bc7	0.28329298
153	0x3ea12988	0.31476998
154	0x3e910bc7	0.28329298
155	0x3e910bc7	0.28329298
156	0x3e8d53ae	0.27602905
157	0x3e8368c1	0.25665858
158	0x3e8ad8f3	0.27118644
159	0x3e8ad8f3	0.27118644
160	0x3e973e9b	0.29539952
161	0x3e94c3e0	0.2905569
162	0x3e8e910c	0.27845037
163	0x3e885e38	0.26634383
164	0x3e924925	0.2857143
165	0x3e8ad8f3	0.27118644
166	0x3e822b64	0.2542373
167	0x3e8d53ae	0.27602905
168	0x3e7f6151	0.24939467
169	0x3e94c3e0	0.2905569
170	0x3e8fce69	0.28087166
171	0x3e99b956	0.30024213
172	0x3e822b64	0.2542373
173	0x3e899b95	0.26876512
174	0x3e8368c1	0.25665858
175	0x3e973e9b	0.29539952
176	0x3e8c1651	0.27360776
177	0x3e84a61f	0.2590799
178	0x3e84a61f	0.2590799
179	0x3e8e910c	0.27845037
180	0x3e7ce696	0.24697337
181	0x3e6e0633	0.23244552
182	0x3e7f6151	0.24939467
183	0x3e7a6bdb	0.24455206
184	0x3e7ce696	0.24697337
185	0x3e8d53ae	0.27602905
186	0x3e885e38	0.26634383
187	0x3e6b8b78	0.23002422
188	0x3e7a6bdb	0.24455206
189	0x3e7ce696	0.24697337
190	0x3e84a61f	0.2590799
191	0x3e8ad8f3	0.27118644
192	0x3e899b95	0.26876512
193	0x3e8720da	0.2639225
194	0x3e4dcab1	0.20096852
195	0x3e77f120	0.24213076
196	0x3e5cab14	0.21549636
197	0x3e822b64	0.2542373
198	0x3e8368c1	0.25665858
199	0x3e8ad8f3	0.27118644
200	0x3e7a6bdb	0.24455206
201	0x3e5f25d0	0.21791768
202	0x3e85e37d	0.26150122
203	0x3e7f6151	0.24939467
204	0x3e6910bc	0.2276029
205	0x3e6910bc	0.2276029
206	0x3e5f25d0	0.21791768
207	0x3e57b59e	0.21065375
208	0x3e5a3059	0.21307506
209	0x3e669601	0.2251816
210	0x3e6e0633	0.23244552
211	0x3e5f25d0	0.21791768
212	0x3e61a08b	0.22033899
213	0x3e6910bc	0.2276029
214	0x3e7a6bdb	0.24455206
215	0x3e669601	0.2251816
216	0x3e641b46	0.22276029
217	0x3e50456c	0.20338982
218	0x3e5cab14	0.21549636
219	0x3e50456c	0.20338982
220	0x3e669601	0.2251816
221	0x3e5a3059	0.21307506
222	0x3e5a3059	0.21307506
223	0x3e641b46	0.22276029
224	0x3e6910bc	0.2276029
225	0x3e6910bc	0.2276029
226	0x3e48d53b	0.19612591
227	0x3e553ae3	0.20823245
228	0x3e48d53b	0.19612591
229	0x3e553ae3	0.20823245
230	0x3e61a08b	0.22033899
231	0x3e416509	0.18886198
232	0x3e52c028	0.20581114
233	0x3e5a3059	0.21307506
234	0x3e50456c	0.20338982
235	0x3e48d53b	0.19612591
236	0x3e5a3059	0.21307506
237	0x3e669601	0.2251816
238	0x3e50456c	0.20338982
239	0x3e5cab14	0.21549636
240	0x3e61a08b	0.22033899
241	0x3e52c028	0.20581114
242	0x3e465a80	0.1937046
243	0x3e553ae3	0.20823245
244	0x3e39f4d8	0.18159807
245	0x3e641b46	0.22276029
246	0x3e416509	0.18886198
247	0x3e43dfc4	0.19128329
248	0x3e5cab14	0.21549636
249	0x3e57b59e	0.21065375
250	0x3e48d53b	0.19612591
251	0x3e50456c	0.20338982
252	0x3e52c028	0.20581114
253	0x3e50456c	0.20338982
254	0x3e34ff61	0.17675544
255	0x3e48d53b	0.19612591

lr1.weight f4 [1, 63]
0	0x3d6b70bc	0.05748056
1	0x3ccce2cb	0.025010487
2	0x3ddc34ea	0.1075228
3	0xbe557b39	-0.20847787
4	0x3e2c4fa9	0.16827263
5	0x3d1be767	0.03806248
6	0x3e25a840	0.16177464
7	0x3b2cd80a	0.0026373887
8	0x3c8fde38	0.017562017
9	0xbdfdd0f4	-0.1239337
10	0xbc0d5916	-0.008627197
11	0xbe25384c	-0.16134757
12	0xbd3c4701	-0.045966152
13	0xbcc42f78	-0.023948416
14	0x3b97c0b3	0.004631126
15	0xbcc174f7	-0.023615343
16	0xbdd0121b	-0.10159703
17	0xbdfcc4eb	-0.123422466
18	0x3cec0a4a	0.0288135
19	0xbce9951c	-0.028513484
20	0x3cd97a26	0.026547503
21	0xbd457327	-0.04820552
22	0xbd93b3c2	-0.072120205
23	0x3d2b9d5b	0.041898113
24	0xb9298910	-0.00016168156
25	0xbe514a3d	-0.20438476
26	0x3d7faf3d	0.06242298
27	0x3e7a8b04	0.24467093
28	0xbd9b36df	-0.07578825
29	0xbdc49886	-0.09599404
30	0x3d982a47	0.07429939
31	0x3e62e58e	0.2215788
32	0xbd6daef9	-0.058028195
33	0xbd3b8038	-0.045776576
34	0x3dc61cca	0.0967346
35	0x3d6614e8	0.05617228
36	0x3bc3b68e	0.00597269
37	0x3e14bcbd	0.14525123
38	0xbda304b2	-0.0795988
39	0xbd8f3e87	-0.06994348
40	0x3d7dcba0	0.06196177
41	0x3d809122	0.06277682
42	0x3da36499	0.07978172
43	0xbc86874e	-0.01642194
44	0xbc9dc419	-0.019258546
45	0xbe1b9bd9	-0.1519617
46	0xbd486fed	-0.048934866
47	0xbea7cd75	-0.3277394
48	0x3e8ac512	0.27103478
49	0xbdf5bbc5	-0.11998705
50	0xbe0ab2a7	-0.13544713
51	0x3de38ccf	0.111108415
52	0x3e3175cb	0.1733009
53	0x3e47e96a	0.19522634
54	0xbcbd3bf3	-0.023099875
55	0x3e6a4690	0.2287848
56	0xbbceff74	-0.0063170735
57	0xbe86cc5a	-0.26327783
58	0xbc73f4a2	-0.014889868
59	0xbe33fd2f	-0.1757705
60	0x3ccc7d58	0.024962112
61	0xbe1eef43	-0.15520959
62	0x3c2b24e7	0.01044581
