pid/result/ml100k-PIDMF-debug2023-03-14-10-32-30/ckpt/epoch_27.pth (torch_old, 543278 bytes, 5 tensors)

users f4 [945, 64]
0	0x3f995b72	1.1981032
1	0xbe8d1022	-0.2755137
2	0xbee70c45	-0.45126548
3	0x3e75f226	0.24018154
4	0x3d593722	0.053031094
5	0xbe3821e8	-0.17981684
6	0x3ed1fc12	0.41012627
7	0xbebe4e3b	-0.3716906
8	0xbf0e825d	-0.5566767
9	0xbde40d93	-0.111354016
10	0x3f0b74b5	0.54474956
11	0xbeae8022	-0.34082133
12	0xbed2c9c7	-0.4116957
13	0x3e58367c	0.21114534
14	0x3f1c4de6	0.61056364
15	0xbe1e99a0	-0.15488291
16	0x3f82abcc	1.0208678
17	0x3ee19302	0.4405747
18	0x3f460519	0.7735153
19	0x3ec8ae18	0.39195323
20	0x3f14e4a0	0.58161354
21	0xbe9090e2	-0.28235537
22	0xbf3588c0	-0.7091179
23	0xbea16a46	-0.31526393
24	0x3f3675c5	0.7127345
25	0x3f35e20d	0.7104805
26	0xbc70456f	-0.014664992
27	0xbe67d88c	-0.226412
28	0xbf269fdb	-0.6508767
29	0xbf174dae	-0.59102905
30	0xbeefb776	-0.46819657
31	0x3da884d8	0.08228463
32	0xbf07a73d	-0.5298956
33	0xbf20e689	-0.6285177
34	0xbeccf621	-0.4003153
35	0xbee3c014	-0.4448248
36	0xbf200038	-0.62500334
37	0xbb8a176e	-0.004214219
38	0xbf03818c	-0.5136955
39	0xbf4cdd95	-0.8002561
40	0xbedccdf4	-0.4312588
41	0x3eceb794	0.40374434
42	0xbec113b6	-0.3771035
43	0x3d99c2a2	0.075078264
44	0xbf6c70bb	-0.92359513
45	0xbf324637	-0.6963839
46	0x3f2f94d8	0.6858649
47	0xbdfe030e	-0.124029264
48	0x3dcbf805	0.09959415
49	0x3e3b64c1	0.18300153
50	0xbf402006	-0.75048864
51	0xbf199110	-0.5998697
52	0x3f35592a	0.7083918
53	0xbf6b0f4e	-0.9182023
54	0xbd70dd4a	-0.058804788
55	0x3f5afc19	0.8554092
56	0x3df73cb8	0.12072128
57	0x3ef0bb0c	0.47017705
58	0x3e207a66	0.15671691
59	0x3f655d8a	0.89595854
60	0x3e937c89	0.2880595
61	0xbee14834	-0.440004
62	0xbe26c322	-0.16285375
63	0x3e0b1942	0.13583854
64	0x3f057fa5	0.52147895
65	0xbe8a06b8	-0.2695825
66	0x3e0f3311	0.13984324
67	0xbf2872c6	-0.6580013
68	0xbf454a30	-0.77066326
69	0xbe8d8805	-0.27642837
70	0x3f33279f	0.6998233
71	0x3f186c0a	0.59539855
72	0x3dbeb5b7	0.09312003
73	0xbe286276	-0.1644381
74	0xbd5b4c11	-0.05353934
75	0xbf36d186	-0.7141346
76	0xbdac3ffc	-0.084106416
77	0xbcd72276	-0.02626155
78	0x3ea635dd	0.3246297
79	0xbdb9aa4d	-0.090656854
80	0x3e58c653	0.21169405
81	0x3b35849e	0.0027697454
82	0x3e923c7a	0.28561765
83	0x3eef8cf8	0.46787238
84	0x3e359978	0.17734325
85	0xbda0eb72	-0.07857408
86	0x3f329e7b	0.6977307
87	0xbeadf911	-0.33979085
88	0x3ea20e0f	0.3165135
89	0x3f94e41e	1.1632116
90	0xbf56951d	-0.8382128
91	0xbf6bdb82	-0.9213182
92	0xbf6005ce	-0.8750886
93	0xbf608997	-0.87709945
94	0x3ea665eb	0.32499632
95	0xbf68df83	-0.9096605
96	0x3f3c63f4	0.73590016
97	0x3dc6492f	0.096819274
98	0x3ea764dd	0.3269414
99	0x3ed97114	0.42469084
100	0xbea9393a	-0.33051473
101	0x3d9e2690	0.07722199
102	0xbf3cde52	-0.73776734
103	0xbf983444	-1.189095
104	0x3e6b8a42	0.2300196
105	0xbe720570	-0.23634887
106	0x3f2db42b	0.6785304
107	0xbea93256	-0.33046216
108	0x3f2b1cfb	0.66841096
109	0xbf231cec	-0.63716006
110	0xbec34d25	-0.38144794
111	0xbf0c97ec	-0.54919314
112	0x3e503342	0.20332053
113	0xbf71f833	-0.94519347
114	0x3e3fe2ca	0.18738857
115	0xbf25a0d2	-0.6469852
116	0xbef208c7	-0.47272322
117	0x3e605195	0.21906121
118	0xbed4af4a	-0.41539985
119	0xbf2385c9	-0.63876015
120	0x3ef122a0	0.4709673
121	0x3e3ff78d	0.18746777
122	0xbda1ecc2	-0.07906486
123	0x3ee11ff8	0.43969703
124	0x3daf8dd9	0.08571977
125	0x3f4a5a1c	0.79043746
126	0xbeba1f33	-0.36351928
127	0xbe526b8c	-0.20548838
128	0xbf0ed6ae	-0.55796325
129	0xbe8a4218	-0.2700355
130	0xbed95ad6	-0.42452115
131	0xbe882c49	-0.26596287
132	0xbdf531bc	-0.11972377
133	0x3f19fc94	0.6015103
134	0x3f03f3dd	0.5154398
135	0x3cd6f82d	0.026241386
136	0x3eb03395	0.34414354
137	0xbf5a04ae	-0.8516339
138	0x3ec84e34	0.39122164
139	0x3cb25f6f	0.021774022
140	0xbf12cd1f	-0.5734424
141	0x3f062d1d	0.5241259
142	0x3ed58f81	0.41711047
143	0xbeab9adb	-0.33516583
144	0xbf55584c	-0.83337855
145	0xbe084e26	-0.13311061
146	0x3f70f84c	0.9412887
147	0x3eaab394	0.33340132
148	0xbede47bd	-0.43414107
149	0x3ee196af	0.44060275
150	0xbf336e0c	-0.70089793
151	0x3e23c7f4	0.15994245
152	0xbe780625	-0.24221094
153	0x3f695df3	0.9115898
154	0xbc915b10	-0.017743617
155	0xbf4f7db4	-0.8105118
156	0xbe09606d	-0.1341569
157	0xbe8e75b6	-0.2782418
158	0xbea9f2d5	-0.3319308
159	0xbf41007d	-0.7539137
160	0xbf33f03d	-0.7028845
161	0xbd0657c8	-0.03279856
162	0xbf598a9e	-0.8497714
163	0xbde478a1	-0.11155821
164	0x3f343d47	0.70406
165	0x3dfb8156	0.12280528
166	0xbe92ce62	-0.28673083
167	0xbf4f8cb9	-0.810741
168	0x3ef508f2	0.47858387
169	0x3dd13710	0.102155805
170	0xbec09431	-0.3761306
171	0xbf0cd900	-0.55018616
172	0xbf3f589d	-0.7474459
173	0x3e0c5389	0.13703741
174	0x3ef72338	0.48269057
175	0xbf813886	-1.0095375
176	0x3e5d6b82	0.21623042
177	0x3e48c9a9	0.19608177
178	0xbe269444	-0.16267496
179	0x3e04ffe4	0.1298824
180	0xbf68c3bf	-0.90923685
181	0xbd7127ad	-0.05887573
182	0x3edb2e30	0.42808676
183	0xbeb6cbeb	-0.35702452
184	0xbecb8a10	-0.3975377
185	0x3e778ea6	0.2417551
186	0x3e815403	0.25259408
187	0x3ba96c54	0.0051703844
188	0x3e234e51	0.15947844
189	0x3f2d0ab8	0.6759448
190	0xbeced83b	-0.40399346
191	0x3deb7af1	0.114980586
192	0x3f086e5f	0.5329341
193	0xbee1e7aa	-0.44122058
194	0x3f367674	0.71274495
195	0xbdfdfd57	-0.12401836
196	0xbf3ea61b	-0.74472207
197	0x3d0e83b7	0.03479358
198	0x3f80aefb	1.00534
199	0xbe53926c	-0.20661324
200	0x3e2a8320	0.16651583
201	0x3e2c2499	0.16810836
202	0x3f5b76ea	0.85728323
203	0xbf5553d0	-0.8333101
204	0x3cf8e3c9	0.030382054
205	0x3e9761b3	0.29566726
206	0x3f2a7464	0.6658385
207	0xbe793da3	-0.24339919
208	0x3eea3456	0.45743054
209	0x3d1db914	0.038506582
210	0x3ed7c29b	0.4214066
211	0xbdd8f7fc	-0.10594174
212	0xbdf12c77	-0.11776059
213	0xbefbfff4	-0.49218714
214	0xbf05388a	-0.52039397
215	0xbe819074	-0.2530552
216	0xbf27f8c9	-0.6561399
217	0xbe94fb7a	-0.2909811
218	0x3f649260	0.8928585
219	0xbf1cb6fa	-0.612167
220	0x3e6d5f02	0.23180774
221	0xbe2d1e5d	-0.16906114
222	0x3f4ac12b	0.79201
223	0x3eeb2cc9	0.45932606
224	0x3f33a3db	0.701719
225	0xbf36ae20	-0.71359444
226	0xbe89216d	-0.26783314
227	0xbeafed70	-0.34360838
228	0xbdbef74b	-0.09324511
229	0xbf305053	-0.68872565
230	0xbc105909	-0.00881029
231	0x3e83b8c2	0.25726897
232	0xbf08c80c	-0.5343025
233	0x3db18ded	0.08669648
234	0x3dc68f7c	0.09695336
235	0x3e18fd9b	0.14940493
236	0xbf42a492	-0.76032364
237	0x3cd18421	0.0255757
238	0x3edc531e	0.43032163
239	0x3c2a30a6	0.010387575
240	0x3e49f234	0.197213
241	0x3e47967b	0.19490997
242	0xbe0a5e6a	-0.13512579
243	0xbf1c042c	-0.60943866
244	0x3fbb03fa	1.4610589
245	0xbf591612	-0.847993
246	0x3ec1b877	0.37836048
247	0xbf452140	-0.7700386
248	0xbe22d481	-0.15901376
249	0x3ee91763	0.45525655
250	0x3e60d2c2	0.21955398
251	0x3f00bcd6	0.5028814
252	0xbe263897	-0.16232525
253	0x3e87bb48	0.26510072
254	0x3e2ab034	0.16668779
255	0x3dce9ec6	0.100888774

items_id f4 [1154, 63]
0	0x3f0de15a	0.55421984
1	0x3f0a9833	0.5413849
2	0x3e2fc413	0.1716464
3	0xbde31348	-0.11087662
4	0x3ded7bf3	0.11595907
5	0x3ed8cd46	0.4234411
6	0x3efa2897	0.48859093
7	0x3f05810e	0.52150047
8	0x3f0a3c99	0.53998715
9	0xbec41e33	-0.3830429
10	0x3f16a162	0.5884
11	0xbddcc690	-0.1078006
12	0xbeb13622	-0.34611613
13	0x3ef39d10	0.47580767
14	0x3eda8af7	0.42684147
15	0xbec622d1	-0.38698438
16	0xbde1c883	-0.11024573
17	0xbe893670	-0.26799345
18	0x3e9c01fe	0.3047027
19	0x3f245e7c	0.6420667
20	0x3f15809d	0.58399373
21	0x3ec53475	0.38516584
22	0xbea07ba5	-0.31344333
23	0x3e812ffc	0.25231922
24	0xbe78fee2	-0.2431598
25	0x3cf83027	0.030296398
26	0x3e9bdf4f	0.30443808
27	0x3e69de1e	0.22838637
28	0xbe620992	-0.22073963
29	0xbea572fc	-0.3231429
30	0x3ecacd23	0.39609632
31	0x3e06266b	0.13100593
32	0xbe13ba2b	-0.14426486
33	0xbeda7e30	-0.42674398
34	0x3e714cbd	0.2356443
35	0x3e6dc1a2	0.23218396
36	0x3f378c45	0.7169841
37	0x3e9d2f4a	0.3070014
38	0xbe9694da	-0.2941044
39	0xbe4fc188	-0.2028867
40	0xbe806348	-0.25075746
41	0x3e81574d	0.25261918
42	0x3e8e812e	0.2783293
43	0xbf09a8f2	-0.53773415
44	0xbf0d6778	-0.55236006
45	0xbe6b8717	-0.23000751
46	0x3edf7dde	0.43650717
47	0x3d455f1b	0.048186403
48	0x3dc22633	0.09479942
49	0xbe9e4f90	-0.30920076
50	0xbe920a7b	-0.2852362
51	0x3d3dea02	0.046365745
52	0x3e500005	0.20312507
53	0xbcecacde	-0.028891023
54	0xbf21dda3	-0.63228816
55	0x3e59bba7	0.2126299
56	0xbf0c69e9	-0.54849106
57	0x3c29f4ff	0.010373353
58	0xbe9c4dee	-0.30528206
59	0xbe079e63	-0.13244013
60	0x3e937995	0.28803697
61	0xbe220123	-0.15820746
62	0x3ed30d1c	0.4122094
63	0x3e2b3c7c	0.16722292
64	0x3e89a24b	0.26881632
65	0x3e104e65	0.14092405
66	0xbcdcb72d	-0.026942814
67	0x3ef66509	0.4812396
68	0x3d99e2e7	0.07513981
69	0x3f0ab629	0.54184204
70	0x3d97b59f	0.07407688
71	0x3d2ca866	0.042152785
72	0xbd659f5d	-0.056060184
73	0xbbca17d8	-0.006167393
74	0xbce3977f	-0.0277822
75	0xbe67e174	-0.22644597
76	0x3d22e46a	0.039768614
77	0x3b9d6166	0.0048028706
78	0xbe5378b7	-0.20651518
79	0xbe8916e8	-0.2677529
80	0xbe003576	-0.12520394
81	0x3e685ae2	0.22690919
82	0x3c4952bf	0.012287795
83	0x3e84176e	0.25799125
84	0x3e8798ba	0.2648371
85	0xbd9cb607	-0.076519065
86	0x3ea2d903	0.31806192
87	0xbe4408fd	-0.19144054
88	0xbe49bae8	-0.19700205
89	0x3d737e51	0.059446637
90	0x3cf8eab2	0.030385349
91	0x3c6baa0a	0.014383802
92	0x3c7c7023	0.015407595
93	0xbcc3b68c	-0.023890756
94	0x3dc33f9d	0.09533618
95	0xbe37ee42	-0.17961982
96	0xbe82cfa3	-0.2554904
97	0x3e50cf9e	0.203917
98	0x3de0e4f2	0.10981168
99	0x3e9bc19d	0.30421153
100	0x3e09f8e1	0.13473846
101	0xbda28c9d	-0.07936976
102	0xbda9c251	-0.08289016
103	0xbe02f4f9	-0.12788762
104	0x3e69bee4	0.22826725
105	0xbccd402b	-0.025055012
106	0xbd93bede	-0.072141394
107	0xbe5f7765	-0.21822889
108	0xbd8ca26a	-0.068669155
109	0x3c1b0f98	0.009464167
110	0xbdf5da6e	-0.12004553
111	0x3db4409a	0.08801384
112	0xbb9e90af	-0.004839025
113	0xbd0cba1c	-0.034357175
114	0x3d150ba4	0.036388054
115	0x3e48ec02	0.1962128
116	0x3e67d9d0	0.22641683
117	0x3d98b266	0.07455902
118	0x3e4d7469	0.20063938
119	0xbeacd82f	-0.33758685
120	0xbdf892d3	-0.121373795
121	0x3c868616	0.016421359
122	0xbe0192f2	-0.12653711
123	0xbc3535e1	-0.011060209
124	0xbe849c77	-0.25900623
125	0x3d73e24d	0.05954199
126	0x3e9decc5	0.30844703
127	0x3eb0e914	0.34552824
128	0x3e125e43	0.1429377
129	0xbdfb618f	-0.12274467
130	0x3ea21cf7	0.31662723
131	0x3e7d0a61	0.2471099
132	0x3e130d76	0.14360604
133	0x3e03f52d	0.12886496
134	0x3eb7ab2b	0.35872778
135	0xbe8c3d77	-0.27390644
136	0x3ebca6e0	0.36846066
137	0xbe8249d0	-0.2544694
138	0xbe8661aa	-0.26246387
139	0x3dfeb7a8	0.124373734
140	0x3e1b8ec5	0.15191181
141	0xbdf4e9df	-0.1195867
142	0xbe4ccc1a	-0.19999734
143	0x37b09e27	2.105448e-05
144	0x3d82efad	0.06393371
145	0x3e4f8910	0.20267129
146	0x3e9c5df2	0.30540425
147	0x3e76a43e	0.24086091
148	0xbe3d3ea7	-0.18480931
149	0x3e592111	0.2120402
150	0xbdb07db6	-0.086177275
151	0xbd522392	-0.051303454
152	0x3d528fdc	0.051406726
153	0x3e69a7df	0.22817944
154	0xbdb0adac	-0.08626875
155	0xbcc5ee47	-0.024161471
156	0x3e73c5af	0.23805879
157	0x3d020d11	0.031750742
158	0xbe840376	-0.2578389
159	0xbeaa116f	-0.33216426
160	0x3dfdb7fc	0.12388608
161	0x3d8b7ed5	0.06811301
162	0x3ebaf1e9	0.36512688
163	0x3dab850f	0.08374988
164	0xbdb9ec23	-0.09078243
165	0xbe7467b9	-0.23867692
166	0xbe114ffa	-0.14190665
167	0x3da32165	0.07965354
168	0x3e74c47e	0.23903081
169	0xbe9e6bff	-0.3094177
170	0xbe72cd67	-0.23711167
171	0xbe5492b0	-0.20759082
172	0x3e0bd460	0.13655233
173	0xbe06e886	-0.13174638
174	0x3da5e97f	0.081011765
175	0xbe42fcac	-0.19041699
176	0xbe7f5d45	-0.24937923
177	0x3d958f2f	0.07302701
178	0x3e4ab039	0.19793786
179	0x3e3181be	0.17334649
180	0xbebb8ea8	-0.36632276
181	0xba9b224c	-0.0011835783
182	0xbe721b02	-0.23643115
183	0xbd35d2d7	-0.044390526
184	0xbdcbce00	-0.09951401
185	0xbe1aaad8	-0.15104234
186	0x3d4a0e08	0.049329787
187	0xbe10780c	-0.14108294
188	0x3e8c0aae	0.27351898
189	0x3ec325eb	0.38114867
190	0x3e02df66	0.12780532
191	0x3e1e7715	0.15475114
192	0xbe8152e9	-0.25258568
193	0x3e55f57c	0.20894426
194	0x3da0d6a5	0.0785344
195	0x3ea7fd95	0.32810655
196	0x3e98c36d	0.29836598
197	0x3eb3c91c	0.35114372
198	0xbe8076c9	-0.25090626
199	0x3e07a170	0.13245177
200	0xbe6a4e7c	-0.22881502
201	0xbe0867ce	-0.13320848
202	0x3e7c3089	0.2462789
203	0x3e219632	0.15779951
204	0xbea75619	-0.32682875
205	0xbe4fea06	-0.20304117
206	0xbe228b0d	-0.15873356
207	0x3da4925d	0.08035729
208	0x3e19938f	0.14997695
209	0x3eb13b39	0.34615496
210	0x3dd7f55f	0.10544848
211	0xbd987428	-0.0744403
212	0x3d7649dc	0.06012903
213	0xbda544e0	-0.080697775
214	0xbe1d01bd	-0.15332694
215	0x3e452014	0.19250518
216	0x3e26ec41	0.16301061
217	0xbe592fbc	-0.21209615
218	0xbe03022e	-0.127938
219	0x3e98f77f	0.29876325
220	0x3e001d6a	0.1251122
221	0xbd4e2326	-0.05032649
222	0xbe79630f	-0.24354194
223	0x3e8d2c07	0.27572653
224	0x3daf525b	0.0856063
225	0x3e6c6d02	0.23088458
226	0x3d46afd3	0.048507523
227	0xbe66436c	-0.22486657
228	0xbe42c0cc	-0.19018859
229	0xbe1bd1db	-0.15216772
230	0x3d8efe92	0.06982149
231	0x3db62fb4	0.088958174
232	0xbeb19fb0	-0.34692144
233	0xbe1fe269	-0.15613712
234	0xbd1eee30	-0.038801372
235	0x3d93ee6f	0.07223212
236	0xbc9299e9	-0.017895656
237	0xbd6ec1b6	-0.058290206
238	0xbe5e8e4b	-0.21733968
239	0xbe09f48f	-0.13472198
240	0x3d9b9a02	0.07597734
241	0x3db38f9d	0.087676264
242	0x3e322940	0.17398548
243	0xbec03415	-0.37539735
244	0x3e57f396	0.21089014
245	0xbe38910e	-0.18024084
246	0xbda1a029	-0.07891876
247	0xbd274e96	-0.04084643
248	0xbdb1fa2e	-0.08690296
249	0x3e151113	0.14557295
250	0xbe82a728	-0.25518155
251	0x3e1e525a	0.15461102
252	0x3ea82132	0.32837826
253	0x3e5ecbdc	0.21757454
254	0x3e780308	0.24219906
255	0x3bc2a668	0.0059402473

item_pop f4 [1154, 1]
0	0x3f800000	1.0
1	0x3f50e41b	0.8159806
2	0x3f5991aa	0.8498789
3	0x3f5d49c3	0.86440676
4	0x3f4e6960	0.8062954
5	0x3f4e6960	0.8062954
6	0x3f4c8d54	0.7990315
7	0x3f4027ac	0.75060534
8	0x3f395629	0.72397095
9	0x3f377a1d	0.71670705
10	0x3f2d8f30	0.6779661
11	0x3f363cbf	0.7118644
12	0x3f2442f2	0.6416465
13	0x3f208ad9	0.62711865
14	0x3f2899b9	0.6585956
15	0x3f26bdad	0.6513317
16	0x3f2266e5	0.63438255
17	0x3f1d716f	0.6150121
18	0x3f2266e5	0.63438255
19	0x3f110bc7	0.56658596
20	0x3f142531	0.5786925
21	0x3f14c3e0	0.5811138
22	0x3f085e38	0.53268766
23	0x3f0e910c	0.55690074
24	0x3f0df25d	0.5544794
25	0x3f0368c1	0.51331717
26	0x3f0720da	0.527845
27	0x3f0368c1	0.51331717
28	0x3f00ee06	0.50363195
29	0x3ef57664	0.47941887
30	0x3f05e37d	0.52300245
31	0x3f02ca13	0.5108959
32	0x3f00ee06	0.50363195
33	0x3f004f57	0.50121063
34	0x3ee910bc	0.4552058
35	0x3ef1be4c	0.47215497
36	0x3f02ca13	0.5108959
37	0x3ef92e7d	0.4866828
38	0x3f02ca13	0.5108959
39	0x3ee1a08b	0.44067797
40	0x3ee2dde8	0.44309926
41	0x3efba938	0.4915254
42	0x3ef92e7d	0.4866828
43	0x3f0720da	0.527845
44	0x3ee910bc	0.4552058
45	0x3ee910bc	0.4552058
46	0x3edcab14	0.43099272
47	0x3ee41b46	0.44552058
48	0x3ee0632d	0.43825665
49	0x3ee558a4	0.4479419
50	0x3eea4e1a	0.45762712
51	0x3eeb8b78	0.46004844
52	0x3ed67840	0.41888618
53	0x3ee41b46	0.44552058
54	0x3ee2dde8	0.44309926
55	0x3ee2dde8	0.44309926
56	0x3eecc8d5	0.46246973
57	0x3ee558a4	0.4479419
58	0x3ed67840	0.41888618
59	0x3eda3059	0.4261501
60	0x3ec8d53b	0.39225182
61	0x3edde872	0.43341404
62	0x3ed7b59e	0.4213075
63	0x3edcab14	0.43099272
64	0x3eca1298	0.3946731
65	0x3ecc8d54	0.39951575
66	0x3eda3059	0.4261501
67	0x3ed53ae3	0.4164649
68	0x3eca1298	0.3946731
69	0x3ec797dd	0.3898305
70	0x3ed182ca	0.40920097
71	0x3ecc8d54	0.39951575
72	0x3ebeea4e	0.37288135
73	0x3edf25d0	0.43583536
74	0x3eca1298	0.3946731
75	0x3ed3fd85	0.41404358
76	0x3ec027ac	0.37530267
77	0x3ed182ca	0.40920097
78	0x3ecb4ff6	0.39709443
79	0x3ecf080f	0.40435836
80	0x3ec797dd	0.3898305
81	0x3eb63cbf	0.3559322
82	0x3eb8b77a	0.36077482
83	0x3ec797dd	0.3898305
84	0x3eb14749	0.346247
85	0x3eb8b77a	0.36077482
86	0x3ec3dfc4	0.38256657
87	0x3ec51d22	0.3849879
88	0x3eb9f4d8	0.36319613
89	0x3eb63cbf	0.3559322
90	0x3ebc6f93	0.36803874
91	0x3ebeea4e	0.37288135
92	0x3eac51d2	0.33656174
93	0x3eb3c204	0.3510896
94	0x3eac51d2	0.33656174
95	0x3eb009eb	0.34382567
96	0x3eb4ff61	0.3535109
97	0x3eb8b77a	0.36077482
98	0x3ea9d717	0.33171913
99	0x3ebb3235	0.36561742
100	0x3ead8f30	0.33898306
101	0x3eaecc8d	0.34140435
102	0x3eb63cbf	0.3559322
103	0x3eb009eb	0.34382567
104	0x3eb284a6	0.34866828
105	0x3ea61efe	0.3244552
106	0x3ea4e1a1	0.3220339
107	0x3eb009eb	0.34382567
108	0x3eaecc8d	0.34140435
109	0x3ea4e1a1	0.3220339
110	0x3eab1475	0.33414045
111	0x3ea61efe	0.3244552
112	0x3eb77a1d	0.35835353
113	0x3e973e9b	0.29539952
114	0x3ea4e1a1	0.3220339
115	0x3ea3a443	0.3196126
116	0x3ea4e1a1	0.3220339
117	0x3ea75c5c	0.32687652
118	0x3ea61efe	0.3244552
119	0x3e9d716f	0.30750605
120	0x3ea266e5	0.31719127
121	0x3ea4e1a1	0.3220339
122	0x3ea4e1a1	0.3220339
123	0x3eac51d2	0.33656174
124	0x3e9eaecd	0.30992737
125	0x3e973e9b	0.29539952
126	0x3e94c3e0	0.2905569
127	0x3e9c3411	0.30508474
128	0x3e9af6b4	0.30266345
129	0x3ea12988	0.31476998
130	0x3ea266e5	0.31719127
131	0x3e96013d	0.2929782
132	0x3ea266e5	0.31719127
133	0x3e910bc7	0.28329298
134	0x3e8ad8f3	0.27118644
135	0x3e924925	0.2857143
136	0x3e910bc7	0.28329298
137	0x3e99b956	0.30024213
138	0x3e94c3e0	0.2905569
139	0x3e973e9b	0.29539952
140	0x3e8d53ae	0.27602905
141	0x3e910bc7	0.28329298
142	0x3e973e9b	0.29539952
143	0x3e85e37d	0.26150122
144	0x3e899b95	0.26876512
145	0x3e910bc7	0.28329298
146	0x3e8ad8f3	0.27118644
147	0x3e924925	0.2857143
148	0x3e8c1651	0.27360776
149	0x3e885e38	0.26634383
150	0x3e7f6151	0.24939467
151	0x3e8e910c	0.27845037
152	0x3e910bc7	0.28329298
153	0x3ea12988	0.31476998
154	0x3e910bc7	0.28329298
155	0x3e910bc7	0.28329298
156	0x3e8d53ae	0.27602905
157	0x3e8368c1	0.25665858
158	0x3e8ad8f3	0.27118644
159	0x3e8ad8f3	0.27118644
160	0x3e973e9b	0.29539952
161	0x3e94c3e0	0.2905569
162	0x3e8e910c	0.27845037
163	0x3e885e38	0.26634383
164	0x3e924925	0.2857143
165	0x3e8ad8f3	0.27118644
166	0x3e822b64	0.2542373
167	0x3e8d53ae	0.27602905
168	0x3e7f6151	0.24939467
169	0x3e94c3e0	0.2905569
170	0x3e8fce69	0.28087166
171	0x3e99b956	0.30024213
172	0x3e822b64	0.2542373
173	0x3e899b95	0.26876512
174	0x3e8368c1	0.25665858
175	0x3e973e9b	0.29539952
176	0x3e8c1651	0.27360776
177	0x3e84a61f	0.2590799
178	0x3e84a61f	0.2590799
179	0x3e8e910c	0.27845037
180	0x3e7ce696	0.24697337
181	0x3e6e0633	0.23244552
182	0x3e7f6151	0.24939467
183	0x3e7a6bdb	0.24455206
184	0x3e7ce696	0.24697337
185	0x3e8d53ae	0.27602905
186	0x3e885e38	0.26634383
187	0x3e6b8b78	0.23002422
188	0x3e7a6bdb	0.24455206
189	0x3e7ce696	0.24697337
190	0x3e84a61f	0.2590799
191	0x3e8ad8f3	0.27118644
192	0x3e899b95	0.26876512
193	0x3e8720da	0.2639225
194	0x3e4dcab1	0.20096852
195	0x3e77f120	0.24213076
196	0x3e5cab14	0.21549636
197	0x3e822b64	0.2542373
198	0x3e8368c1	0.25665858
199	0x3e8ad8f3	0.27118644
200	0x3e7a6bdb	0.24455206
201	0x3e5f25d0	0.21791768
202	0x3e85e37d	0.26150122
203	0x3e7f6151	0.24939467
204	0x3e6910bc	0.2276029
205	0x3e6910bc	0.2276029
206	0x3e5f25d0	0.21791768
207	0x3e57b59e	0.21065375
208	0x3e5a3059	0.21307506
209	0x3e669601	0.2251816
210	0x3e6e0633	0.23244552
211	0x3e5f25d0	0.21791768
212	0x3e61a08b	0.22033899
213	0x3e6910bc	0.2276029
214	0x3e7a6bdb	0.24455206
215	0x3e669601	0.2251816
216	0x3e641b46	0.22276029
217	0x3e50456c	0.20338982
218	0x3e5cab14	0.21549636
219	0x3e50456c	0.20338982
220	0x3e669601	0.2251816
221	0x3e5a3059	0.21307506
222	0x3e5a3059	0.21307506
223	0x3e641b46	0.22276029
224	0x3e6910bc	0.2276029
225	0x3e6910bc	0.2276029
226	0x3e48d53b	0.19612591
227	0x3e553ae3	0.20823245
228	0x3e48d53b	0.19612591
229	0x3e553ae3	0.20823245
230	0x3e61a08b	0.22033899
231	0x3e416509	0.18886198
232	0x3e52c028	0.20581114
233	0x3e5a3059	0.21307506
234	0x3e50456c	0.20338982
235	0x3e48d53b	0.19612591
236	0x3e5a3059	0.21307506
237	0x3e669601	0.2251816
238	0x3e50456c	0.20338982
239	0x3e5cab14	0.21549636
240	0x3e61a08b	0.22033899
241	0x3e52c028	0.20581114
242	0x3e465a80	0.1937046
243	0x3e553ae3	0.20823245
244	0x3e39f4d8	0.18159807
245	0x3e641b46	0.22276029
246	0x3e416509	0.18886198
247	0x3e43dfc4	0.19128329
248	0x3e5cab14	0.21549636
249	0x3e57b59e	0.21065375
250	0x3e48d53b	0.19612591
251	0x3e50456c	0.20338982
252	0x3e52c028	0.20581114
253	0x3e50456c	0.20338982
254	0x3e34ff61	0.17675544
255	0x3e48d53b	0.19612591

item_pop_true f4 [1154, 1]
0	0x3f800000	1.0
1	0x3f50e41b	0.8159806
2	0x3f5991aa	0.8498789
3	0x3f5d49c3	0.86440676
4	0x3f4e6960	0.8062954
5	0x3f4e6960	0.8062954
6	0x3f4c8d54	0.7990315
7	0x3f4027ac	0.75060534
8	0x3f395629	0.72397095
9	0x3f377a1d	0.71670705
10	0x3f2d8f30	0.6779661
11	0x3f363cbf	0.7118644
12	0x3f2442f2	0.6416465
13	0x3f208ad9	0.62711865
14	0x3f2899b9	0.6585956
15	0x3f26bdad	0.6513317
16	0x3f2266e5	0.63438255
17	0x3f1d716f	0.6150121
18	0x3f2266e5	0.63438255
19	0x3f110bc7	0.56658596
20	0x3f142531	0.5786925
21	0x3f14c3e0	0.5811138
22	0x3f085e38	0.53268766
23	0x3f0e910c	0.55690074
24	0x3f0df25d	0.5544794
25	0x3f0368c1	0.51331717
26	0x3f0720da	0.527845
27	0x3f0368c1	0.51331717
28	0x3f00ee06	0.50363195
29	0x3ef57664	0.47941887
30	0x3f05e37d	0.52300245
31	0x3f02ca13	0.5108959
32	0x3f00ee06	0.50363195
33	0x3f004f57	0.50121063
34	0x3ee910bc	0.4552058
35	0x3ef1be4c	0.47215497
36	0x3f02ca13	0.5108959
37	0x3ef92e7d	0.4866828
38	0x3f02ca13	0.5108959
39	0x3ee1a08b	0.44067797
40	0x3ee2dde8	0.44309926
41	0x3efba938	0.4915254
42	0x3ef92e7d	0.4866828
43	0x3f0720da	0.527845
44	0x3ee910bc	0.4552058
45	0x3ee910bc	0.4552058
46	0x3edcab14	0.43099272
47	0x3ee41b46	0.44552058
48	0x3ee0632d	0.43825665
49	0x3ee558a4	0.4479419
50	0x3eea4e1a	0.45762712
51	0x3eeb8b78	0.46004844
52	0x3ed67840	0.41888618
53	0x3ee41b46	0.44552058
54	0x3ee2dde8	0.44309926
55	0x3ee2dde8	0.44309926
56	0x3eecc8d5	0.46246973
57	0x3ee558a4	0.4479419
58	0x3ed67840	0.41888618
59	0x3eda3059	0.4261501
60	0x3ec8d53b	0.39225182
61	0x3edde872	0.43341404
62	0x3ed7b59e	0.4213075
63	0x3edcab14	0.43099272
64	0x3eca1298	0.3946731
65	0x3ecc8d54	0.39951575
66	0x3eda3059	0.4261501
67	0x3ed53ae3	0.4164649
68	0x3eca1298	0.3946731
69	0x3ec797dd	0.3898305
70	0x3ed182ca	0.40920097
71	0x3ecc8d54	0.39951575
72	0x3ebeea4e	0.37288135
73	0x3edf25d0	0.43583536
74	0x3eca1298	0.3946731
75	0x3ed3fd85	0.41404358
76	0x3ec027ac	0.37530267
77	0x3ed182ca	0.40920097
78	0x3ecb4ff6	0.39709443
79	0x3ecf080f	0.40435836
80	0x3ec797dd	0.3898305
81	0x3eb63cbf	0.3559322
82	0x3eb8b77a	0.36077482
83	0x3ec797dd	0.3898305
84	0x3eb14749	0.346247
85	0x3eb8b77a	0.36077482
86	0x3ec3dfc4	0.38256657
87	0x3ec51d22	0.3849879
88	0x3eb9f4d8	0.36319613
89	0x3eb63cbf	0.3559322
90	0x3ebc6f93	0.36803874
91	0x3ebeea4e	0.37288135
92	0x3eac51d2	0.33656174
93	0x3eb3c204	0.3510896
94	0x3eac51d2	0.33656174
95	0x3eb009eb	0.34382567
96	0x3eb4ff61	0.3535109
97	0x3eb8b77a	0.36077482
98	0x3ea9d717	0.33171913
99	0x3ebb3235	0.36561742
100	0x3ead8f30	0.33898306
101	0x3eaecc8d	0.34140435
102	0x3eb63cbf	0.3559322
103	0x3eb009eb	0.34382567
104	0x3eb284a6	0.34866828
105	0x3ea61efe	0.3244552
106	0x3ea4e1a1	0.3220339
107	0x3eb009eb	0.34382567
108	0x3eaecc8d	0.34140435
109	0x3ea4e1a1	0.3220339
110	0x3eab1475	0.33414045
111	0x3ea61efe	0.3244552
112	0x3eb77a1d	0.35835353
113	0x3e973e9b	0.29539952
114	0x3ea4e1a1	0.3220339
115	0x3ea3a443	0.3196126
116	0x3ea4e1a1	0.3220339
117	0x3ea75c5c	0.32687652
118	0x3ea61efe	0.3244552
119	0x3e9d716f	0.30750605
120	0x3ea266e5	0.31719127
121	0x3ea4e1a1	0.3220339
122	0x3ea4e1a1	0.3220339
123	0x3eac51d2	0.33656174
124	0x3e9eaecd	0.30992737
125	0x3e973e9b	0.29539952
126	0x3e94c3e0	0.2905569
127	0x3e9c3411	0.30508474
128	0x3e9af6b4	0.30266345
129	0x3ea12988	0.31476998
130	0x3ea266e5	0.31719127
131	0x3e96013d	0.2929782
132	0x3ea266e5	0.31719127
133	0x3e910bc7	0.28329298
134	0x3e8ad8f3	0.27118644
135	0x3e924925	0.2857143
136	0x3e910bc7	0.28329298
137	0x3e99b956	0.30024213
138	0x3e94c3e0	0.2905569
139	0x3e973e9b	0.29539952
140	0x3e8d53ae	0.27602905
141	0x3e910bc7	0.28329298
142	0x3e973e9b	0.29539952
143	0x3e85e37d	0.26150122
144	0x3e899b95	0.26876512
145	0x3e910bc7	0.28329298
146	0x3e8ad8f3	0.27118644
147	0x3e924925	0.2857143
148	0x3e8c1651	0.27360776
149	0x3e885e38	0.26634383
150	0x3e7f6151	0.24939467
151	0x3e8e910c	0.27845037
152	0x3e910bc7	0.28329298
153	0x3ea12988	0.31476998
154	0x3e910bc7	0.28329298
155	0x3e910bc7	0.28329298
156	0x3e8d53ae	0.27602905
157	0x3e8368c1	0.25665858
158	0x3e8ad8f3	0.27118644
159	0x3e8ad8f3	0.27118644
160	0x3e973e9b	0.29539952
161	0x3e94c3e0	0.2905569
162	0x3e8e910c	0.27845037
163	0x3e885e38	0.26634383
164	0x3e924925	0.2857143
165	0x3e8ad8f3	0.27118644
166	0x3e822b64	0.2542373
167	0x3e8d53ae	0.27602905
168	0x3e7f6151	0.24939467
169	0x3e94c3e0	0.2905569
170	0x3e8fce69	0.28087166
171	0x3e99b956	0.30024213
172	0x3e822b64	0.2542373
173	0x3e899b95	0.26876512
174	0x3e8368c1	0.25665858
175	0x3e973e9b	0.29539952
176	0x3e8c1651	0.27360776
177	0x3e84a61f	0.2590799
178	0x3e84a61f	0.2590799
179	0x3e8e910c	0.27845037
180	0x3e7ce696	0.24697337
181	0x3e6e0633	0.23244552
182	0x3e7f6151	0.24939467
183	0x3e7a6bdb	0.24455206
184	0x3e7ce696	0.24697337
185	0x3e8d53ae	0.27602905
186	0x3e885e38	0.26634383
187	0x3e6b8b78	0.23002422
188	0x3e7a6bdb	0.24455206
189	0x3e7ce696	0.24697337
190	0x3e84a61f	0.2590799
191	0x3e8ad8f3	0.27118644
192	0x3e899b95	0.26876512
193	0x3e8720da	0.2639225
194	0x3e4dcab1	0.20096852
195	0x3e77f120	0.24213076
196	0x3e5cab14	0.21549636
197	0x3e822b64	0.2542373
198	0x3e8368c1	0.25665858
199	0x3e8ad8f3	0.27118644
200	0x3e7a6bdb	0.24455206
201	0x3e5f25d0	0.21791768
202	0x3e85e37d	0.26150122
203	0x3e7f6151	0.24939467
204	0x3e6910bc	0.2276029
205	0x3e6910bc	0.2276029
206	0x3e5f25d0	0.21791768
207	0x3e57b59e	0.21065375
208	0x3e5a3059	0.21307506
209	0x3e669601	0.2251816
210	0x3e6e0633	0.23244552
211	0x3e5f25d0	0.21791768
212	0x3e61a08b	0.22033899
213	0x3e6910bc	0.2276029
214	0x3e7a6bdb	0.24455206
215	0x3e669601	0.2251816
216	0x3e641b46	0.22276029
217	0x3e50456c	0.20338982
218	0x3e5cab14	0.21549636
219	0x3e50456c	0.20338982
220	0x3e669601	0.2251816
221	0x3e5a3059	0.21307506
222	0x3e5a3059	0.21307506
223	0x3e641b46	0.22276029
224	0x3e6910bc	0.2276029
225	0x3e6910bc	0.2276029
226	0x3e48d53b	0.19612591
227	0x3e553ae3	0.20823245
228	0x3e48d53b	0.19612591
229	0x3e553ae3	0.20823245
230	0x3e61a08b	0.22033899
231	0x3e416509	0.18886198
232	0x3e52c028	0.20581114
233	0x3e5a3059	0.21307506
234	0x3e50456c	0.20338982
235	0x3e48d53b	0.19612591
236	0x3e5a3059	0.21307506
237	0x3e669601	0.2251816
238	0x3e50456c	0.20338982
239	0x3e5cab14	0.21549636
240	0x3e61a08b	0.22033899
241	0x3e52c028	0.20581114
242	0x3e465a80	0.1937046
243	0x3e553ae3	0.20823245
244	0x3e39f4d8	0.18159807
245	0x3e641b46	0.22276029
246	0x3e416509	0.18886198
247	0x3e43dfc4	0.19128329
248	0x3e5cab14	0.21549636
249	0x3e57b59e	0.21065375
250	0x3e48d53b	0.19612591
251	0x3e50456c	0.20338982
252	0x3e52c028	0.20581114
253	0x3e50456c	0.20338982
254	0x3e34ff61	0.17675544
255	0x3e48d53b	0.19612591

lr1.weight f4 [1, 63]
0	0x3d70bfa7	0.058776524
1	0x3ca6c11f	0.02035576
2	0x3ddd5409	0.10807044
3	0xbe463a90	-0.19358277
4	0x3e1c8562	0.15285257
5	0x3d07529e	0.033037774
6	0x3e13a5d6	0.1441873
7	0xbc014c23	-0.007891688
8	0x3b08f811	0.0020899812
9	0xbdf6ca69	-0.120503254
10	0xbc5c4d6c	-0.013446193
11	0xbe2f01de	-0.17090556
12	0xbd51249c	-0.051060304
13	0xbd028db5	-0.031873424
14	0x3a50607e	0.0007948949
15	0xbbf15c8a	-0.007365768
16	0xbdbebbf6	-0.093131945
17	0xbdf360ea	-0.11883719
18	0x3d01e93e	0.031716578
19	0xbcde4820	-0.027134001
20	0x3ca45911	0.020062001
21	0xbd407c05	-0.046993274
22	0xbd7a7155	-0.061143238
23	0x3d12d3da	0.03584657
24	0x3c3bf67c	0.011472341
25	0xbe4844c2	-0.19557479
26	0x3d5e673f	0.054297682
27	0x3e6dd181	0.2322445
28	0xbdab3047	-0.083588175
29	0xbdc7a4f8	-0.09748262
30	0x3d9eeed1	0.07760394
31	0x3e45469a	0.19265214
32	0xbd556262	-0.05209578
33	0xbd3c796a	-0.046014227
34	0x3d938a48	0.072041094
35	0x3d12b09d	0.035812963
36	0x3b8c8350	0.0042881146
37	0x3e177a85	0.14792831
38	0xbd9c962c	-0.076458305
39	0xbd94a684	-0.07258323
40	0x3d846d05	0.06466106
41	0x3d80b8de	0.062852606
42	0x3d951fa9	0.07281429
43	0xbc8c5221	-0.017129006
44	0xbc8c7c25	-0.01714904
45	0xbdf95e33	-0.1217617
46	0xbd6051d7	-0.05476555
47	0xbea65bf4	-0.3249203
48	0x3e83bf9e	0.2573213
49	0xbdd3b6c7	-0.103375964
50	0xbe0530f5	-0.13006957
51	0x3dc49d92	0.09600367
52	0x3e2a57d4	0.16635066
53	0x3e31f8d7	0.17380081
54	0xbcaeb027	-0.02132423
55	0x3e5adc76	0.21373162
56	0x39eb53a8	0.00044885022
57	0xbe83dd89	-0.25754955
58	0xbc13156c	-0.008977275
59	0xbe226123	-0.15857367
60	0x3d014e6e	0.031568937
61	0xbe181dea	-0.14855161
62	0x3bf42c9e	0.007451608
