pid/result/ml100k-PIDMF-debug2023-03-14-10-32-30/ckpt/epoch_4.pth (torch_old, 543278 bytes, 5 tensors)

users f4 [945, 64]
000000 ee 95 b9 3e 4d 53 a2 3c 42 35 fc 3c 8d 03 02 3e
       0.362472 0.019815112 0.030787114 0.12696667
000010 ae e5 5c bd 47 2e b3 3d 94 77 3e 3d b7 af df 3c
       -0.053929977 0.08749061 0.046500757 0.027305467
000020 c6 35 d6 bd fd 27 fb bd 35 f6 7f 3e 5b df 53 be
       -0.10459475 -0.122634865 0.24996264 -0.20690672
000030 6a 48 55 be 41 7e 38 3e ae c6 9f 3e 4d 52 bb bd
       -0.20828405 0.18016912 0.31206268 -0.09146557
000040 45 60 80 3e 8e 9d c6 3d 2e 63 91 3e 84 27 8b 3e
       0.25073448 0.0969802 0.2839598 0.27178586
000050 3e c5 70 3e 07 d0 2c 3d 1c df 1c be 24 f9 a4 bd
       0.23512742 0.042190578 -0.15319484 -0.08055332
000060 89 dc 5d 3d d4 35 19 3e 70 4e ab 3d e9 4a 6d bd
       0.054165397 0.1496194 0.0836457 -0.057932768
000070 32 7a 99 be ac 00 4e be c1 3c 46 bd 41 de 97 3a
       -0.2997604 -0.20117444 -0.048397783 0.0011586623
000080 65 dd 37 be 2a 25 92 be 6e ca 04 be 0b 3a 24 bd
       -0.17955549 -0.2854398 -0.12967846 -0.040094417
000090 6c 19 bc bb 47 ca 9a bc 74 53 4e be 8a 7c 5b be
       -0.005740335 -0.018895281 -0.20149022 -0.21434227
0000a0 6d 62 7c be 45 8d 31 3e 56 66 b4 3c cc 6a b8 bd
       -0.24646921 0.17339046 0.022021454 -0.09004745
0000b0 1b 2d 5d be 1a ce 2e be 23 8b 91 3e 16 09 05 3e
       -0.21599238 -0.17070809 0.28426465 0.12991747
0000c0 aa e7 25 be c2 ec 85 3c ba c2 42 be 9e 85 2b be
       -0.16201654 0.016348246 -0.19019595 -0.1675019
0000d0 a9 0b 66 3e 81 47 52 be e2 f3 0c be d7 f9 1a 3e
       0.22465385 -0.20535089 -0.13764909 0.15134369
0000e0 8a 43 d9 3b b6 e5 bb 3d d4 8e be bd 1f da 2f 3e
       0.0066303657 0.09174673 -0.09304586 0.1717305
0000f0 6e f2 22 3e 13 6b 22 be 68 87 9b 3d 50 c3 44 3e
       0.15912792 -0.15861158 0.07594186 0.19215131
000100 e8 c5 88 3e 1d 05 e0 bc 38 d0 b2 3d fd 60 f9 bd
       0.2671349 -0.027346188 0.08731121 -0.12176702
000110 e1 a9 83 be 7d 24 4e bd 0f b2 da 3d 2f d8 23 3e
       -0.25715545 -0.050327767 0.10678493 0.16000436
000120 a0 3a 57 3d d3 f5 20 be df e5 2f 3d 8f c3 20 be
       0.052546144 -0.15718774 0.04294383 -0.156996
000130 6e d3 d7 bd 8d 22 d1 3d 39 9c 64 3e 44 cd d0 bd
       -0.10538374 0.10211668 0.22325219 -0.10195401
000140 f2 5b 4d bc dd 58 08 bd c3 6d 20 3e b4 df 85 3e
       -0.0125341285 -0.03328787 0.15666871 0.26147234
000150 d8 bc 0c 3e cf 8a a0 3d 1f b7 27 3e 03 a4 c1 3b
       0.13743913 0.07838976 0.16378449 0.0059094443
000160 ba 07 8b 3d 6f 36 b6 3e 1f ea 6a be 7c 4e 84 be
       0.06788583 0.35588405 -0.22940873 -0.2584113
000170 cc 39 9e be 0f 5c 7d be b9 4d 1b 3e 14 a9 74 be
       -0.3090347 -0.24742149 0.15166368 -0.23892623
000180 f7 f7 77 3e fa b6 14 bd 1f d1 a7 3d cd ec ed 3d
       0.24215685 -0.036307313 0.081941836 0.11617432
000190 25 ec b0 3d cd 18 08 3d 08 6e 72 be f7 f1 a3 be
       0.08638791 0.033226777 -0.23674786 -0.32020542
0001a0 e7 0a 56 bd 1f 19 86 3c 34 27 84 3e ad 1c 75 be
       -0.05225649 0.0163694 0.2581116 -0.2393672
0001b0 70 42 c5 3d 20 41 0f be 64 c9 d8 bc bb 01 6b bc
       0.096318126 -0.13989687 -0.026463218 -0.014343674
0001c0 86 be 98 3b 10 f1 77 be e8 3b 9d 3d 25 14 d1 bd
       0.004661384 -0.24213052 0.07677442 -0.102089204
0001d0 9f 7a 81 bd ea 40 63 bc b4 21 67 be 8f b2 43 be
       -0.06322216 -0.013870457 -0.2257145 -0.19111083
0001e0 17 4a fe 3d d2 51 f5 3c 9c 82 b0 bd c2 c4 59 3d
       0.12416475 0.029946242 -0.08618662 0.05316616
0001f0 ff e3 13 3e 2a 30 2b 3e fc 6f ab 3c 98 2a 71 3d
       0.14442442 0.16717592 0.020927422 0.05887851
000200 90 95 43 bd f8 86 1c 3d 58 d9 62 bd 59 1b eb bd
       -0.047750056 0.038214654 -0.055383056 -0.114798255
000210 c6 1c 07 be 26 7c 8e 3e cc 1b 1c 3e a4 a0 24 3d
       -0.1319457 0.27829093 0.15244979 0.04019226
000220 a7 29 3e 3e e6 4e 4d be c5 fe 8c 3e aa bd 96 bd
       0.18570577 -0.20049629 0.27538124 -0.07360394
000230 ec 0d 51 be d6 35 63 3e b4 04 85 3e 2e 01 fa bd
       -0.20415467 0.22188506 0.2598015 -0.12207256
000240 05 10 f3 bd b9 a7 bd bd 17 2d 48 3e 01 53 12 3e
       -0.1186829 -0.09260506 0.1954845 0.14289476
000250 ff 15 a3 bd 4c fc 66 3d 5c 2e 4c be 3a dd 37 3e
       -0.0796318 0.056392953 -0.1993956 0.17955485
000260 84 62 27 be b9 2e 3b 3e 60 cf e1 3d 79 a1 7f be
       -0.16346174 0.18279542 0.11025882 -0.2496394
000270 53 6f d6 bc d3 bf b0 bd 8d cb bc bb cb 21 43 be
       -0.02617613 -0.086303376 -0.00576157 -0.1905586
000280 b1 e3 19 be f7 ec 96 bc e2 a9 10 be 4f 17 ce 3c
       -0.15028264 -0.01842354 -0.14127305 0.025157599
000290 33 e9 4c 3e fa 4b 7d 3d 10 94 b5 bd ac df 82 be
       0.20010833 0.061840035 -0.08866131 -0.25561273
0002a0 32 0d 86 3c 22 31 06 3e b2 ef d5 bc a3 69 82 be
       0.016363714 0.1310468 -0.026115272 -0.2547122
0002b0 d6 2d 61 be 2e 97 23 3d 4e fc 4a 3e bb 9c 69 be
       -0.21990141 0.039939098 0.19822809 -0.22813694
0002c0 0e e3 64 3d 51 a0 84 bd 06 ab 46 bd 09 08 11 3a
       0.0558806 -0.064758904 -0.048502944 0.00055325084
0002d0 28 2f 26 be 2c b1 87 bb 26 17 80 3d 0b 33 ec bd
       -0.16228926 -0.0041409936 0.06254415 -0.11533173
0002e0 97 d7 6c bd 9d 6a ec 3d dc 5d 74 3d 5e 32 07 3e
       -0.05782279 0.11543772 0.059659824 0.13202807
0002f0 4f a2 05 3e 4f 1f 9c 3e a4 2b 43 bc 19 a3 8e 3e
       0.13050197 0.30492637 -0.01191226 0.2785881
000300 43 bc 75 3e 45 f6 0f bc ac 7a 79 3e f1 50 41 3d
       0.23997597 -0.008786743 0.24363202 0.047196332
000310 c6 59 8a be d2 c4 1d 3e 18 73 3c 3e 53 cf 53 3d
       -0.27021617 0.15407112 0.1840328 0.05171139
000320 59 1c dd 3d 35 e7 64 bd f3 78 bf 3e b3 fa 6e be
       0.107964225 -0.05588456 0.37396964 -0.23337822
000330 be 9d f3 bd f9 32 38 3e 8b df a4 3e 01 7c 92 bd
       -0.11895321 0.17988195 0.322018 -0.07152558
000340 77 e6 e4 3d 09 4f ff bc 33 b9 2a 3e 17 e1 1a 3e
       0.1117677 -0.031165617 0.1667221 0.15124927
000350 6e 36 0e 3d 28 ce 6f bd 41 05 1b be a1 db a1 3c
       0.034719877 -0.058546215 -0.15138723 0.019758048
000360 6d 25 69 be fb cf 49 3c 73 41 75 3e fa e5 3b be
       -0.22768183 0.012317653 0.23950748 -0.18349448
000370 30 07 27 3c 29 5b 09 be 7a c6 91 3e f9 cd b0 3c
       0.010194585 -0.13413681 0.28471738 0.02158259
000380 c8 d5 aa 3d 5a 97 8a be 64 ec 83 bd 1c 0e 80 bd
       0.08341557 -0.27068597 -0.06441572 -0.06252691
000390 6b 4d 53 3d 0b 75 d6 bd 5e 00 b3 bd e8 12 8d bd
       0.051587503 -0.10471543 -0.087403044 -0.06888372
0003a0 48 60 84 be 4c cb a8 3d 04 4d 00 3e 2c fe bb bd
       -0.25854707 0.08241901 0.12529379 -0.09179339
0003b0 ba b5 53 be d8 51 f3 3a 4e 2e 5b 3e a6 2c 8b 3d
       -0.20674792 0.001856382 0.21404383 0.067956254
0003c0 90 f3 8b bd 17 49 8a 3c 05 f4 a5 bd f1 dc af bd
       -0.06833565 0.016880555 -0.08103184 -0.08587063
0003d0 7d 53 a1 3e 45 c7 6f be 40 8d 88 bb 16 ac 38 be
       0.3150901 -0.23415859 -0.004167229 -0.18034396
0003e0 e5 9a fe bd 83 39 39 3e 4d 2e 6f bc ee 56 17 3e
       -0.124318875 0.18088345 -0.014598441 0.14779255
0003f0 b3 34 37 3d 2c 86 0f 3e 73 9d 2e 3d 20 56 31 3e
       0.044727992 0.14016026 0.042630624 0.1731801

items_id f4 [1154, 63]
000000 11 98 4c 3e 80 12 9d 3e cb 09 1b 3d 2c c1 bc bd
       0.19979884 0.30678177 0.037851136 -0.09216532
000010 65 db 0c 3e bb 2c 57 3e 6c 50 88 3e a6 e6 87 3e
       0.13755567 0.21013157 0.26623857 0.26543158
000020 b2 8a 68 3e 7c ee 7c be 4f b5 85 3e df 0c e1 bc
       0.22709158 -0.2470035 0.2611489 -0.027471958
000030 83 2b 02 be fa 32 4e 3e 93 9c 4a 3e 25 9a 4b be
       -0.12711911 0.20136634 0.19786291 -0.1988302
000040 63 85 00 bd ec 40 20 be 27 9a 09 3e 53 9d 8f 3e
       -0.031377207 -0.15649766 0.1343771 0.28049716
000050 d3 d2 5c 3e b1 40 66 3d 2a 72 5a be 12 a1 ae 3d
       0.21564798 0.05621404 -0.21332613 0.085268155
000060 46 32 b5 bd 6b e5 aa 3c aa 88 46 3e 4d f4 4c 3e
       -0.088474795 0.020861348 0.1938807 0.20015068
000070 81 ff e6 bd ff f7 50 be d0 9d 11 3e 7f fd 07 3e
       -0.11279202 -0.20407103 0.14220357 0.13280295
000080 05 9d 00 bd ba 5e 39 be e3 26 09 3e c2 93 ed 3d
       -0.031399745 -0.18102542 0.1339374 0.11600448
000090 33 df b2 3e a6 d9 5f 3e 45 8f 1a be c1 6e 69 bd
       0.34935912 0.2186037 -0.15093715 -0.05699039
0000a0 65 31 02 bd e6 b7 ff 3d 7a c7 22 3e 61 c4 44 be
       -0.031785388 0.12486248 0.15896407 -0.19215538
0000b0 3e 40 87 be 3b 5a 21 be 96 3c 4d 3e 10 1d 01 bd
       -0.264162 -0.15757076 0.20042643 -0.031521857
0000c0 90 6d 14 3e c8 97 56 be d6 69 3e be 99 7f ba 3c
       0.1449492 -0.20956337 -0.1859506 0.022765921
0000d0 a2 a8 04 3e d3 7b 6b bc 63 b1 84 be c7 19 39 3e
       0.12954953 -0.014372784 -0.25916585 0.1807624
0000e0 9b 16 85 be f0 31 47 bc ae a6 0b be be 23 b9 bd
       -0.2599381 -0.012157902 -0.13637802 -0.090400204
0000f0 75 ea e5 3d 3a 81 03 be 80 f7 11 3e e5 19 3e 3e
       0.1122636 -0.12842265 0.1425457 0.18564565
000100 d4 93 6c 3e 23 a1 26 3e 2f 97 ac bd e4 6f 30 3e
       0.23103267 0.16272406 -0.084272735 0.17230183
000110 fc 5c d8 3d 9e f0 5d 3e c7 41 2a 3d 04 5f d8 3d
       0.1056461 0.2167382 0.041566636 0.10564998
000120 81 fb 7c bd 66 b2 9d b9 68 cd c1 bc 3d 48 50 be
       -0.06176329 -0.0003007829 -0.023657516 -0.20340057
000130 d3 08 2a 3b b8 06 13 ba bb b9 f9 bd eb 9b 8e bd
       0.00259452 -0.0005608606 -0.121936284 -0.06963333
000140 ef e1 21 be 5b dc 37 3e 52 f3 87 3d d5 29 75 3e
       -0.15808843 0.17955153 0.066382065 0.23941739
000150 c4 6d 40 3e d2 5f 11 bd 15 16 73 3e bb 96 44 be
       0.18791872 -0.035491772 0.23738892 -0.19198124
000160 62 55 2f be d7 bb 4d 3d d1 c1 0b bc 90 89 51 bb
       -0.17122415 0.050227966 -0.008530096 -0.0031972863
000170 76 fd ed 3c aa d8 58 3d f7 00 a4 3d de b8 17 be
       0.029051524 0.052941002 0.080079965 -0.14816615
000180 53 d2 5d be e3 65 d7 3d b5 f0 a6 3d 12 4a 85 3e
       -0.21662264 0.1051748 0.0815138 0.26033074
000190 44 5f dd 3d 2c 00 64 bd 08 9b a1 bd 23 e9 9a bd
       0.10809186 -0.055664226 -0.07890898 -0.075639986
0001a0 a0 78 5c 3e b5 6f 78 bc b6 df 18 be 86 43 46 be
       0.2153039 -0.015163352 -0.14929089 -0.19361696
0001b0 2c d0 81 bd 04 6c 4f bc 80 0a da bd 6c 84 3b 3d
       -0.06338534 -0.01266003 -0.10646534 0.045780584
0001c0 5b 09 19 bd b3 8d 19 bd 7d 09 f1 3c d4 24 47 3e
       -0.037362438 -0.03748865 0.02942347 0.19447643
0001d0 8e a1 4f 3e 53 4a c0 bc 99 df 2c 3e d6 19 6d be
       0.20276472 -0.02347294 0.1688217 -0.23154387
0001e0 e9 64 f6 bd 36 b5 d5 3c 1d e6 ab bd c4 61 09 bd
       -0.12030966 0.026087385 -0.083935 -0.033540502
0001f0 a2 6b 03 be 67 e3 80 3c 0e 34 4c 3e 7d 69 77 3e
       -0.12834027 0.015733434 0.19941732 0.24161334
000200 37 e6 c7 3d 63 3e 29 be bf c0 82 3e 7e 65 2b 3e
       0.09760707 -0.16527705 0.2553768 0.16737935
000210 99 e8 25 3e 76 a8 99 3c c9 83 80 3e 7a e2 62 be
       0.1620201 0.018757086 0.25100544 -0.22156706
000220 9b fd 80 3e b3 70 61 be c5 b1 3d be 0e 8b b9 3c
       0.25193486 -0.22015648 -0.18524845 0.022649314
000230 db 2a ab 3d 02 fb a9 bc 89 5e 7d bd 61 36 62 3c
       0.083577834 -0.020749573 -0.061857734 0.01380691
000240 51 e3 2f bc d0 33 a4 3d 7a 23 2a 3e f9 3f f3 ba
       -0.010735349 0.08017695 0.16615096 -0.0018558494
000250 15 d3 0e be c3 a4 04 3e 76 8b ed bc 85 02 12 bd
       -0.13947709 0.12953477 -0.028997164 -0.035646934
000260 27 fd 00 bb a5 dd 56 3e 0f 91 0f bd a3 d1 aa 3c
       -0.001968214 0.20982988 -0.035050448 0.020851916
000270 41 73 27 3e 24 78 f2 3b da 11 4d be 5f 9e 6b be
       0.1635256 0.007399576 -0.20026341 -0.23009633
000280 fc 64 b1 3d 65 a8 ea 3c e1 0b 3b 3e 6e 14 cc 3c
       0.08661839 0.02864475 0.1826625 0.024912085
000290 ff 05 f4 bc 4f a0 39 be 5a 8f 0c bd e8 bc 7b 3b
       -0.029788015 -0.18127559 -0.0343164 0.0038412157
0002a0 a7 5e 43 3e 2d 6b 35 be f3 4f 1a be ca b3 3a be
       0.19079076 -0.17716666 -0.1506956 -0.18232647
0002b0 5f e4 97 3c fc 98 0f be b0 72 b9 3d 7e 5c 32 be
       0.018541513 -0.14023203 0.09055078 -0.17418095
0002c0 ed 38 5d be d3 80 e2 3c 4d c5 2f 3e 41 a8 2b 3e
       -0.21603747 0.027649319 0.17165108 0.16763403
0002d0 f8 bd 75 be dc ac 75 bc 8c 7b af bd 1c 68 bb bc
       -0.23998249 -0.014994826 -0.085684866 -0.022876792
0002e0 f7 37 06 bd 2b 73 f6 bd 5b b3 a6 bc 59 0d c6 bd
       -0.032768216 -0.12033685 -0.020349195 -0.096705146
0002f0 2e b2 36 3e 40 0d 87 3e 35 61 25 3d d2 30 c3 3d
       0.17841408 0.26377296 0.040375907 0.09530796
000300 ec 69 85 be 57 98 48 3e 53 18 fd 39 1b d1 6b 3e
       -0.26057374 0.19589363 0.00048274043 0.23028986
000310 2c 2b 5f 3e 46 a2 75 3e cb bb 54 be 92 29 66 3c
       0.21793813 0.23987684 -0.20774762 0.014047997
000320 db 0e 45 be e3 b4 96 bd bb 2e 2a 3e 92 e7 96 3d
       -0.19243948 -0.0735872 0.16619389 0.07368387
000330 88 f2 50 be 0d c6 14 be 52 55 08 be 6f 00 b2 3c
       -0.20405018 -0.14528675 -0.13313797 0.021728722
000340 30 cc 24 3d a5 16 5c 3e fe 3e 56 bb 0c 27 01 bd
       0.04023379 0.21493013 -0.0032691355 -0.03153138
000350 7c 1b 9c 3c a4 70 27 bd b9 53 12 be e5 93 10 3e
       0.019056074 -0.040878907 -0.1428975 0.14118917
000360 01 6b 19 3e 9f 86 3b be 26 d3 b2 bd 66 a5 5c 3e
       0.14982225 -0.18313073 -0.087316796 0.2154747
000370 2c 0a c5 3d e6 d4 9b bb ae ac 21 be 27 88 65 3e
       0.09621081 -0.004755604 -0.15788528 0.22415219
000380 fd 16 16 3d 04 9a 94 3d cb 46 05 3c fa 25 2d be
       0.036643017 0.07255939 0.008134554 -0.16909018
000390 79 c1 12 be 2a 14 8f bd 4b cf ec 3c 0a a9 38 3d
       -0.14331616 -0.06986268 0.028907439 0.045083083
0003a0 c6 7d 80 be 76 9d 05 bd 6d b6 a3 bb 20 e5 2c b9
       -0.25095958 -0.03262087 -0.004996112 -0.00016488554
0003b0 35 61 3b bd f1 2e f8 bc 47 96 3c be 49 2c bf bd
       -0.045747 -0.03029582 -0.18416701 -0.093346186
0003c0 32 f2 9d 3d 47 fc 5c 3d ac 8c 38 3e 45 9b 82 be
       0.07712211 0.053951528 0.18022412 -0.25509086
0003d0 de 18 4a 3e e0 9e 9c bd df b1 93 bd 75 eb b3 3c
       0.19736049 -0.076474905 -0.072116606 0.02196286
0003e0 f7 b5 5d bd 12 6e a8 3d b3 c9 41 be 4b 23 6d 3d
       -0.054128613 0.08224119 -0.18924598 0.057894986
0003f0 94 62 78 3e 14 a9 fc 3d a7 9c 5b 3e 4b 84 e4 bd
       0.24256355 0.123369366 0.21446477 -0.111580454

item_pop f4 [1154, 1]
000000 00 00 80 3f 1b e4 50 3f aa 91 59 3f c3 49 5d 3f
       1.0 0.8159806 0.8498789 0.86440676
000010 60 69 4e 3f 60 69 4e 3f 54 8d 4c 3f ac 27 40 3f
       0.8062954 0.8062954 0.7990315 0.75060534
000020 29 56 39 3f 1d 7a 37 3f 30 8f 2d 3f bf 3c 36 3f
       0.72397095 0.71670705 0.6779661 0.7118644
000030 f2 42 24 3f d9 8a 20 3f b9 99 28 3f ad bd 26 3f
       0.6416465 0.62711865 0.6585956 0.6513317
000040 e5 66 22 3f 6f 71 1d 3f e5 66 22 3f c7 0b 11 3f
       0.63438255 0.6150121 0.63438255 0.56658596
000050 31 25 14 3f e0 c3 14 3f 38 5e 08 3f 0c 91 0e 3f
       0.5786925 0.5811138 0.53268766 0.55690074
000060 5d f2 0d 3f c1 68 03 3f da 20 07 3f c1 68 03 3f
       0.5544794 0.51331717 0.527845 0.51331717
000070 06 ee 00 3f 64 76 f5 3e 7d e3 05 3f 13 ca 02 3f
       0.50363195 0.47941887 0.52300245 0.5108959
000080 06 ee 00 3f 57 4f 00 3f bc 10 e9 3e 4c be f1 3e
       0.50363195 0.50121063 0.4552058 0.47215497
000090 13 ca 02 3f 7d 2e f9 3e 13 ca 02 3f 8b a0 e1 3e
       0.5108959 0.4866828 0.5108959 0.44067797
0000a0 e8 dd e2 3e 38 a9 fb 3e 7d 2e f9 3e da 20 07 3f
       0.44309926 0.4915254 0.4866828 0.527845
0000b0 bc 10 e9 3e bc 10 e9 3e 14 ab dc 3e 46 1b e4 3e
       0.4552058 0.4552058 0.43099272 0.44552058
0000c0 2d 63 e0 3e a4 58 e5 3e 1a 4e ea 3e 78 8b eb 3e
       0.43825665 0.4479419 0.45762712 0.46004844
0000d0 40 78 d6 3e 46 1b e4 3e e8 dd e2 3e e8 dd e2 3e
       0.41888618 0.44552058 0.44309926 0.44309926
0000e0 d5 c8 ec 3e a4 58 e5 3e 40 78 d6 3e 59 30 da 3e
       0.46246973 0.4479419 0.41888618 0.4261501
0000f0 3b d5 c8 3e 72 e8 dd 3e 9e b5 d7 3e 14 ab dc 3e
       0.39225182 0.43341404 0.4213075 0.43099272
000100 98 12 ca 3e 54 8d cc 3e 59 30 da 3e e3 3a d5 3e
       0.3946731 0.39951575 0.4261501 0.4164649
000110 98 12 ca 3e dd 97 c7 3e ca 82 d1 3e 54 8d cc 3e
       0.3946731 0.3898305 0.40920097 0.39951575
000120 4e ea be 3e d0 25 df 3e 98 12 ca 3e 85 fd d3 3e
       0.37288135 0.43583536 0.3946731 0.41404358
000130 ac 27 c0 3e ca 82 d1 3e f6 4f cb 3e 0f 08 cf 3e
       0.37530267 0.40920097 0.39709443 0.40435836
000140 dd 97 c7 3e bf 3c b6 3e 7a b7 b8 3e dd 97 c7 3e
       0.3898305 0.3559322 0.36077482 0.3898305
000150 49 47 b1 3e 7a b7 b8 3e c4 df c3 3e 22 1d c5 3e
       0.346247 0.36077482 0.38256657 0.3849879
000160 d8 f4 b9 3e bf 3c b6 3e 93 6f bc 3e 4e ea be 3e
       0.36319613 0.3559322 0.36803874 0.37288135
000170 d2 51 ac 3e 04 c2 b3 3e d2 51 ac 3e eb 09 b0 3e
       0.33656174 0.3510896 0.33656174 0.34382567
000180 61 ff b4 3e 7a b7 b8 3e 17 d7 a9 3e 35 32 bb 3e
       0.3535109 0.36077482 0.33171913 0.36561742
000190 30 8f ad 3e 8d cc ae 3e bf 3c b6 3e eb 09 b0 3e
       0.33898306 0.34140435 0.3559322 0.34382567
0001a0 a6 84 b2 3e fe 1e a6 3e a1 e1 a4 3e eb 09 b0 3e
       0.34866828 0.3244552 0.3220339 0.34382567
0001b0 8d cc ae 3e a1 e1 a4 3e 75 14 ab 3e fe 1e a6 3e
       0.34140435 0.3220339 0.33414045 0.3244552
0001c0 1d 7a b7 3e 9b 3e 97 3e a1 e1 a4 3e 43 a4 a3 3e
       0.35835353 0.29539952 0.3220339 0.3196126
0001d0 a1 e1 a4 3e 5c 5c a7 3e fe 1e a6 3e 6f 71 9d 3e
       0.3220339 0.32687652 0.3244552 0.30750605
0001e0 e5 66 a2 3e a1 e1 a4 3e a1 e1 a4 3e d2 51 ac 3e
       0.31719127 0.3220339 0.3220339 0.33656174
0001f0 cd ae 9e 3e 9b 3e 97 3e e0 c3 94 3e 11 34 9c 3e
       0.30992737 0.29539952 0.2905569 0.30508474
000200 b4 f6 9a 3e 88 29 a1 3e e5 66 a2 3e 3d 01 96 3e
       0.30266345 0.31476998 0.31719127 0.2929782
000210 e5 66 a2 3e c7 0b 91 3e f3 d8 8a 3e 25 49 92 3e
       0.31719127 0.28329298 0.27118644 0.2857143
000220 c7 0b 91 3e 56 b9 99 3e e0 c3 94 3e 9b 3e 97 3e
       0.28329298 0.30024213 0.2905569 0.29539952
000230 ae 53 8d 3e c7 0b 91 3e 9b 3e 97 3e 7d e3 85 3e
       0.27602905 0.28329298 0.29539952 0.26150122
000240 95 9b 89 3e c7 0b 91 3e f3 d8 8a 3e 25 49 92 3e
       0.26876512 0.28329298 0.27118644 0.2857143
000250 51 16 8c 3e 38 5e 88 3e 51 61 7f 3e 0c 91 8e 3e
       0.27360776 0.26634383 0.24939467 0.27845037
000260 c7 0b 91 3e 88 29 a1 3e c7 0b 91 3e c7 0b 91 3e
       0.28329298 0.31476998 0.28329298 0.28329298
000270 ae 53 8d 3e c1 68 83 3e f3 d8 8a 3e f3 d8 8a 3e
       0.27602905 0.25665858 0.27118644 0.27118644
000280 9b 3e 97 3e e0 c3 94 3e 0c 91 8e 3e 38 5e 88 3e
       0.29539952 0.2905569 0.27845037 0.26634383
000290 25 49 92 3e f3 d8 8a 3e 64 2b 82 3e ae 53 8d 3e
       0.2857143 0.27118644 0.2542373 0.27602905
0002a0 51 61 7f 3e e0 c3 94 3e 69 ce 8f 3e 56 b9 99 3e
       0.24939467 0.2905569 0.28087166 0.30024213
0002b0 64 2b 82 3e 95 9b 89 3e c1 68 83 3e 9b 3e 97 3e
       0.2542373 0.26876512 0.25665858 0.29539952
0002c0 51 16 8c 3e 1f a6 84 3e 1f a6 84 3e 0c 91 8e 3e
       0.27360776 0.2590799 0.2590799 0.27845037
0002d0 96 e6 7c 3e 33 06 6e 3e 51 61 7f 3e db 6b 7a 3e
       0.24697337 0.23244552 0.24939467 0.24455206
0002e0 96 e6 7c 3e ae 53 8d 3e 38 5e 88 3e 78 8b 6b 3e
       0.24697337 0.27602905 0.26634383 0.23002422
0002f0 db 6b 7a 3e 96 e6 7c 3e 1f a6 84 3e f3 d8 8a 3e
       0.24455206 0.24697337 0.2590799 0.27118644
000300 95 9b 89 3e da 20 87 3e b1 ca 4d 3e 20 f1 77 3e
       0.26876512 0.2639225 0.20096852 0.24213076
000310 14 ab 5c 3e 64 2b 82 3e c1 68 83 3e f3 d8 8a 3e
       0.21549636 0.2542373 0.25665858 0.27118644
000320 db 6b 7a 3e d0 25 5f 3e 7d e3 85 3e 51 61 7f 3e
       0.24455206 0.21791768 0.26150122 0.24939467
000330 bc 10 69 3e bc 10 69 3e d0 25 5f 3e 9e b5 57 3e
       0.2276029 0.2276029 0.21791768 0.21065375
000340 59 30 5a 3e 01 96 66 3e 33 06 6e 3e d0 25 5f 3e
       0.21307506 0.2251816 0.23244552 0.21791768
000350 8b a0 61 3e bc 10 69 3e db 6b 7a 3e 01 96 66 3e
       0.22033899 0.2276029 0.24455206 0.2251816
000360 46 1b 64 3e 6c 45 50 3e 14 ab 5c 3e 6c 45 50 3e
       0.22276029 0.20338982 0.21549636 0.20338982
000370 01 96 66 3e 59 30 5a 3e 59 30 5a 3e 46 1b 64 3e
       0.2251816 0.21307506 0.21307506 0.22276029
000380 bc 10 69 3e bc 10 69 3e 3b d5 48 3e e3 3a 55 3e
       0.2276029 0.2276029 0.19612591 0.20823245
000390 3b d5 48 3e e3 3a 55 3e 8b a0 61 3e 09 65 41 3e
       0.19612591 0.20823245 0.22033899 0.18886198
0003a0 28 c0 52 3e 59 30 5a 3e 6c 45 50 3e 3b d5 48 3e
       0.20581114 0.21307506 0.20338982 0.19612591
0003b0 59 30 5a 3e 01 96 66 3e 6c 45 50 3e 14 ab 5c 3e
       0.21307506 0.2251816 0.20338982 0.21549636
0003c0 8b a0 61 3e 28 c0 52 3e 80 5a 46 3e e3 3a 55 3e
       0.22033899 0.20581114 0.1937046 0.20823245
0003d0 d8 f4 39 3e 46 1b 64 3e 09 65 41 3e c4 df 43 3e
       0.18159807 0.22276029 0.18886198 0.19128329
0003e0 14 ab 5c 3e 9e b5 57 3e 3b d5 48 3e 6c 45 50 3e
       0.21549636 0.21065375 0.19612591 0.20338982
0003f0 28 c0 52 3e 6c 45 50 3e 61 ff 34 3e 3b d5 48 3e
       0.20581114 0.20338982 0.17675544 0.19612591

item_pop_true f4 [1154, 1]
000000 00 00 80 3f 1b e4 50 3f aa 91 59 3f c3 49 5d 3f
       1.0 0.8159806 0.8498789 0.86440676
000010 60 69 4e 3f 60 69 4e 3f 54 8d 4c 3f ac 27 40 3f
       0.8062954 0.8062954 0.7990315 0.75060534
000020 29 56 39 3f 1d 7a 37 3f 30 8f 2d 3f bf 3c 36 3f
       0.72397095 0.71670705 0.6779661 0.7118644
000030 f2 42 24 3f d9 8a 20 3f b9 99 28 3f ad bd 26 3f
       0.6416465 0.62711865 0.6585956 0.6513317
000040 e5 66 22 3f 6f 71 1d 3f e5 66 22 3f c7 0b 11 3f
       0.63438255 0.6150121 0.63438255 0.56658596
000050 31 25 14 3f e0 c3 14 3f 38 5e 08 3f 0c 91 0e 3f
       0.5786925 0.5811138 0.53268766 0.55690074
000060 5d f2 0d 3f c1 68 03 3f da 20 07 3f c1 68 03 3f
       0.5544794 0.51331717 0.527845 0.51331717
000070 06 ee 00 3f 64 76 f5 3e 7d e3 05 3f 13 ca 02 3f
       0.50363195 0.47941887 0.52300245 0.5108959
000080 06 ee 00 3f 57 4f 00 3f bc 10 e9 3e 4c be f1 3e
       0.50363195 0.50121063 0.4552058 0.47215497
000090 13 ca 02 3f 7d 2e f9 3e 13 ca 02 3f 8b a0 e1 3e
       0.5108959 0.4866828 0.5108959 0.44067797
0000a0 e8 dd e2 3e 38 a9 fb 3e 7d 2e f9 3e da 20 07 3f
       0.44309926 0.4915254 0.4866828 0.527845
0000b0 bc 10 e9 3e bc 10 e9 3e 14 ab dc 3e 46 1b e4 3e
       0.4552058 0.4552058 0.43099272 0.44552058
0000c0 2d 63 e0 3e a4 58 e5 3e 1a 4e ea 3e 78 8b eb 3e
       0.43825665 0.4479419 0.45762712 0.46004844
0000d0 40 78 d6 3e 46 1b e4 3e e8 dd e2 3e e8 dd e2 3e
       0.41888618 0.44552058 0.44309926 0.44309926
0000e0 d5 c8 ec 3e a4 58 e5 3e 40 78 d6 3e 59 30 da 3e
       0.46246973 0.4479419 0.41888618 0.4261501
0000f0 3b d5 c8 3e 72 e8 dd 3e 9e b5 d7 3e 14 ab dc 3e
       0.39225182 0.43341404 0.4213075 0.43099272
000100 98 12 ca 3e 54 8d cc 3e 59 30 da 3e e3 3a d5 3e
       0.3946731 0.39951575 0.4261501 0.4164649
000110 98 12 ca 3e dd 97 c7 3e ca 82 d1 3e 54 8d cc 3e
       0.3946731 0.3898305 0.40920097 0.39951575
000120 4e ea be 3e d0 25 df 3e 98 12 ca 3e 85 fd d3 3e
       0.37288135 0.43583536 0.3946731 0.41404358
000130 ac 27 c0 3e ca 82 d1 3e f6 4f cb 3e 0f 08 cf 3e
       0.37530267 0.40920097 0.39709443 0.40435836
000140 dd 97 c7 3e bf 3c b6 3e 7a b7 b8 3e dd 97 c7 3e
       0.3898305 0.3559322 0.36077482 0.3898305
000150 49 47 b1 3e 7a b7 b8 3e c4 df c3 3e 22 1d c5 3e
       0.346247 0.36077482 0.38256657 0.3849879
000160 d8 f4 b9 3e bf 3c b6 3e 93 6f bc 3e 4e ea be 3e
       0.36319613 0.3559322 0.36803874 0.37288135
000170 d2 51 ac 3e 04 c2 b3 3e d2 51 ac 3e eb 09 b0 3e
       0.33656174 0.3510896 0.33656174 0.34382567
000180 61 ff b4 3e 7a b7 b8 3e 17 d7 a9 3e 35 32 bb 3e
       0.3535109 0.36077482 0.33171913 0.36561742
000190 30 8f ad 3e 8d cc ae 3e bf 3c b6 3e eb 09 b0 3e
       0.33898306 0.34140435 0.3559322 0.34382567
0001a0 a6 84 b2 3e fe 1e a6 3e a1 e1 a4 3e eb 09 b0 3e
       0.34866828 0.3244552 0.3220339 0.34382567
0001b0 8d cc ae 3e a1 e1 a4 3e 75 14 ab 3e fe 1e a6 3e
       0.34140435 0.3220339 0.33414045 0.3244552
0001c0 1d 7a b7 3e 9b 3e 97 3e a1 e1 a4 3e 43 a4 a3 3e
       0.35835353 0.29539952 0.3220339 0.3196126
0001d0 a1 e1 a4 3e 5c 5c a7 3e fe 1e a6 3e 6f 71 9d 3e
       0.3220339 0.32687652 0.3244552 0.30750605
0001e0 e5 66 a2 3e a1 e1 a4 3e a1 e1 a4 3e d2 51 ac 3e
       0.31719127 0.3220339 0.3220339 0.33656174
0001f0 cd ae 9e 3e 9b 3e 97 3e e0 c3 94 3e 11 34 9c 3e
       0.30992737 0.29539952 0.2905569 0.30508474
000200 b4 f6 9a 3e 88 29 a1 3e e5 66 a2 3e 3d 01 96 3e
       0.30266345 0.31476998 0.31719127 0.2929782
000210 e5 66 a2 3e c7 0b 91 3e f3 d8 8a 3e 25 49 92 3e
       0.31719127 0.28329298 0.27118644 0.2857143
000220 c7 0b 91 3e 56 b9 99 3e e0 c3 94 3e 9b 3e 97 3e
       0.28329298 0.30024213 0.2905569 0.29539952
000230 ae 53 8d 3e c7 0b 91 3e 9b 3e 97 3e 7d e3 85 3e
       0.27602905 0.28329298 0.29539952 0.26150122
000240 95 9b 89 3e c7 0b 91 3e f3 d8 8a 3e 25 49 92 3e
       0.26876512 0.28329298 0.27118644 0.2857143
000250 51 16 8c 3e 38 5e 88 3e 51 61 7f 3e 0c 91 8e 3e
       0.27360776 0.26634383 0.24939467 0.27845037
000260 c7 0b 91 3e 88 29 a1 3e c7 0b 91 3e c7 0b 91 3e
       0.28329298 0.31476998 0.28329298 0.28329298
000270 ae 53 8d 3e c1 68 83 3e f3 d8 8a 3e f3 d8 8a 3e
       0.27602905 0.25665858 0.27118644 0.27118644
000280 9b 3e 97 3e e0 c3 94 3e 0c 91 8e 3e 38 5e 88 3e
       0.29539952 0.2905569 0.27845037 0.26634383
000290 25 49 92 3e f3 d8 8a 3e 64 2b 82 3e ae 53 8d 3e
       0.2857143 0.27118644 0.2542373 0.27602905
0002a0 51 61 7f 3e e0 c3 94 3e 69 ce 8f 3e 56 b9 99 3e
       0.24939467 0.2905569 0.28087166 0.30024213
0002b0 64 2b 82 3e 95 9b 89 3e c1 68 83 3e 9b 3e 97 3e
       0.2542373 0.26876512 0.25665858 0.29539952
0002c0 51 16 8c 3e 1f a6 84 3e 1f a6 84 3e 0c 91 8e 3e
       0.27360776 0.2590799 0.2590799 0.27845037
0002d0 96 e6 7c 3e 33 06 6e 3e 51 61 7f 3e db 6b 7a 3e
       0.24697337 0.23244552 0.24939467 0.24455206
0002e0 96 e6 7c 3e ae 53 8d 3e 38 5e 88 3e 78 8b 6b 3e
       0.24697337 0.27602905 0.26634383 0.23002422
0002f0 db 6b 7a 3e 96 e6 7c 3e 1f a6 84 3e f3 d8 8a 3e
       0.24455206 0.24697337 0.2590799 0.27118644
000300 95 9b 89 3e da 20 87 3e b1 ca 4d 3e 20 f1 77 3e
       0.26876512 0.2639225 0.20096852 0.24213076
000310 14 ab 5c 3e 64 2b 82 3e c1 68 83 3e f3 d8 8a 3e
       0.21549636 0.2542373 0.25665858 0.27118644
000320 db 6b 7a 3e d0 25 5f 3e 7d e3 85 3e 51 61 7f 3e
       0.24455206 0.21791768 0.26150122 0.24939467
000330 bc 10 69 3e bc 10 69 3e d0 25 5f 3e 9e b5 57 3e
       0.2276029 0.2276029 0.21791768 0.21065375
000340 59 30 5a 3e 01 96 66 3e 33 06 6e 3e d0 25 5f 3e
       0.21307506 0.2251816 0.23244552 0.21791768
000350 8b a0 61 3e bc 10 69 3e db 6b 7a 3e 01 96 66 3e
       0.22033899 0.2276029 0.24455206 0.2251816
000360 46 1b 64 3e 6c 45 50 3e 14 ab 5c 3e 6c 45 50 3e
       0.22276029 0.20338982 0.21549636 0.20338982
000370 01 96 66 3e 59 30 5a 3e 59 30 5a 3e 46 1b 64 3e
       0.2251816 0.21307506 0.21307506 0.22276029
000380 bc 10 69 3e bc 10 69 3e 3b d5 48 3e e3 3a 55 3e
       0.2276029 0.2276029 0.19612591 0.20823245
000390 3b d5 48 3e e3 3a 55 3e 8b a0 61 3e 09 65 41 3e
       0.19612591 0.20823245 0.22033899 0.18886198
0003a0 28 c0 52 3e 59 30 5a 3e 6c 45 50 3e 3b d5 48 3e
       0.20581114 0.21307506 0.20338982 0.19612591
0003b0 59 30 5a 3e 01 96 66 3e 6c 45 50 3e 14 ab 5c 3e
       0.21307506 0.2251816 0.20338982 0.21549636
0003c0 8b a0 61 3e 28 c0 52 3e 80 5a 46 3e e3 3a 55 3e
       0.22033899 0.20581114 0.1937046 0.20823245
0003d0 d8 f4 39 3e 46 1b 64 3e 09 65 41 3e c4 df 43 3e
       0.18159807 0.22276029 0.18886198 0.19128329
0003e0 14 ab 5c 3e 9e b5 57 3e 3b d5 48 3e 6c 45 50 3e
       0.21549636 0.21065375 0.19612591 0.20338982
0003f0 28 c0 52 3e 6c 45 50 3e 61 ff 34 3e 3b d5 48 3e
       0.20581114 0.20338982 0.17675544 0.19612591

lr1.weight f4 [1, 63]
000000 fa 9d 41 3d 72 f7 82 3d c1 44 d6 3d 74 e8 23 be
       0.0472698 0.06394853 0.104623325 -0.16006643
000010 1d 22 51 3e 8f fc 51 3d 04 60 2d 3e 9e dd 97 3d
       0.2042317 0.05126625 0.16931158 0.07415317
000020 f5 2d 58 3d b3 03 03 be 87 db 0e 3d aa 5e 0c be
       0.052778203 -0.1279438 0.034877326 -0.13707986
000030 ab 6e 71 bd 92 a1 3c 3d 1e d6 2d 3d d6 ab df bd
       -0.05894343 0.046052523 0.042440526 -0.10921447
000040 2d 71 26 be 30 33 a5 bd 20 78 5a 3d 9c 21 b8 bc
       -0.1625411 -0.08066404 0.053337216 -0.022476964
000050 c9 bc 7a 3d 9e 1f 92 3c 55 f7 1e be 23 ad 0b 3e
       0.061215196 0.017837342 -0.15524037 0.13640265
000060 72 10 80 bd d1 2d 6c be a7 63 0b 3e cd 54 89 3e
       -0.06253137 -0.23064353 0.13612233 0.2682251
000070 7e 57 95 bd df c5 df bd 9c b8 33 3d b4 6b 63 3e
       -0.072920784 -0.10926413 0.04387723 0.22209054
000080 dc 34 f5 bd b1 34 a7 bd 87 a1 30 3e fc 45 e5 3d
       -0.11972973 -0.08164347 0.17249118 0.11194989
000090 5e 5e 39 3d 0b 84 3c 3e 73 1c aa bd 2e 68 b1 bd
       0.04525601 0.18409745 -0.083062075 -0.08662449
0000a0 e5 d6 bd bc 85 1f c3 3d da 6d c8 3d 95 70 9c bc
       -0.023173759 0.09527496 0.097865775 -0.019096652
0000b0 43 21 5a bd 48 90 14 be e1 ed 23 3d fb bb 7c be
       -0.053254377 -0.14508164 0.04002178 -0.24681084
0000c0 ff 2d 79 3e d5 5e 02 be be a6 ee bd 90 e1 00 3e
       0.24333952 -0.12731488 -0.11652897 0.12586045
0000d0 50 a6 35 3e e2 85 5b 3e 53 74 ab bb 7c 39 55 3e
       0.17739224 0.21437791 -0.005232373 0.2082271
0000e0 e2 e9 a2 bd 9b 69 66 be e0 d7 50 bd 23 76 62 be
       -0.07954766 -0.22501223 -0.050987124 -0.22115378
0000f0 b8 60 7e 3d 4b 90 3f be 3a 74 45 3d
       0.062103957 -0.18707387 0.048206545
