pid/result/ml100k-PIDMF-debug2023-03-14-10-32-30/ckpt/epoch_17.pth (torch_old, 543278 bytes, 5 tensors)

users f4 [945, 64]
000000 ce b9 5b 3f 77 f6 52 be b3 1b 99 be a4 05 6a 3e
       0.8583039 -0.20601831 -0.29903945 0.22853714
000010 c7 70 e8 3c dc eb 03 be e7 a3 9c 3e 2c a9 6a be
       0.028374089 -0.12882942 0.30593798 -0.22916096
000020 c4 e6 e3 be 6f 9a b2 bd 69 65 d5 3e 85 bf 90 be
       -0.44511998 -0.08720862 0.41678932 -0.28271118
000030 c4 df 9f be e0 f0 34 3e e7 fc f2 3e 52 f3 1b be
       -0.31225407 0.17670012 0.47458574 -0.15229538
000040 0a 34 3e 3f df 7a b6 3e 96 45 21 3f 6e 34 a6 3e
       0.74298155 0.35640618 0.62996805 0.32461876
000050 c5 cf e6 3e 95 cf 3e be aa fb 01 bf e8 74 7a be
       0.4508039 -0.18633874 -0.50774634 -0.24458659
000060 a7 51 02 3f e6 83 ff 3e b2 47 b4 3c 9b 55 2b be
       0.5090584 0.49905318 0.022006843 -0.16731875
000070 13 f7 07 bf b0 40 eb be 28 5f bb be 34 b5 3c 3d
       -0.5311138 -0.4594779 -0.36596036 0.046071246
000080 d8 90 cb be 0e 20 09 bf 7c 46 80 be 15 a6 8c be
       -0.39758945 -0.53564537 -0.25053775 -0.2747046
000090 e3 2c ce be 70 23 ed 3b ab 80 ca be cf 84 10 bf
       -0.4026862 0.0072368905 -0.3955129 -0.5645265
0000a0 61 8f ca be d7 48 91 3e 33 0a 71 be 4f 45 76 3d
       -0.39562514 0.28375885 -0.23539047 0.06012469
0000b0 9c a8 23 bf f3 8e 0c bf 25 3d 15 3f 49 d3 c4 bc
       -0.6392915 -0.54905623 0.58296424 -0.02402653
0000c0 60 fd 5e bc 8c 64 32 3e 6c dc 0a bf a4 81 f1 be
       -0.013610214 0.17421168 -0.5424259 -0.4716922
0000d0 48 8e 03 3f a2 1b 36 bf 2e 3b 7a bd f0 40 2a 3f
       0.5138898 -0.71135914 -0.061091594 0.66505337
0000e0 b1 3e 7d 3d 88 61 c8 3e 0b 56 84 3d 22 2f 24 3f
       0.061827365 0.3913691 0.06461724 0.6413442
0000f0 4a 75 5c 3e 70 fd c7 be 65 56 db bd a7 b6 ee 3d
       0.21529117 -0.39060545 -0.10709838 0.11655932
000100 a1 70 ee 3e 75 a3 45 be 7f 4a 09 3e a0 3f 09 bf
       0.46570304 -0.19300635 0.13407324 -0.5361271
000110 b7 98 33 bf a6 15 2d be 0d b9 e1 3e c2 49 cb 3e
       -0.701549 -0.1690279 0.44086495 0.3970471
000120 39 fe b8 3d 15 b8 57 be 5b 53 18 bd ed 70 03 bf
       0.09032864 -0.21066315 -0.03718887 -0.51344186
000130 c0 7e ba bd 70 c3 fb bc 69 b7 90 3e 81 c3 6e bc
       -0.09106207 -0.03073284 0.2826493 -0.014572979
000140 16 fb 75 3e 66 33 c4 bd d2 c7 7d 3e e7 51 dc 3e
       0.24021563 -0.09580116 0.24783257 0.43031237
000150 5e 22 17 3e 8c bc fc bd dc 7f 0d 3f b2 9c 99 be
       0.14759204 -0.1234065 0.5527322 -0.30002362
000160 f8 20 7c 3e 2e 9e 7f 3f 2f cc 3a bf f1 90 3f bf
       0.24621952 0.9985074 -0.7296781 -0.7483054
000170 46 03 35 bf c8 29 27 bf 12 38 a4 3e 77 21 3f bf
       -0.7070812 -0.6529813 0.32074028 -0.7466044
000180 f8 a0 26 3f d0 b9 f3 3d f8 03 3f 3e 00 1b 95 3e
       0.6508937 0.11900675 0.18653858 0.29122162
000190 62 2c 6e be b0 29 69 bd 2e 36 17 bf 53 4e 69 bf
       -0.23259118 -0.056924522 -0.59067047 -0.9113514
0001a0 32 12 5e 3e 97 2d 34 be bc f4 16 3f 01 b9 b1 be
       0.21686628 -0.17595516 0.58967185 -0.3471146
0001b0 bf 65 01 3f 23 2e 0a bf b2 37 a5 be 1e 8f ba be
       0.5054588 -0.5397665 -0.32269055 -0.36437315
0001c0 51 26 20 3e 8f 27 46 bf 7c 23 c7 3d 2a ba dd be
       0.15639617 -0.7740411 0.09723565 -0.43306094
0001d0 29 2e a5 be 00 7b f2 3d 2a f5 cd be de 9e e3 be
       -0.3226178 0.11839867 -0.40226108 -0.44457144
0001e0 10 bf d7 3e 9c ea d2 3d f9 f1 e4 bd 25 41 b8 3e
       0.42137957 0.102986544 -0.11178965 0.359872
0001f0 05 10 c9 3d 13 ac 2b 3f bb 99 69 be 1c a0 54 be
       0.098175086 0.6705944 -0.2281255 -0.20764202
000200 ec 3d c7 be c6 c3 09 be 67 50 a6 be 62 2e 62 be
       -0.3891443 -0.13453588 -0.32483217 -0.22088006
000210 27 87 db bd b9 91 f5 3e 25 c5 e5 3e 75 33 0b 3d
       -0.10719138 0.4796274 0.44876972 0.03398462
000220 08 b4 a4 3e 28 3d 1d bf d4 0d c0 3e 8d 5c 54 bd
       0.32168603 -0.6142144 0.3751055 -0.051846076
000230 7f 2a e1 be ac 81 f0 3e e6 6e c6 3e 29 e3 83 be
       -0.43977734 0.46973932 0.38756484 -0.25759247
000240 97 e9 1b bf a5 12 1e be 78 e7 1a 3f 18 a1 79 3e
       -0.60903305 -0.154368 0.60509443 0.24377859
000250 eb 63 ab be 64 ad 84 3e 08 17 10 bf bc ce 91 3e
       -0.3347467 0.25913537 -0.5628514 0.28478038
000260 3e d5 5e be e9 99 1f 3f 46 48 cd 3d c8 ae 29 bf
       -0.21761033 0.62344223 0.10023551 -0.6628232
000270 6a 4b 89 bc e2 6a 47 be 09 0e 75 be a8 52 10 bf
       -0.016759593 -0.19474366 -0.23931135 -0.56376123
000280 91 c6 ff be b7 b6 c7 bb 3e 21 13 bf b3 c4 2f bd
       -0.49956182 -0.0060947794 -0.574726 -0.042912196
000290 f4 74 e7 3e 95 57 02 3e 72 e6 4c be 5e ec 21 bf
       0.45206416 0.12728722 -0.20009783 -0.6325129
0002a0 4f 05 95 3e b6 6c 18 3e 9d dd 7f be ae 7d da be
       0.29105613 0.1488522 -0.24986883 -0.4267401
0002b0 b9 e3 1f bf d3 9f 2f 3e 69 e6 d9 3e 60 b1 39 bf
       -0.6245685 0.17150812 0.42558601 -0.7253628
0002c0 b4 ed 58 3e 40 c9 ad 3d 65 89 47 bd 71 57 a7 3d
       0.21184427 0.08485651 -0.048715014 0.08170975
0002d0 47 d7 1d bf d8 c8 38 bc 05 c4 b6 3e 68 42 a3 be
       -0.6165661 -0.011278354 0.35696426 -0.318866
0002e0 ce fa a9 be 6f 33 85 3e e4 20 5d 3e c2 63 37 3e
       -0.3319916 0.26015803 0.21594578 0.17909148
0002f0 be ad 2c 3e 37 2f 1e 3f e2 6a 9f be 5c 9e 1a 3e
       0.16863152 0.61790794 -0.31136233 0.15099472
000300 86 ef cb 3e 36 58 a2 be 30 96 09 3f b2 a7 be bd
       0.3983118 -0.31707925 0.5374479 -0.09309329
000310 10 3d 16 bf 42 b3 ed 3d ff 92 3b 3f df b7 c0 bd
       -0.58686924 0.11606456 0.73271173 -0.09410071
000320 37 d2 3a 3e 4c 9f 55 3d 88 f3 38 3f 0f 40 25 bf
       0.18244253 0.05215387 0.722466 -0.6455087
000330 2b ec 47 bc 46 b2 a1 3e da d3 17 3f 06 ca 19 be
       -0.012202303 0.31581324 0.59307635 -0.15018472
000340 85 26 b6 3e 50 b3 48 bd 3a e3 8b 3e ec b2 13 bc
       0.35576263 -0.04899913 0.27321798 -0.009014826
000350 e0 f4 85 bd 58 88 d4 be 6a ba dc be 40 29 9f bd
       -0.06540847 -0.41510272 -0.43110973 -0.0777154
000360 97 fa 04 bf df 9f 3f be 94 74 3b 3f c7 6f 05 bf
       -0.5194487 -0.1871333 0.7322476 -0.52123684
000370 95 4b 40 3e 3e 38 d7 bd 34 c8 19 3f 5d 33 a7 3e
       0.18778832 -0.10508774 0.6007111 0.32656375
000380 e3 5a e0 3e 3e 55 06 bf de 64 73 be e9 88 72 be
       0.4381934 -0.5247382 -0.23768947 -0.2368504
000390 cf 82 84 bd 72 3f e5 be 81 9e cd 3b d0 a0 ec 3d
       -0.06470262 -0.44774967 0.0062749987 0.1155411
0003a0 53 03 f1 be aa e6 e2 3d dd dd a6 3d a4 f1 7c 3d
       -0.4707285 0.11079152 0.08147786 0.061753884
0003b0 cc 6e 19 bf c9 90 6b 3d 39 29 d0 3e a1 3d 2b 3d
       -0.5993469 0.057511125 0.4065645 0.04180682
0003c0 ef 33 cc 3d a7 0b 99 3d 2f ed d8 bd ab a2 e4 be
       0.09970843 0.07472926 -0.10592114 -0.44655356
0003d0 42 e5 8a 3f ac b3 20 bf b8 91 85 3e b4 c4 21 bf
       1.0851214 -0.6277416 0.26087737 -0.6319077
0003e0 2f a7 f7 bd 2f eb cb 3e 07 0d 41 3e 53 7b e0 3e
       -0.120924346 0.39827868 0.18852626 0.4384409
0003f0 50 f2 f5 bd 22 e1 96 3e 8d e6 9c 3d cb 4a c0 3d
       -0.12009108 0.29468638 0.076611616 0.093892656

items_id f4 [1154, 63]
000000 42 0c f8 3e 33 58 fd 3e c0 6a 12 3e 2b 3a ec bd
       0.48446852 0.49481353 0.14298534 -0.11534532
000010 71 7c bb 3d 16 c1 c7 3e ae a9 cc 3e 37 f4 e8 3e
       0.09154595 0.390145 0.39973205 0.4549882
000020 e6 4d f9 3e 19 b2 b4 be b0 0e 04 3f 7b 59 c2 bd
       0.48692244 -0.35292128 0.5158491 -0.09489723
000030 aa 12 99 be 1a e4 d3 3e c8 60 c2 3e 13 09 ae be
       -0.29897052 0.41384965 0.37964463 -0.33991298
000040 14 89 83 bd 46 63 7a be 14 39 89 3e 9b b0 12 3f
       -0.0642263 -0.24451932 0.2680136 0.5730073
000050 97 7f fc 3e 00 e4 99 3e 39 42 92 be 16 34 51 3e
       0.49316093 0.30056763 -0.2856615 0.20430025
000060 54 d5 56 be 57 6b ee 3c d5 de 8e 3e 6c 97 5c 3e
       -0.20979816 0.029103918 0.27904382 0.21542138
000070 e9 6b 4a be 66 62 97 be 3e 5f b1 3e d5 5d 03 3e
       -0.19767727 -0.2956726 0.34642977 0.12828763
000080 74 ba e7 bd 3f ba bb be e8 63 4c 3e 96 ff 4f 3e
       -0.1131486 -0.36665532 0.19959986 0.20312342
000090 aa 07 24 3f a6 c9 8e 3e a4 a8 88 be 2b c4 2c be
       0.64074194 0.2788822 -0.26691163 -0.16871707
0000a0 c8 e8 4b be 9a b8 6b 3e e8 8d 83 3e 39 31 f5 be
       -0.19913018 0.23019639 0.25694203 -0.47889116
0000b0 95 a9 f4 be 83 bf 5a be d5 83 c5 3e 99 ab c2 3c
       -0.4778563 -0.21362118 0.38577142 0.023763465
0000c0 73 46 ce 3d 90 9b 93 be 3c 74 87 be f3 71 53 3d
       0.10072031 -0.28829622 -0.26455867 0.051622342
0000d0 b0 d0 40 3e 26 28 13 bd 78 8d 10 bf a8 3e 54 3e
       0.18829608 -0.03592696 -0.56465864 0.20727026
0000e0 bb b3 f8 be 99 9a 95 ba d7 3e 8a be f0 54 f7 bd
       -0.48574623 -0.0011413872 -0.27001068 -0.120767474
0000f0 de 89 7f 3e 6f 9e 13 be da 56 ae 3e 15 ae 28 3e
       0.24954936 -0.14415906 0.34050637 0.16472657
000100 bb ad 7a 3e 5c a7 18 3e 6a 68 8d bd 32 e3 bb 3e
       0.24480335 0.14907593 -0.06904681 0.36696774
000110 10 b5 ac 3d 8b 9e d5 3e 51 0f 68 3d aa 10 89 3d
       0.084329724 0.4172252 0.056655232 0.066926315
000120 b6 c1 6d bd ab b8 f4 bb d0 06 e7 bc 3d 7d 57 be
       -0.058046065 -0.007468303 -0.02820149 -0.21043868
000130 a4 91 95 3c 07 78 81 bb c5 19 2e be 18 18 4e be
       0.018257923 -0.003951076 -0.17002018 -0.20126379
000140 e5 0b 0f be f7 88 4f 3e d8 75 c4 3c af b0 78 3e
       -0.13969381 0.20267092 0.023981974 0.2428615
000150 c9 a5 68 3e b0 79 7b bd 8e 92 91 3e f5 e7 41 be
       0.22719492 -0.061395347 0.28432125 -0.18936141
000160 a3 fa 46 be 76 2e 6c 3d 46 cd a3 3c 61 33 b1 3b
       -0.19431548 0.057661496 0.019995343 0.005407736
000170 37 91 b6 3c 25 61 4d 3b b3 c6 c9 3d 10 e7 28 be
       0.02228604 0.003133842 0.09852352 -0.16494393
000180 32 19 71 be 42 f4 2b 3e 16 cd cb 3d 4f db 8e 3e
       -0.23544767 0.16792396 0.099512264 0.27901694
000190 02 17 04 3e e2 1a 87 bd e6 84 a2 bd a7 36 ca bd
       0.12899402 -0.06596924 -0.079355046 -0.09873705
0001a0 2f 52 62 3e 3a 79 b2 bc f0 14 c0 bd 81 85 53 be
       0.22101663 -0.021786321 -0.093789935 -0.20656396
0001b0 69 d3 8d bd e0 39 5d bb fc f8 00 be 67 ab a2 3d
       -0.06925089 -0.003375642 -0.1259498 0.07942849
0001c0 0c 29 a0 bc f8 cf 16 bd 07 bb 0f 3d c0 71 4c 3e
       -0.019550823 -0.03681943 0.035090473 0.19965267
0001d0 c2 30 69 3e b6 61 3e 3d 8c fd 43 3e e8 0f 93 be
       0.22772506 0.046479903 0.19139689 -0.28723073
0001e0 e9 b6 05 be c1 2d cd 3c 6c 22 e9 bd ff ec d1 bc
       -0.13058056 0.025046231 -0.113835186 -0.025625704
0001f0 96 9e 5f be da 62 14 3d b0 10 8f 3e 04 8b 9e 3e
       -0.2183784 0.036227085 0.2794242 0.30965436
000200 34 98 04 3e 3f 86 1e be ce 8c 90 3e fe d8 66 3e
       0.12948686 -0.15480898 0.28232425 0.22543713
000210 68 41 28 3e ad 68 b0 3d 5b d9 aa 3e b0 f9 83 be
       0.164312 0.08613715 0.33368954 -0.25776434
000220 41 44 ab 3e d8 23 7b be d6 06 72 be 9f 11 bb 3d
       0.3345051 -0.24525392 -0.2363542 0.0913422
000230 22 2f 09 3e e6 2c a6 bd b7 65 08 be 89 11 10 bb
       0.13396886 -0.081140324 -0.13320051 -0.0021983108
000240 2c d3 1a 3d 4c 23 2c 3e a0 6a 84 3e e4 ee 0b 3e
       0.037799045 0.1681034 0.25862598 0.13665348
000250 8d eb 2c be 62 4b 36 3e 8c f0 8c bd 2b fd 3a bd
       -0.1688673 0.17802194 -0.06881818 -0.045651596
000260 f3 8c 02 3d 33 86 62 3e 77 49 8a bd 7c b5 0d bc
       0.0318727 0.22121505 -0.067522936 -0.008649226
000270 b0 b3 62 3e ae 44 a7 3c 0e 4c 72 be 8a 36 96 be
       0.22138858 0.020418491 -0.23661825 -0.29338485
000280 49 7b e1 3d 59 74 6c 3d bf 15 9a 3e 9a 55 64 3d
       0.11009843 0.057728145 0.30094716 0.0557457
000290 5e 57 92 bd ad 74 61 be 7c 49 ce bd 10 a7 53 3d
       -0.0714557 -0.22017165 -0.1007261 0.051672995
0002a0 71 c5 65 3e c8 95 8a be aa 54 5c be e3 da 4f be
       0.22438599 -0.270674 -0.21516672 -0.20298342
0002b0 e1 db bd 3d 5a f3 09 be 0e d7 aa 3d c8 13 43 be
       0.09270454 -0.13471738 0.083418 -0.19050515
0002c0 41 e8 75 be 4d 3b 63 3d 85 84 43 3e b2 bc 30 3e
       -0.24014379 0.055476476 0.19093521 0.17259482
0002d0 77 b5 ab be 80 d4 ac bb a6 3d 34 be be 65 10 bd
       -0.33536884 -0.0052743554 -0.17601642 -0.03525328
0002e0 68 11 a3 bd 1a 0f 10 be e8 ed d6 3c 2d 51 f1 bd
       -0.07962304 -0.14068261 0.02623649 -0.11783061
0002f0 3d ca 7b 3e 1a ea b2 3e 74 f8 cf 3d 68 bf 09 3e
       0.24588867 0.3494423 0.101548105 0.13451922
000300 30 76 85 be a3 a7 43 3e 8a 03 65 3d ab 50 90 3e
       -0.26066732 0.19106917 0.05591158 0.28186545
000310 60 88 8b 3e 59 c0 a0 3e 26 e6 71 be ac 7a ba 3d
       0.27252483 0.3139675 -0.23622951 0.09105429
000320 67 0e 5d be b5 33 ed bd a4 5e 5f 3e 91 ac 04 3e
       -0.21587525 -0.11582128 0.21813446 0.12956454
000330 d6 48 8b be 20 8f 29 be 56 05 1e be 22 69 82 3d
       -0.27204007 -0.16558504 -0.15431723 0.06367709
000340 2a 6d f1 3d 91 17 9c 3e 30 09 95 3d d2 3f 61 bd
       0.117883995 0.3048673 0.07277143 -0.054992504
000350 c6 de 21 3d ff dd 91 bd 23 61 18 be 9a d7 2f 3e
       0.039519094 -0.071224205 -0.14880805 0.17172089
000360 9b 42 23 3e 79 23 53 be 1e b6 eb bd 2b 12 8f 3e
       0.15943377 -0.20619 -0.115093455 0.2794355
000370 02 37 e2 3d 21 34 f4 bc 4f 2a 5b be bb 7f 81 3e
       0.11045648 -0.029810013 -0.21402858 0.25292763
000380 2a 5f 82 3d 38 6e 35 3e 92 11 00 3d 12 69 54 be
       0.06365807 0.17717826 0.031266756 -0.20743206
000390 c4 40 32 be f1 ae f8 bd 10 a5 67 3d 40 2f 9e 3d
       -0.17407519 -0.121427424 0.0565539 0.07723856
0003a0 f3 06 a7 be 06 39 d3 bd 4a 1a f7 bc 50 c6 3e 3d
       -0.3262249 -0.10313611 -0.030163903 0.046575844
0003b0 6c c6 fd bc 53 41 3e bd b9 9a 55 be 80 44 f9 bd
       -0.030978404 -0.046449017 -0.20859803 -0.121712685
0003c0 4e 5e a6 3d fa 02 9e 3d 8a b0 34 3e 46 95 b2 be
       0.08123456 0.077154115 0.1764547 -0.34879512
0003d0 94 16 57 3e c8 91 0f be 4d 25 a3 bd d2 58 ac bc
       0.21004707 -0.14020455 -0.07966099 -0.021038447
0003e0 c5 ee 9a bd 79 67 ff 3d 6f 70 69 be 94 c9 f3 3d
       -0.07565073 0.12470908 -0.22796796 0.11903682
0003f0 33 8f 96 3e 57 ca 35 3e 89 e1 6c 3e c7 1b 86 bd
       0.29406127 0.17752968 0.2313291 -0.06548267

item_pop f4 [1154, 1]
000000 00 00 80 3f 1b e4 50 3f aa 91 59 3f c3 49 5d 3f
       1.0 0.8159806 0.8498789 0.86440676
000010 60 69 4e 3f 60 69 4e 3f 54 8d 4c 3f ac 27 40 3f
       0.8062954 0.8062954 0.7990315 0.75060534
000020 29 56 39 3f 1d 7a 37 3f 30 8f 2d 3f bf 3c 36 3f
       0.72397095 0.71670705 0.6779661 0.7118644
000030 f2 42 24 3f d9 8a 20 3f b9 99 28 3f ad bd 26 3f
       0.6416465 0.62711865 0.6585956 0.6513317
000040 e5 66 22 3f 6f 71 1d 3f e5 66 22 3f c7 0b 11 3f
       0.63438255 0.6150121 0.63438255 0.56658596
000050 31 25 14 3f e0 c3 14 3f 38 5e 08 3f 0c 91 0e 3f
       0.5786925 0.5811138 0.53268766 0.55690074
000060 5d f2 0d 3f c1 68 03 3f da 20 07 3f c1 68 03 3f
       0.5544794 0.51331717 0.527845 0.51331717
000070 06 ee 00 3f 64 76 f5 3e 7d e3 05 3f 13 ca 02 3f
       0.50363195 0.47941887 0.52300245 0.5108959
000080 06 ee 00 3f 57 4f 00 3f bc 10 e9 3e 4c be f1 3e
       0.50363195 0.50121063 0.4552058 0.47215497
000090 13 ca 02 3f 7d 2e f9 3e 13 ca 02 3f 8b a0 e1 3e
       0.5108959 0.4866828 0.5108959 0.44067797
0000a0 e8 dd e2 3e 38 a9 fb 3e 7d 2e f9 3e da 20 07 3f
       0.44309926 0.4915254 0.4866828 0.527845
0000b0 bc 10 e9 3e bc 10 e9 3e 14 ab dc 3e 46 1b e4 3e
       0.4552058 0.4552058 0.43099272 0.44552058
0000c0 2d 63 e0 3e a4 58 e5 3e 1a 4e ea 3e 78 8b eb 3e
       0.43825665 0.4479419 0.45762712 0.46004844
0000d0 40 78 d6 3e 46 1b e4 3e e8 dd e2 3e e8 dd e2 3e
       0.41888618 0.44552058 0.44309926 0.44309926
0000e0 d5 c8 ec 3e a4 58 e5 3e 40 78 d6 3e 59 30 da 3e
       0.46246973 0.4479419 0.41888618 0.4261501
0000f0 3b d5 c8 3e 72 e8 dd 3e 9e b5 d7 3e 14 ab dc 3e
       0.39225182 0.43341404 0.4213075 0.43099272
000100 98 12 ca 3e 54 8d cc 3e 59 30 da 3e e3 3a d5 3e
       0.3946731 0.39951575 0.4261501 0.4164649
000110 98 12 ca 3e dd 97 c7 3e ca 82 d1 3e 54 8d cc 3e
       0.3946731 0.3898305 0.40920097 0.39951575
000120 4e ea be 3e d0 25 df 3e 98 12 ca 3e 85 fd d3 3e
       0.37288135 0.43583536 0.3946731 0.41404358
000130 ac 27 c0 3e ca 82 d1 3e f6 4f cb 3e 0f 08 cf 3e
       0.37530267 0.40920097 0.39709443 0.40435836
000140 dd 97 c7 3e bf 3c b6 3e 7a b7 b8 3e dd 97 c7 3e
       0.3898305 0.3559322 0.36077482 0.3898305
000150 49 47 b1 3e 7a b7 b8 3e c4 df c3 3e 22 1d c5 3e
       0.346247 0.36077482 0.38256657 0.3849879
000160 d8 f4 b9 3e bf 3c b6 3e 93 6f bc 3e 4e ea be 3e
       0.36319613 0.3559322 0.36803874 0.37288135
000170 d2 51 ac 3e 04 c2 b3 3e d2 51 ac 3e eb 09 b0 3e
       0.33656174 0.3510896 0.33656174 0.34382567
000180 61 ff b4 3e 7a b7 b8 3e 17 d7 a9 3e 35 32 bb 3e
       0.3535109 0.36077482 0.33171913 0.36561742
000190 30 8f ad 3e 8d cc ae 3e bf 3c b6 3e eb 09 b0 3e
       0.33898306 0.34140435 0.3559322 0.34382567
0001a0 a6 84 b2 3e fe 1e a6 3e a1 e1 a4 3e eb 09 b0 3e
       0.34866828 0.3244552 0.3220339 0.34382567
0001b0 8d cc ae 3e a1 e1 a4 3e 75 14 ab 3e fe 1e a6 3e
       0.34140435 0.3220339 0.33414045 0.3244552
0001c0 1d 7a b7 3e 9b 3e 97 3e a1 e1 a4 3e 43 a4 a3 3e
       0.35835353 0.29539952 0.3220339 0.3196126
0001d0 a1 e1 a4 3e 5c 5c a7 3e fe 1e a6 3e 6f 71 9d 3e
       0.3220339 0.32687652 0.3244552 0.30750605
0001e0 e5 66 a2 3e a1 e1 a4 3e a1 e1 a4 3e d2 51 ac 3e
       0.31719127 0.3220339 0.3220339 0.33656174
0001f0 cd ae 9e 3e 9b 3e 97 3e e0 c3 94 3e 11 34 9c 3e
       0.30992737 0.29539952 0.2905569 0.30508474
000200 b4 f6 9a 3e 88 29 a1 3e e5 66 a2 3e 3d 01 96 3e
       0.30266345 0.31476998 0.31719127 0.2929782
000210 e5 66 a2 3e c7 0b 91 3e f3 d8 8a 3e 25 49 92 3e
       0.31719127 0.28329298 0.27118644 0.2857143
000220 c7 0b 91 3e 56 b9 99 3e e0 c3 94 3e 9b 3e 97 3e
       0.28329298 0.30024213 0.2905569 0.29539952
000230 ae 53 8d 3e c7 0b 91 3e 9b 3e 97 3e 7d e3 85 3e
       0.27602905 0.28329298 0.29539952 0.26150122
000240 95 9b 89 3e c7 0b 91 3e f3 d8 8a 3e 25 49 92 3e
       0.26876512 0.28329298 0.27118644 0.2857143
000250 51 16 8c 3e 38 5e 88 3e 51 61 7f 3e 0c 91 8e 3e
       0.27360776 0.26634383 0.24939467 0.27845037
000260 c7 0b 91 3e 88 29 a1 3e c7 0b 91 3e c7 0b 91 3e
       0.28329298 0.31476998 0.28329298 0.28329298
000270 ae 53 8d 3e c1 68 83 3e f3 d8 8a 3e f3 d8 8a 3e
       0.27602905 0.25665858 0.27118644 0.27118644
000280 9b 3e 97 3e e0 c3 94 3e 0c 91 8e 3e 38 5e 88 3e
       0.29539952 0.2905569 0.27845037 0.26634383
000290 25 49 92 3e f3 d8 8a 3e 64 2b 82 3e ae 53 8d 3e
       0.2857143 0.27118644 0.2542373 0.27602905
0002a0 51 61 7f 3e e0 c3 94 3e 69 ce 8f 3e 56 b9 99 3e
       0.24939467 0.2905569 0.28087166 0.30024213
0002b0 64 2b 82 3e 95 9b 89 3e c1 68 83 3e 9b 3e 97 3e
       0.2542373 0.26876512 0.25665858 0.29539952
0002c0 51 16 8c 3e 1f a6 84 3e 1f a6 84 3e 0c 91 8e 3e
       0.27360776 0.2590799 0.2590799 0.27845037
0002d0 96 e6 7c 3e 33 06 6e 3e 51 61 7f 3e db 6b 7a 3e
       0.24697337 0.23244552 0.24939467 0.24455206
0002e0 96 e6 7c 3e ae 53 8d 3e 38 5e 88 3e 78 8b 6b 3e
       0.24697337 0.27602905 0.26634383 0.23002422
0002f0 db 6b 7a 3e 96 e6 7c 3e 1f a6 84 3e f3 d8 8a 3e
       0.24455206 0.24697337 0.2590799 0.27118644
000300 95 9b 89 3e da 20 87 3e b1 ca 4d 3e 20 f1 77 3e
       0.26876512 0.2639225 0.20096852 0.24213076
000310 14 ab 5c 3e 64 2b 82 3e c1 68 83 3e f3 d8 8a 3e
       0.21549636 0.2542373 0.25665858 0.27118644
000320 db 6b 7a 3e d0 25 5f 3e 7d e3 85 3e 51 61 7f 3e
       0.24455206 0.21791768 0.26150122 0.24939467
000330 bc 10 69 3e bc 10 69 3e d0 25 5f 3e 9e b5 57 3e
       0.2276029 0.2276029 0.21791768 0.21065375
000340 59 30 5a 3e 01 96 66 3e 33 06 6e 3e d0 25 5f 3e
       0.21307506 0.2251816 0.23244552 0.21791768
000350 8b a0 61 3e bc 10 69 3e db 6b 7a 3e 01 96 66 3e
       0.22033899 0.2276029 0.24455206 0.2251816
000360 46 1b 64 3e 6c 45 50 3e 14 ab 5c 3e 6c 45 50 3e
       0.22276029 0.20338982 0.21549636 0.20338982
000370 01 96 66 3e 59 30 5a 3e 59 30 5a 3e 46 1b 64 3e
       0.2251816 0.21307506 0.21307506 0.22276029
000380 bc 10 69 3e bc 10 69 3e 3b d5 48 3e e3 3a 55 3e
       0.2276029 0.2276029 0.19612591 0.20823245
000390 3b d5 48 3e e3 3a 55 3e 8b a0 61 3e 09 65 41 3e
       0.19612591 0.20823245 0.22033899 0.18886198
0003a0 28 c0 52 3e 59 30 5a 3e 6c 45 50 3e 3b d5 48 3e
       0.20581114 0.21307506 0.20338982 0.19612591
0003b0 59 30 5a 3e 01 96 66 3e 6c 45 50 3e 14 ab 5c 3e
       0.21307506 0.2251816 0.20338982 0.21549636
0003c0 8b a0 61 3e 28 c0 52 3e 80 5a 46 3e e3 3a 55 3e
       0.22033899 0.20581114 0.1937046 0.20823245
0003d0 d8 f4 39 3e 46 1b 64 3e 09 65 41 3e c4 df 43 3e
       0.18159807 0.22276029 0.18886198 0.19128329
0003e0 14 ab 5c 3e 9e b5 57 3e 3b d5 48 3e 6c 45 50 3e
       0.21549636 0.21065375 0.19612591 0.20338982
0003f0 28 c0 52 3e 6c 45 50 3e 61 ff 34 3e 3b d5 48 3e
       0.20581114 0.20338982 0.17675544 0.19612591

item_pop_true f4 [1154, 1]
000000 00 00 80 3f 1b e4 50 3f aa 91 59 3f c3 49 5d 3f
       1.0 0.8159806 0.8498789 0.86440676
000010 60 69 4e 3f 60 69 4e 3f 54 8d 4c 3f ac 27 40 3f
       0.8062954 0.8062954 0.7990315 0.75060534
000020 29 56 39 3f 1d 7a 37 3f 30 8f 2d 3f bf 3c 36 3f
       0.72397095 0.71670705 0.6779661 0.7118644
000030 f2 42 24 3f d9 8a 20 3f b9 99 28 3f ad bd 26 3f
       0.6416465 0.62711865 0.6585956 0.6513317
000040 e5 66 22 3f 6f 71 1d 3f e5 66 22 3f c7 0b 11 3f
       0.63438255 0.6150121 0.63438255 0.56658596
000050 31 25 14 3f e0 c3 14 3f 38 5e 08 3f 0c 91 0e 3f
       0.5786925 0.5811138 0.53268766 0.55690074
000060 5d f2 0d 3f c1 68 03 3f da 20 07 3f c1 68 03 3f
       0.5544794 0.51331717 0.527845 0.51331717
000070 06 ee 00 3f 64 76 f5 3e 7d e3 05 3f 13 ca 02 3f
       0.50363195 0.47941887 0.52300245 0.5108959
000080 06 ee 00 3f 57 4f 00 3f bc 10 e9 3e 4c be f1 3e
       0.50363195 0.50121063 0.4552058 0.47215497
000090 13 ca 02 3f 7d 2e f9 3e 13 ca 02 3f 8b a0 e1 3e
       0.5108959 0.4866828 0.5108959 0.44067797
0000a0 e8 dd e2 3e 38 a9 fb 3e 7d 2e f9 3e da 20 07 3f
       0.44309926 0.4915254 0.4866828 0.527845
0000b0 bc 10 e9 3e bc 10 e9 3e 14 ab dc 3e 46 1b e4 3e
       0.4552058 0.4552058 0.43099272 0.44552058
0000c0 2d 63 e0 3e a4 58 e5 3e 1a 4e ea 3e 78 8b eb 3e
       0.43825665 0.4479419 0.45762712 0.46004844
0000d0 40 78 d6 3e 46 1b e4 3e e8 dd e2 3e e8 dd e2 3e
       0.41888618 0.44552058 0.44309926 0.44309926
0000e0 d5 c8 ec 3e a4 58 e5 3e 40 78 d6 3e 59 30 da 3e
       0.46246973 0.4479419 0.41888618 0.4261501
0000f0 3b d5 c8 3e 72 e8 dd 3e 9e b5 d7 3e 14 ab dc 3e
       0.39225182 0.43341404 0.4213075 0.43099272
000100 98 12 ca 3e 54 8d cc 3e 59 30 da 3e e3 3a d5 3e
       0.3946731 0.39951575 0.4261501 0.4164649
000110 98 12 ca 3e dd 97 c7 3e ca 82 d1 3e 54 8d cc 3e
       0.3946731 0.3898305 0.40920097 0.39951575
000120 4e ea be 3e d0 25 df 3e 98 12 ca 3e 85 fd d3 3e
       0.37288135 0.43583536 0.3946731 0.41404358
000130 ac 27 c0 3e ca 82 d1 3e f6 4f cb 3e 0f 08 cf 3e
       0.37530267 0.40920097 0.39709443 0.40435836
000140 dd 97 c7 3e bf 3c b6 3e 7a b7 b8 3e dd 97 c7 3e
       0.3898305 0.3559322 0.36077482 0.3898305
000150 49 47 b1 3e 7a b7 b8 3e c4 df c3 3e 22 1d c5 3e
       0.346247 0.36077482 0.38256657 0.3849879
000160 d8 f4 b9 3e bf 3c b6 3e 93 6f bc 3e 4e ea be 3e
       0.36319613 0.3559322 0.36803874 0.37288135
000170 d2 51 ac 3e 04 c2 b3 3e d2 51 ac 3e eb 09 b0 3e
       0.33656174 0.3510896 0.33656174 0.34382567
000180 61 ff b4 3e 7a b7 b8 3e 17 d7 a9 3e 35 32 bb 3e
       0.3535109 0.36077482 0.33171913 0.36561742
000190 30 8f ad 3e 8d cc ae 3e bf 3c b6 3e eb 09 b0 3e
       0.33898306 0.34140435 0.3559322 0.34382567
0001a0 a6 84 b2 3e fe 1e a6 3e a1 e1 a4 3e eb 09 b0 3e
       0.34866828 0.3244552 0.3220339 0.34382567
0001b0 8d cc ae 3e a1 e1 a4 3e 75 14 ab 3e fe 1e a6 3e
       0.34140435 0.3220339 0.33414045 0.3244552
0001c0 1d 7a b7 3e 9b 3e 97 3e a1 e1 a4 3e 43 a4 a3 3e
       0.35835353 0.29539952 0.3220339 0.3196126
0001d0 a1 e1 a4 3e 5c 5c a7 3e fe 1e a6 3e 6f 71 9d 3e
       0.3220339 0.32687652 0.3244552 0.30750605
0001e0 e5 66 a2 3e a1 e1 a4 3e a1 e1 a4 3e d2 51 ac 3e
       0.31719127 0.3220339 0.3220339 0.33656174
0001f0 cd ae 9e 3e 9b 3e 97 3e e0 c3 94 3e 11 34 9c 3e
       0.30992737 0.29539952 0.2905569 0.30508474
000200 b4 f6 9a 3e 88 29 a1 3e e5 66 a2 3e 3d 01 96 3e
       0.30266345 0.31476998 0.31719127 0.2929782
000210 e5 66 a2 3e c7 0b 91 3e f3 d8 8a 3e 25 49 92 3e
       0.31719127 0.28329298 0.27118644 0.2857143
000220 c7 0b 91 3e 56 b9 99 3e e0 c3 94 3e 9b 3e 97 3e
       0.28329298 0.30024213 0.2905569 0.29539952
000230 ae 53 8d 3e c7 0b 91 3e 9b 3e 97 3e 7d e3 85 3e
       0.27602905 0.28329298 0.29539952 0.26150122
000240 95 9b 89 3e c7 0b 91 3e f3 d8 8a 3e 25 49 92 3e
       0.26876512 0.28329298 0.27118644 0.2857143
000250 51 16 8c 3e 38 5e 88 3e 51 61 7f 3e 0c 91 8e 3e
       0.27360776 0.26634383 0.24939467 0.27845037
000260 c7 0b 91 3e 88 29 a1 3e c7 0b 91 3e c7 0b 91 3e
       0.28329298 0.31476998 0.28329298 0.28329298
000270 ae 53 8d 3e c1 68 83 3e f3 d8 8a 3e f3 d8 8a 3e
       0.27602905 0.25665858 0.27118644 0.27118644
000280 9b 3e 97 3e e0 c3 94 3e 0c 91 8e 3e 38 5e 88 3e
       0.29539952 0.2905569 0.27845037 0.26634383
000290 25 49 92 3e f3 d8 8a 3e 64 2b 82 3e ae 53 8d 3e
       0.2857143 0.27118644 0.2542373 0.27602905
0002a0 51 61 7f 3e e0 c3 94 3e 69 ce 8f 3e 56 b9 99 3e
       0.24939467 0.2905569 0.28087166 0.30024213
0002b0 64 2b 82 3e 95 9b 89 3e c1 68 83 3e 9b 3e 97 3e
       0.2542373 0.26876512 0.25665858 0.29539952
0002c0 51 16 8c 3e 1f a6 84 3e 1f a6 84 3e 0c 91 8e 3e
       0.27360776 0.2590799 0.2590799 0.27845037
0002d0 96 e6 7c 3e 33 06 6e 3e 51 61 7f 3e db 6b 7a 3e
       0.24697337 0.23244552 0.24939467 0.24455206
0002e0 96 e6 7c 3e ae 53 8d 3e 38 5e 88 3e 78 8b 6b 3e
       0.24697337 0.27602905 0.26634383 0.23002422
0002f0 db 6b 7a 3e 96 e6 7c 3e 1f a6 84 3e f3 d8 8a 3e
       0.24455206 0.24697337 0.2590799 0.27118644
000300 95 9b 89 3e da 20 87 3e b1 ca 4d 3e 20 f1 77 3e
       0.26876512 0.2639225 0.20096852 0.24213076
000310 14 ab 5c 3e 64 2b 82 3e c1 68 83 3e f3 d8 8a 3e
       0.21549636 0.2542373 0.25665858 0.27118644
000320 db 6b 7a 3e d0 25 5f 3e 7d e3 85 3e 51 61 7f 3e
       0.24455206 0.21791768 0.26150122 0.24939467
000330 bc 10 69 3e bc 10 69 3e d0 25 5f 3e 9e b5 57 3e
       0.2276029 0.2276029 0.21791768 0.21065375
000340 59 30 5a 3e 01 96 66 3e 33 06 6e 3e d0 25 5f 3e
       0.21307506 0.2251816 0.23244552 0.21791768
000350 8b a0 61 3e bc 10 69 3e db 6b 7a 3e 01 96 66 3e
       0.22033899 0.2276029 0.24455206 0.2251816
000360 46 1b 64 3e 6c 45 50 3e 14 ab 5c 3e 6c 45 50 3e
       0.22276029 0.20338982 0.21549636 0.20338982
000370 01 96 66 3e 59 30 5a 3e 59 30 5a 3e 46 1b 64 3e
       0.2251816 0.21307506 0.21307506 0.22276029
000380 bc 10 69 3e bc 10 69 3e 3b d5 48 3e e3 3a 55 3e
       0.2276029 0.2276029 0.19612591 0.20823245
000390 3b d5 48 3e e3 3a 55 3e 8b a0 61 3e 09 65 41 3e
       0.19612591 0.20823245 0.22033899 0.18886198
0003a0 28 c0 52 3e 59 30 5a 3e 6c 45 50 3e 3b d5 48 3e
       0.20581114 0.21307506 0.20338982 0.19612591
0003b0 59 30 5a 3e 01 96 66 3e 6c 45 50 3e 14 ab 5c 3e
       0.21307506 0.2251816 0.20338982 0.21549636
0003c0 8b a0 61 3e 28 c0 52 3e 80 5a 46 3e e3 3a 55 3e
       0.22033899 0.20581114 0.1937046 0.20823245
0003d0 d8 f4 39 3e 46 1b 64 3e 09 65 41 3e c4 df 43 3e
       0.18159807 0.22276029 0.18886198 0.19128329
0003e0 14 ab 5c 3e 9e b5 57 3e 3b d5 48 3e 6c 45 50 3e
       0.21549636 0.21065375 0.19612591 0.20338982
0003f0 28 c0 52 3e 6c 45 50 3e 61 ff 34 3e 3b d5 48 3e
       0.20581114 0.20338982 0.17675544 0.19612591

lr1.weight f4 [1, 63]
000000 80 da 6a 3d 03 21 c7 3c 91 2f db 3d fa 1b 53 be
       0.057337284 0.024307733 0.10702432 -0.20616141
000010 b2 d1 2a 3e 90 47 1a 3d de 31 24 3e 1a 80 74 3a
       0.16681555 0.037665904 0.16034648 0.000932695
000020 06 5e 82 3c 97 04 fe bd b9 89 15 bc 21 b1 26 be
       0.015913974 -0.12403219 -0.009127074 -0.16278507
000030 70 25 3e bd af 0e d0 bc 3f 80 89 3b 4d b3 b0 bc
       -0.046422422 -0.025397627 0.0041961963 -0.021569872
000040 0d a8 cb bd e5 90 fc bd a3 25 ed 3c d1 21 e8 bc
       -0.099441625 -0.12332324 0.02894861 -0.028336437
000050 c5 bc d1 3c 16 75 4a bd 43 21 91 bd 21 70 25 3d
       0.025602708 -0.049428068 -0.07086422 0.040390138
000060 37 53 b2 3a 48 4a 4f be a8 77 7a 3d f4 50 79 3e
       0.0013605122 -0.2024318 0.06114927 0.24347287
000070 10 fe 9d bd bd e1 c5 bd db d4 98 3d de 9f 5f 3e
       -0.07714474 -0.09662197 0.07462474 0.21838328
000080 22 8d 6e bd 1c a1 3c bd 6d 3c bd 3d df 98 5b 3d
       -0.058240063 -0.046052083 0.09240041 0.053612586
000090 56 d4 b4 3b c9 b4 15 3e 0e da a1 bd 9b ab 90 bd
       0.0055184765 0.14619745 -0.07902919 -0.07063981
0000a0 c0 42 7e 3d 76 41 7f 3d 8b b0 a1 3d 6d 6d 87 bc
       0.062075377 0.062318288 0.07895001 -0.01653167
0000b0 10 04 a4 bc d9 78 18 be 5f 96 4d bd bb f5 a7 be
       -0.020021468 -0.1488985 -0.050192233 -0.32804665
0000c0 52 f3 89 3e b1 15 f1 bd 8d 2d 0a be 68 b9 df 3d
       0.2694345 -0.117717154 -0.13493939 0.10924035
0000d0 f4 f9 30 3e db 5a 45 3e 8c 0b bc bc 7b 05 69 3e
       0.1728285 0.1927294 -0.022954725 0.22755997
0000e0 91 0d a1 bb 1b 81 86 be c0 f5 67 bc 75 0b 31 be
       -0.0049149473 -0.26270375 -0.014157712 -0.17289527
0000f0 fc 8f d2 3c a3 06 1f be b4 f6 26 3c
       0.025703423 -0.15529875 0.010190655
