pid/result/ml100k-PIDMF-debug2023-03-14-10-32-30/ckpt/epoch_41.pth (torch_old, 543278 bytes, 5 tensors)

users f4 [945, 64]
1.4830652 -0.2795214 -0.58124036 0.3010533 0.09665159 -0.1946437 0.47550997 -0.47716057
-0.61618185 -0.12668519 0.6128546 -0.3605523 -0.50047016 0.25439206 0.73711216 -0.19952744
1.2073582 0.5113264 0.85409963 0.44530421 0.7059871 -0.29287934 -0.8553664 -0.3603974
0.84508365 0.88798827 -0.020313697 -0.20803119 -0.73365796 -0.6746375 -0.5617014 0.12234737
-0.69123846 -0.6812629 -0.57890666 -0.6468117 -0.8179742 0.0031079752 -0.59788936 -1.0221516
-0.41069326 0.57525 -0.4689974 0.060423408 -1.1310449 -0.7328016 0.7230746 -0.15253003
0.18612766 0.21895477 -0.9341756 -0.7241106 0.8690722 -0.96459955 -0.04990031 0.8977715
0.21190566 0.466037 0.2319175 1.0695515 0.32600984 -0.5173594 -0.18707205 0.16740334
0.5644894 -0.28379935 0.14270934 -0.74854565 -0.7953346 -0.3958161 0.9244601 0.7993345
0.08125446 -0.12247295 -0.06206407 -0.89047194 -0.07737637 0.030239375 0.35935283 -0.19590008
0.18106876 0.092671484 0.288208 0.50682336 0.21060193 -0.03152488 0.802868 -0.36463067
0.33335242 1.2390697 -0.91501445 -1.0342704 -1.0272125 -1.1078414 0.35402524 -0.99329793
0.791257 0.043245047 0.43619025 0.55184746 -0.3580443 0.1973434 -0.86375624 -1.3985417
0.20663168 -0.26995084 0.7268147 -0.28465626 0.7867022 -0.7192877 -0.42259067 -0.64442915
0.21544632 -1.0740224 0.2844163 -0.87245184 -0.5676176 0.32478833 -0.43021286 -0.87480724
0.52739424 0.18204264 -0.029057728 0.46038684 0.07430837 0.8556657 -0.44804302 -0.17396687
-0.70780206 -0.42075163 -0.48266676 -0.3336535 -0.15066876 0.74429494 0.4631759 0.030767137
0.3814723 -0.99696887 0.4740895 0.049427174 -0.61724615 0.5574732 0.4467638 -0.3920838
-0.9731728 -0.13047747 1.2098111 0.4443122 -0.5254697 0.5038277 -0.801388 0.1065318
-0.23190247 1.095525 -0.10596759 -0.92328155 -0.22759764 -0.29784304 -0.38025805 -0.8451271
-0.9379446 -0.032622147 -1.0721159 -0.16607298 0.9085724 0.14320108 -0.27909014 -0.9311562
0.6249428 0.09241141 -0.5500176 -0.67891204 -0.8835076 0.11791441 0.5813215 -1.2029653
0.2319794 0.23586671 -0.27588356 0.24555266 -1.1513984 -0.09863062 0.45657778 -0.337555
-0.39534757 0.22109447 0.33055097 -0.15750521 0.081492245 0.7513338 -0.45956087 0.10117367
0.6450912 -0.51236945 0.9025246 -0.17323947 -0.9425156 -0.008309056 1.1635036 -0.2959755
0.1962188 0.2707362 0.98113436 -1.0328611 0.05133305 0.22754762 0.6679221 -0.31775737
0.54849595 0.17216419 0.54751664 -0.20882921 -0.14461459 -0.45180866 -0.5567802 -0.405587
-0.77498037 -0.35225874 0.99105227 -0.68666184 0.21811108 -0.22536114 0.9970242 0.58597916
0.9453271 -0.9696238 -0.2823412 -0.42150554 -0.1422492 -0.83442825 0.053936027 0.34323496
-0.5555574 0.10769981 0.114755504 0.17676592 -0.8667399 -0.013556957 0.47269052 -0.020813141
0.35420617 0.28639758 -0.091180176 -0.6272774 1.7237355 -1.1003425 0.4340861 -0.84930646
-0.26904252 0.52189136 0.23278105 0.54870117 -0.21134794 0.27542794 0.18402141 0.113131575
00000000: 15d5 bd3f 6e1d 8fbe 2bcc 14bf a823 9a3e
00000010: 45f1 c53d ae50 47be 0b76 f33e 644e f4be
00000020: 18be 1dbf c3b9 01be 0ae4 1c3f 509a b8be
00000030: d01e 00bf ad3f 823e 62b3 3c3f ec50 4cbe
00000040: b78a 9a3f 49e6 023f 46a6 5a3f eafe e33e
00000050: 92bb 343f 48f4 95be 4bf9 5abf 0286 b8be
00000060: 6757 583f 3353 633f e968 a6bc 2106 55be
00000070: 02d1 3bbf 0bb5 2cbf aacb 0fbf 4291 fa3d
00000080: 01f5 30bf 3f67 2ebf 3a33 14bf 7495 25bf
00000090: c266 51bf 2caf 4b3b 470f 19bf ddd5 82bf
000000a0: 6346 d2be 9643 133f 6d20 f0be 897e 773d
000000b0: 14c6 90bf e398 3bbf 6b1b 393f d530 1cbe
000000c0: 4098 3e3e ae35 603e 2226 6fbf 505f 39bf
000000d0: 847b 5e3f ffef 76bf 4464 4cbd 5ad4 653f
000000e0: ccfd 583e 679c ee3e c87b 6d3e 10e7 883f
000000f0: c3ea a63e aa71 04bf d18f 3fbe c86b 2b3e
00000100: 6182 103f 264e 91be 6622 123e b0a0 3fbf
00000110: 0c9b 4bbf 68a8 cabe 6ba9 6c3f 30a1 4c3f
00000120: bd68 a63d 19d3 fabd e536 7ebd f8f5 63bf
00000130: 8177 9ebd 91b8 f73c 18fd b73e 089a 48be
00000140: 176a 393e 8cca bd3d 0090 933e 2dbf 013f
00000150: 08a8 573e 3c20 01bd c288 4d3f dfb0 babe
00000160: 2bad aa3e d699 9e3f 633e 6abf f962 84bf
00000170: b37b 83bf bfcd 8dbf cc42 b53e c648 7ebf
00000180: d28f 4a3f b821 313d 5454 df3e e045 0d3f
00000190: 9551 b7be 6314 4a3e 211f 5dbf 6a03 b3bf
000001a0: 4197 533e ff36 8abe 8710 3a3f 77be 91be
000001b0: 5165 493f 3d23 38bf ce5d d8be 4ff9 24bf
000001c0: f69d 5c3e 9179 89bf 039f 913e 0159 5fbf
000001d0: 634f 11bf a84a a63e dc44 dcbe 5ef3 5fbf
000001e0: 4f03 073f 6369 3a3e 790a eebc d3b7 eb3e
000001f0: fd2e 983d e80c 5b3f e565 e5be 5f24 32be
00000200: 8432 35bf c26c d7be 1920 f7be a2d4 aabe
00000210: e948 1abe 1d8a 3e3f 6425 ed3e 5d0b fc3c
00000220: 5650 c33e 5a39 7fbf dcbb f23e 2674 4a3d
00000230: d803 1ebf 90b6 0e3f 3abe e43e 35bf c8be
00000240: da21 79bf e39b 05be 17db 9a3f e47c e33e
00000250: 2f85 06bf dafa 003f c427 4dbf 582d da3d
00000260: d777 6dbe 2a3a 8c3f 8905 d9bd 2e5c 6cbf
00000270: 5b0f 69be e27e 98be 2fb1 c2be 405a 58bf
00000280: 231d 70bf cd9e 05bd 183b 89bf 090f 2abe
00000290: 3398 683f 4ea3 123e e7e4 8ebe 4160 6ebf
000002a0: 40fc 1f3f 3142 bd3d f4cd 0cbf 2ecd 2dbf
000002b0: 8e2d 62bf 1c7d f13d 7cd1 143f c4fa 99bf
000002c0: 028c 6d3e 0b87 713e 9c40 8dbe 2872 7b3e
000002d0: 0661 93bf dafe c9bd 90c4 e93e 02d4 acbe
000002e0: ff6a cabe 9766 623e fa3d a93e 0c49 21be
000002f0: 68e5 a63d 6957 403f 904b ebbe 2434 cf3d
00000300: b224 253f a52a 03bf da0b 673f b065 31be
00000310: b448 71bf b522 08bc b0ed 943f 1a8a 97be
00000320: 95ed 483e ef9d 8a3e 9f2b 7b3f cb34 84bf
00000330: 9b42 523d 3e02 693e f1fc 2a3f 18b1 a2be
00000340: 3b6a 0c3f cf4b 303e 0d2a 0c3f 53d7 55be
00000350: d915 14be 7753 e7be 2689 0ebf 19a9 cfbe
00000360: 1d65 46bf 425b b4be 9ab5 7d3f 12c9 2fbf
00000370: 8358 5f3e 12c5 66be fa3c 7f3f bb02 163f
00000380: f500 723f 4439 78bf 078f 90be 93cf d7be
00000390: c6a9 11be 179d 55bf 06ec 5c3d 7ebc af3e
000003a0: 0339 0ebf b891 dc3d ef04 eb3d 2002 353e
000003b0: abe2 5dbf 001e 5ebc 7e04 f23e 5280 aabc
000003c0: 835a b53e b4a2 923e acbc babd 4095 20bf
000003d0: 5da3 dc3f 06d8 8cbf 8940 de3e 266c 59bf
000003e0: f1bf 89be ac9a 053f 285e 6e3e ae77 0c3f
000003f0: 986b 58be e404 8d3e 1c70 3c3e 87b1 e73d

items_id f4 [1154, 63]
0.59366447 0.56396514 0.19313966 -0.11234665 0.1549598 0.44171655 0.57973903 0.5882472
0.5749707 -0.4138712 0.6444723 -0.11298661 -0.38234377 0.5212634 0.4602509 -0.41944256
-0.1771366 -0.29473835 0.3266973 0.6921669 0.6781523 0.4305774 -0.34611383 0.30465427
-0.26728666 0.03425446 0.32915843 0.24143907 -0.23209101 -0.34686255 0.43650177 0.14529417
-0.16922392 -0.47613695 0.27151656 0.25677165 0.7537085 0.34547704 -0.30401045 -0.22848637
-0.2922789 0.2637547 0.28998923 -0.5690296 -0.6237463 -0.23594454 0.47253585 0.06955106
0.10246868 -0.3336481 -0.29840115 0.034536332 0.21339367 -0.0059216795 -0.6694144 0.20694515
-0.5908851 0.031325337 -0.32684267 -0.13158113 0.31629854 -0.17275846 0.48245922 0.18783039
0.31040612 0.1371535 0.019325191 0.58706313 0.07547032 0.66871166 0.106256954 0.039347343
-0.053083126 0.0115995435 -0.037664924 -0.25335804 0.07123879 0.026008036 -0.23858836 -0.32449088
-0.12239747 0.24975672 0.019136108 0.28157017 0.30515906 -0.095449805 0.35684174 -0.19905871
-0.19046737 0.05858092 0.04236779 0.021392446 0.0013994606 -0.040520206 0.086964965 -0.19334763
-0.28100112 0.24162881 0.123148285 0.33989343 0.13693711 -0.10119668 -0.096879415 -0.16782571
0.23974645 -0.022189893 -0.05596501 -0.22348192 -0.069135875 0.025318008 -0.11033406 0.0954856
0.003483319 -0.035075195 0.048876945 0.19458263 0.20846634 0.07935128 0.21085002 -0.3963484
-0.107793376 -0.00030479205 -0.13917567 0.0034648278 -0.28902468 0.09093448 0.3319212 0.37759998
0.15394264 -0.087728575 0.3525913 0.26667076 0.106209666 0.18140464 0.37611437 -0.29016322
0.4049318 -0.26027128 -0.2845508 0.16163051 0.16961062 -0.1572746 -0.27402902 0.008407947
0.089559935 0.24117708 0.35431236 0.37152487 -0.2057108 0.25643167 -0.10574478 -0.06385367
0.075646356 0.23644696 -0.10741728 -0.040136963 0.25120926 0.046336256 -0.2824385 -0.3719866
0.13796201 0.08324925 0.42735258 0.12148497 -0.117424846 -0.2615953 -0.19085078 0.11551797
0.2531403 -0.3529205 -0.25736457 -0.2101759 0.19054802 -0.13137276 0.081462085 -0.18931456
-0.26031235 0.090126105 0.20261393 0.18395263 -0.39254335 0.0049107024 -0.2939386 -0.055990394
-0.11475219 -0.15975562 0.07236071 -0.16464238 0.2909078 0.4207169 0.15845092 0.17732145
-0.22001317 0.22394252 0.1031393 0.37667212 0.33101556 0.3894835 -0.26420835 0.17389199
-0.23872416 -0.15127538 0.26453328 0.19022197 -0.3982025 -0.22059995 -0.1604894 0.10480898
0.18802947 0.3993311 0.14009473 -0.09879936 0.08022497 -0.0894222 -0.15478769 0.21624546
0.17032568 -0.21659367 -0.14427657 0.3216001 0.14190823 -0.073878534 -0.2780907 0.2995019
0.108552486 0.2897315 0.07536109 -0.24396078 -0.20942016 -0.19146422 0.08413044 0.103060886
-0.36836308 -0.20721826 -0.05108167 0.09968875 0.0033435088 -0.073310554 -0.22874829 -0.14990737
0.069066 0.10004984 0.17050974 -0.40803137 0.21375555 -0.21378589 -0.0799291 -0.062786534
-0.101891086 0.16864431 -0.296977 0.18540668 0.37495238 0.26403242 0.2531216 0.065962024
00000000: 65fa 173f 0560 103f 67c6 453e 0016 e6bd
00000010: c8ad 1e3e ac28 e23e c769 143f 5e97 163f
00000020: 4831 133f ede6 d3be 23fc 243f 8665 e7bd
00000030: 90c2 c3be 8571 053f 02a6 eb3e 2dc1 d6be
00000040: 4c63 35be f2e7 96be de44 a73e da31 313f
00000050: 649b 2d3f a474 dc3e d535 b1be a5fb 9b3e
00000060: ccd9 88be 684e 0c3d 7487 a83e ce3b 773e
00000070: 44a9 6dbe f897 b1be 297d df3e ffc7 143e
00000080: 0949 2dbe 39c8 f3be 3804 8b3e 9377 833e
00000090: 0af3 403f 5ee2 b03e 42a7 9bbe 55f8 69be
000000a0: 94a5 95be db0a 873e 7879 943e edab 11bf
000000b0: d6ad 1fbf 729b 71be 38f0 f13e c970 8e3d
000000c0: 19db d13d ecd3 aabe 09c8 98be f875 0d3d
000000d0: df83 5a3e a60a c2bb be5e 2bbf 6ee9 533e
000000e0: 3f44 17bf ff4e 003d ec57 a7be 34bd 06be
000000f0: e2f1 a13e 98e7 30be e504 f73e 9c56 403e
00000100: 8ded 9e3e f871 0c3e dd4f 9e3c c549 163f
00000110: 2f90 9a3d b030 2b3f 3f9d d93d ae2a 213d
00000120: b16d 59bd 030c 3e3c 8946 1abd 25b8 81be
00000130: a5e5 913d ce0e d53c 8250 74be ab23 a6be
00000140: 86ab fabd 3ac0 7f3e 54c3 9c3c f729 903e
00000150: cf3d 9c3e 307b c3bd f6b3 b63e 0cd6 4bbe
00000160: e109 43be 8cf2 6f3d d989 2d3d 363f af3c
00000170: 1b6e b73a 84f8 25bd b01a b23d ecfc 45be
00000180: 61df 8fbe 8b6d 773e 2b35 fc3d 8306 ae3e
00000190: 3e39 0c3e 3440 cfbd b768 c6bd 81da 2bbe
000001a0: 1880 753e 94c7 b5bc 913b 65bd 72d8 64be
000001b0: 1c97 8dbd b667 cf3c d3f6 e1bd f48d c33d
000001c0: 6548 643b 02ab 0fbd 3133 483d ab40 473e
000001d0: 3378 553e ed82 a23d 11e9 573e 2dee cabe
000001e0: c6c2 dcbd 7fcc 9fb9 1184 0ebe 2a12 633b
000001f0: 0bfb 93be db3b ba3d 93f1 a93e c954 c13e
00000200: 24a3 1d3e 0aab b3bd d986 b43e 1289 883e
00000210: 7484 d93d 23c2 393e 1092 c03e 4690 94be
00000220: 3953 cf3e 4742 85be a4b0 91be 7882 253e
00000230: 68ae 2d3e 980c 21be 884d 8cbe 7cc1 093c
00000240: 336b b73d 20f7 763e 6e68 b53e 8238 be3e
00000250: daa5 52be 034b 833e b890 d8bd b7c5 82bd
00000260: 7aec 9a3d 271f 723e 97fd dbbd a866 24bd
00000270: 809e 803e 16cb 3d3d c79b 90be 0775 bebe
00000280: ea45 0d3e 957e aa3d f5cd da3e 1dcd f83d
00000290: 707c f0bd d2ef 85be 636e 43be af94 ec3d
000002a0: 9b9b 813e ffb1 b4be 4ac5 83be 5a38 57be
000002b0: 051f 433e 9586 06be 98d5 a63d addb 41be
000002c0: a947 85be 0994 b83d 077a 4f3e 145e 3c3e
000002d0: 71fb c8be f5e9 a03b 1f7f 96be 2f56 65bd
000002e0: 3203 ebbd fa96 23be da31 943d 0398 28be
000002f0: def1 943e 3568 d73e f540 223e c193 353e
00000300: 224b 61be 3051 653e b33a d33d 2bdb c03e
00000310: df7a a93e 626a c73e 5146 87be be10 323e
00000320: 1b74 74be efe7 1abe e870 873e 8cc9 423e
00000330: 33e1 cbbe f4e4 61be 5557 24be 17a6 d63d
00000340: cc8a 403e 2075 cc3e fe74 0f3e 5257 cabd
00000350: fd4c a43d fd22 b7bd aa80 1ebe 736f 5d3e
00000360: db69 2e3e bbca 5dbe 3dbd 13be c5a8 a43e
00000370: 6450 113e a14d 97bd e761 8ebe 5058 993e
00000380: c450 de3d b057 943e ea56 9a3d dbd0 79be
00000390: 3d72 56be 320f 44be 954c ac3d 9611 d33d
000003a0: 169a bcbe 0631 54be 033b 51bd 9e29 cc3d
000003b0: c51e 5b3b d823 96bd fe3c 6abe 5181 19be
000003c0: 7a72 8d3d eee6 cc3d 1b9a 2e3e 7de9 d0be
000003d0: bce2 5a3e b0ea 5abe deb1 a3bd 3a96 80bd
000003e0: 46ac d0bd 18b1 2c3e 5f0d 98be 40db 3d3e
000003f0: c2f9 bf3e 422f 873e 2899 813e 1917 873d

item_pop f4 [1154, 1]
1.0 0.8159806 0.8498789 0.86440676 0.8062954 0.8062954 0.7990315 0.75060534
0.72397095 0.71670705 0.6779661 0.7118644 0.6416465 0.62711865 0.6585956 0.6513317
0.63438255 0.6150121 0.63438255 0.56658596 0.5786925 0.5811138 0.53268766 0.55690074
0.5544794 0.51331717 0.527845 0.51331717 0.50363195 0.47941887 0.52300245 0.5108959
0.50363195 0.50121063 0.4552058 0.47215497 0.5108959 0.4866828 0.5108959 0.44067797
0.44309926 0.4915254 0.4866828 0.527845 0.4552058 0.4552058 0.43099272 0.44552058
0.43825665 0.4479419 0.45762712 0.46004844 0.41888618 0.44552058 0.44309926 0.44309926
0.46246973 0.4479419 0.41888618 0.4261501 0.39225182 0.43341404 0.4213075 0.43099272
0.3946731 0.39951575 0.4261501 0.4164649 0.3946731 0.3898305 0.40920097 0.39951575
0.37288135 0.43583536 0.3946731 0.41404358 0.37530267 0.40920097 0.39709443 0.40435836
0.3898305 0.3559322 0.36077482 0.3898305 0.346247 0.36077482 0.38256657 0.3849879
0.36319613 0.3559322 0.36803874 0.37288135 0.33656174 0.3510896 0.33656174 0.34382567
0.3535109 0.36077482 0.33171913 0.36561742 0.33898306 0.34140435 0.3559322 0.34382567
0.34866828 0.3244552 0.3220339 0.34382567 0.34140435 0.3220339 0.33414045 0.3244552
0.35835353 0.29539952 0.3220339 0.3196126 0.3220339 0.32687652 0.3244552 0.30750605
0.31719127 0.3220339 0.3220339 0.33656174 0.30992737 0.29539952 0.2905569 0.30508474
0.30266345 0.31476998 0.31719127 0.2929782 0.31719127 0.28329298 0.27118644 0.2857143
0.28329298 0.30024213 0.2905569 0.29539952 0.27602905 0.28329298 0.29539952 0.26150122
0.26876512 0.28329298 0.27118644 0.2857143 0.27360776 0.26634383 0.24939467 0.27845037
0.28329298 0.31476998 0.28329298 0.28329298 0.27602905 0.25665858 0.27118644 0.27118644
0.29539952 0.2905569 0.27845037 0.26634383 0.2857143 0.27118644 0.2542373 0.27602905
0.24939467 0.2905569 0.28087166 0.30024213 0.2542373 0.26876512 0.25665858 0.29539952
0.27360776 0.2590799 0.2590799 0.27845037 0.24697337 0.23244552 0.24939467 0.24455206
0.24697337 0.27602905 0.26634383 0.23002422 0.24455206 0.24697337 0.2590799 0.27118644
0.26876512 0.2639225 0.20096852 0.24213076 0.21549636 0.2542373 0.25665858 0.27118644
0.24455206 0.21791768 0.26150122 0.24939467 0.2276029 0.2276029 0.21791768 0.21065375
0.21307506 0.2251816 0.23244552 0.21791768 0.22033899 0.2276029 0.24455206 0.2251816
0.22276029 0.20338982 0.21549636 0.20338982 0.2251816 0.21307506 0.21307506 0.22276029
0.2276029 0.2276029 0.19612591 0.20823245 0.19612591 0.20823245 0.22033899 0.18886198
0.20581114 0.21307506 0.20338982 0.19612591 0.21307506 0.2251816 0.20338982 0.21549636
0.22033899 0.20581114 0.1937046 0.20823245 0.18159807 0.22276029 0.18886198 0.19128329
0.21549636 0.21065375 0.19612591 0.20338982 0.20581114 0.20338982 0.17675544 0.19612591
00000000: 0000 803f 1be4 503f aa91 593f c349 5d3f
00000010: 6069 4e3f 6069 4e3f 548d 4c3f ac27 403f
00000020: 2956 393f 1d7a 373f 308f 2d3f bf3c 363f
00000030: f242 243f d98a 203f b999 283f adbd 263f
00000040: e566 223f 6f71 1d3f e566 223f c70b 113f
00000050: 3125 143f e0c3 143f 385e 083f 0c91 0e3f
00000060: 5df2 0d3f c168 033f da20 073f c168 033f
00000070: 06ee 003f 6476 f53e 7de3 053f 13ca 023f
00000080: 06ee 003f 574f 003f bc10 e93e 4cbe f13e
00000090: 13ca 023f 7d2e f93e 13ca 023f 8ba0 e13e
000000a0: e8dd e23e 38a9 fb3e 7d2e f93e da20 073f
000000b0: bc10 e93e bc10 e93e 14ab dc3e 461b e43e
000000c0: 2d63 e03e a458 e53e 1a4e ea3e 788b eb3e
000000d0: 4078 d63e 461b e43e e8dd e23e e8dd e23e
000000e0: d5c8 ec3e a458 e53e 4078 d63e 5930 da3e
000000f0: 3bd5 c83e 72e8 dd3e 9eb5 d73e 14ab dc3e
00000100: 9812 ca3e 548d cc3e 5930 da3e e33a d53e
00000110: 9812 ca3e dd97 c73e ca82 d13e 548d cc3e
00000120: 4eea be3e d025 df3e 9812 ca3e 85fd d33e
00000130: ac27 c03e ca82 d13e f64f cb3e 0f08 cf3e
00000140: dd97 c73e bf3c b63e 7ab7 b83e dd97 c73e
00000150: 4947 b13e 7ab7 b83e c4df c33e 221d c53e
00000160: d8f4 b93e bf3c b63e 936f bc3e 4eea be3e
00000170: d251 ac3e 04c2 b33e d251 ac3e eb09 b03e
00000180: 61ff b43e 7ab7 b83e 17d7 a93e 3532 bb3e
00000190: 308f ad3e 8dcc ae3e bf3c b63e eb09 b03e
000001a0: a684 b23e fe1e a63e a1e1 a43e eb09 b03e
000001b0: 8dcc ae3e a1e1 a43e 7514 ab3e fe1e a63e
000001c0: 1d7a b73e 9b3e 973e a1e1 a43e 43a4 a33e
000001d0: a1e1 a43e 5c5c a73e fe1e a63e 6f71 9d3e
000001e0: e566 a23e a1e1 a43e a1e1 a43e d251 ac3e
000001f0: cdae 9e3e 9b3e 973e e0c3 943e 1134 9c3e
00000200: b4f6 9a3e 8829 a13e e566 a23e 3d01 963e
00000210: e566 a23e c70b 913e f3d8 8a3e 2549 923e
00000220: c70b 913e 56b9 993e e0c3 943e 9b3e 973e
00000230: ae53 8d3e c70b 913e 9b3e 973e 7de3 853e
00000240: 959b 893e c70b 913e f3d8 8a3e 2549 923e
00000250: 5116 8c3e 385e 883e 5161 7f3e 0c91 8e3e
00000260: c70b 913e 8829 a13e c70b 913e c70b 913e
00000270: ae53 8d3e c168 833e f3d8 8a3e f3d8 8a3e
00000280: 9b3e 973e e0c3 943e 0c91 8e3e 385e 883e
00000290: 2549 923e f3d8 8a3e 642b 823e ae53 8d3e
000002a0: 5161 7f3e e0c3 943e 69ce 8f3e 56b9 993e
000002b0: 642b 823e 959b 893e c168 833e 9b3e 973e
000002c0: 5116 8c3e 1fa6 843e 1fa6 843e 0c91 8e3e
000002d0: 96e6 7c3e 3306 6e3e 5161 7f3e db6b 7a3e
000002e0: 96e6 7c3e ae53 8d3e 385e 883e 788b 6b3e
000002f0: db6b 7a3e 96e6 7c3e 1fa6 843e f3d8 8a3e
00000300: 959b 893e da20 873e b1ca 4d3e 20f1 773e
00000310: 14ab 5c3e 642b 823e c168 833e f3d8 8a3e
00000320: db6b 7a3e d025 5f3e 7de3 853e 5161 7f3e
00000330: bc10 693e bc10 693e d025 5f3e 9eb5 573e
00000340: 5930 5a3e 0196 663e 3306 6e3e d025 5f3e
00000350: 8ba0 613e bc10 693e db6b 7a3e 0196 663e
00000360: 461b 643e 6c45 503e 14ab 5c3e 6c45 503e
00000370: 0196 663e 5930 5a3e 5930 5a3e 461b 643e
00000380: bc10 693e bc10 693e 3bd5 483e e33a 553e
00000390: 3bd5 483e e33a 553e 8ba0 613e 0965 413e
000003a0: 28c0 523e 5930 5a3e 6c45 503e 3bd5 483e
000003b0: 5930 5a3e 0196 663e 6c45 503e 14ab 5c3e
000003c0: 8ba0 613e 28c0 523e 805a 463e e33a 553e
000003d0: d8f4 393e 461b 643e 0965 413e c4df 433e
000003e0: 14ab 5c3e 9eb5 573e 3bd5 483e 6c45 503e
000003f0: 28c0 523e 6c45 503e 61ff 343e 3bd5 483e

item_pop_true f4 [1154, 1]
1.0 0.8159806 0.8498789 0.86440676 0.8062954 0.8062954 0.7990315 0.75060534
0.72397095 0.71670705 0.6779661 0.7118644 0.6416465 0.62711865 0.6585956 0.6513317
0.63438255 0.6150121 0.63438255 0.56658596 0.5786925 0.5811138 0.53268766 0.55690074
0.5544794 0.51331717 0.527845 0.51331717 0.50363195 0.47941887 0.52300245 0.5108959
0.50363195 0.50121063 0.4552058 0.47215497 0.5108959 0.4866828 0.5108959 0.44067797
0.44309926 0.4915254 0.4866828 0.527845 0.4552058 0.4552058 0.43099272 0.44552058
0.43825665 0.4479419 0.45762712 0.46004844 0.41888618 0.44552058 0.44309926 0.44309926
0.46246973 0.4479419 0.41888618 0.4261501 0.39225182 0.43341404 0.4213075 0.43099272
0.3946731 0.39951575 0.4261501 0.4164649 0.3946731 0.3898305 0.40920097 0.39951575
0.37288135 0.43583536 0.3946731 0.41404358 0.37530267 0.40920097 0.39709443 0.40435836
0.3898305 0.3559322 0.36077482 0.3898305 0.346247 0.36077482 0.38256657 0.3849879
0.36319613 0.3559322 0.36803874 0.37288135 0.33656174 0.3510896 0.33656174 0.34382567
0.3535109 0.36077482 0.33171913 0.36561742 0.33898306 0.34140435 0.3559322 0.34382567
0.34866828 0.3244552 0.3220339 0.34382567 0.34140435 0.3220339 0.33414045 0.3244552
0.35835353 0.29539952 0.3220339 0.3196126 0.3220339 0.32687652 0.3244552 0.30750605
0.31719127 0.3220339 0.3220339 0.33656174 0.30992737 0.29539952 0.2905569 0.30508474
0.30266345 0.31476998 0.31719127 0.2929782 0.31719127 0.28329298 0.27118644 0.2857143
0.28329298 0.30024213 0.2905569 0.29539952 0.27602905 0.28329298 0.29539952 0.26150122
0.26876512 0.28329298 0.27118644 0.2857143 0.27360776 0.26634383 0.24939467 0.27845037
0.28329298 0.31476998 0.28329298 0.28329298 0.27602905 0.25665858 0.27118644 0.27118644
0.29539952 0.2905569 0.27845037 0.26634383 0.2857143 0.27118644 0.2542373 0.27602905
0.24939467 0.2905569 0.28087166 0.30024213 0.2542373 0.26876512 0.25665858 0.29539952
0.27360776 0.2590799 0.2590799 0.27845037 0.24697337 0.23244552 0.24939467 0.24455206
0.24697337 0.27602905 0.26634383 0.23002422 0.24455206 0.24697337 0.2590799 0.27118644
0.26876512 0.2639225 0.20096852 0.24213076 0.21549636 0.2542373 0.25665858 0.27118644
0.24455206 0.21791768 0.26150122 0.24939467 0.2276029 0.2276029 0.21791768 0.21065375
0.21307506 0.2251816 0.23244552 0.21791768 0.22033899 0.2276029 0.24455206 0.2251816
0.22276029 0.20338982 0.21549636 0.20338982 0.2251816 0.21307506 0.21307506 0.22276029
0.2276029 0.2276029 0.19612591 0.20823245 0.19612591 0.20823245 0.22033899 0.18886198
0.20581114 0.21307506 0.20338982 0.19612591 0.21307506 0.2251816 0.20338982 0.21549636
0.22033899 0.20581114 0.1937046 0.20823245 0.18159807 0.22276029 0.18886198 0.19128329
0.21549636 0.21065375 0.19612591 0.20338982 0.20581114 0.20338982 0.17675544 0.19612591
00000000: 0000 803f 1be4 503f aa91 593f c349 5d3f
00000010: 6069 4e3f 6069 4e3f 548d 4c3f ac27 403f
00000020: 2956 393f 1d7a 373f 308f 2d3f bf3c 363f
00000030: f242 243f d98a 203f b999 283f adbd 263f
00000040: e566 223f 6f71 1d3f e566 223f c70b 113f
00000050: 3125 143f e0c3 143f 385e 083f 0c91 0e3f
00000060: 5df2 0d3f c168 033f da20 073f c168 033f
00000070: 06ee 003f 6476 f53e 7de3 053f 13ca 023f
00000080: 06ee 003f 574f 003f bc10 e93e 4cbe f13e
00000090: 13ca 023f 7d2e f93e 13ca 023f 8ba0 e13e
000000a0: e8dd e23e 38a9 fb3e 7d2e f93e da20 073f
000000b0: bc10 e93e bc10 e93e 14ab dc3e 461b e43e
000000c0: 2d63 e03e a458 e53e 1a4e ea3e 788b eb3e
000000d0: 4078 d63e 461b e43e e8dd e23e e8dd e23e
000000e0: d5c8 ec3e a458 e53e 4078 d63e 5930 da3e
000000f0: 3bd5 c83e 72e8 dd3e 9eb5 d73e 14ab dc3e
00000100: 9812 ca3e 548d cc3e 5930 da3e e33a d53e
00000110: 9812 ca3e dd97 c73e ca82 d13e 548d cc3e
00000120: 4eea be3e d025 df3e 9812 ca3e 85fd d33e
00000130: ac27 c03e ca82 d13e f64f cb3e 0f08 cf3e
00000140: dd97 c73e bf3c b63e 7ab7 b83e dd97 c73e
00000150: 4947 b13e 7ab7 b83e c4df c33e 221d c53e
00000160: d8f4 b93e bf3c b63e 936f bc3e 4eea be3e
00000170: d251 ac3e 04c2 b33e d251 ac3e eb09 b03e
00000180: 61ff b43e 7ab7 b83e 17d7 a93e 3532 bb3e
00000190: 308f ad3e 8dcc ae3e bf3c b63e eb09 b03e
000001a0: a684 b23e fe1e a63e a1e1 a43e eb09 b03e
000001b0: 8dcc ae3e a1e1 a43e 7514 ab3e fe1e a63e
000001c0: 1d7a b73e 9b3e 973e a1e1 a43e 43a4 a33e
000001d0: a1e1 a43e 5c5c a73e fe1e a63e 6f71 9d3e
000001e0: e566 a23e a1e1 a43e a1e1 a43e d251 ac3e
000001f0: cdae 9e3e 9b3e 973e e0c3 943e 1134 9c3e
00000200: b4f6 9a3e 8829 a13e e566 a23e 3d01 963e
00000210: e566 a23e c70b 913e f3d8 8a3e 2549 923e
00000220: c70b 913e 56b9 993e e0c3 943e 9b3e 973e
00000230: ae53 8d3e c70b 913e 9b3e 973e 7de3 853e
00000240: 959b 893e c70b 913e f3d8 8a3e 2549 923e
00000250: 5116 8c3e 385e 883e 5161 7f3e 0c91 8e3e
00000260: c70b 913e 8829 a13e c70b 913e c70b 913e
00000270: ae53 8d3e c168 833e f3d8 8a3e f3d8 8a3e
00000280: 9b3e 973e e0c3 943e 0c91 8e3e 385e 883e
00000290: 2549 923e f3d8 8a3e 642b 823e ae53 8d3e
000002a0: 5161 7f3e e0c3 943e 69ce 8f3e 56b9 993e
000002b0: 642b 823e 959b 893e c168 833e 9b3e 973e
000002c0: 5116 8c3e 1fa6 843e 1fa6 843e 0c91 8e3e
000002d0: 96e6 7c3e 3306 6e3e 5161 7f3e db6b 7a3e
000002e0: 96e6 7c3e ae53 8d3e 385e 883e 788b 6b3e
000002f0: db6b 7a3e 96e6 7c3e 1fa6 843e f3d8 8a3e
00000300: 959b 893e da20 873e b1ca 4d3e 20f1 773e
00000310: 14ab 5c3e 642b 823e c168 833e f3d8 8a3e
00000320: db6b 7a3e d025 5f3e 7de3 853e 5161 7f3e
00000330: bc10 693e bc10 693e d025 5f3e 9eb5 573e
00000340: 5930 5a3e 0196 663e 3306 6e3e d025 5f3e
00000350: 8ba0 613e bc10 693e db6b 7a3e 0196 663e
00000360: 461b 643e 6c45 503e 14ab 5c3e 6c45 503e
00000370: 0196 663e 5930 5a3e 5930 5a3e 461b 643e
00000380: bc10 693e bc10 693e 3bd5 483e e33a 553e
00000390: 3bd5 483e e33a 553e 8ba0 613e 0965 413e
000003a0: 28c0 523e 5930 5a3e 6c45 503e 3bd5 483e
000003b0: 5930 5a3e 0196 663e 6c45 503e 14ab 5c3e
000003c0: 8ba0 613e 28c0 523e 805a 463e e33a 553e
000003d0: d8f4 393e 461b 643e 0965 413e c4df 433e
000003e0: 14ab 5c3e 9eb5 573e 3bd5 483e 6c45 503e
000003f0: 28c0 523e 6c45 503e 61ff 343e 3bd5 483e

lr1.weight f4 [1, 63]
0.058666017 0.016920619 0.108569875 -0.18475306 0.1390089 0.02950262 0.13193369 -0.011215567
-0.007639951 -0.1145725 -0.018452493 -0.1748514 -0.050684728 -0.03587823 -0.0016596791 0.00036096308
-0.09101028 -0.11448096 0.03220368 -0.027961984 0.013603678 -0.042591173 -0.057773333 0.033782866
0.016456269 -0.18508044 0.048702583 0.21966791 -0.08899507 -0.093447916 0.07845331 0.1732585
-0.045163047 -0.04539451 0.06253626 0.02448293 0.004272269 0.14287938 -0.07217242 -0.0742016
0.063952595 0.06343828 0.067348644 -0.019302778 -0.01462663 -0.09733875 -0.054096147 -0.31275246
0.24415556 -0.09696943 -0.12061616 0.08959715 0.1654598 0.16251047 -0.01756198 0.20117699
0.0032303827 -0.24553925 -0.005584329 -0.15287279 0.03613299 -0.14444567 0.006296547
00000000: c74b 703d 1c9d 8a3c e259 de3d e82f 3dbe
00000010: 5958 0e3e 7baf f13c a019 073e 7fc1 37bc
00000020: 8e58 fabb fda4 eabd af29 97bc 3f0c 33be
00000030: ca9a 4fbd 0df5 12bd 9789 d9ba a53f bd39
00000040: 9963 babd fe74 eabd 02e8 033d 8810 e5bc
00000050: f6e1 5e3c 1574 2ebd bba3 6cbd e75f 0a3d
00000060: 4ccf 863c ba85 3dbe 5c7c 473d a0f0 603e
00000070: 0c43 b6bd 9f61 bfbd 21ac a03d ad6a 313e
00000080: e3fc 38bd 98ef 39bd 0313 803d 6d90 c83c
00000090: 64fe 8b3b f94e 123e 22cf 93bd 02f7 97bd
000000a0: 94f9 823d eeeb 813d 16ee 893d dc20 9ebc
000000b0: 88a4 6fbc 8a59 c7bd ec93 5dbd 1721 a0be
000000c0: ea03 7a3e e997 c6bd 9b05 f7bd b67e b73d
000000d0: 4b6e 293e 2569 263e 24de 8fbc 5701 4e3e
000000e0: d4b4 533b a46e 7bbe bffc b6bb af8a 1cbe
000000f0: 3000 143d 91e9 13be 4453 ce3b
