pid/result/ml100k-PIDMF-debug2023-03-14-10-32-30/ckpt/epoch_12.pth (torch_old, 543278 bytes, 5 tensors)

users f4 [945, 64]
000000 a4 1c 2b 3f a6 4c da bd 81 e7 22 be 18 ab 78 3e
       0.6684058 -0.10659151 -0.15908624 0.24284017
000010 4c 66 61 3c 7d 89 79 bd 22 ec 6f 3e 15 6e f9 bd
       0.0137573 -0.060922135 0.23429921 -0.121791996
000020 fd 1d ae be 9c 50 c3 bd 0f af b8 3e c5 20 7b be
       -0.34007254 -0.095368594 0.3607106 -0.2452422
000030 c1 80 8e be da 66 41 3e 2b af d6 3e 24 25 3e be
       -0.27832606 0.18886891 0.41930518 -0.18568856
000040 7b bf 0b 3f 02 0f 99 3e 5b bf 09 3f 31 00 9c 3e
       0.5458905 0.29894263 0.5380761 0.30468896
000050 77 1c c4 3e 50 23 8f bd 30 8c c6 be ad c7 38 be
       0.38302967 -0.06989157 -0.3877883 -0.1804492
000060 85 53 a3 3e b8 dd c4 3e 92 51 43 3d 7a cc ce bd
       0.31899658 0.38450408 0.047685213 -0.100975946
000070 ca ec ed be 4f 18 c1 be 06 2e 8e be 9d d5 c0 3c
       -0.46469718 -0.37713858 -0.27769488 0.023539359
000080 1f e8 a7 be 8e a4 f3 be 54 1b 37 be b0 3a 1d be
       -0.32794282 -0.47586483 -0.17881519 -0.15354419
000090 40 ea 56 be 3b e7 9e 3c dd 3d aa be 9b eb d1 be
       -0.20987797 0.019397369 -0.33250323 -0.41000065
0000a0 9f cc cb be d2 c6 58 3e ab 0e ed bd 31 c9 84 3c
       -0.3980455 0.21169594 -0.11575063 0.016209217
0000b0 42 83 ec be 87 6f d7 be 18 95 fb 3e 42 b2 a8 3d
       -0.46193892 -0.42077276 0.49137187 0.08237125
0000c0 bc 5e d9 bd 63 b0 1a 3e 7c 4a cc be 00 39 ce be
       -0.10613772 0.15106349 -0.39900577 -0.40277863
0000d0 11 ed d3 3e 5f 56 08 bf f3 59 b6 bd 8c 17 ea 3e
       0.41391805 -0.5325679 -0.08903875 0.4572109
0000e0 6d 13 24 3d 30 1f 99 3e 20 7b ef bc ca 0a d8 3e
       0.04005759 0.29906607 -0.029233515 0.4219573
0000f0 c7 cb 55 3e 05 70 bd be 44 16 89 bc 54 61 0b 3e
       0.20878516 -0.36999527 -0.01673425 0.13611346
000100 bd fb d3 3e 6c 61 0d be 94 4e 07 3e 71 59 d9 be
       0.41403 -0.13806695 0.13213569 -0.4245105
000110 04 af 17 bf 55 ac f0 bd d8 f2 98 3e 97 fa 87 3e
       -0.5925143 -0.1175162 0.29872775 0.26558372
000120 13 22 8c 3d e6 11 4c be 84 0d d0 bc 76 4e bd be
       0.06842437 -0.19928703 -0.02539707 -0.36973923
000130 96 a5 c8 bd 38 89 c8 bc 22 1e 86 3e 3c 8d 64 bc
       -0.09797208 -0.024479493 0.26194865 -0.0139496885
000140 c5 d3 60 3e a3 7a df bd 55 31 6b 3e f4 f9 c1 3e
       0.21955784 -0.10912063 0.22968037 0.37886012
000150 0c a3 0a 3e 16 cc d7 bd aa 30 ea 3e 92 a6 7d be
       0.1353876 -0.10536973 0.45740253 -0.24770573
000160 2d 17 41 3e 14 1a 53 3f 18 3d 1d bf 29 2e 15 bf
       0.18856497 0.8246167 -0.61421347 -0.5827356
000170 a0 07 17 bf ab 5b 02 bf 2c 0e 98 3e 02 d9 14 bf
       -0.5899601 -0.50921124 0.29698312 -0.5814363
000180 46 ed 0b 3f 27 74 b4 3d 08 4d e0 3d 76 f9 5c 3e
       0.54658926 0.08811217 0.109521925 0.21579537
000190 d2 61 01 be a9 46 b8 bd 91 8f f6 be 1c 07 34 bf
       -0.12634972 -0.08997852 -0.48156407 -0.7032335
0001a0 c7 61 18 3e ec e6 0b be 69 17 00 3f 87 c9 a3 be
       0.14881049 -0.13662308 0.5003572 -0.3198969
0001b0 a5 33 c7 3e ad 13 de be cf f9 8b be 48 f0 53 be
       0.3890659 -0.43374386 -0.27339026 -0.20697129
0001c0 b5 7a b8 3d 4e 9a 1d bf dc 3c 70 3d 64 f4 a2 be
       0.090077795 -0.61563575 0.05865179 -0.3182708
0001d0 e0 15 6e be fb 03 7e 3d 57 66 bf be f3 2a ab be
       -0.23250532 0.062015515 -0.37382767 -0.33431205
0001e0 0d 98 c2 3e 3a 96 43 3d b9 5e f1 bd 09 2e 76 3e
       0.3800663 0.04775069 -0.11785645 0.24040999
0001f0 86 11 e8 3d 73 f2 05 3f d1 dd 0a be 03 c1 36 be
       0.11331467 0.52323073 -0.13561179 -0.17847066
000200 a9 7a 89 be df 8c 8c bd 0d 1c 72 be bf 6a 5c be
       -0.26851395 -0.068628065 -0.23643513 -0.21525095
000210 dd cc cd bd a4 b2 ce 3e 56 31 b4 3e 64 86 55 3d
       -0.1004884 0.40370667 0.3519389 0.052130118
000220 59 53 98 3e 29 51 f2 be 21 72 be 3e 1f 29 b2 bd
       0.2975109 -0.47327545 0.37196448 -0.086992495
000230 7b e8 b8 be 36 67 d4 3e c5 ca bc 3e 13 15 4d be
       -0.3611487 0.41484994 0.3687345 -0.2002757
000240 11 ca e3 be c6 f8 29 be 84 60 cf 3e 74 f8 44 3e
       -0.44490102 -0.16598806 0.40503323 0.19235402
000250 85 f3 7c be 7b 0f 11 3e 16 f5 ef be 94 7e a8 3e
       -0.2470227 0.14166062 -0.46866673 0.3290907
000260 25 40 55 be dd 5e d6 3e 4d 6e 26 3e 50 d3 0e bf
       -0.2082525 0.4186925 0.16253014 -0.5579119
000270 24 30 5a 3c de c6 0d be 4e 98 23 be b2 b8 e4 be
       0.013317142 -0.13845393 -0.15976068 -0.4467216
000280 5a ff bd be 5d 61 ba 3b fd 94 c1 be 84 d1 bc bb
       -0.3710888 0.005687876 -0.37808982 -0.005762281
000290 2c ad a4 3e 08 4b ff 3d 28 c4 15 be e4 db 04 bf
       0.3216337 0.12465483 -0.14625609 -0.51898026
0002a0 18 4e 2c 3e a5 15 44 3e 55 58 36 be 99 bf bc be
       0.16826665 0.19148882 -0.17807133 -0.36864927
0002b0 02 aa 09 bf fe a8 2f 3e 9d 41 c9 3e 92 8a 0a bf
       -0.53775036 0.17154309 0.3930787 -0.5411769
0002c0 40 d6 3c 3e 8d 46 e1 ba 42 76 52 3c 57 34 a2 3d
       0.18441105 -0.0017187163 0.012845578 0.07920139
0002d0 85 52 e2 be 60 fd 03 bb 30 b3 8c 3e 39 ee 8a be
       -0.44203582 -0.0020140037 0.2748046 -0.27134874
0002e0 98 a3 8a be a9 fb 83 3e 6c 39 44 3e 65 11 86 3e
       -0.27077937 0.2577794 0.1916253 0.26185146
0002f0 5d 83 2b 3e 2a da 13 3f f8 71 58 be d5 ff 48 3e
       0.1674933 0.57754767 -0.21137226 0.19628842
000300 d5 37 ab 3e cf da 5d be cc e1 da 3e fd 55 af bd
       0.33441034 -0.216655 0.42750394 -0.08561323
000310 9b c2 01 bf d8 a0 23 3e 4e c3 04 3f 33 ed ab bc
       -0.5068757 0.15979326 0.5186051 -0.020987129
000320 2e e6 48 3e e1 ac 54 3c d7 6b 1d 3f 9c ff 00 bf
       0.19619057 0.012980671 0.61492676 -0.5039003
000330 b2 90 60 bd 79 b3 93 3e b9 65 02 3f 5f 65 b9 bd
       -0.054825492 0.28847864 0.50936466 -0.09052538
000340 56 65 99 3e e5 f0 a1 bd 05 ac 6c 3e 2d a6 4c 3d
       0.29960126 -0.07907275 0.23112495 0.049963165
000350 13 e5 af bc 8a 8b a3 be ae 4b ad be 83 c7 f9 bc
       -0.021471536 -0.31942397 -0.33846802 -0.030490642
000360 2c 6f d5 be 03 81 ec bd ee d8 11 3f 60 78 dc be
       -0.4168638 -0.115480445 0.56971633 -0.4306059
000370 49 d9 f3 3d e6 fb cf bd 4b 7b ff 3e 2d 59 4d 3e
       0.11906678 -0.10155468 0.49898753 0.20053549
000380 6a e2 9c 3e 6f f3 d8 be 68 3a 41 be 63 83 36 be
       0.3064149 -0.42373225 -0.18869936 -0.17823558
000390 93 a4 27 bd 56 a3 a7 be 5d 0f c5 bb 63 6b fa 3c
       -0.040928435 -0.32741803 -0.0060137943 0.030568784
0003a0 50 01 ce be 6c 28 00 3e 06 3f b1 3d be cf 9d bc
       -0.40235376 0.1251542 0.08654599 -0.019264098
0003b0 0b 37 e7 be b9 89 63 3d 7d a7 bc 3e 9d 08 4e 3d
       -0.45159182 0.055551264 0.36846533 0.050301183
0003c0 af fc 54 3d ef 5b 66 3c c1 8c c3 bd c2 44 9f be
       0.05199879 0.014060005 -0.09548331 -0.31107146
0003d0 89 37 4f 3f b4 ca f4 be e5 f1 25 3e 95 2b f3 be
       0.80944115 -0.478109 0.16205557 -0.47494188
0003e0 4e 63 02 be cb 5f b1 3e d3 6c 0f 3e f2 52 c8 3e
       -0.12733194 0.34643397 0.14006357 0.39125782
0003f0 c2 aa 7f bd 4a a0 94 3e a7 4b 14 3d 12 83 d4 3d
       -0.062418707 0.2902854 0.03620496 0.10376562

items_id f4 [1154, 63]
000000 ff b3 da 3e 25 fa e8 3e 81 ca fa 3d 62 04 f0 bd
       0.4271545 0.45503345 0.12245656 -0.11719586
000010 6e f9 ab 3d bd fa b6 3e c9 6a b2 3e c6 11 d0 3e
       0.08397184 0.35738173 0.34847096 0.4063856
000020 ca ed dc 3e fb 76 a8 be fa 1e eb 3e dc e5 a5 bd
       0.4315017 -0.32903275 0.4592207 -0.08100483
000030 35 5c 85 be 73 d1 b9 3e 9b 18 ae 3e dc 2e 9a be
       -0.2604691 0.3629261 0.34003147 -0.30113876
000040 17 97 1b bd 4d 4a 68 be 8c f8 72 3e 0d 8e 03 3f
       -0.037985887 -0.22684593 0.23727626 0.5138863
000050 19 67 da 3e a8 94 71 3e da 44 87 be 9a 36 2a 3e
       0.42656782 0.23591864 -0.26419717 0.16622391
000060 73 ad 3b be 79 96 de 3c 84 95 83 3e 40 2a 57 3e
       -0.18327884 0.02717136 0.2570001 0.21012211
000070 28 7e 38 be 2d b2 8c be 6f ca 9e 3e 3a 14 03 3e
       -0.18016875 -0.27479687 0.3101382 0.12800685
000080 c8 96 bb bd bb 27 a5 be cf a8 34 3e c6 2d 3a 3e
       -0.091596186 -0.32256874 0.1764252 0.18181524
000090 6e 50 14 3f 50 8c 84 3e 16 42 7b be e1 05 14 be
       0.57935226 0.258883 -0.24536929 -0.14455368
0000a0 c5 64 22 be bb ea 53 3e dd e7 73 3e 6d b2 d8 be
       -0.15858753 0.20695011 0.23818918 -0.42323628
0000b0 1f 3b d6 be 0f da 51 be 03 a2 ad 3e 93 d0 04 3c
       -0.4184198 -0.20493339 0.33912668 0.008106369
0000c0 0c b8 df 3d 18 b1 8b be fa 43 80 be ba 1f 44 3d
       0.10923776 -0.2728355 -0.25051862 0.04788182
0000d0 57 02 35 3e 3c 59 05 bd 0c 7e 02 bf 2d 83 50 3e
       0.17676674 -0.032555804 -0.5097358 0.2036254
0000e0 d3 9b da be 23 75 06 bc eb 77 77 be 76 04 eb bd
       -0.4269701 -0.0082066385 -0.24166839 -0.1147546
0000f0 4a b7 60 3e a4 3b 0b be 90 ea 96 3e e6 ae 30 3e
       0.21944919 -0.1359697 0.29475832 0.17254218
000100 f6 3e 71 3e d4 4f 1f 3e 4d e4 be bd 30 6b 99 3e
       0.23559174 0.15557796 -0.09320889 0.2996459
000110 f0 3f be 3d da 8d ae 3e 33 06 54 3d 1e 3a ac 3d
       0.09289539 0.340926 0.051763725 0.084095225
000120 bb 18 78 bd 5f a0 01 bc 02 3e e5 bc 52 fa 51 be
       -0.06057046 -0.007911771 -0.02798367 -0.20505646
000130 b4 2e 23 3c a0 26 a7 bb 10 73 19 be 43 58 1c be
       0.009959865 -0.00510104 -0.14985299 -0.15268044
000140 06 63 18 be 07 df 43 3e ae d2 0c 3d 1e 36 74 3e
       -0.14881524 0.19128047 0.034380607 0.23848769
000150 a9 0a 4d 3e 14 8b 58 bd 0e ae 89 3e 45 5d 43 be
       0.20023598 -0.05286701 0.26890606 -0.19078548
000160 a9 0a 43 be 39 87 67 3d 60 7e 44 3c cd b9 47 3b
       -0.19047035 0.056525443 0.011993021 0.0030475736
000170 fb 94 db 3c 8b 5c cc 3c d6 db c7 3d fb 27 21 be
       0.026804438 0.024946472 0.09758727 -0.15737908
000180 97 2a 68 be 16 fd 11 3e ab bf bd 3d f0 be 87 3e
       -0.22672497 0.14256701 0.092650734 0.2651286
000190 78 8d fd 3d 0a 1c 7e bd 04 1d a3 bd 46 af b1 bd
       0.12380499 -0.06203846 -0.07964519 -0.08676009
0001a0 85 d3 5f 3e e5 1e a5 bc ef 2a eb bd c3 d1 4f be
       0.21858032 -0.020156333 -0.11482798 -0.20294861
0001b0 85 18 8f bd 2a 12 11 bc 17 86 fe bd 91 27 97 3d
       -0.069870986 -0.008854428 -0.12427919 0.073805936
0001c0 51 c4 eb bc 47 ba 1f bd 27 ef 1a 3d 1c ef 4c 3e
       -0.028780134 -0.038996007 0.03782573 0.20013088
0001d0 7a 15 66 3e 14 2f c1 3c 59 d1 3c 3e 9e 10 88 be
       0.2246913 0.023582019 0.18439235 -0.26575178
0001e0 1e 94 05 be 6d 5e e4 3c 8b 96 d7 bd e0 38 f7 bc
       -0.13044783 0.027877057 -0.10526761 -0.030178487
0001f0 9f 1a 41 be 47 7e df 3c 2d 74 83 3e b8 f3 92 3e
       -0.18857811 0.027281893 0.25674573 0.28701568
000200 c0 7a f5 3d ba 13 2d be 36 53 89 3e 15 d1 55 3e
       0.11986303 -0.16902056 0.26821297 0.2088054
000210 cf 47 2a 3e 93 5a 76 3d 30 2d 9d 3e d4 f1 7b be
       0.16628955 0.060144972 0.30698538 -0.24603969
000220 cc 4d 9d 3e e2 7c 73 be f5 b4 60 be 32 d0 88 3d
       0.30723417 -0.23778108 -0.2194403 0.06680335
000230 68 92 f1 3d cc 97 6c bd c2 f3 c7 bd 28 58 bf ba
       0.11795503 -0.057761952 -0.0976329 -0.0014598416
000240 63 a1 98 3c b5 e1 10 3e 37 52 69 3e f0 b7 9b 3d
       0.018631643 0.141486 0.22785269 0.07603443
000250 ba 37 21 be 62 55 22 3e 6f 8b 61 bd c9 f2 2c bd
       -0.15743914 0.15852883 -0.055064615 -0.042223725
000260 03 41 9a 3c 7c 83 5e 3e 2d 42 6b bd b1 60 8e 3a
       0.018829828 0.21729845 -0.057436157 0.0010862557
000270 ce 68 52 3e 39 d9 81 3c 38 4b 64 be 66 a0 8a be
       0.20547792 0.01585065 -0.22294319 -0.270755
000280 0b 7b cd 3d 6c 10 49 3d ed 5d 84 3e 75 ab 30 3d
       0.10033234 0.049087927 0.2585291 0.043132264
000290 8a fd 6c bd 49 3e 54 be c8 36 99 bd 7c af 0b 3d
       -0.05785898 -0.20726885 -0.07481152 0.0341029
0002a0 48 77 5a 3e bb 21 77 be e1 6b 43 be 54 9f 4a be
       0.21334565 -0.24133961 -0.19084121 -0.19787341
0002b0 ec 9c 86 3d 31 96 0c be e6 94 b1 3d 1a e8 40 be
       0.06572899 -0.13729168 0.08670978 -0.1883854
0002c0 d8 15 6f be e9 ce 3b 3d a7 9d 3d 3e 17 59 2e 3e
       -0.23348176 0.04585162 0.18517171 0.17026173
0002d0 14 17 9e be 1c 6a bd bb db 34 0f be ba 9d 01 bd
       -0.30876982 -0.0057804715 -0.13985007 -0.03164456
0002e0 e3 dd 81 bd 32 08 09 be 18 8c 30 3c 76 36 dd bd
       -0.0634115 -0.13382033 0.010775588 -0.10801403
0002f0 18 9f 62 3e b3 5e a4 3e 73 b0 a3 3d ab 31 f5 3d
       0.22131002 0.321035 0.079926394 0.11972364
000300 33 d9 87 be 01 02 40 3e 18 dd 1c 3d 2a 7e 83 3e
       -0.26532897 0.18750764 0.03829679 0.25682193
000310 07 1c 80 3e 89 e0 93 3e 02 41 69 be 01 47 83 3d
       0.25021383 0.28882244 -0.22778705 0.06410027
000320 b3 f0 53 be 61 c9 ca bd 82 13 4b 3e 86 60 e0 3d
       -0.20697288 -0.09901691 0.1983166 0.109559104
000330 6a 7c 7b be 15 a0 1e be ae eb 17 be 7e 4e 41 3d
       -0.24559179 -0.15490754 -0.14835998 0.047193997
000340 ca cd bb 3d 53 13 8b 3e 51 46 39 3d a0 ac 3b bd
       0.091701105 0.2716318 0.045233075 -0.045818925
000350 2a b4 03 3d 16 48 7b bd ca 31 15 be 30 e2 23 3e
       0.03215424 -0.061348043 -0.14569774 0.16004252
000360 ca 1b 20 3e c4 e2 4a be c6 43 d7 bd 39 6d 85 3e
       0.156356 -0.19813067 -0.10510974 0.26059893
000370 a5 62 d6 3d 8b 51 a0 bc 65 1f 45 be 5b 03 76 3e
       0.10468034 -0.019570133 -0.19250257 0.24024718
000380 41 e6 5d 3d f7 1b 0f 3e 03 89 b2 3c c1 27 48 be
       0.054174665 0.13975511 0.021793848 -0.19546415
000390 13 90 27 be 97 41 cd bd 65 6f 40 3d af 7f 87 3d
       -0.16363554 -0.10022276 0.046981234 0.066161506
0003a0 38 94 9a be 32 dd 99 bd 74 37 ba bc b2 74 df 3c
       -0.30191207 -0.07512893 -0.02273152 0.027277324
0003b0 30 0b 1d bd 43 83 1e bd 12 d6 4e be 61 01 e7 bd
       -0.038340747 -0.0386994 -0.20198849 -0.1127956
0003c0 5f fa a8 3d 5e 52 8d 3d 51 1f 37 3e 5c 84 a2 be
       0.082508795 0.06900476 0.1788304 -0.31741607
0003d0 d8 c1 52 3e 3f aa e9 bd fa 56 9e bd 18 59 be bb
       0.20581758 -0.11409425 -0.07731433 -0.0058089606
0003e0 5a 19 8b bd 18 94 e1 3d dd 70 58 be 60 36 c9 3d
       -0.06791945 0.11014575 -0.21136804 0.09824824
0003f0 92 a0 8d 3e 9b b2 21 3e 42 6c 68 3e ab dc c4 bd
       0.27661568 0.15790789 0.22697547 -0.096124016

item_pop f4 [1154, 1]
000000 00 00 80 3f 1b e4 50 3f aa 91 59 3f c3 49 5d 3f
       1.0 0.8159806 0.8498789 0.86440676
000010 60 69 4e 3f 60 69 4e 3f 54 8d 4c 3f ac 27 40 3f
       0.8062954 0.8062954 0.7990315 0.75060534
000020 29 56 39 3f 1d 7a 37 3f 30 8f 2d 3f bf 3c 36 3f
       0.72397095 0.71670705 0.6779661 0.7118644
000030 f2 42 24 3f d9 8a 20 3f b9 99 28 3f ad bd 26 3f
       0.6416465 0.62711865 0.6585956 0.6513317
000040 e5 66 22 3f 6f 71 1d 3f e5 66 22 3f c7 0b 11 3f
       0.63438255 0.6150121 0.63438255 0.56658596
000050 31 25 14 3f e0 c3 14 3f 38 5e 08 3f 0c 91 0e 3f
       0.5786925 0.5811138 0.53268766 0.55690074
000060 5d f2 0d 3f c1 68 03 3f da 20 07 3f c1 68 03 3f
       0.5544794 0.51331717 0.527845 0.51331717
000070 06 ee 00 3f 64 76 f5 3e 7d e3 05 3f 13 ca 02 3f
       0.50363195 0.47941887 0.52300245 0.5108959
000080 06 ee 00 3f 57 4f 00 3f bc 10 e9 3e 4c be f1 3e
       0.50363195 0.50121063 0.4552058 0.47215497
000090 13 ca 02 3f 7d 2e f9 3e 13 ca 02 3f 8b a0 e1 3e
       0.5108959 0.4866828 0.5108959 0.44067797
0000a0 e8 dd e2 3e 38 a9 fb 3e 7d 2e f9 3e da 20 07 3f
       0.44309926 0.4915254 0.4866828 0.527845
0000b0 bc 10 e9 3e bc 10 e9 3e 14 ab dc 3e 46 1b e4 3e
       0.4552058 0.4552058 0.43099272 0.44552058
0000c0 2d 63 e0 3e a4 58 e5 3e 1a 4e ea 3e 78 8b eb 3e
       0.43825665 0.4479419 0.45762712 0.46004844
0000d0 40 78 d6 3e 46 1b e4 3e e8 dd e2 3e e8 dd e2 3e
       0.41888618 0.44552058 0.44309926 0.44309926
0000e0 d5 c8 ec 3e a4 58 e5 3e 40 78 d6 3e 59 30 da 3e
       0.46246973 0.4479419 0.41888618 0.4261501
0000f0 3b d5 c8 3e 72 e8 dd 3e 9e b5 d7 3e 14 ab dc 3e
       0.39225182 0.43341404 0.4213075 0.43099272
000100 98 12 ca 3e 54 8d cc 3e 59 30 da 3e e3 3a d5 3e
       0.3946731 0.39951575 0.4261501 0.4164649
000110 98 12 ca 3e dd 97 c7 3e ca 82 d1 3e 54 8d cc 3e
       0.3946731 0.3898305 0.40920097 0.39951575
000120 4e ea be 3e d0 25 df 3e 98 12 ca 3e 85 fd d3 3e
       0.37288135 0.43583536 0.3946731 0.41404358
000130 ac 27 c0 3e ca 82 d1 3e f6 4f cb 3e 0f 08 cf 3e
       0.37530267 0.40920097 0.39709443 0.40435836
000140 dd 97 c7 3e bf 3c b6 3e 7a b7 b8 3e dd 97 c7 3e
       0.3898305 0.3559322 0.36077482 0.3898305
000150 49 47 b1 3e 7a b7 b8 3e c4 df c3 3e 22 1d c5 3e
       0.346247 0.36077482 0.38256657 0.3849879
000160 d8 f4 b9 3e bf 3c b6 3e 93 6f bc 3e 4e ea be 3e
       0.36319613 0.3559322 0.36803874 0.37288135
000170 d2 51 ac 3e 04 c2 b3 3e d2 51 ac 3e eb 09 b0 3e
       0.33656174 0.3510896 0.33656174 0.34382567
000180 61 ff b4 3e 7a b7 b8 3e 17 d7 a9 3e 35 32 bb 3e
       0.3535109 0.36077482 0.33171913 0.36561742
000190 30 8f ad 3e 8d cc ae 3e bf 3c b6 3e eb 09 b0 3e
       0.33898306 0.34140435 0.3559322 0.34382567
0001a0 a6 84 b2 3e fe 1e a6 3e a1 e1 a4 3e eb 09 b0 3e
       0.34866828 0.3244552 0.3220339 0.34382567
0001b0 8d cc ae 3e a1 e1 a4 3e 75 14 ab 3e fe 1e a6 3e
       0.34140435 0.3220339 0.33414045 0.3244552
0001c0 1d 7a b7 3e 9b 3e 97 3e a1 e1 a4 3e 43 a4 a3 3e
       0.35835353 0.29539952 0.3220339 0.3196126
0001d0 a1 e1 a4 3e 5c 5c a7 3e fe 1e a6 3e 6f 71 9d 3e
       0.3220339 0.32687652 0.3244552 0.30750605
0001e0 e5 66 a2 3e a1 e1 a4 3e a1 e1 a4 3e d2 51 ac 3e
       0.31719127 0.3220339 0.3220339 0.33656174
0001f0 cd ae 9e 3e 9b 3e 97 3e e0 c3 94 3e 11 34 9c 3e
       0.30992737 0.29539952 0.2905569 0.30508474
000200 b4 f6 9a 3e 88 29 a1 3e e5 66 a2 3e 3d 01 96 3e
       0.30266345 0.31476998 0.31719127 0.2929782
000210 e5 66 a2 3e c7 0b 91 3e f3 d8 8a 3e 25 49 92 3e
       0.31719127 0.28329298 0.27118644 0.2857143
000220 c7 0b 91 3e 56 b9 99 3e e0 c3 94 3e 9b 3e 97 3e
       0.28329298 0.30024213 0.2905569 0.29539952
000230 ae 53 8d 3e c7 0b 91 3e 9b 3e 97 3e 7d e3 85 3e
       0.27602905 0.28329298 0.29539952 0.26150122
000240 95 9b 89 3e c7 0b 91 3e f3 d8 8a 3e 25 49 92 3e
       0.26876512 0.28329298 0.27118644 0.2857143
000250 51 16 8c 3e 38 5e 88 3e 51 61 7f 3e 0c 91 8e 3e
       0.27360776 0.26634383 0.24939467 0.27845037
000260 c7 0b 91 3e 88 29 a1 3e c7 0b 91 3e c7 0b 91 3e
       0.28329298 0.31476998 0.28329298 0.28329298
000270 ae 53 8d 3e c1 68 83 3e f3 d8 8a 3e f3 d8 8a 3e
       0.27602905 0.25665858 0.27118644 0.27118644
000280 9b 3e 97 3e e0 c3 94 3e 0c 91 8e 3e 38 5e 88 3e
       0.29539952 0.2905569 0.27845037 0.26634383
000290 25 49 92 3e f3 d8 8a 3e 64 2b 82 3e ae 53 8d 3e
       0.2857143 0.27118644 0.2542373 0.27602905
0002a0 51 61 7f 3e e0 c3 94 3e 69 ce 8f 3e 56 b9 99 3e
       0.24939467 0.2905569 0.28087166 0.30024213
0002b0 64 2b 82 3e 95 9b 89 3e c1 68 83 3e 9b 3e 97 3e
       0.2542373 0.26876512 0.25665858 0.29539952
0002c0 51 16 8c 3e 1f a6 84 3e 1f a6 84 3e 0c 91 8e 3e
       0.27360776 0.2590799 0.2590799 0.27845037
0002d0 96 e6 7c 3e 33 06 6e 3e 51 61 7f 3e db 6b 7a 3e
       0.24697337 0.23244552 0.24939467 0.24455206
0002e0 96 e6 7c 3e ae 53 8d 3e 38 5e 88 3e 78 8b 6b 3e
       0.24697337 0.27602905 0.26634383 0.23002422
0002f0 db 6b 7a 3e 96 e6 7c 3e 1f a6 84 3e f3 d8 8a 3e
       0.24455206 0.24697337 0.2590799 0.27118644
000300 95 9b 89 3e da 20 87 3e b1 ca 4d 3e 20 f1 77 3e
       0.26876512 0.2639225 0.20096852 0.24213076
000310 14 ab 5c 3e 64 2b 82 3e c1 68 83 3e f3 d8 8a 3e
       0.21549636 0.2542373 0.25665858 0.27118644
000320 db 6b 7a 3e d0 25 5f 3e 7d e3 85 3e 51 61 7f 3e
       0.24455206 0.21791768 0.26150122 0.24939467
000330 bc 10 69 3e bc 10 69 3e d0 25 5f 3e 9e b5 57 3e
       0.2276029 0.2276029 0.21791768 0.21065375
000340 59 30 5a 3e 01 96 66 3e 33 06 6e 3e d0 25 5f 3e
       0.21307506 0.2251816 0.23244552 0.21791768
000350 8b a0 61 3e bc 10 69 3e db 6b 7a 3e 01 96 66 3e
       0.22033899 0.2276029 0.24455206 0.2251816
000360 46 1b 64 3e 6c 45 50 3e 14 ab 5c 3e 6c 45 50 3e
       0.22276029 0.20338982 0.21549636 0.20338982
000370 01 96 66 3e 59 30 5a 3e 59 30 5a 3e 46 1b 64 3e
       0.2251816 0.21307506 0.21307506 0.22276029
000380 bc 10 69 3e bc 10 69 3e 3b d5 48 3e e3 3a 55 3e
       0.2276029 0.2276029 0.19612591 0.20823245
000390 3b d5 48 3e e3 3a 55 3e 8b a0 61 3e 09 65 41 3e
       0.19612591 0.20823245 0.22033899 0.18886198
0003a0 28 c0 52 3e 59 30 5a 3e 6c 45 50 3e 3b d5 48 3e
       0.20581114 0.21307506 0.20338982 0.19612591
0003b0 59 30 5a 3e 01 96 66 3e 6c 45 50 3e 14 ab 5c 3e
       0.21307506 0.2251816 0.20338982 0.21549636
0003c0 8b a0 61 3e 28 c0 52 3e 80 5a 46 3e e3 3a 55 3e
       0.22033899 0.20581114 0.1937046 0.20823245
0003d0 d8 f4 39 3e 46 1b 64 3e 09 65 41 3e c4 df 43 3e
       0.18159807 0.22276029 0.18886198 0.19128329
0003e0 14 ab 5c 3e 9e b5 57 3e 3b d5 48 3e 6c 45 50 3e
       0.21549636 0.21065375 0.19612591 0.20338982
0003f0 28 c0 52 3e 6c 45 50 3e 61 ff 34 3e 3b d5 48 3e
       0.20581114 0.20338982 0.17675544 0.19612591

item_pop_true f4 [1154, 1]
000000 00 00 80 3f 1b e4 50 3f aa 91 59 3f c3 49 5d 3f
       1.0 0.8159806 0.8498789 0.86440676
000010 60 69 4e 3f 60 69 4e 3f 54 8d 4c 3f ac 27 40 3f
       0.8062954 0.8062954 0.7990315 0.75060534
000020 29 56 39 3f 1d 7a 37 3f 30 8f 2d 3f bf 3c 36 3f
       0.72397095 0.71670705 0.6779661 0.7118644
000030 f2 42 24 3f d9 8a 20 3f b9 99 28 3f ad bd 26 3f
       0.6416465 0.62711865 0.6585956 0.6513317
000040 e5 66 22 3f 6f 71 1d 3f e5 66 22 3f c7 0b 11 3f
       0.63438255 0.6150121 0.63438255 0.56658596
000050 31 25 14 3f e0 c3 14 3f 38 5e 08 3f 0c 91 0e 3f
       0.5786925 0.5811138 0.53268766 0.55690074
000060 5d f2 0d 3f c1 68 03 3f da 20 07 3f c1 68 03 3f
       0.5544794 0.51331717 0.527845 0.51331717
000070 06 ee 00 3f 64 76 f5 3e 7d e3 05 3f 13 ca 02 3f
       0.50363195 0.47941887 0.52300245 0.5108959
000080 06 ee 00 3f 57 4f 00 3f bc 10 e9 3e 4c be f1 3e
       0.50363195 0.50121063 0.4552058 0.47215497
000090 13 ca 02 3f 7d 2e f9 3e 13 ca 02 3f 8b a0 e1 3e
       0.5108959 0.4866828 0.5108959 0.44067797
0000a0 e8 dd e2 3e 38 a9 fb 3e 7d 2e f9 3e da 20 07 3f
       0.44309926 0.4915254 0.4866828 0.527845
0000b0 bc 10 e9 3e bc 10 e9 3e 14 ab dc 3e 46 1b e4 3e
       0.4552058 0.4552058 0.43099272 0.44552058
0000c0 2d 63 e0 3e a4 58 e5 3e 1a 4e ea 3e 78 8b eb 3e
       0.43825665 0.4479419 0.45762712 0.46004844
0000d0 40 78 d6 3e 46 1b e4 3e e8 dd e2 3e e8 dd e2 3e
       0.41888618 0.44552058 0.44309926 0.44309926
0000e0 d5 c8 ec 3e a4 58 e5 3e 40 78 d6 3e 59 30 da 3e
       0.46246973 0.4479419 0.41888618 0.4261501
0000f0 3b d5 c8 3e 72 e8 dd 3e 9e b5 d7 3e 14 ab dc 3e
       0.39225182 0.43341404 0.4213075 0.43099272
000100 98 12 ca 3e 54 8d cc 3e 59 30 da 3e e3 3a d5 3e
       0.3946731 0.39951575 0.4261501 0.4164649
000110 98 12 ca 3e dd 97 c7 3e ca 82 d1 3e 54 8d cc 3e
       0.3946731 0.3898305 0.40920097 0.39951575
000120 4e ea be 3e d0 25 df 3e 98 12 ca 3e 85 fd d3 3e
       0.37288135 0.43583536 0.3946731 0.41404358
000130 ac 27 c0 3e ca 82 d1 3e f6 4f cb 3e 0f 08 cf 3e
       0.37530267 0.40920097 0.39709443 0.40435836
000140 dd 97 c7 3e bf 3c b6 3e 7a b7 b8 3e dd 97 c7 3e
       0.3898305 0.3559322 0.36077482 0.3898305
000150 49 47 b1 3e 7a b7 b8 3e c4 df c3 3e 22 1d c5 3e
       0.346247 0.36077482 0.38256657 0.3849879
000160 d8 f4 b9 3e bf 3c b6 3e 93 6f bc 3e 4e ea be 3e
       0.36319613 0.3559322 0.36803874 0.37288135
000170 d2 51 ac 3e 04 c2 b3 3e d2 51 ac 3e eb 09 b0 3e
       0.33656174 0.3510896 0.33656174 0.34382567
000180 61 ff b4 3e 7a b7 b8 3e 17 d7 a9 3e 35 32 bb 3e
       0.3535109 0.36077482 0.33171913 0.36561742
000190 30 8f ad 3e 8d cc ae 3e bf 3c b6 3e eb 09 b0 3e
       0.33898306 0.34140435 0.3559322 0.34382567
0001a0 a6 84 b2 3e fe 1e a6 3e a1 e1 a4 3e eb 09 b0 3e
       0.34866828 0.3244552 0.3220339 0.34382567
0001b0 8d cc ae 3e a1 e1 a4 3e 75 14 ab 3e fe 1e a6 3e
       0.34140435 0.3220339 0.33414045 0.3244552
0001c0 1d 7a b7 3e 9b 3e 97 3e a1 e1 a4 3e 43 a4 a3 3e
       0.35835353 0.29539952 0.3220339 0.3196126
0001d0 a1 e1 a4 3e 5c 5c a7 3e fe 1e a6 3e 6f 71 9d 3e
       0.3220339 0.32687652 0.3244552 0.30750605
0001e0 e5 66 a2 3e a1 e1 a4 3e a1 e1 a4 3e d2 51 ac 3e
       0.31719127 0.3220339 0.3220339 0.33656174
0001f0 cd ae 9e 3e 9b 3e 97 3e e0 c3 94 3e 11 34 9c 3e
       0.30992737 0.29539952 0.2905569 0.30508474
000200 b4 f6 9a 3e 88 29 a1 3e e5 66 a2 3e 3d 01 96 3e
       0.30266345 0.31476998 0.31719127 0.2929782
000210 e5 66 a2 3e c7 0b 91 3e f3 d8 8a 3e 25 49 92 3e
       0.31719127 0.28329298 0.27118644 0.2857143
000220 c7 0b 91 3e 56 b9 99 3e e0 c3 94 3e 9b 3e 97 3e
       0.28329298 0.30024213 0.2905569 0.29539952
000230 ae 53 8d 3e c7 0b 91 3e 9b 3e 97 3e 7d e3 85 3e
       0.27602905 0.28329298 0.29539952 0.26150122
000240 95 9b 89 3e c7 0b 91 3e f3 d8 8a 3e 25 49 92 3e
       0.26876512 0.28329298 0.27118644 0.2857143
000250 51 16 8c 3e 38 5e 88 3e 51 61 7f 3e 0c 91 8e 3e
       0.27360776 0.26634383 0.24939467 0.27845037
000260 c7 0b 91 3e 88 29 a1 3e c7 0b 91 3e c7 0b 91 3e
       0.28329298 0.31476998 0.28329298 0.28329298
000270 ae 53 8d 3e c1 68 83 3e f3 d8 8a 3e f3 d8 8a 3e
       0.27602905 0.25665858 0.27118644 0.27118644
000280 9b 3e 97 3e e0 c3 94 3e 0c 91 8e 3e 38 5e 88 3e
       0.29539952 0.2905569 0.27845037 0.26634383
000290 25 49 92 3e f3 d8 8a 3e 64 2b 82 3e ae 53 8d 3e
       0.2857143 0.27118644 0.2542373 0.27602905
0002a0 51 61 7f 3e e0 c3 94 3e 69 ce 8f 3e 56 b9 99 3e
       0.24939467 0.2905569 0.28087166 0.30024213
0002b0 64 2b 82 3e 95 9b 89 3e c1 68 83 3e 9b 3e 97 3e
       0.2542373 0.26876512 0.25665858 0.29539952
0002c0 51 16 8c 3e 1f a6 84 3e 1f a6 84 3e 0c 91 8e 3e
       0.27360776 0.2590799 0.2590799 0.27845037
0002d0 96 e6 7c 3e 33 06 6e 3e 51 61 7f 3e db 6b 7a 3e
       0.24697337 0.23244552 0.24939467 0.24455206
0002e0 96 e6 7c 3e ae 53 8d 3e 38 5e 88 3e 78 8b 6b 3e
       0.24697337 0.27602905 0.26634383 0.23002422
0002f0 db 6b 7a 3e 96 e6 7c 3e 1f a6 84 3e f3 d8 8a 3e
       0.24455206 0.24697337 0.2590799 0.27118644
000300 95 9b 89 3e da 20 87 3e b1 ca 4d 3e 20 f1 77 3e
       0.26876512 0.2639225 0.20096852 0.24213076
000310 14 ab 5c 3e 64 2b 82 3e c1 68 83 3e f3 d8 8a 3e
       0.21549636 0.2542373 0.25665858 0.27118644
000320 db 6b 7a 3e d0 25 5f 3e 7d e3 85 3e 51 61 7f 3e
       0.24455206 0.21791768 0.26150122 0.24939467
000330 bc 10 69 3e bc 10 69 3e d0 25 5f 3e 9e b5 57 3e
       0.2276029 0.2276029 0.21791768 0.21065375
000340 59 30 5a 3e 01 96 66 3e 33 06 6e 3e d0 25 5f 3e
       0.21307506 0.2251816 0.23244552 0.21791768
000350 8b a0 61 3e bc 10 69 3e db 6b 7a 3e 01 96 66 3e
       0.22033899 0.2276029 0.24455206 0.2251816
000360 46 1b 64 3e 6c 45 50 3e 14 ab 5c 3e 6c 45 50 3e
       0.22276029 0.20338982 0.21549636 0.20338982
000370 01 96 66 3e 59 30 5a 3e 59 30 5a 3e 46 1b 64 3e
       0.2251816 0.21307506 0.21307506 0.22276029
000380 bc 10 69 3e bc 10 69 3e 3b d5 48 3e e3 3a 55 3e
       0.2276029 0.2276029 0.19612591 0.20823245
000390 3b d5 48 3e e3 3a 55 3e 8b a0 61 3e 09 65 41 3e
       0.19612591 0.20823245 0.22033899 0.18886198
0003a0 28 c0 52 3e 59 30 5a 3e 6c 45 50 3e 3b d5 48 3e
       0.20581114 0.21307506 0.20338982 0.19612591
0003b0 59 30 5a 3e 01 96 66 3e 6c 45 50 3e 14 ab 5c 3e
       0.21307506 0.2251816 0.20338982 0.21549636
0003c0 8b a0 61 3e 28 c0 52 3e 80 5a 46 3e e3 3a 55 3e
       0.22033899 0.20581114 0.1937046 0.20823245
0003d0 d8 f4 39 3e 46 1b 64 3e 09 65 41 3e c4 df 43 3e
       0.18159807 0.22276029 0.18886198 0.19128329
0003e0 14 ab 5c 3e 9e b5 57 3e 3b d5 48 3e 6c 45 50 3e
       0.21549636 0.21065375 0.19612591 0.20338982
0003f0 28 c0 52 3e 6c 45 50 3e 61 ff 34 3e 3b d5 48 3e
       0.20581114 0.20338982 0.17675544 0.19612591

lr1.weight f4 [1, 63]
000000 22 c4 63 3d be 77 e2 3c 30 c4 da 3d 57 fc 5b be
       0.05560697 0.027644988 0.10681951 -0.21482979
000010 e8 fe 34 3e 9d 88 27 3d d1 1c 30 3e 6b c3 4b 3c
       0.17675364 0.04090177 0.17198493 0.012436728
000020 02 ba d7 3c 62 28 ff bd f8 4f d7 bb 6e b7 1f be
       0.026333813 -0.12458874 -0.0065708123 -0.15597317
000030 e5 38 32 bd fd 31 99 bc e0 d4 c3 3b 33 64 0e bd
       -0.04351129 -0.018700594 0.0059763044 -0.034763526
000040 31 60 e5 bd b0 6e fd bd 71 cf d9 3c 25 d8 f6 bc
       -0.11199988 -0.123746276 0.026588174 -0.030132363
000050 69 86 f4 3c db 55 38 bd ba a8 a6 bd ac db 5e 3d
       0.029849248 -0.045003753 -0.08137651 0.054408714
000060 c1 97 f7 bb cf c0 56 be 1b 63 8e 3d 01 a3 80 3e
       -0.0075559323 -0.20971988 0.069524966 0.25124362
000070 d5 ab 93 bd 46 92 bf bd 6c 99 93 3d af 9b 6d 3e
       -0.07210509 -0.09354071 0.07206997 0.2320392
000080 a8 21 80 bd 1e d0 3a bd e5 86 e4 3d be e4 8a 3d
       -0.062564194 -0.045608632 0.111585416 0.0678191
000090 bc a4 ec 3b 81 e8 16 3e c3 b7 a4 bd d5 59 8d bd
       0.0072217863 0.1473713 -0.08042862 -0.069019
0000a0 41 c0 6a 3d 94 12 85 3d 6e b9 a7 3d 07 a1 84 bc
       0.057312254 0.06497684 0.08189665 -0.016190065
0000b0 f7 af bb bc 35 60 26 be 60 84 2a bd 64 58 a3 be
       -0.022911055 -0.16247638 -0.04163015 -0.31903374
0000c0 6a 58 8c 3e dc 42 05 be 89 dd 0a be f2 8a f5 3d
       0.27411205 -0.13013786 -0.13561071 0.11989392
0000d0 94 03 34 3e 17 68 56 3e 7e c8 b0 bc e2 e2 6d 3e
       0.1757949 0.20938145 -0.021579977 0.2323108
0000e0 b8 a3 53 bc 82 c0 86 be 44 4f 90 bc f9 93 3f be
       -0.012917452 -0.26318747 -0.017615922 -0.18708791
0000f0 cf f3 c0 3c 6d 61 25 be f4 0a 6c 3c
       0.023553757 -0.16150446 0.014406908
