pid/result/ml100k-PIDMF-debug2023-03-14-10-32-30/ckpt/epoch_40.pth (torch_old, 543278 bytes, 5 tensors)

users f4 [945, 64]
00000000: 7fe6 bb3f b4f9 8fbe 2b8d 11bf d281 993e
00000010: f353 c43d e8a4 47be 6a5f f13e fca8 f2be
00000020: ceb5 1dbf e177 fabd bc80 1d3f 4ff1 b9be
00000030: fd8e fdbe ea36 7e3e edf2 3a3f 76bc 4bbe
00000040: ef57 993f 8b68 023f 796c 593f b4b9 e23e
00000050: cada 323f d209 97be 62cb 58bf f639 b7be
00000060: 62b9 563f 2a90 603f 709f a5bc 74c2 56be
00000070: 64d0 3abf 6f6d 2bbf 8cad 0ebf 6651 f03d
00000080: d58a 2fbf 0d15 2ebf 7e18 11bf bcce 21bf
00000090: 1b46 4ebf 58ea 963b 2e1d 18bf 383d 81bf
000000a0: 7957 d3be 2431 103f dfd2 edbe b2f2 853d
000000b0: e04f 8fbf 350d 3cbf 0708 393f 46a5 15be
000000c0: 80fd 3a3e e2b8 5d3e 0d98 6cbf 6175 37bf
000000d0: fa1f 5c3f 80c5 77bf 2ce6 5bbd b061 663f
000000e0: 35a4 563e 8e7c ed3e 48d9 693e a1b3 873f
000000f0: 963d a63e 1347 03bf 1c17 3dbe f6cf 293e
00000100: b6ae 0f3f c469 90be bfba 0f3e 54f5 3dbf
00000110: d314 4bbf 9d5d c7be b1a2 6a3f 5de3 493f
00000120: 3fc5 a03d 7066 03be 33ac 7ebd 8cad 61bf
00000130: f55a a0bd 7090 d23c 022b b63e dfb6 3bbe
00000140: 39b5 3c3e 4abc b23d f307 933e ed28 013f
00000150: c30b 4f3e 7719 17bd cf66 4c3f 20d5 b8be
00000160: 14f0 a83e 0bc4 9e3f 8518 6abf 4b4d 83bf
00000170: 9456 82bf 07e6 8bbf ec9b b43e 3131 7dbf
00000180: 5ed8 493f 9fc3 553d 3ba6 d93e 5163 0b3f
00000190: 9f92 b7be b143 3b3e 6c64 5bbf 861f b1bf
000001a0: 9264 583e c362 88be ad7b 393f ef0d 94be
000001b0: 2941 473f 823e 36bf c628 d8be 4ead 25bf
000001c0: e225 563e b711 88bf 8923 8d3e 6087 5dbf
000001d0: fb6e 0fbf cb91 a33e 5b1c dbbe 0348 5dbf
000001e0: a15c 063f ceec 373e 9337 0fbd 15e0 ed3e
000001f0: 98ad 9a3d 4072 5a3f 8407 e2be ea34 36be
00000200: cd1a 33bf ebb5 d2be 642e f4be e968 aabe
00000210: 3d51 19be b5de 3c3f e2f5 ec3e b840 013d
00000220: a661 c33e c480 7dbf 0114 f23e 2c16 3c3d
00000230: cf0b 1ebf 579b 0f3f 4d37 e63e acde c7be
00000240: 2d3a 77bf 5367 07be 4568 993f 674b e03e
00000250: de14 03bf 0d2a 023f 25b8 4bbf 712e e13d
00000260: 28bb 6fbe 9ce1 8a3f e711 c4bd d80b 6abf
00000270: ffd4 64be aee4 95be 3376 bfbe 4aae 56bf
00000280: faed 6cbf 5dff 1dbd 275b 87bf a582 20be
00000290: 5760 663f 90c9 123e 039d 8ebe 10dd 6dbf
000002a0: 59ed 1c3f 83af c43d c5dd 09bf b2d2 2bbf
000002b0: d386 60bf 6e86 f13d 87cc 143f 7281 98bf
000002c0: 9ccb 6a3e 7381 6b3e 1a38 86be e752 753e
000002d0: 1e9f 91bf 4ec9 bfbd 9688 e93e 70bd acbe
000002e0: 29b3 cdbe c249 653e ad9d a53e f1ee 1cbe
000002f0: d57f b83d 4db4 3f3f ff29 e9be a99b d63d
00000300: 9852 243f d855 02bf 4b44 633f a9dc 2bbe
00000310: db92 6cbf f66c d9bb 1884 943f 10f5 90be
00000320: a755 4a3e cfb5 863e b4bb 783f 59f7 81bf
00000330: 8143 2a3d 7448 733e ff1a 2c3f 4486 9ebe
00000340: 8f5e 0a3f 5f4e 233e 7f67 0a3f 5087 4bbe
00000350: 4ebb 09be 4d37 e9be a728 10bf 259f cbbe
00000360: 590a 45bf 30ea afbe 4a05 7f3f 66dd 2dbf
00000370: 188d 633e 8b74 60be 3f3e 7c3f f37e 153f
00000380: ac8a 6c3f 0c59 75bf e584 8ebe 35de d6be
00000390: 50b6 0ebe 4928 52bf f54c 513d 961c ad3e
000003a0: 87a4 0fbf cc3f de3d 4181 eb3d 2cbd 323e
000003b0: 3473 5cbf b308 2bbc 41f7 f03e 6873 aabc
000003c0: 634c b03e 4bb3 923e 2050 cfbd 8b55 1fbf
000003d0: 1409 db3f 66f9 8bbf 42e7 df3e 1d86 5abf
000003e0: 9ded 87be b664 053f e4de 6b3e 6a20 0c3f
000003f0: 1277 58be 359d 8d3e 41cd 3b3e e1a3 e73d
1.4679717 -0.28120196 -0.5685603 0.29981858 0.095863245 -0.194965 0.47143108 -0.4739455
-0.61605537 -0.12229896 0.6152456 -0.36316916 -0.49523154 0.24825636 0.73026925 -0.19896111
1.197996 0.5094077 0.8493114 0.44282305 0.69865096 -0.2949968 -0.8468534 -0.35786408
0.8387662 0.87719977 -0.020217627 -0.20972615 -0.7297423 -0.6696386 -0.5573356 0.117342755
-0.68571216 -0.6800087 -0.56678 -0.63206077 -0.8057572 0.0046055727 -0.59419525 -1.0096807
-0.41277674 0.5632498 -0.46449944 0.06540431 -1.1196251 -0.7345765 0.72277874 -0.14613828
0.18260765 0.21652558 -0.9241951 -0.7166348 0.8598629 -0.96785736 -0.053686306 0.8999281
0.20961078 0.4638409 0.22836792 1.0601693 0.3246886 -0.51280326 -0.18465847 0.16583237
0.5612596 -0.28205693 0.14036082 -0.74202466 -0.7932865 -0.3893861 0.916545 0.78862554
0.07850122 -0.12832046 -0.06217594 -0.88155437 -0.07829849 0.025703639 0.35579687 -0.18331479
0.18428506 0.087273195 0.28717002 0.5045307 0.2021933 -0.03688952 0.79844373 -0.361001
0.32995665 1.2403578 -0.91443664 -1.0257963 -1.0182672 -1.0929574 0.3527521 -0.98903185
0.78845775 0.052188512 0.42509636 0.5444842 -0.3585405 0.18287541 -0.85700107 -1.3837745
0.21132115 -0.2663785 0.7245434 -0.2891688 0.778338 -0.7118913 -0.42218608 -0.64717567
0.20912889 -1.0630406 0.27566174 -0.8653469 -0.5602872 0.3194717 -0.4279507 -0.86438006
0.5248509 0.17961428 -0.03496511 0.46460024 0.07552642 0.8533058 -0.4414636 -0.17793623
-0.6996277 -0.41154417 -0.47691643 -0.33283165 -0.14972396 0.73777324 0.46281344 0.03155586
0.38160437 -0.99024606 0.47280887 0.045919582 -0.6173677 0.56096405 0.44964066 -0.39037073
-0.96573144 -0.13223009 1.1984946 0.43807527 -0.51203716 0.50845414 -0.7957786 0.10995186
-0.23411238 1.08501 -0.09573727 -0.9142432 -0.22346877 -0.2927603 -0.37394866 -0.83859694
-0.92550623 -0.03857361 -1.0574692 -0.15674837 0.8999075 0.14334702 -0.27854165 -0.9291544
0.61299664 0.09603789 -0.5385402 -0.6711837 -0.87705725 0.117932186 0.58124584 -1.1914504
0.22929233 0.229986 -0.26214677 0.23957406 -1.1376684 -0.09364568 0.4561202 -0.3373828
-0.4017575 0.22391418 0.3234686 -0.15325524 0.09008757 0.7488449 -0.45539853 0.104789086
0.6418853 -0.5091224 0.8877608 -0.16783394 -0.92411584 -0.0066353036 1.1602812 -0.28311968
0.19759236 0.26310584 0.9716141 -1.015361 0.041568283 0.23758107 0.6722869 -0.30961812
0.54050535 0.15947865 0.5406417 -0.19875836 -0.13450357 -0.45550004 -0.5631203 -0.39769855
-0.76968914 -0.34358358 0.99617445 -0.6791595 0.22221792 -0.21919458 0.9853248 0.58396834
0.92399096 -0.95839 -0.27835765 -0.41966406 -0.13936734 -0.8209272 0.051098783 0.33810872
-0.56110424 0.10852012 0.114992626 0.17454976 -0.86113286 -0.010439086 0.4706364 -0.020806983
0.34433278 0.28652415 -0.101227045 -0.62239903 1.7112145 -1.0935485 0.43731123 -0.8536089
-0.26548472 0.521068 0.23034245 0.5473696 -0.21139172 0.27659002 0.18340017 0.11310554

items_id f4 [1154, 63]
00000000: b9e9 163f 1227 103f 60b1 443e 219c e3bd
00000010: 5f66 1b3e 1b1f e13e 383e 133f 5f32 153f
00000020: cc86 123f 0e99 d2be a245 243f 526c e6bd
00000030: eb3f c2be 8bac 043f 75e0 ea3e 23ee d6be
00000040: 0991 34be 1e88 95be 530e a73e 5450 303f
00000050: 2ba1 2b3f f745 da3e 380a b0be 2a73 9a3e
00000060: d24d 87be e50e 063d 720c a83e 5700 763e
00000070: f3aa 6cbe cc11 b1be f8b2 dd3e 098b 133e
00000080: 10cc 2bbe abd3 f1be 387b 8a3e d751 833e
00000090: 4172 403f 79d2 af3e 71b9 9bbe 10ee 67be
000000a0: cf84 94be b08e 863e 17e8 933e 95ef 10bf
000000b0: 30cc 1ebf cec4 71be 9c01 f13e e1e9 8a3d
000000c0: 2057 d03d fb96 a9be cf27 98be e064 0b3d
000000d0: d798 593e 8c12 f8bb 12fb 2abf a9f2 543e
000000e0: d689 16bf 8789 f33c 0214 a7be fc51 07be
000000f0: 58fe a03e 01f5 2fbe 0f31 f53e e833 403e
00000100: 47a0 9d3e 6656 0c3e 1226 843c f853 143f
00000110: 194d 9a3d 986b 283f 6c3f d83d dcca 253d
00000120: 1677 5abd 0bb1 343c da31 1abd d1f6 80be
00000130: a228 8d3d b820 c33c dec5 72be 74e5 a3be
00000140: c1b8 f9bd e4ad 7e3e 3b9b 953c 1701 8f3e
00000150: 6117 9b3e 0a5e c2bd e922 b63e 33a1 4abe
00000160: 85b1 44be c627 713d afe4 2a3d e09c ae3c
00000170: 2e46 1c3b 292f 24bd 100e b23d ab42 45be
00000180: 44fc 8ebe 25cb 763e 7cfe fa3d 3e8b ac3e
00000190: 924d 0c3e e0f2 c9bd 1cfe c4bd ec55 2abe
000001a0: 982d 753e 0c8b b7bc b829 6abd 908a 65be
000001b0: f699 8cbd 5274 cc3c c740 e3bd 3f84 c23d
000001c0: 43b5 673b b9a3 10bd 1ce8 453d 1df1 463e
000001d0: 7581 563e 9f88 a23d 2605 573e 1ef3 c8be
000001e0: b401 debd 5c86 b13a bb1e 0dbe df7d 4f3b
000001f0: c018 93be 3712 b63d 6a6f aa3e 77a2 c03e
00000200: 08a4 1d3e 47bc b9bd f712 b33e 1cdc 873e
00000210: 4af7 dd3d 4ded 343e ef35 c03e 7081 93be
00000220: 4810 ce3e b38c 85be 718e 91be b11e 233e
00000230: 0fe1 2c3e b31d 20be 2f15 89be 3b9d 093c
00000240: 5f48 b63d 1009 753e 4a2a b43e 45b0 b83e
00000250: 6627 50be e943 813e 3d8d d5bd 1f76 82bd
00000260: 4a64 973d a8bc 703e 8b64 d9bd 25eb 20bd
00000270: aa8c 803e 0744 383d 79b9 8fbe 84a8 bdbe
00000280: a26a 0d3e f8e7 a53d 6c37 d93e 7345 f23d
00000290: 51dc edbd 53fa 84be ae53 40be 652a e83d
000002a0: 3168 813e 7efe b2be 06dc 83be 4d18 57be
000002b0: 905c 3f3e 154e 05be adb0 a43d cd40 41be
000002c0: 8e0b 85be e6c1 b53d 0a4a 4f3e 16e8 3a3e
000002d0: 7b6c c9be fe02 963b 4d44 95be 0918 62bd
000002e0: bade ebbd 7074 23be cd6b 923d 3ad4 28be
000002f0: f7f6 943e e480 d53e bc36 213e e5c6 333e
00000300: 7622 63be cd89 643e abbe cf3d 85c4 bf3e
00000310: 3e4f a83e 5c13 c63e f4ed 86be abaf 2e3e
00000320: 3944 74be f9b4 19be 8ee2 863e fe17 413e
00000330: 3670 c9be ffee 60be f9ed 24be 9ab9 d43d
00000340: 7e09 3e3e 2aaa ca3e a941 0f3e cdc0 c6bd
00000350: 7167 a13d cc4c b7bd e228 1ebe 307b 5b3e
00000360: 2f26 2e3e 670a 5dbe 9856 12be a00b a43e
00000370: 7b3f 103e 51de 93bd 9684 8dbe c5cf 983e
00000380: 0f60 d93d ec40 933e 93ef 953d 208b 79be
00000390: f2e0 54be 9e01 42be 2518 aa3d c776 d13d
000003a0: af09 bcbe c402 52be 7f17 4ebd e039 c93d
000003b0: bbe3 083b c835 93bd a071 69be 92a6 17be
000003c0: 332e 8f3d 99c7 ca3d b74e 2e3e a847 d0be
000003d0: 7180 5a3e 526e 59be 3fd6 a3bd 2da7 7abd
000003e0: 63e9 cfbd 32b6 2b3e 07a2 96be 2121 3f3e
000003f0: 4469 bd3e 03b5 853e 69f3 803e a6db 7c3d
0.5895038 0.56309617 0.19208288 -0.111137636 0.1517577 0.43969044 0.57516813 0.58279985
0.57236934 -0.41132396 0.6416875 -0.11251129 -0.3793939 0.5182578 0.45874372 -0.4197856
-0.17633452 -0.29205412 0.32628116 0.6887257 0.670428 0.42631504 -0.34382796 0.30165988
-0.2642656 0.03272905 0.32821995 0.24023567 -0.23112087 -0.3458389 0.43300605 0.14408506
-0.16777062 -0.47231802 0.27047133 0.25648376 0.7517434 0.34340265 -0.30414918 -0.22649407
-0.29007575 0.26280737 0.28888008 -0.56615573 -0.62030315 -0.23610231 0.4707154 0.0678289
0.10172868 -0.33123 -0.29717872 0.03403175 0.2124971 -0.0075705703 -0.6678935 0.20795693
-0.5880407 0.029728664 -0.32632452 -0.13214868 0.3144405 -0.17183305 0.4788899 0.187698
0.30786344 0.13704833 0.016131435 0.57940626 0.075342365 0.65789175 0.10558972 0.040476665
-0.053336225 0.011028538 -0.0376452 -0.25188306 0.06892516 0.023819312 -0.23708293 -0.32010996
-0.12193442 0.24871022 0.018262496 0.2793052 0.30291274 -0.09490593 0.3557351 -0.19788055
-0.19208343 0.05887582 0.041721996 0.021315038 0.0023845541 -0.040084038 0.086940885 -0.19263713
-0.27926838 0.24100931 0.1225557 0.33699983 0.13701466 -0.09860778 -0.0961878 -0.16634339
0.23943174 -0.02240517 -0.057168692 -0.22416139 -0.06865303 0.02495781 -0.1109634 0.0949788
0.0035355843 -0.035312388 0.04831706 0.19427915 0.20947821 0.07936215 0.20998058 -0.39247984
-0.108401686 0.001354407 -0.13781254 0.0031660718 -0.2872982 0.08890193 0.33288127 0.3762395
0.15394604 -0.09069114 0.34975407 0.26535118 0.10838182 0.17668648 0.37541148 -0.2880969
0.40246797 -0.26083907 -0.28428987 0.15929677 0.16882728 -0.1563633 -0.26773974 0.008399303
0.089005224 0.23929238 0.35188514 0.36071983 -0.2032753 0.25247124 -0.1042733 -0.06370186
0.073921755 0.23509467 -0.1061488 -0.03928675 0.25107318 0.04498675 -0.28071192 -0.3704263
0.13810208 0.08100885 0.42425096 0.11829653 -0.11614288 -0.25972232 -0.18781921 0.11336211
0.25274804 -0.34959787 -0.25753802 -0.21005364 0.18687654 -0.13018067 0.08041511 -0.18872376
-0.25985378 0.08874874 0.20243087 0.18252596 -0.39340577 0.0045779934 -0.29153672 -0.055198703
-0.11517091 -0.15962386 0.071494676 -0.16487208 0.2909467 0.41699898 0.15743536 0.17556341
-0.22181115 0.22318192 0.10143789 0.3745462 0.32872957 0.38686645 -0.2635342 0.170592
-0.2385415 -0.15010442 0.26344723 0.18856809 -0.39343423 -0.2196617 -0.16106404 0.10386963
0.18558308 0.3958295 0.13989891 -0.097047426 0.07881058 -0.08950195 -0.15445283 0.21433711
0.17006753 -0.21586 -0.14290845 0.3204012 0.14086716 -0.07220138 -0.27640218 0.29846016
0.10614025 0.2876047 0.07321086 -0.24369478 -0.20788935 -0.1894593 0.083053865 0.10227733
-0.36726138 -0.20508868 -0.050315376 0.09825492 0.002088769 -0.07187992 -0.22797251 -0.14809635
0.06991234 0.099013515 0.17022215 -0.4067967 0.21338059 -0.2123349 -0.079998486 -0.061194587
-0.10151937 0.16768721 -0.29420492 0.18664981 0.36994374 0.26114663 0.25185707 0.06173291

item_pop f4 [1154, 1]
00000000: 0000 803f 1be4 503f aa91 593f c349 5d3f
00000010: 6069 4e3f 6069 4e3f 548d 4c3f ac27 403f
00000020: 2956 393f 1d7a 373f 308f 2d3f bf3c 363f
00000030: f242 243f d98a 203f b999 283f adbd 263f
00000040: e566 223f 6f71 1d3f e566 223f c70b 113f
00000050: 3125 143f e0c3 143f 385e 083f 0c91 0e3f
00000060: 5df2 0d3f c168 033f da20 073f c168 033f
00000070: 06ee 003f 6476 f53e 7de3 053f 13ca 023f
00000080: 06ee 003f 574f 003f bc10 e93e 4cbe f13e
00000090: 13ca 023f 7d2e f93e 13ca 023f 8ba0 e13e
000000a0: e8dd e23e 38a9 fb3e 7d2e f93e da20 073f
000000b0: bc10 e93e bc10 e93e 14ab dc3e 461b e43e
000000c0: 2d63 e03e a458 e53e 1a4e ea3e 788b eb3e
000000d0: 4078 d63e 461b e43e e8dd e23e e8dd e23e
000000e0: d5c8 ec3e a458 e53e 4078 d63e 5930 da3e
000000f0: 3bd5 c83e 72e8 dd3e 9eb5 d73e 14ab dc3e
00000100: 9812 ca3e 548d cc3e 5930 da3e e33a d53e
00000110: 9812 ca3e dd97 c73e ca82 d13e 548d cc3e
00000120: 4eea be3e d025 df3e 9812 ca3e 85fd d33e
00000130: ac27 c03e ca82 d13e f64f cb3e 0f08 cf3e
00000140: dd97 c73e bf3c b63e 7ab7 b83e dd97 c73e
00000150: 4947 b13e 7ab7 b83e c4df c33e 221d c53e
00000160: d8f4 b93e bf3c b63e 936f bc3e 4eea be3e
00000170: d251 ac3e 04c2 b33e d251 ac3e eb09 b03e
00000180: 61ff b43e 7ab7 b83e 17d7 a93e 3532 bb3e
00000190: 308f ad3e 8dcc ae3e bf3c b63e eb09 b03e
000001a0: a684 b23e fe1e a63e a1e1 a43e eb09 b03e
000001b0: 8dcc ae3e a1e1 a43e 7514 ab3e fe1e a63e
000001c0: 1d7a b73e 9b3e 973e a1e1 a43e 43a4 a33e
000001d0: a1e1 a43e 5c5c a73e fe1e a63e 6f71 9d3e
000001e0: e566 a23e a1e1 a43e a1e1 a43e d251 ac3e
000001f0: cdae 9e3e 9b3e 973e e0c3 943e 1134 9c3e
00000200: b4f6 9a3e 8829 a13e e566 a23e 3d01 963e
00000210: e566 a23e c70b 913e f3d8 8a3e 2549 923e
00000220: c70b 913e 56b9 993e e0c3 943e 9b3e 973e
00000230: ae53 8d3e c70b 913e 9b3e 973e 7de3 853e
00000240: 959b 893e c70b 913e f3d8 8a3e 2549 923e
00000250: 5116 8c3e 385e 883e 5161 7f3e 0c91 8e3e
00000260: c70b 913e 8829 a13e c70b 913e c70b 913e
00000270: ae53 8d3e c168 833e f3d8 8a3e f3d8 8a3e
00000280: 9b3e 973e e0c3 943e 0c91 8e3e 385e 883e
00000290: 2549 923e f3d8 8a3e 642b 823e ae53 8d3e
000002a0: 5161 7f3e e0c3 943e 69ce 8f3e 56b9 993e
000002b0: 642b 823e 959b 893e c168 833e 9b3e 973e
000002c0: 5116 8c3e 1fa6 843e 1fa6 843e 0c91 8e3e
000002d0: 96e6 7c3e 3306 6e3e 5161 7f3e db6b 7a3e
000002e0: 96e6 7c3e ae53 8d3e 385e 883e 788b 6b3e
000002f0: db6b 7a3e 96e6 7c3e 1fa6 843e f3d8 8a3e
00000300: 959b 893e da20 873e b1ca 4d3e 20f1 773e
00000310: 14ab 5c3e 642b 823e c168 833e f3d8 8a3e
00000320: db6b 7a3e d025 5f3e 7de3 853e 5161 7f3e
00000330: bc10 693e bc10 693e d025 5f3e 9eb5 573e
00000340: 5930 5a3e 0196 663e 3306 6e3e d025 5f3e
00000350: 8ba0 613e bc10 693e db6b 7a3e 0196 663e
00000360: 461b 643e 6c45 503e 14ab 5c3e 6c45 503e
00000370: 0196 663e 5930 5a3e 5930 5a3e 461b 643e
00000380: bc10 693e bc10 693e 3bd5 483e e33a 553e
00000390: 3bd5 483e e33a 553e 8ba0 613e 0965 413e
000003a0: 28c0 523e 5930 5a3e 6c45 503e 3bd5 483e
000003b0: 5930 5a3e 0196 663e 6c45 503e 14ab 5c3e
000003c0: 8ba0 613e 28c0 523e 805a 463e e33a 553e
000003d0: d8f4 393e 461b 643e 0965 413e c4df 433e
000003e0: 14ab 5c3e 9eb5 573e 3bd5 483e 6c45 503e
000003f0: 28c0 523e 6c45 503e 61ff 343e 3bd5 483e
1.0 0.8159806 0.8498789 0.86440676 0.8062954 0.8062954 0.7990315 0.75060534
0.72397095 0.71670705 0.6779661 0.7118644 0.6416465 0.62711865 0.6585956 0.6513317
0.63438255 0.6150121 0.63438255 0.56658596 0.5786925 0.5811138 0.53268766 0.55690074
0.5544794 0.51331717 0.527845 0.51331717 0.50363195 0.47941887 0.52300245 0.5108959
0.50363195 0.50121063 0.4552058 0.47215497 0.5108959 0.4866828 0.5108959 0.44067797
0.44309926 0.4915254 0.4866828 0.527845 0.4552058 0.4552058 0.43099272 0.44552058
0.43825665 0.4479419 0.45762712 0.46004844 0.41888618 0.44552058 0.44309926 0.44309926
0.46246973 0.4479419 0.41888618 0.4261501 0.39225182 0.43341404 0.4213075 0.43099272
0.3946731 0.39951575 0.4261501 0.4164649 0.3946731 0.3898305 0.40920097 0.39951575
0.37288135 0.43583536 0.3946731 0.41404358 0.37530267 0.40920097 0.39709443 0.40435836
0.3898305 0.3559322 0.36077482 0.3898305 0.346247 0.36077482 0.38256657 0.3849879
0.36319613 0.3559322 0.36803874 0.37288135 0.33656174 0.3510896 0.33656174 0.34382567
0.3535109 0.36077482 0.33171913 0.36561742 0.33898306 0.34140435 0.3559322 0.34382567
0.34866828 0.3244552 0.3220339 0.34382567 0.34140435 0.3220339 0.33414045 0.3244552
0.35835353 0.29539952 0.3220339 0.3196126 0.3220339 0.32687652 0.3244552 0.30750605
0.31719127 0.3220339 0.3220339 0.33656174 0.30992737 0.29539952 0.2905569 0.30508474
0.30266345 0.31476998 0.31719127 0.2929782 0.31719127 0.28329298 0.27118644 0.2857143
0.28329298 0.30024213 0.2905569 0.29539952 0.27602905 0.28329298 0.29539952 0.26150122
0.26876512 0.28329298 0.27118644 0.2857143 0.27360776 0.26634383 0.24939467 0.27845037
0.28329298 0.31476998 0.28329298 0.28329298 0.27602905 0.25665858 0.27118644 0.27118644
0.29539952 0.2905569 0.27845037 0.26634383 0.2857143 0.27118644 0.2542373 0.27602905
0.24939467 0.2905569 0.28087166 0.30024213 0.2542373 0.26876512 0.25665858 0.29539952
0.27360776 0.2590799 0.2590799 0.27845037 0.24697337 0.23244552 0.24939467 0.24455206
0.24697337 0.27602905 0.26634383 0.23002422 0.24455206 0.24697337 0.2590799 0.27118644
0.26876512 0.2639225 0.20096852 0.24213076 0.21549636 0.2542373 0.25665858 0.27118644
0.24455206 0.21791768 0.26150122 0.24939467 0.2276029 0.2276029 0.21791768 0.21065375
0.21307506 0.2251816 0.23244552 0.21791768 0.22033899 0.2276029 0.24455206 0.2251816
0.22276029 0.20338982 0.21549636 0.20338982 0.2251816 0.21307506 0.21307506 0.22276029
0.2276029 0.2276029 0.19612591 0.20823245 0.19612591 0.20823245 0.22033899 0.18886198
0.20581114 0.21307506 0.20338982 0.19612591 0.21307506 0.2251816 0.20338982 0.21549636
0.22033899 0.20581114 0.1937046 0.20823245 0.18159807 0.22276029 0.18886198 0.19128329
0.21549636 0.21065375 0.19612591 0.20338982 0.20581114 0.20338982 0.17675544 0.19612591

item_pop_true f4 [1154, 1]
00000000: 0000 803f 1be4 503f aa91 593f c349 5d3f
00000010: 6069 4e3f 6069 4e3f 548d 4c3f ac27 403f
00000020: 2956 393f 1d7a 373f 308f 2d3f bf3c 363f
00000030: f242 243f d98a 203f b999 283f adbd 263f
00000040: e566 223f 6f71 1d3f e566 223f c70b 113f
00000050: 3125 143f e0c3 143f 385e 083f 0c91 0e3f
00000060: 5df2 0d3f c168 033f da20 073f c168 033f
00000070: 06ee 003f 6476 f53e 7de3 053f 13ca 023f
00000080: 06ee 003f 574f 003f bc10 e93e 4cbe f13e
00000090: 13ca 023f 7d2e f93e 13ca 023f 8ba0 e13e
000000a0: e8dd e23e 38a9 fb3e 7d2e f93e da20 073f
000000b0: bc10 e93e bc10 e93e 14ab dc3e 461b e43e
000000c0: 2d63 e03e a458 e53e 1a4e ea3e 788b eb3e
000000d0: 4078 d63e 461b e43e e8dd e23e e8dd e23e
000000e0: d5c8 ec3e a458 e53e 4078 d63e 5930 da3e
000000f0: 3bd5 c83e 72e8 dd3e 9eb5 d73e 14ab dc3e
00000100: 9812 ca3e 548d cc3e 5930 da3e e33a d53e
00000110: 9812 ca3e dd97 c73e ca82 d13e 548d cc3e
00000120: 4eea be3e d025 df3e 9812 ca3e 85fd d33e
00000130: ac27 c03e ca82 d13e f64f cb3e 0f08 cf3e
00000140: dd97 c73e bf3c b63e 7ab7 b83e dd97 c73e
00000150: 4947 b13e 7ab7 b83e c4df c33e 221d c53e
00000160: d8f4 b93e bf3c b63e 936f bc3e 4eea be3e
00000170: d251 ac3e 04c2 b33e d251 ac3e eb09 b03e
00000180: 61ff b43e 7ab7 b83e 17d7 a93e 3532 bb3e
00000190: 308f ad3e 8dcc ae3e bf3c b63e eb09 b03e
000001a0: a684 b23e fe1e a63e a1e1 a43e eb09 b03e
000001b0: 8dcc ae3e a1e1 a43e 7514 ab3e fe1e a63e
000001c0: 1d7a b73e 9b3e 973e a1e1 a43e 43a4 a33e
000001d0: a1e1 a43e 5c5c a73e fe1e a63e 6f71 9d3e
000001e0: e566 a23e a1e1 a43e a1e1 a43e d251 ac3e
000001f0: cdae 9e3e 9b3e 973e e0c3 943e 1134 9c3e
00000200: b4f6 9a3e 8829 a13e e566 a23e 3d01 963e
00000210: e566 a23e c70b 913e f3d8 8a3e 2549 923e
00000220: c70b 913e 56b9 993e e0c3 943e 9b3e 973e
00000230: ae53 8d3e c70b 913e 9b3e 973e 7de3 853e
00000240: 959b 893e c70b 913e f3d8 8a3e 2549 923e
00000250: 5116 8c3e 385e 883e 5161 7f3e 0c91 8e3e
00000260: c70b 913e 8829 a13e c70b 913e c70b 913e
00000270: ae53 8d3e c168 833e f3d8 8a3e f3d8 8a3e
00000280: 9b3e 973e e0c3 943e 0c91 8e3e 385e 883e
00000290: 2549 923e f3d8 8a3e 642b 823e ae53 8d3e
000002a0: 5161 7f3e e0c3 943e 69ce 8f3e 56b9 993e
000002b0: 642b 823e 959b 893e c168 833e 9b3e 973e
000002c0: 5116 8c3e 1fa6 843e 1fa6 843e 0c91 8e3e
000002d0: 96e6 7c3e 3306 6e3e 5161 7f3e db6b 7a3e
000002e0: 96e6 7c3e ae53 8d3e 385e 883e 788b 6b3e
000002f0: db6b 7a3e 96e6 7c3e 1fa6 843e f3d8 8a3e
00000300: 959b 893e da20 873e b1ca 4d3e 20f1 773e
00000310: 14ab 5c3e 642b 823e c168 833e f3d8 8a3e
00000320: db6b 7a3e d025 5f3e 7de3 853e 5161 7f3e
00000330: bc10 693e bc10 693e d025 5f3e 9eb5 573e
00000340: 5930 5a3e 0196 663e 3306 6e3e d025 5f3e
00000350: 8ba0 613e bc10 693e db6b 7a3e 0196 663e
00000360: 461b 643e 6c45 503e 14ab 5c3e 6c45 503e
00000370: 0196 663e 5930 5a3e 5930 5a3e 461b 643e
00000380: bc10 693e bc10 693e 3bd5 483e e33a 553e
00000390: 3bd5 483e e33a 553e 8ba0 613e 0965 413e
000003a0: 28c0 523e 5930 5a3e 6c45 503e 3bd5 483e
000003b0: 5930 5a3e 0196 663e 6c45 503e 14ab 5c3e
000003c0: 8ba0 613e 28c0 523e 805a 463e e33a 553e
000003d0: d8f4 393e 461b 643e 0965 413e c4df 433e
000003e0: 14ab 5c3e 9eb5 573e 3bd5 483e 6c45 503e
000003f0: 28c0 523e 6c45 503e 61ff 343e 3bd5 483e
1.0 0.8159806 0.8498789 0.86440676 0.8062954 0.8062954 0.7990315 0.75060534
0.72397095 0.71670705 0.6779661 0.7118644 0.6416465 0.62711865 0.6585956 0.6513317
0.63438255 0.6150121 0.63438255 0.56658596 0.5786925 0.5811138 0.53268766 0.55690074
0.5544794 0.51331717 0.527845 0.51331717 0.50363195 0.47941887 0.52300245 0.5108959
0.50363195 0.50121063 0.4552058 0.47215497 0.5108959 0.4866828 0.5108959 0.44067797
0.44309926 0.4915254 0.4866828 0.527845 0.4552058 0.4552058 0.43099272 0.44552058
0.43825665 0.4479419 0.45762712 0.46004844 0.41888618 0.44552058 0.44309926 0.44309926
0.46246973 0.4479419 0.41888618 0.4261501 0.39225182 0.43341404 0.4213075 0.43099272
0.3946731 0.39951575 0.4261501 0.4164649 0.3946731 0.3898305 0.40920097 0.39951575
0.37288135 0.43583536 0.3946731 0.41404358 0.37530267 0.40920097 0.39709443 0.40435836
0.3898305 0.3559322 0.36077482 0.3898305 0.346247 0.36077482 0.38256657 0.3849879
0.36319613 0.3559322 0.36803874 0.37288135 0.33656174 0.3510896 0.33656174 0.34382567
0.3535109 0.36077482 0.33171913 0.36561742 0.33898306 0.34140435 0.3559322 0.34382567
0.34866828 0.3244552 0.3220339 0.34382567 0.34140435 0.3220339 0.33414045 0.3244552
0.35835353 0.29539952 0.3220339 0.3196126 0.3220339 0.32687652 0.3244552 0.30750605
0.31719127 0.3220339 0.3220339 0.33656174 0.30992737 0.29539952 0.2905569 0.30508474
0.30266345 0.31476998 0.31719127 0.2929782 0.31719127 0.28329298 0.27118644 0.2857143
0.28329298 0.30024213 0.2905569 0.29539952 0.27602905 0.28329298 0.29539952 0.26150122
0.26876512 0.28329298 0.27118644 0.2857143 0.27360776 0.26634383 0.24939467 0.27845037
0.28329298 0.31476998 0.28329298 0.28329298 0.27602905 0.25665858 0.27118644 0.27118644
0.29539952 0.2905569 0.27845037 0.26634383 0.2857143 0.27118644 0.2542373 0.27602905
0.24939467 0.2905569 0.28087166 0.30024213 0.2542373 0.26876512 0.25665858 0.29539952
0.27360776 0.2590799 0.2590799 0.27845037 0.24697337 0.23244552 0.24939467 0.24455206
0.24697337 0.27602905 0.26634383 0.23002422 0.24455206 0.24697337 0.2590799 0.27118644
0.26876512 0.2639225 0.20096852 0.24213076 0.21549636 0.2542373 0.25665858 0.27118644
0.24455206 0.21791768 0.26150122 0.24939467 0.2276029 0.2276029 0.21791768 0.21065375
0.21307506 0.2251816 0.23244552 0.21791768 0.22033899 0.2276029 0.24455206 0.2251816
0.22276029 0.20338982 0.21549636 0.20338982 0.2251816 0.21307506 0.21307506 0.22276029
0.2276029 0.2276029 0.19612591 0.20823245 0.19612591 0.20823245 0.22033899 0.18886198
0.20581114 0.21307506 0.20338982 0.19612591 0.21307506 0.2251816 0.20338982 0.21549636
0.22033899 0.20581114 0.1937046 0.20823245 0.18159807 0.22276029 0.18886198 0.19128329
0.21549636 0.21065375 0.19612591 0.20338982 0.20581114 0.20338982 0.17675544 0.19612591

lr1.weight f4 [1, 63]
00000000: af20 713d 2608 8c3c 3391 dd3d 8da8 3dbe
00000010: 7512 0f3e 0e5d f23c 2907 083e c084 33bc
00000020: 9b5e e5bb 1c27 ebbd be98 96bc 58cf 32be
00000030: 36d5 50bd 652c 12bd ba00 e1ba fd89 54b9
00000040: 9171 bbbd ea3a ebbd 0356 053d 424e e4bc
00000050: 5448 683c 8249 30bd f3b1 6dbd c3e7 093d
00000060: 6cd2 853c 23e1 3dbe bd55 493d d414 623e
00000070: 6c9e b5bd a183 bfbd 244d a03d 4538 323e
00000080: 95f2 3bbd 9694 39bd 718d 803d d428 cf3c
00000090: 50c8 8f3b 06fe 123e c852 94bd 8888 97bd
000000a0: 735e 833d 1590 813d 4eb8 8a3d 027a 9bbc
000000b0: 7181 6ebc 5978 cabd dca1 5cbd de7e a0be
000000c0: 9a32 7b3e 6211 c8bd aea9 f8bd c578 b73d
000000d0: a27c 293e 081a 273e 4f63 92bc f884 4e3e
000000e0: c727 5a3b ecb8 7cbe 86e4 bdbb 6525 1cbe
000000f0: fa50 133d 69ef 13be 04b9 cf3b
0.05886906 0.01709373 0.1081871 -0.18521328 0.13971885 0.029585388 0.13283981 -0.010956943
-0.0069998032 -0.11482069 -0.01838338 -0.17461908 -0.050984584 -0.03568687 -0.0017166354 -0.000202693
-0.091525204 -0.11485846 0.03255273 -0.027869347 0.014177401 -0.043038853 -0.058031034 0.03366829
0.016335689 -0.18542914 0.049154032 0.22078258 -0.08868107 -0.09351278 0.078272134 0.17404278
-0.04588564 -0.04530772 0.06276978 0.025288023 0.004387893 0.14354715 -0.07242352 -0.07399088
0.06414499 0.063263096 0.067734346 -0.018979076 -0.014557228 -0.09886236 -0.0538653 -0.31346792
0.24531022 -0.097689405 -0.12141739 0.08958582 0.1655145 0.16318524 -0.01786962 0.20167911
0.003328787 -0.24679917 -0.0057950644 -0.1524864 0.035965897 -0.14446796 0.0063391943
