pid/result/ml100k-PIDMF-debug2023-03-14-10-32-30/ckpt/epoch_31.pth (torch_old, 543278 bytes, 5 tensors)

users f4 [945, 64]
000000 62 c1 a5 3f 0c 68 90 be ca 97 00 bf b0 6f 83 3e
       1.2949641 -0.2820438 -0.5023161 0.25671148
000010 ce c8 8b 3d 94 1e 41 be 3f d8 dc 3e af d5 cf be
       0.0682541 -0.18859321 0.43133733 -0.40592715
000020 f6 76 14 bf db 1f ec bd 19 af 13 3f f9 12 b8 be
       -0.5799402 -0.115295134 0.5768905 -0.35951975
000030 c9 5b e0 be 75 1c 61 3e d2 c5 25 3f 0b ba 2d be
       -0.43820027 0.21983512 0.64754975 -0.16965501
000040 99 64 8a 3f 46 32 ec 3e c0 c3 4e 3f 32 6c d2 3e
       1.081195 0.46132106 0.8076744 0.4109817
000050 14 52 21 3f 88 02 94 be 3d 17 44 bf 03 c9 aa be
       0.63015866 -0.2890818 -0.7659796 -0.33356485
000060 1f df 43 3f d2 97 44 3f 5d 49 3b bc 0f a7 6a be
       0.7651233 0.7679416 -0.011431065 -0.2291529
000070 db 43 2f bf a5 99 20 bf 3c cb ff be 37 cf bd 3d
       -0.68462914 -0.6273444 -0.49959743 0.09268039
000080 41 58 15 bf 90 6a 26 bf a9 b7 eb be 7f 83 02 bf
       -0.5833779 -0.6500635 -0.4603856 -0.509819
000090 4a ae 30 bf ee 71 c9 3b e9 61 0a bf c7 2a 62 bf
       -0.69015944 0.0061476147 -0.5405565 -0.88346523
0000a0 fb b3 da be e6 94 ed 3e a0 e5 d2 be fe a7 92 3d
       -0.4271544 0.46402663 -0.41190815 0.07160948
0000b0 9c 32 7f bf d6 27 36 bf 40 4d 35 3f 7d 7b 0e be
       -0.996866 -0.71154535 0.70821 -0.13914295
0000c0 dc ab 0a 3e 5d 91 47 3e 03 29 4f bf 4b a1 23 bf
       0.13542122 0.19489045 -0.80921954 -0.6391799
0000d0 c7 92 42 3f 8e 5c 72 bf 71 bb 58 bd b5 b6 60 3f
       0.76005214 -0.9467248 -0.052913133 0.8777879
0000e0 5e 30 1b 3e b6 42 f7 3e a0 0a 3e 3e a8 f0 74 3f
       0.1515517 0.48293084 0.1855874 0.9567971
0000f0 ea b5 9b 3e a2 52 ed be 88 47 40 be 5f fc 16 3e
       0.30412227 -0.46352106 -0.18777287 0.1474471
000100 39 97 0b 3f 85 00 8c be 97 8e 15 3e 63 e8 31 bf
       0.5452762 -0.27344146 0.14605175 -0.6949522
000110 92 c9 49 bf 7e 58 9c be 01 4b 45 3f 8b 3b 2d 3f
       -0.78823197 -0.30536264 0.7706757 0.6766898
000120 45 ab cd 3d cc 78 26 be ea 4b 3f bd 02 78 48 bf
       0.10042433 -0.16257018 -0.046703257 -0.7830812
000130 5c 9b ad bd cd 81 25 bc c1 f3 af 3e 91 4c ff bd
       -0.08476898 -0.010101748 0.34365657 -0.12465776
000140 e0 25 4c 3e 31 a7 08 3d 46 a8 93 3e 3f d2 f9 3e
       0.19936323 0.03336257 0.2883932 0.48793218
000150 10 be 4c 3e da 25 91 bd 63 e5 38 3f aa cd a9 be
       0.19994378 -0.07087298 0.72225016 -0.33164722
000160 69 17 a5 3e 6f f5 98 3f b0 4e 5b bf 2c 8f 79 bf
       0.32244423 1.19499 -0.8566694 -0.9748409
000170 a2 65 6d bf dd bb 72 bf 84 43 ad 3e 15 a7 6f bf
       -0.92733204 -0.94817907 0.33840573 -0.9361432
000180 99 5b 3f 3f 08 9a a3 3d 34 75 bc 3e ee 87 ed 3e
       0.7474914 0.079883635 0.3680817 0.4639277
000190 6e 93 b2 be e0 95 00 3e 32 3f 46 bf 70 2d a2 bf
       -0.34878105 0.12557173 -0.7744018 -1.2670116
0001a0 5d 8e 63 3e 6e 64 72 be c2 05 32 3f 99 32 a9 be
       0.22222276 -0.23671123 0.69540036 -0.33046415
0001b0 cb 03 33 3f f6 ed 28 bf 9b 35 c2 be 9e 99 18 bf
       0.6992766 -0.659881 -0.37931523 -0.596094
0001c0 0b f1 57 3e 30 b2 7f bf d2 21 5f 3e 1b 49 36 bf
       0.21088044 -0.9988127 0.21790245 -0.712053
0001d0 0a 3d 01 bf 3c 69 81 3e 20 c8 d9 be 17 4d 35 bf
       -0.50483763 0.252756 -0.42535496 -0.70820755
0001e0 92 77 f4 3e f9 05 47 3e c9 6e 83 bd 47 e7 f0 3e
       0.47747475 0.19435872 -0.06417615 0.4705145
0001f0 70 22 b3 3d 39 e8 52 3f 9c e1 c8 be dc 95 43 be
       0.08746803 0.82385594 -0.39234626 -0.19100136
000200 4e 30 1c bf f9 fa 9f be a0 df e4 be ea 97 91 be
       -0.6101121 -0.31246164 -0.44701862 -0.28436214
000210 84 e1 05 be 82 45 25 3f e3 7e 03 3f fe 2a e7 3c
       -0.13074309 0.64559186 0.5136549 0.028218742
000220 95 00 b9 3e 89 89 6a bf cb 70 d5 3e 40 7f ea 3c
       0.36133257 -0.9161611 0.41687617 0.02862513
000230 c8 56 17 bf ba 22 0c 3f 23 8e dd 3e 80 73 b9 be
       -0.5911679 0.5474049 0.43272504 -0.36220932
000240 f8 eb 62 bf b4 62 08 be 65 d0 83 3f f4 f7 be 3e
       -0.8864131 -0.13318902 1.0297972 0.37298548
000250 9a 77 eb be 84 c3 f5 3e 4e 01 3f bf 48 6f 1c 3e
       -0.45989686 0.4800073 -0.74611366 0.15276825
000260 39 86 73 be 15 a6 7a 3f d0 b5 22 bd 0b 88 5a bf
       -0.2378167 0.9790967 -0.03972417 -0.85363835
000270 51 8e 29 be 04 a7 95 be 77 5e b2 be ad cd 49 bf
       -0.16558196 -0.29228985 -0.34837696 -0.7882946
000280 47 e5 47 bf df 08 23 bd ff c2 6c bf c6 ba 08 be
       -0.78084224 -0.039803382 -0.9248504 -0.13352498
000290 78 c8 46 3f be a6 09 3e 94 d5 94 be f6 5a 5c bf
       0.7764964 0.13442513 -0.29069197 -0.86076295
0002a0 8a 34 06 3f fe 86 ce 3d c1 fd d8 be 19 b0 16 bf
       0.5242392 0.100843415 -0.423811 -0.58862454
0002b0 89 20 4d bf 83 08 05 3e 2b 39 05 3f 30 da 8a bf
       -0.8012777 0.12991528 0.52040356 -1.0847836
0002c0 f8 40 5d 3e f8 5b 5e 3e f5 8a 4b be ec 6f 2a 3e
       0.21606815 0.21714771 -0.19877227 0.16644257
0002d0 41 6d 7b bf 65 98 8d bd 4f 67 e0 3e e1 1b b8 be
       -0.98213583 -0.069138326 0.43828818 -0.3595877
0002e0 74 bb cd be 78 c5 77 3e 2f d2 8d 3e 85 f2 40 bd
       -0.40182078 0.24196422 0.2769942 -0.047106285
0002f0 69 26 11 3e aa 7e 33 3f 42 4f d8 be 2c 2c e8 3d
       0.14174809 0.7011515 -0.4224797 0.1133655
000300 5d eb 11 3f 9f 3e f3 be 55 ca 47 3f d3 5d 12 be
       0.5699976 -0.47508714 0.7804311 -0.14293604
000310 83 34 4f bf d7 03 8f 3c d1 56 89 3f bb 21 6c be
       -0.809395 0.017457886 1.0729619 -0.23059742
000320 07 73 31 3e 96 9e 4d 3e 87 fb 65 3f af 9e 66 bf
       0.17329036 0.20080027 0.89836925 -0.9008588
000330 00 5b 03 3d af b1 91 3e ff 7f 2d 3f b5 92 84 be
       0.032069206 0.28455874 0.6777343 -0.2589318
000340 d5 02 fe 3e 78 09 93 3d 45 14 eb 3e f6 bc 0d be
       0.49611536 0.071795404 0.45913902 -0.13841614
000350 2e a9 fa bd c6 81 fc be d6 92 05 bf 43 52 9f be
       -0.122393 -0.4931776 -0.5217718 -0.31117448
000360 d4 b1 34 bf ea 14 a8 be ad 28 6e 3f 40 29 28 bf
       -0.70583844 -0.32828456 0.93030816 -0.6568794
000370 27 76 64 3e c0 eb 43 be 97 32 5c 3f 9a 02 fe 3e
       0.22310697 -0.191329 0.86014694 0.4961136
000380 3c d5 46 3f 15 27 4b bf ab 7c 8d be ff 51 bd be
       0.7766912 -0.7935651 -0.27634177 -0.3697662
000390 a2 40 d3 bd 2c 07 3d bf fc 54 8c 3c 0a a0 97 3e
       -0.10315062 -0.7383907 0.017130367 0.29614288
0003a0 fc a5 0c bf c0 a0 bf 3d f1 8a e2 3d 8c e2 22 3e
       -0.5494077 0.093568325 0.11061657 0.15906733
0003b0 66 bc 4a bf dc da 38 3c 48 c7 e1 3e 3d 94 8e 3b
       -0.79193723 0.011282649 0.44097352 0.0043511675
0003c0 2c 34 76 3e 81 3b 6a 3e 64 d2 02 be 62 4a 22 bf
       0.2404334 0.22874261 -0.1277557 -0.6339475
0003d0 8b 66 c7 3f 73 cc 73 bf 45 04 ce 3e c7 4a 4b bf
       1.5578169 -0.9523384 0.40237632 -0.79410976
0003e0 bd 26 35 be d0 06 f5 3e 39 7d 65 3e a4 72 05 3f
       -0.17690559 0.4785676 0.2241105 0.5212805
0003f0 63 d5 3d be 44 ab 87 3e b2 b7 39 3e 6a 70 ce 3d
       -0.18538432 0.26497853 0.1813648 0.10080035

items_id f4 [1154, 63]
000000 4d bf 12 3f ae ce 0c 3f 3b 41 38 3e 4b 52 e6 bd
       0.5732315 0.5500287 0.17993633 -0.11246165
000010 89 ba 02 3e cb fc db 3e cc a5 04 3f 69 1b 0b 3f
       0.1276647 0.42966303 0.51815486 0.543387
000020 01 4a 0e 3f 5c ac c9 be 1e e7 1b 3f 44 1a e6 bd
       0.5558167 -0.39389312 0.6089953 -0.112354785
000030 19 0d b7 be 53 79 fb 3e 00 d2 e0 3e 66 56 ce be
       -0.3575218 0.49116 0.43910217 -0.40300292
000040 20 1f 06 be f3 50 8d be 6a 2c a0 3e b7 e2 29 3f
       -0.13097811 -0.27600822 0.31283885 0.66361564
000050 ff e7 1c 3f 51 15 cd 3e c7 f1 a4 be 79 34 89 3e
       0.612915 0.40055326 -0.3221571 0.26797846
000060 40 e7 80 be 6e 34 03 3d ca 56 9f 3e f1 26 6c 3e
       -0.2517643 0.032032423 0.31120902 0.2306173
000070 cc 34 67 be 70 9d a9 be da 91 d2 3e 00 b5 08 3e
       -0.22578734 -0.33127928 0.411269 0.13350296
000080 c7 ef 1b be aa a6 e2 be 44 aa 7c 3e 5d 3e 75 3e
       -0.15228187 -0.4426778 0.24674326 0.23949571
000090 85 0b 3b 3f 41 99 a1 3e 16 ce 99 be 0a 17 59 be
       0.7306445 0.31562236 -0.30040044 -0.21200195
0000a0 ce 94 87 be 11 9f 83 3e 08 08 91 3e 28 bc 0c bf
       -0.26480716 0.25707296 0.2832644 -0.54974604
0000b0 f3 1d 12 bf 65 c9 6e be 77 f3 e4 3e 4d 55 64 3d
       -0.5707695 -0.23319013 0.44717 0.05574541
0000c0 d6 2a c5 3d d4 4d a2 be 2a 66 94 be 2d 15 2e 3d
       0.09627311 -0.31700003 -0.28984195 0.042500664
0000d0 7d 78 53 3e 99 52 b5 bc a6 e6 25 bf aa d3 56 3e
       0.20651431 -0.022134112 -0.64805067 0.20979181
0000e0 f8 21 10 bf 2c e8 7f 3c 78 cb a0 be ce fe 07 be
       -0.5630183 0.015619319 -0.31405234 -0.13280794
0000f0 2e 62 98 3e 29 06 24 be 30 e0 df 3e f1 9f 2d 3e
       0.29762405 -0.16017975 0.4372573 0.16955544
000100 47 ac 8f 3e 2e c5 0d 3e f2 9c 0b bc 56 fa 03 3f
       0.28061125 0.1384475 -0.008521305 0.5155386
000110 cc 9b 97 3d ff f0 13 3f d3 ef a9 3d 05 a8 1d 3d
       0.07402763 0.57789606 0.08297696 0.038490314
000120 f5 a9 5d bd 66 fb 75 bb 04 c0 fd bc 3c 2e 70 be
       -0.05411716 -0.0037533878 -0.03097535 -0.23455137
000130 e7 ab 43 3d 86 2b 29 3c 95 ac 5d be 56 48 95 be
       0.04777136 0.010325318 -0.21647866 -0.2915675
000140 d9 a7 fc bd 31 f0 71 3e 62 da 57 3c 7a b1 86 3e
       -0.12336702 0.23626782 0.013174625 0.2630728
000150 66 67 8f 3e aa 43 a7 bd da 4b a8 3e 7c 61 45 be
       0.28008574 -0.08167203 0.3287037 -0.19275469
000160 b2 0d 48 be be 0c 74 3d 28 c2 0d 3d 8c cf 81 3c
       -0.19536474 0.059582464 0.03460899 0.015846036
000170 71 7f 38 3c 1b 1d 00 bd 65 cd be 3d a4 a6 3b be
       0.011260853 -0.031277757 0.0931652 -0.18325287
000180 85 76 86 be 64 68 5c 3e df 29 e6 3d c9 03 a0 3e
       -0.26262298 0.21524197 0.11238455 0.31252888
000190 3a b6 0c 3e e3 3b af bd 4c 68 af bd 66 ed 0d be
       0.13741389 -0.08556344 -0.08564815 -0.13860092
0001a0 d7 fd 6b 3e e9 71 ce bc 52 68 87 bd 53 a9 5e be
       0.23046051 -0.025200801 -0.066116944 -0.2174428
0001b0 b3 71 8b bd da 4b 6e 3c eb ed f2 bd 4b e5 b9 3d
       -0.06808796 0.014544452 -0.118617855 0.09076937
0001c0 20 44 39 ba db ff 09 bd 43 e0 1d 3d 95 aa 48 3e
       -0.00070673414 -0.03369127 0.03854395 0.19596322
0001d0 2c 7f 63 3e e1 8d a4 3d bc 3e 50 3e 9e 63 b5 be
       0.22216481 0.08034874 0.20336431 -0.35427564
0001e0 2b 5e f2 bd 5b ab 40 3c f4 85 04 be 73 8a d9 bb
       -0.11834367 0.011759604 -0.12941724 -0.006638819
0001f0 b6 04 8a be 78 0b 8a 3d ee 53 a4 3e 21 14 b7 3e
       -0.2695672 0.06740469 0.32095283 0.35757545
000200 e6 2a 17 3e 6d 12 e7 bd a0 c2 a6 3e 3e 70 82 3e
       0.14762458 -0.11282811 0.32570362 0.2547626
000210 1f 2b fc 3d 42 a1 13 3e ff bf ba 3e 5b 64 8e be
       0.12312912 0.14416984 0.36474606 -0.2781094
000220 13 cf c2 3e b7 ea 83 be 02 30 8b be 36 d8 0a 3e
       0.3804861 -0.2576501 -0.27185065 0.1355904
000230 cd 73 22 3e 97 9b 08 be 02 b2 63 be 96 77 b7 39
       0.15864487 -0.13340603 -0.22235873 0.00034993578
000240 94 70 94 3d 82 3a 5d 3e 17 22 a6 3e 6a 9c 91 3e
       0.07248035 0.2160435 0.32447883 0.28439647
000250 55 df 41 be a7 1f 64 3e c2 49 bc bd 91 6d 63 bd
       -0.1893285 0.222777 -0.09193756 -0.055524413
000260 8a a0 70 3d e4 f1 6c 3e 3c 1b c1 bd 19 ab f1 bc
       0.058746852 0.23139149 -0.09429023 -0.029500531
000270 85 34 79 3e f1 9a 10 3d 57 0a 88 be 80 2b b1 be
       0.24336441 0.035304014 -0.2657039 -0.346035
000280 a7 26 05 3e 46 cd 92 3d 45 de c6 3e 4f 8d c2 3d
       0.13003026 0.07168059 0.38841453 0.09499609
000290 e3 60 cb bd 78 cf 7b be a2 56 20 be 57 79 b9 3d
       -0.09930589 -0.24590862 -0.15658048 0.09056347
0002a0 b9 56 7a 3e 17 f3 a4 be 2d f8 78 be 66 5b 56 be
       0.24447145 -0.32216713 -0.24313422 -0.20933303
0002b0 89 d3 1a 3e 3b 24 04 be be 43 a2 3d 77 ef 42 be
       0.15119757 -0.12904446 0.07923077 -0.19036661
0002c0 32 a7 82 be 79 79 9d 3d 6a 3d 4c 3e 1d ed 34 3e
       -0.25518185 0.07689185 0.19945303 0.17668577
0002d0 11 e9 c2 be f2 0d 4a 3a 48 66 81 be e3 18 49 bd
       -0.3806844 0.00077077665 -0.25273347 -0.049096
0002e0 3d 6f da bd cb 3f 1f be 95 cd 6d 3d 4b b2 1a be
       -0.10665748 -0.15551679 0.058057386 -0.15107076
0002f0 1d b1 8e 3e 8b df c8 3e 22 d2 0c 3e 7c 14 25 3e
       0.27869502 0.3923305 0.13752034 0.16121095
000300 f8 e7 78 be e1 30 5a 3e ed 04 b1 3d fd 4b ae 3e
       -0.24307239 0.21307708 0.08643518 0.3404235
000310 3e 5a 9d 3e aa 34 bb 3e 0a 48 83 be d7 4f 15 3e
       0.30732912 0.36563617 -0.256409 0.14581238
000320 f1 5a 6e be 37 76 0e be 1e 35 82 3e f0 63 2c 3e
       -0.23276879 -0.13912283 0.2543115 0.16834998
000330 14 09 b1 be 57 2b 5c be 39 ba 23 be 8d 85 af 3d
       -0.3457724 -0.21500908 -0.15989007 0.08570395
000340 4e 12 23 3e fd 4f b9 3e 20 a1 f3 3d 59 f1 a7 bd
       0.15924951 0.3619384 0.118959665 -0.0820033
000350 dd eb 8c 3d 60 5d ac bd 8b b3 1e be cd 3c 4c 3e
       0.06880925 -0.08416247 -0.15498178 0.19945069
000360 58 7e 28 3e 53 ae 5a be 70 0e 08 be db 60 9c 3e
       0.16454446 -0.21355562 -0.13286757 0.30542645
000370 fe 00 05 3e 0f b8 6a bd ed b5 81 be eb d3 90 3e
       0.1298866 -0.05730444 -0.2533411 0.2828668
000380 49 bd bc 3d 79 d1 7b 3e 26 93 6d 3d b2 97 6a be
       0.09215791 0.24591626 0.05800166 -0.2290943
000390 37 ba 49 be 9b 8c 26 be 1f 97 9b 3d 53 9b bf 3d
       -0.19699942 -0.16264574 0.075971834 0.093557976
0003a0 c3 e1 b5 be 43 61 30 be d5 e6 27 bd b4 60 a5 3d
       -0.35523805 -0.17224602 -0.040991623 0.08075085
0003b0 91 d4 4e bc d4 80 7c bd 82 81 62 be 79 4c 0e be
       -0.012623922 -0.061646298 -0.22119716 -0.1389636
0003c0 d5 61 9a 3d 4c b3 ba 3d 67 1d 31 3e a5 a0 c4 be
       0.07538191 0.091162294 0.17296372 -0.38403812
0003d0 23 b3 58 3e 6e 25 45 be 60 de a2 bd 8b 8e 41 bd
       0.21162085 -0.1925256 -0.07952571 -0.04725508
0003e0 dd 3e ba bd 4a 3e 1c 3e c2 eb 87 be 8c 1d 29 3e
       -0.090940215 0.15258136 -0.26547056 0.16515177
0003f0 6f 23 ae 3e 43 8f 6d 3e 91 e9 7a 3e 14 b0 df 3c
       0.3401141 0.23199181 0.24503161 0.02730564

item_pop f4 [1154, 1]
000000 00 00 80 3f 1b e4 50 3f aa 91 59 3f c3 49 5d 3f
       1.0 0.8159806 0.8498789 0.86440676
000010 60 69 4e 3f 60 69 4e 3f 54 8d 4c 3f ac 27 40 3f
       0.8062954 0.8062954 0.7990315 0.75060534
000020 29 56 39 3f 1d 7a 37 3f 30 8f 2d 3f bf 3c 36 3f
       0.72397095 0.71670705 0.6779661 0.7118644
000030 f2 42 24 3f d9 8a 20 3f b9 99 28 3f ad bd 26 3f
       0.6416465 0.62711865 0.6585956 0.6513317
000040 e5 66 22 3f 6f 71 1d 3f e5 66 22 3f c7 0b 11 3f
       0.63438255 0.6150121 0.63438255 0.56658596
000050 31 25 14 3f e0 c3 14 3f 38 5e 08 3f 0c 91 0e 3f
       0.5786925 0.5811138 0.53268766 0.55690074
000060 5d f2 0d 3f c1 68 03 3f da 20 07 3f c1 68 03 3f
       0.5544794 0.51331717 0.527845 0.51331717
000070 06 ee 00 3f 64 76 f5 3e 7d e3 05 3f 13 ca 02 3f
       0.50363195 0.47941887 0.52300245 0.5108959
000080 06 ee 00 3f 57 4f 00 3f bc 10 e9 3e 4c be f1 3e
       0.50363195 0.50121063 0.4552058 0.47215497
000090 13 ca 02 3f 7d 2e f9 3e 13 ca 02 3f 8b a0 e1 3e
       0.5108959 0.4866828 0.5108959 0.44067797
0000a0 e8 dd e2 3e 38 a9 fb 3e 7d 2e f9 3e da 20 07 3f
       0.44309926 0.4915254 0.4866828 0.527845
0000b0 bc 10 e9 3e bc 10 e9 3e 14 ab dc 3e 46 1b e4 3e
       0.4552058 0.4552058 0.43099272 0.44552058
0000c0 2d 63 e0 3e a4 58 e5 3e 1a 4e ea 3e 78 8b eb 3e
       0.43825665 0.4479419 0.45762712 0.46004844
0000d0 40 78 d6 3e 46 1b e4 3e e8 dd e2 3e e8 dd e2 3e
       0.41888618 0.44552058 0.44309926 0.44309926
0000e0 d5 c8 ec 3e a4 58 e5 3e 40 78 d6 3e 59 30 da 3e
       0.46246973 0.4479419 0.41888618 0.4261501
0000f0 3b d5 c8 3e 72 e8 dd 3e 9e b5 d7 3e 14 ab dc 3e
       0.39225182 0.43341404 0.4213075 0.43099272
000100 98 12 ca 3e 54 8d cc 3e 59 30 da 3e e3 3a d5 3e
       0.3946731 0.39951575 0.4261501 0.4164649
000110 98 12 ca 3e dd 97 c7 3e ca 82 d1 3e 54 8d cc 3e
       0.3946731 0.3898305 0.40920097 0.39951575
000120 4e ea be 3e d0 25 df 3e 98 12 ca 3e 85 fd d3 3e
       0.37288135 0.43583536 0.3946731 0.41404358
000130 ac 27 c0 3e ca 82 d1 3e f6 4f cb 3e 0f 08 cf 3e
       0.37530267 0.40920097 0.39709443 0.40435836
000140 dd 97 c7 3e bf 3c b6 3e 7a b7 b8 3e dd 97 c7 3e
       0.3898305 0.3559322 0.36077482 0.3898305
000150 49 47 b1 3e 7a b7 b8 3e c4 df c3 3e 22 1d c5 3e
       0.346247 0.36077482 0.38256657 0.3849879
000160 d8 f4 b9 3e bf 3c b6 3e 93 6f bc 3e 4e ea be 3e
       0.36319613 0.3559322 0.36803874 0.37288135
000170 d2 51 ac 3e 04 c2 b3 3e d2 51 ac 3e eb 09 b0 3e
       0.33656174 0.3510896 0.33656174 0.34382567
000180 61 ff b4 3e 7a b7 b8 3e 17 d7 a9 3e 35 32 bb 3e
       0.3535109 0.36077482 0.33171913 0.36561742
000190 30 8f ad 3e 8d cc ae 3e bf 3c b6 3e eb 09 b0 3e
       0.33898306 0.34140435 0.3559322 0.34382567
0001a0 a6 84 b2 3e fe 1e a6 3e a1 e1 a4 3e eb 09 b0 3e
       0.34866828 0.3244552 0.3220339 0.34382567
0001b0 8d cc ae 3e a1 e1 a4 3e 75 14 ab 3e fe 1e a6 3e
       0.34140435 0.3220339 0.33414045 0.3244552
0001c0 1d 7a b7 3e 9b 3e 97 3e a1 e1 a4 3e 43 a4 a3 3e
       0.35835353 0.29539952 0.3220339 0.3196126
0001d0 a1 e1 a4 3e 5c 5c a7 3e fe 1e a6 3e 6f 71 9d 3e
       0.3220339 0.32687652 0.3244552 0.30750605
0001e0 e5 66 a2 3e a1 e1 a4 3e a1 e1 a4 3e d2 51 ac 3e
       0.31719127 0.3220339 0.3220339 0.33656174
0001f0 cd ae 9e 3e 9b 3e 97 3e e0 c3 94 3e 11 34 9c 3e
       0.30992737 0.29539952 0.2905569 0.30508474
000200 b4 f6 9a 3e 88 29 a1 3e e5 66 a2 3e 3d 01 96 3e
       0.30266345 0.31476998 0.31719127 0.2929782
000210 e5 66 a2 3e c7 0b 91 3e f3 d8 8a 3e 25 49 92 3e
       0.31719127 0.28329298 0.27118644 0.2857143
000220 c7 0b 91 3e 56 b9 99 3e e0 c3 94 3e 9b 3e 97 3e
       0.28329298 0.30024213 0.2905569 0.29539952
000230 ae 53 8d 3e c7 0b 91 3e 9b 3e 97 3e 7d e3 85 3e
       0.27602905 0.28329298 0.29539952 0.26150122
000240 95 9b 89 3e c7 0b 91 3e f3 d8 8a 3e 25 49 92 3e
       0.26876512 0.28329298 0.27118644 0.2857143
000250 51 16 8c 3e 38 5e 88 3e 51 61 7f 3e 0c 91 8e 3e
       0.27360776 0.26634383 0.24939467 0.27845037
000260 c7 0b 91 3e 88 29 a1 3e c7 0b 91 3e c7 0b 91 3e
       0.28329298 0.31476998 0.28329298 0.28329298
000270 ae 53 8d 3e c1 68 83 3e f3 d8 8a 3e f3 d8 8a 3e
       0.27602905 0.25665858 0.27118644 0.27118644
000280 9b 3e 97 3e e0 c3 94 3e 0c 91 8e 3e 38 5e 88 3e
       0.29539952 0.2905569 0.27845037 0.26634383
000290 25 49 92 3e f3 d8 8a 3e 64 2b 82 3e ae 53 8d 3e
       0.2857143 0.27118644 0.2542373 0.27602905
0002a0 51 61 7f 3e e0 c3 94 3e 69 ce 8f 3e 56 b9 99 3e
       0.24939467 0.2905569 0.28087166 0.30024213
0002b0 64 2b 82 3e 95 9b 89 3e c1 68 83 3e 9b 3e 97 3e
       0.2542373 0.26876512 0.25665858 0.29539952
0002c0 51 16 8c 3e 1f a6 84 3e 1f a6 84 3e 0c 91 8e 3e
       0.27360776 0.2590799 0.2590799 0.27845037
0002d0 96 e6 7c 3e 33 06 6e 3e 51 61 7f 3e db 6b 7a 3e
       0.24697337 0.23244552 0.24939467 0.24455206
0002e0 96 e6 7c 3e ae 53 8d 3e 38 5e 88 3e 78 8b 6b 3e
       0.24697337 0.27602905 0.26634383 0.23002422
0002f0 db 6b 7a 3e 96 e6 7c 3e 1f a6 84 3e f3 d8 8a 3e
       0.24455206 0.24697337 0.2590799 0.27118644
000300 95 9b 89 3e da 20 87 3e b1 ca 4d 3e 20 f1 77 3e
       0.26876512 0.2639225 0.20096852 0.24213076
000310 14 ab 5c 3e 64 2b 82 3e c1 68 83 3e f3 d8 8a 3e
       0.21549636 0.2542373 0.25665858 0.27118644
000320 db 6b 7a 3e d0 25 5f 3e 7d e3 85 3e 51 61 7f 3e
       0.24455206 0.21791768 0.26150122 0.24939467
000330 bc 10 69 3e bc 10 69 3e d0 25 5f 3e 9e b5 57 3e
       0.2276029 0.2276029 0.21791768 0.21065375
000340 59 30 5a 3e 01 96 66 3e 33 06 6e 3e d0 25 5f 3e
       0.21307506 0.2251816 0.23244552 0.21791768
000350 8b a0 61 3e bc 10 69 3e db 6b 7a 3e 01 96 66 3e
       0.22033899 0.2276029 0.24455206 0.2251816
000360 46 1b 64 3e 6c 45 50 3e 14 ab 5c 3e 6c 45 50 3e
       0.22276029 0.20338982 0.21549636 0.20338982
000370 01 96 66 3e 59 30 5a 3e 59 30 5a 3e 46 1b 64 3e
       0.2251816 0.21307506 0.21307506 0.22276029
000380 bc 10 69 3e bc 10 69 3e 3b d5 48 3e e3 3a 55 3e
       0.2276029 0.2276029 0.19612591 0.20823245
000390 3b d5 48 3e e3 3a 55 3e 8b a0 61 3e 09 65 41 3e
       0.19612591 0.20823245 0.22033899 0.18886198
0003a0 28 c0 52 3e 59 30 5a 3e 6c 45 50 3e 3b d5 48 3e
       0.20581114 0.21307506 0.20338982 0.19612591
0003b0 59 30 5a 3e 01 96 66 3e 6c 45 50 3e 14 ab 5c 3e
       0.21307506 0.2251816 0.20338982 0.21549636
0003c0 8b a0 61 3e 28 c0 52 3e 80 5a 46 3e e3 3a 55 3e
       0.22033899 0.20581114 0.1937046 0.20823245
0003d0 d8 f4 39 3e 46 1b 64 3e 09 65 41 3e c4 df 43 3e
       0.18159807 0.22276029 0.18886198 0.19128329
0003e0 14 ab 5c 3e 9e b5 57 3e 3b d5 48 3e 6c 45 50 3e
       0.21549636 0.21065375 0.19612591 0.20338982
0003f0 28 c0 52 3e 6c 45 50 3e 61 ff 34 3e 3b d5 48 3e
       0.20581114 0.20338982 0.17675544 0.19612591

item_pop_true f4 [1154, 1]
000000 00 00 80 3f 1b e4 50 3f aa 91 59 3f c3 49 5d 3f
       1.0 0.8159806 0.8498789 0.86440676
000010 60 69 4e 3f 60 69 4e 3f 54 8d 4c 3f ac 27 40 3f
       0.8062954 0.8062954 0.7990315 0.75060534
000020 29 56 39 3f 1d 7a 37 3f 30 8f 2d 3f bf 3c 36 3f
       0.72397095 0.71670705 0.6779661 0.7118644
000030 f2 42 24 3f d9 8a 20 3f b9 99 28 3f ad bd 26 3f
       0.6416465 0.62711865 0.6585956 0.6513317
000040 e5 66 22 3f 6f 71 1d 3f e5 66 22 3f c7 0b 11 3f
       0.63438255 0.6150121 0.63438255 0.56658596
000050 31 25 14 3f e0 c3 14 3f 38 5e 08 3f 0c 91 0e 3f
       0.5786925 0.5811138 0.53268766 0.55690074
000060 5d f2 0d 3f c1 68 03 3f da 20 07 3f c1 68 03 3f
       0.5544794 0.51331717 0.527845 0.51331717
000070 06 ee 00 3f 64 76 f5 3e 7d e3 05 3f 13 ca 02 3f
       0.50363195 0.47941887 0.52300245 0.5108959
000080 06 ee 00 3f 57 4f 00 3f bc 10 e9 3e 4c be f1 3e
       0.50363195 0.50121063 0.4552058 0.47215497
000090 13 ca 02 3f 7d 2e f9 3e 13 ca 02 3f 8b a0 e1 3e
       0.5108959 0.4866828 0.5108959 0.44067797
0000a0 e8 dd e2 3e 38 a9 fb 3e 7d 2e f9 3e da 20 07 3f
       0.44309926 0.4915254 0.4866828 0.527845
0000b0 bc 10 e9 3e bc 10 e9 3e 14 ab dc 3e 46 1b e4 3e
       0.4552058 0.4552058 0.43099272 0.44552058
0000c0 2d 63 e0 3e a4 58 e5 3e 1a 4e ea 3e 78 8b eb 3e
       0.43825665 0.4479419 0.45762712 0.46004844
0000d0 40 78 d6 3e 46 1b e4 3e e8 dd e2 3e e8 dd e2 3e
       0.41888618 0.44552058 0.44309926 0.44309926
0000e0 d5 c8 ec 3e a4 58 e5 3e 40 78 d6 3e 59 30 da 3e
       0.46246973 0.4479419 0.41888618 0.4261501
0000f0 3b d5 c8 3e 72 e8 dd 3e 9e b5 d7 3e 14 ab dc 3e
       0.39225182 0.43341404 0.4213075 0.43099272
000100 98 12 ca 3e 54 8d cc 3e 59 30 da 3e e3 3a d5 3e
       0.3946731 0.39951575 0.4261501 0.4164649
000110 98 12 ca 3e dd 97 c7 3e ca 82 d1 3e 54 8d cc 3e
       0.3946731 0.3898305 0.40920097 0.39951575
000120 4e ea be 3e d0 25 df 3e 98 12 ca 3e 85 fd d3 3e
       0.37288135 0.43583536 0.3946731 0.41404358
000130 ac 27 c0 3e ca 82 d1 3e f6 4f cb 3e 0f 08 cf 3e
       0.37530267 0.40920097 0.39709443 0.40435836
000140 dd 97 c7 3e bf 3c b6 3e 7a b7 b8 3e dd 97 c7 3e
       0.3898305 0.3559322 0.36077482 0.3898305
000150 49 47 b1 3e 7a b7 b8 3e c4 df c3 3e 22 1d c5 3e
       0.346247 0.36077482 0.38256657 0.3849879
000160 d8 f4 b9 3e bf 3c b6 3e 93 6f bc 3e 4e ea be 3e
       0.36319613 0.3559322 0.36803874 0.37288135
000170 d2 51 ac 3e 04 c2 b3 3e d2 51 ac 3e eb 09 b0 3e
       0.33656174 0.3510896 0.33656174 0.34382567
000180 61 ff b4 3e 7a b7 b8 3e 17 d7 a9 3e 35 32 bb 3e
       0.3535109 0.36077482 0.33171913 0.36561742
000190 30 8f ad 3e 8d cc ae 3e bf 3c b6 3e eb 09 b0 3e
       0.33898306 0.34140435 0.3559322 0.34382567
0001a0 a6 84 b2 3e fe 1e a6 3e a1 e1 a4 3e eb 09 b0 3e
       0.34866828 0.3244552 0.3220339 0.34382567
0001b0 8d cc ae 3e a1 e1 a4 3e 75 14 ab 3e fe 1e a6 3e
       0.34140435 0.3220339 0.33414045 0.3244552
0001c0 1d 7a b7 3e 9b 3e 97 3e a1 e1 a4 3e 43 a4 a3 3e
       0.35835353 0.29539952 0.3220339 0.3196126
0001d0 a1 e1 a4 3e 5c 5c a7 3e fe 1e a6 3e 6f 71 9d 3e
       0.3220339 0.32687652 0.3244552 0.30750605
0001e0 e5 66 a2 3e a1 e1 a4 3e a1 e1 a4 3e d2 51 ac 3e
       0.31719127 0.3220339 0.3220339 0.33656174
0001f0 cd ae 9e 3e 9b 3e 97 3e e0 c3 94 3e 11 34 9c 3e
       0.30992737 0.29539952 0.2905569 0.30508474
000200 b4 f6 9a 3e 88 29 a1 3e e5 66 a2 3e 3d 01 96 3e
       0.30266345 0.31476998 0.31719127 0.2929782
000210 e5 66 a2 3e c7 0b 91 3e f3 d8 8a 3e 25 49 92 3e
       0.31719127 0.28329298 0.27118644 0.2857143
000220 c7 0b 91 3e 56 b9 99 3e e0 c3 94 3e 9b 3e 97 3e
       0.28329298 0.30024213 0.2905569 0.29539952
000230 ae 53 8d 3e c7 0b 91 3e 9b 3e 97 3e 7d e3 85 3e
       0.27602905 0.28329298 0.29539952 0.26150122
000240 95 9b 89 3e c7 0b 91 3e f3 d8 8a 3e 25 49 92 3e
       0.26876512 0.28329298 0.27118644 0.2857143
000250 51 16 8c 3e 38 5e 88 3e 51 61 7f 3e 0c 91 8e 3e
       0.27360776 0.26634383 0.24939467 0.27845037
000260 c7 0b 91 3e 88 29 a1 3e c7 0b 91 3e c7 0b 91 3e
       0.28329298 0.31476998 0.28329298 0.28329298
000270 ae 53 8d 3e c1 68 83 3e f3 d8 8a 3e f3 d8 8a 3e
       0.27602905 0.25665858 0.27118644 0.27118644
000280 9b 3e 97 3e e0 c3 94 3e 0c 91 8e 3e 38 5e 88 3e
       0.29539952 0.2905569 0.27845037 0.26634383
000290 25 49 92 3e f3 d8 8a 3e 64 2b 82 3e ae 53 8d 3e
       0.2857143 0.27118644 0.2542373 0.27602905
0002a0 51 61 7f 3e e0 c3 94 3e 69 ce 8f 3e 56 b9 99 3e
       0.24939467 0.2905569 0.28087166 0.30024213
0002b0 64 2b 82 3e 95 9b 89 3e c1 68 83 3e 9b 3e 97 3e
       0.2542373 0.26876512 0.25665858 0.29539952
0002c0 51 16 8c 3e 1f a6 84 3e 1f a6 84 3e 0c 91 8e 3e
       0.27360776 0.2590799 0.2590799 0.27845037
0002d0 96 e6 7c 3e 33 06 6e 3e 51 61 7f 3e db 6b 7a 3e
       0.24697337 0.23244552 0.24939467 0.24455206
0002e0 96 e6 7c 3e ae 53 8d 3e 38 5e 88 3e 78 8b 6b 3e
       0.24697337 0.27602905 0.26634383 0.23002422
0002f0 db 6b 7a 3e 96 e6 7c 3e 1f a6 84 3e f3 d8 8a 3e
       0.24455206 0.24697337 0.2590799 0.27118644
000300 95 9b 89 3e da 20 87 3e b1 ca 4d 3e 20 f1 77 3e
       0.26876512 0.2639225 0.20096852 0.24213076
000310 14 ab 5c 3e 64 2b 82 3e c1 68 83 3e f3 d8 8a 3e
       0.21549636 0.2542373 0.25665858 0.27118644
000320 db 6b 7a 3e d0 25 5f 3e 7d e3 85 3e 51 61 7f 3e
       0.24455206 0.21791768 0.26150122 0.24939467
000330 bc 10 69 3e bc 10 69 3e d0 25 5f 3e 9e b5 57 3e
       0.2276029 0.2276029 0.21791768 0.21065375
000340 59 30 5a 3e 01 96 66 3e 33 06 6e 3e d0 25 5f 3e
       0.21307506 0.2251816 0.23244552 0.21791768
000350 8b a0 61 3e bc 10 69 3e db 6b 7a 3e 01 96 66 3e
       0.22033899 0.2276029 0.24455206 0.2251816
000360 46 1b 64 3e 6c 45 50 3e 14 ab 5c 3e 6c 45 50 3e
       0.22276029 0.20338982 0.21549636 0.20338982
000370 01 96 66 3e 59 30 5a 3e 59 30 5a 3e 46 1b 64 3e
       0.2251816 0.21307506 0.21307506 0.22276029
000380 bc 10 69 3e bc 10 69 3e 3b d5 48 3e e3 3a 55 3e
       0.2276029 0.2276029 0.19612591 0.20823245
000390 3b d5 48 3e e3 3a 55 3e 8b a0 61 3e 09 65 41 3e
       0.19612591 0.20823245 0.22033899 0.18886198
0003a0 28 c0 52 3e 59 30 5a 3e 6c 45 50 3e 3b d5 48 3e
       0.20581114 0.21307506 0.20338982 0.19612591
0003b0 59 30 5a 3e 01 96 66 3e 6c 45 50 3e 14 ab 5c 3e
       0.21307506 0.2251816 0.20338982 0.21549636
0003c0 8b a0 61 3e 28 c0 52 3e 80 5a 46 3e e3 3a 55 3e
       0.22033899 0.20581114 0.1937046 0.20823245
0003d0 d8 f4 39 3e 46 1b 64 3e 09 65 41 3e c4 df 43 3e
       0.18159807 0.22276029 0.18886198 0.19128329
0003e0 14 ab 5c 3e 9e b5 57 3e 3b d5 48 3e 6c 45 50 3e
       0.21549636 0.21065375 0.19612591 0.20338982
0003f0 28 c0 52 3e 6c 45 50 3e 61 ff 34 3e 3b d5 48 3e
       0.20581114 0.20338982 0.17675544 0.19612591

lr1.weight f4 [1, 63]
000000 b1 72 71 3d 37 0c 9f 3c d3 89 de 3d 09 fa 42 be
       0.05894727 0.019415004 0.10866132 -0.19040693
000010 b3 b4 17 3e 0a 84 02 3d 08 3d 0f 3e a2 22 1e bc
       0.14815025 0.031864204 0.13988125 -0.009651812
000020 53 31 bf ba 6e cf f3 bd e9 e4 7b bc 26 68 30 be
       -0.0014586843 -0.119047984 -0.015374401 -0.1722723
000030 db a5 52 bd 02 a1 09 bd c9 12 78 b9 f5 06 91 bb
       -0.051427703 -0.033600815 -0.00023658121 -0.004425878
000040 94 9c bd bd 06 8e ef bd d9 a5 03 3d 1c e9 e2 bc
       -0.092583805 -0.11697011 0.032140587 -0.027699046
000050 a7 fc 96 3c 0b 6e 3d bd 4b 87 74 bd 34 ec 10 3d
       0.01843102 -0.046247523 -0.059699338 0.03538151
000060 55 24 68 3c 2d b9 44 be 39 75 54 3d 66 45 6a 3e
       0.0141688185 -0.19211264 0.051869605 0.22878036
000070 cc 03 af bd 2e be c4 bd d2 18 9f 3d 3b 43 3e 3e
       -0.08545646 -0.096065864 0.07768406 0.18580334
000080 ca 36 4e bd 10 a8 3c bd b6 48 8c 3d 7c ae 00 3d
       -0.05034522 -0.046058714 0.06849806 0.0314164
000090 d1 64 99 3b 51 64 17 3e 2c 3b 99 bd e8 f1 96 bd
       0.0046812077 0.14784361 -0.07481989 -0.07370359
0000a0 34 ac 83 3d c6 69 81 3d 05 8b 91 3d 3a 13 92 bc
       0.064293295 0.06319003 0.07106594 -0.017831434
0000b0 b7 36 8a bc 57 90 e8 bd 8d 69 5e bd 4a 59 a4 be
       -0.016871793 -0.11355656 -0.05429988 -0.32099372
0000c0 89 00 82 3e 3c 32 ce bd ca 9b 02 be 4a 8a bd 3d
       0.25391033 -0.10068175 -0.12754741 0.09254892
0000d0 73 88 2a 3e 76 bc 2d 3e 54 02 a4 bc 44 54 56 3e
       0.16653614 0.16966423 -0.020020641 0.20930582
0000e0 92 35 01 3b 9e 9a 82 be 66 06 03 bc c7 89 1f be
       0.0019715768 -0.2550859 -0.007997131 -0.15579902
0000f0 55 bf 08 3d cc f1 15 be f6 56 db 3b
       0.033385593 -0.1464302 0.006693716
