pid/result/ml100k-PIDMF-debug2023-03-14-10-32-30/ckpt/epoch_18.pth (torch_old, 543278 bytes, 5 tensors)

users f4 [945, 64]
0	0x3f66cb76	0.90154207
1	0xbe5b2350	-0.2140019
2	0xbea2fda7	-0.31834146
3	0x3e661c04	0.22471625
4	0x3ccbf4f6	0.02489708
5	0xbe093109	-0.13397612
6	0x3ea1694d	0.3152565
7	0xbe80113e	-0.25013155
8	0xbeeba109	-0.46021298
9	0xbdc2de5e	-0.095150694
10	0x3ede1f5a	0.43383294
11	0xbe947356	-0.28994244
12	0xbea9114a	-0.33021003
13	0x3e3675f7	0.17818438
14	0x3efe9faa	0.4973119
15	0xbe17304d	-0.14764519
16	0x3f4878ec	0.7830951
17	0x3eb81ccc	0.3595947
18	0x3f26dce2	0.6518079
19	0x3eac16c4	0.3361112
20	0x3ef16615	0.47148195
21	0xbe51e8c1	-0.20498945
22	0xbf069a70	-0.525794
23	0xbe83c1ff	-0.25733945
24	0x3f09577b	0.5364911
25	0x3f063f2c	0.5244014
26	0x3cb1497b	0.021641484
27	0xbe3c1af3	-0.18369655
28	0xbf0bbe26	-0.5458702
29	0xbef3fbb6	-0.47652978
30	0xbec1006c	-0.37695634
31	0x3d39b6af	0.045340236
32	0xbecf6dbe	-0.40513414
33	0xbf0abaea	-0.5419146
34	0xbe879198	-0.26478267
35	0xbe9845aa	-0.2974065
36	0xbedb7d07	-0.42868826
37	0x3b5216a2	0.0032056947
38	0xbed547de	-0.41656393
39	0xbf1691b7	-0.58816093
40	0xbecc4a9a	-0.39900666
41	0x3e959913	0.2921835
42	0xbe7d892c	-0.24759358
43	0x3d76d854	0.0602649
44	0xbf2cabd5	-0.67449695
45	0xbf131be5	-0.5746444
46	0x3f194651	0.5987292
47	0xbd1b6c10	-0.037944853
48	0xbba1d1b1	-0.0049383272
49	0x3e2c3232	0.16816023
50	0xbf119e5c	-0.5688226
51	0xbef6d533	-0.48209533
52	0x3f07b3dd	0.53008825
53	0xbf3df8f8	-0.7420802
54	0xbd8659ec	-0.0656012
55	0x3f34fc64	0.7069762
56	0x3d91a681	0.07111836
57	0x3ecf427d	0.40480414
58	0x3d8a4045	0.0675054
59	0x3f2c72ea	0.67362845
60	0x3e62c8dd	0.22146936
61	0xbec98fb9	-0.39367464
62	0xbde4aa13	-0.111652516
63	0x3df027ff	0.11726379
64	0x3ef2a121	0.47388557
65	0xbe535073	-0.20636158
66	0x3e07cded	0.13262148
67	0xbf0e4e88	-0.5558858
68	0xbf36b144	-0.71364236
69	0xbe39e162	-0.18152383
70	0x3ef4a5c4	0.4778272
71	0x3ed443fc	0.41458118
72	0x3db1939a	0.08670731
73	0xbe5235bc	-0.2052831
74	0xbd1eee3c	-0.038801417
75	0xbf079008	-0.5295415
76	0xbdae8d0d	-0.08522997
77	0xbd0311de	-0.03199946
78	0x3e9290e5	0.2862617
79	0xbc8bfbfd	-0.01708793
80	0x3e78a690	0.24282289
81	0xbdac8436	-0.08423655
82	0x3e809947	0.2511694
83	0x3ede9c5d	0.4347867
84	0x3e186370	0.14881682
85	0xbe046cc4	-0.12932116
86	0x3f12fe0a	0.5741888
87	0xbe9ddeb2	-0.30833966
88	0x3e8109ba	0.25202733
89	0x3f83594d	1.0261627
90	0xbf3eff15	-0.74607974
91	0xbf450eba	-0.76975596
92	0xbf39028d	-0.7226952
93	0xbf2c3aaf	-0.67277044
94	0x3ea41626	0.32048148
95	0xbf44b3d3	-0.7683689
96	0x3f2a86e2	0.66612065
97	0x3df69c93	0.12041583
98	0x3e496869	0.19668736
99	0x3e9c742c	0.30557382
100	0xbe7cd6ff	-0.2469139
101	0xbd5790e5	-0.052628417
102	0xbf1cc849	-0.6124311
103	0xbf714703	-0.9424898
104	0x3e660c4a	0.22465625
105	0xbe3e7067	-0.18597566
106	0x3f1a1c7a	0.601997
107	0xbeaf83ed	-0.3428034
108	0x3f07514c	0.52858424
109	0xbf0cf874	-0.5506661
110	0xbeacb7ff	-0.33734128
111	0xbec78d13	-0.3897482
112	0x3e27fc49	0.16404833
113	0xbf4bd45d	-0.79620916
114	0x3dd7b0cd	0.10531769
115	0xbeecfccc	-0.4628662
116	0xbeae06d8	-0.33989596
117	0x3e0a6f8c	0.13519114
118	0xbece4a7a	-0.40291196
119	0xbeeec8e5	-0.46637645
120	0x3edcb3b3	0.4310585
121	0x3dd02870	0.10163963
122	0xbdde4672	-0.1085328
123	0x3ebb927e	0.36635202
124	0x3dba6323	0.0910094
125	0x3f310005	0.69140655
126	0xbe75369f	-0.23946618
127	0xbe56b222	-0.2096639
128	0xbed17b38	-0.4091432
129	0xbe178e55	-0.14800389
130	0xbeae6cd7	-0.34067413
131	0xbe61253d	-0.21986862
132	0xbdd61ff6	-0.10455315
133	0x3ef9cc92	0.48788887
134	0x3ef003ed	0.46877995
135	0x3ce746be	0.028231975
136	0x3ea566fb	0.3230513
137	0xbf2677ef	-0.65026754
138	0x3ec304cc	0.38089597
139	0xbd2f3710	-0.04277712
140	0xbeea06ad	-0.45708218
141	0x3ef2d018	0.47424388
142	0x3ec906af	0.39262912
143	0xbe86fe6e	-0.2636599
144	0xbf236a88	-0.6383443
145	0xbe203531	-0.15645291
146	0x3f24ff4e	0.64452064
147	0x3e7d217b	0.24719803
148	0xbeb56f72	-0.3543659
149	0x3e8eb414	0.27871764
150	0xbf152935	-0.58266
151	0x3e8939fc	0.2680205
152	0xbe60ae74	-0.21941549
153	0x3f28f26b	0.659949
154	0x3dbe83dd	0.09302495
155	0xbf2dce19	-0.67892605
156	0xbcb5028f	-0.022095947
157	0xbe56c290	-0.20972657
158	0xbe808af4	-0.25106013
159	0xbf172f58	-0.59056616
160	0xbf04766e	-0.5174321
161	0xbc21ebcd	-0.009882879
162	0xbf1c1c51	-0.6098071
163	0xbd552e3b	-0.052046042
164	0x3ef5e4f8	0.48026252
165	0x3df5887e	0.119889244
166	0xbe58443f	-0.21119784
167	0xbf276aa4	-0.65397096
168	0x3ea25a42	0.31709486
169	0x3e13cfd0	0.14434743
170	0xbe85459c	-0.2602967
171	0xbedf4dc6	-0.43614024
172	0xbf249335	-0.6428712
173	0x3e2fd081	0.17169382
174	0x3eda13a5	0.42593113
175	0xbf42bcd8	-0.760694
176	0x3e5dd334	0.21662599
177	0x3dced973	0.10100069
178	0xbd7040d6	-0.058655582
179	0x3db6093c	0.0888848
180	0xbf255fe8	-0.64599466
181	0xbcac119f	-0.021004496
182	0x3ebeff48	0.3730414
183	0xbeaae5ed	-0.33378544
184	0xbeac3af7	-0.33638737
185	0x3e84cc49	0.25937107
186	0x3e61bafa	0.22043982
187	0x3e27d8fa	0.16391364
188	0x3e2d6d25	0.16936167
189	0x3f213c4e	0.6298264
190	0xbea41bfb	-0.32052597
191	0x3e1283f1	0.14308144
192	0x3ed27021	0.41101173
193	0xbeab3a89	-0.33443096
194	0x3f0dc2a4	0.55375123
195	0xbdc48ba1	-0.095969446
196	0xbf1aa43b	-0.60406846
197	0x3de0154c	0.10941562
198	0x3f464238	0.7744479
199	0xbde4ebae	-0.11177765
200	0x3e352767	0.17690812
201	0x3d7aac60	0.061199546
202	0x3f3d424b	0.7392928
203	0xbf28f092	-0.6599208
204	0xbbc4878d	-0.005997604
205	0x3ea23e6d	0.31688252
206	0x3f197fac	0.59960437
207	0xbe2b5f4a	-0.16735569
208	0x3ebbb5ba	0.36662084
209	0xbd39b138	-0.045335025
210	0x3e96ffbc	0.29491985
211	0xbc9b7c3f	-0.018980144
212	0xbd9cf4af	-0.07663857
213	0xbede4b82	-0.43416983
214	0xbee64a32	-0.44978482
215	0xbdb94ab0	-0.09047449
216	0xbf0a2c8d	-0.5397423
217	0xbe511797	-0.20419155
218	0x3f42521c	0.7590654
219	0xbf0a2a48	-0.53970766
220	0x3e4b2013	0.19836454
221	0xbde5ec10	-0.11226666
222	0x3f1e83a1	0.619196
223	0x3eaf445b	0.3423184
224	0x3eec9d88	0.46213937
225	0xbf0cb600	-0.5496521
226	0xbe7bcdce	-0.24590227
227	0xbe7b6455	-0.24549992
228	0xbd89e242	-0.067326084
229	0xbef3831b	-0.47560963
230	0xbb2b0196	-0.0026093475
231	0x3e04d58d	0.12972088
232	0xbef6dbbe	-0.48214525
233	0x3ddba219	0.10724277
234	0x3da64bde	0.08119939
235	0x3d9754b1	0.073892005
236	0xbf206bc8	-0.6266446
237	0x3d50867b	0.0509095
238	0x3ed0f615	0.40812746
239	0x3d1451c8	0.036210805
240	0x3de655d0	0.11246836
241	0x3dbd0261	0.09228969
242	0xbde28cf4	-0.11062041
243	0xbef2a3f0	-0.473907
244	0x3f90d8c2	1.1316149
245	0xbf24a10c	-0.6430824
246	0x3e900017	0.2812507
247	0xbf263f4d	-0.6494034
248	0xbe02d198	-0.12775266
249	0x3ed3a9ad	0.4134039
250	0x3e4bd6e8	0.19906199
251	0x3ee3ed42	0.4451695
252	0xbdf92af9	-0.121663995
253	0x3e944847	0.28961393
254	0x3daa4893	0.08314624
255	0x3dc65cd8	0.09685677

items_id f4 [1154, 63]
0	0x3efc61a6	0.4929325
1	0x3f0033fb	0.50079316
2	0x3e15d550	0.14632154
3	0xbdec9b41	-0.1155305
4	0x3dc04061	0.09387279
5	0x3ec9e5ed	0.39433232
6	0x3ed0891c	0.40729606
7	0x3eee4043	0.46533403
8	0x3efd6058	0.49487567
9	0xbeb687a1	-0.35650352
10	0x3f065795	0.5247739
11	0xbdc6610e	-0.096864805
12	0xbe9c38bc	-0.30512035
13	0x3ed83b68	0.42232823
14	0x3ec51a66	0.38496703
15	0xbeb11c09	-0.34591702
16	0xbd92a22e	-0.071598396
17	0xbe7ce2c4	-0.24695879
18	0x3e8b7014	0.27233946
19	0x3f14aef2	0.58079445
20	0x3f01720d	0.5056465
21	0x3ea04ebe	0.31310076
22	0xbe94dbc5	-0.2907392
23	0x3e57dba5	0.21079881
24	0xbe5b955e	-0.21443698
25	0x3ce95b69	0.02848597
26	0x3e9105bc	0.28324687
27	0x3e5e9d0e	0.21739599
28	0xbe4c68a1	-0.19961788
29	0xbe992bcc	-0.29916227
30	0x3eb386f1	0.3506389
31	0x3e0482f1	0.12940575
32	0xbdf044d8	-0.11731881
33	0xbebff552	-0.37491852
34	0x3e52056f	0.20509885
35	0x3e5371c4	0.20648867
36	0x3f263482	0.6492387
37	0x3e90bb83	0.2826806
38	0xbe89be1a	-0.26902848
39	0xbe307826	-0.17233333
40	0xbe541149	-0.20709719
41	0x3e6f0c16	0.23344454
42	0x3e846cc9	0.25864246
43	0xbef8d800	-0.48602295
44	0xbef9fd98	-0.4882629
45	0xbe5b7244	-0.21430308
46	0x3ec912c6	0.39272135
47	0x3cd6a5ef	0.02620217
48	0x3dccccae	0.09999977
49	0xbe94e61f	-0.29081818
50	0xbe882654	-0.26591742
51	0x3d548c76	0.051891766
52	0x3e42a43d	0.19007964
53	0xbd116001	-0.035491947
54	0xbf1259ef	-0.5716848
55	0x3e542ca9	0.20720161
56	0xbefe3633	-0.49650726
57	0x39bc3934	0.00035900774
58	0xbe8c51c6	-0.27406138
59	0xbdf97010	-0.12179577
60	0x3e820447	0.25393888
61	0xbe14ea92	-0.14542606
62	0x3eb25b79	0.34835413
63	0x3e26dbed	0.16294833
64	0x3e7cb146	0.24677
65	0x3e174a4b	0.14774434
66	0xbd83fca3	-0.06444671
67	0x3ec21dd0	0.3791337
68	0x3da92ef2	0.08260907
69	0x3edf72c9	0.43642262
70	0x3d6df5a5	0.058095593
71	0x3d82d794	0.063887745
72	0xbd6b7b04	-0.057490364
73	0xbc01227c	-0.007881757
74	0xbce65b73	-0.028119778
75	0xbe582d1e	-0.21110961
76	0x3ca576a4	0.020198174
77	0xbb6e0ba6	-0.003632286
78	0xbe317454	-0.17329532
79	0xbe57aa41	-0.2106104
80	0xbe0cddff	-0.1375656
81	0x3e52c8d8	0.20584428
82	0x3ca453d6	0.020059507
83	0x3e77159c	0.24129337
84	0x3e6c4a71	0.23075272
85	0xbd80d383	-0.06290343
86	0x3e92b8b1	0.28656533
87	0xbe41f251	-0.18940093
88	0xbe479cee	-0.19493458
89	0x3d6cb014	0.05778511
90	0x3cad1be7	0.021131469
91	0x3bdca531	0.0067335595
92	0x3cb31273	0.021859383
93	0xba8bde90	-0.0010671187
94	0x3dca7cf4	0.09887114
95	0xbe2a637b	-0.16639511
96	0xbe73335b	-0.2375006
97	0x3e2feb22	0.1717954
98	0x3dcdd1d6	0.10049789
99	0x3e8fbd01	0.28073886
100	0x3e055c37	0.13023458
101	0xbd88d4d8	-0.06681222
102	0xbda158dd	-0.078782775
103	0xbdcf71a3	-0.10129096
104	0x3e63407a	0.22192565
105	0xbcba4eec	-0.022742711
106	0xbdb7e0d6	-0.08978431
107	0xbe55311d	-0.20819516
108	0xbd8c052f	-0.06836926
109	0xbaa05799	-0.0012233137
110	0xbe0061c8	-0.125373
111	0x3da57c93	0.08080401
112	0xbc8c7a01	-0.01714802
113	0xbd13dc27	-0.036098626
114	0x3d0b2ab3	0.033976268
115	0x3e4bea64	0.19913632
116	0x3e696ca4	0.2279535
117	0x3d551116	0.052018248
118	0x3e45316c	0.19257134
119	0xbe94ae80	-0.29039383
120	0xbe053a0b	-0.13010423
121	0x3ccd8c27	0.025091244
122	0xbdeb9ea1	-0.115048654
123	0xbccadfad	-0.02476486
124	0xbe656cf0	-0.22404838
125	0x3d1ce5a9	0.03830496
126	0x3e91614b	0.2839454
127	0x3ea0da4d	0.3141655
128	0x3e066c0e	0.13127157
129	0xbe1bf0a4	-0.15228516
130	0x3e90bfb4	0.28271258
131	0x3e69f67c	0.22847933
132	0x3e288685	0.16457565
133	0x3dba1717	0.09086435
134	0x3eac324c	0.33632123
135	0xbe84f745	-0.25969902
136	0x3ead8366	0.33889312
137	0xbe7c5a99	-0.24643935
138	0xbe75adba	-0.23992053
139	0x3dc4b629	0.09605057
140	0x3e0ccd38	0.1375016
141	0xbdae9969	-0.085253544
142	0xbe0e654c	-0.13905829
143	0xbb065530	-0.0020497553
144	0x3d265166	0.04060497
145	0x3e311b9a	0.17295685
146	0x3e876c10	0.26449633
147	0x3e171dd6	0.14757475
148	0xbe2ebf44	-0.1706515
149	0x3e3a834b	0.18214147
150	0xbd92d9af	-0.07170426
151	0xbd3e5d69	-0.0464758
152	0x3d0b307b	0.03398178
153	0x3e628629	0.2212149
154	0xbd8ee118	-0.06976527
155	0xbc2449dc	-0.010027375
156	0x3e659f15	0.22423966
157	0x3cb15cc2	0.021650676
158	0xbe745382	-0.2385998
159	0xbe981ce5	-0.29709545
160	0x3de3334f	0.11093771
161	0x3d6f8285	0.058474082
162	0x3e9e08bd	0.30866042
163	0x3d6e589b	0.05818997
164	0xbd980a49	-0.07423837
165	0xbe630519	-0.22169913
166	0xbdd844fe	-0.10560034
167	0x3d60481e	0.054756276
168	0x3e67a739	0.22622384
169	0xbe8d62a3	-0.27614316
170	0xbe5ed1a2	-0.21759656
171	0xbe505fd2	-0.20349053
172	0x3dc86808	0.097854674
173	0xbe09807e	-0.13427922
174	0x3da8e159	0.08246107
175	0xbe440c1a	-0.19145241
176	0xbe778ae8	-0.24174082
177	0x3d67c3d6	0.056583248
178	0x3e442c62	0.19157556
179	0x3e30fb55	0.17283376
180	0xbeae1d56	-0.34006757
181	0xbba1c1a6	-0.004936415
182	0xbe3aba26	-0.18235072
183	0xbd150785	-0.036384124
184	0xbda83275	-0.08212749
185	0xbe10e433	-0.14149551
186	0x3ced5ab2	0.028973911
187	0xbdf2f0fd	-0.11862371
188	0x3e80381e	0.25042814
189	0x3eb53e6c	0.35399187
190	0x3dd4e78a	0.10395725
191	0x3e0bcf8b	0.1365339
192	0xbe86328a	-0.26210433
193	0x3e463b5c	0.19358581
194	0x3d6eb14b	0.05827455
195	0x3e925e1b	0.28587422
196	0x3e8cdccc	0.27512205
197	0x3ea40b32	0.3203979
198	0xbe730ead	-0.23736067
199	0x3dc2f820	0.09519982
200	0xbe5e9510	-0.2173655
201	0xbdf0087c	-0.11720368
202	0x3e624369	0.22096027
203	0x3e07b699	0.13253249
204	0xbe8e3216	-0.27772588
205	0xbe2c910d	-0.16852207
206	0xbe1e686d	-0.15469523
207	0x3d863d58	0.06554669
208	0x3df7f185	0.12106613
209	0x3e9ec50f	0.3100972
210	0x3d9f9e88	0.07793909
211	0xbd690561	-0.056889895
212	0x3d28d41e	0.041217916
213	0xbd9383a0	-0.0720284
214	0xbe18f01d	-0.14935346
215	0x3e31ea4e	0.17374536
216	0x3e23a16b	0.15979545
217	0xbe53a238	-0.2066735
218	0xbded7f86	-0.11596589
219	0x3e8ff4c8	0.2811644
220	0x3de5f646	0.112286136
221	0xbd02fd9a	-0.031980135
222	0xbe5d31cd	-0.21601029
223	0x3e832224	0.25611985
224	0x3d876ca4	0.066125184
225	0x3e3aa9cf	0.1822884
226	0x3d089bd9	0.033351753
227	0xbe563d36	-0.20921788
228	0xbe34d139	-0.17657937
229	0xbdfdb72b	-0.12388452
230	0x3d6db0f1	0.058030073
231	0x3d9f37ad	0.07774291
232	0xbea7e004	-0.32788098
233	0xbddd743c	-0.108131856
234	0xbcfde646	-0.030993592
235	0x3d4e3dd5	0.050351936
236	0xbcf7809e	-0.030212697
237	0xbd3e676e	-0.046485357
238	0xbe5756a9	-0.21029152
239	0xbdfc65d1	-0.123241074
240	0x3da6d73e	0.08146523
241	0x3da025b4	0.07819691
242	0x3e34b1b1	0.17645909
243	0xbeb43677	-0.35197803
244	0x3e57ad3a	0.21062174
245	0xbe1489c6	-0.14505681
246	0xbda2419a	-0.07922669
247	0xbcbc22d1	-0.02296582
248	0xbd9c2108	-0.07623488
249	0x3e01b13e	0.12665269
250	0xbe6ae044	-0.22937113
251	0x3df96b92	0.121787205
252	0x3e98b050	0.29822016
253	0x3e394bdf	0.18095349
254	0x3e6e083d	0.2324533
255	0xbd6c025f	-0.05761945

item_pop f4 [1154, 1]
0	0x3f800000	1.0
1	0x3f50e41b	0.8159806
2	0x3f5991aa	0.8498789
3	0x3f5d49c3	0.86440676
4	0x3f4e6960	0.8062954
5	0x3f4e6960	0.8062954
6	0x3f4c8d54	0.7990315
7	0x3f4027ac	0.75060534
8	0x3f395629	0.72397095
9	0x3f377a1d	0.71670705
10	0x3f2d8f30	0.6779661
11	0x3f363cbf	0.7118644
12	0x3f2442f2	0.6416465
13	0x3f208ad9	0.62711865
14	0x3f2899b9	0.6585956
15	0x3f26bdad	0.6513317
16	0x3f2266e5	0.63438255
17	0x3f1d716f	0.6150121
18	0x3f2266e5	0.63438255
19	0x3f110bc7	0.56658596
20	0x3f142531	0.5786925
21	0x3f14c3e0	0.5811138
22	0x3f085e38	0.53268766
23	0x3f0e910c	0.55690074
24	0x3f0df25d	0.5544794
25	0x3f0368c1	0.51331717
26	0x3f0720da	0.527845
27	0x3f0368c1	0.51331717
28	0x3f00ee06	0.50363195
29	0x3ef57664	0.47941887
30	0x3f05e37d	0.52300245
31	0x3f02ca13	0.5108959
32	0x3f00ee06	0.50363195
33	0x3f004f57	0.50121063
34	0x3ee910bc	0.4552058
35	0x3ef1be4c	0.47215497
36	0x3f02ca13	0.5108959
37	0x3ef92e7d	0.4866828
38	0x3f02ca13	0.5108959
39	0x3ee1a08b	0.44067797
40	0x3ee2dde8	0.44309926
41	0x3efba938	0.4915254
42	0x3ef92e7d	0.4866828
43	0x3f0720da	0.527845
44	0x3ee910bc	0.4552058
45	0x3ee910bc	0.4552058
46	0x3edcab14	0.43099272
47	0x3ee41b46	0.44552058
48	0x3ee0632d	0.43825665
49	0x3ee558a4	0.4479419
50	0x3eea4e1a	0.45762712
51	0x3eeb8b78	0.46004844
52	0x3ed67840	0.41888618
53	0x3ee41b46	0.44552058
54	0x3ee2dde8	0.44309926
55	0x3ee2dde8	0.44309926
56	0x3eecc8d5	0.46246973
57	0x3ee558a4	0.4479419
58	0x3ed67840	0.41888618
59	0x3eda3059	0.4261501
60	0x3ec8d53b	0.39225182
61	0x3edde872	0.43341404
62	0x3ed7b59e	0.4213075
63	0x3edcab14	0.43099272
64	0x3eca1298	0.3946731
65	0x3ecc8d54	0.39951575
66	0x3eda3059	0.4261501
67	0x3ed53ae3	0.4164649
68	0x3eca1298	0.3946731
69	0x3ec797dd	0.3898305
70	0x3ed182ca	0.40920097
71	0x3ecc8d54	0.39951575
72	0x3ebeea4e	0.37288135
73	0x3edf25d0	0.43583536
74	0x3eca1298	0.3946731
75	0x3ed3fd85	0.41404358
76	0x3ec027ac	0.37530267
77	0x3ed182ca	0.40920097
78	0x3ecb4ff6	0.39709443
79	0x3ecf080f	0.40435836
80	0x3ec797dd	0.3898305
81	0x3eb63cbf	0.3559322
82	0x3eb8b77a	0.36077482
83	0x3ec797dd	0.3898305
84	0x3eb14749	0.346247
85	0x3eb8b77a	0.36077482
86	0x3ec3dfc4	0.38256657
87	0x3ec51d22	0.3849879
88	0x3eb9f4d8	0.36319613
89	0x3eb63cbf	0.3559322
90	0x3ebc6f93	0.36803874
91	0x3ebeea4e	0.37288135
92	0x3eac51d2	0.33656174
93	0x3eb3c204	0.3510896
94	0x3eac51d2	0.33656174
95	0x3eb009eb	0.34382567
96	0x3eb4ff61	0.3535109
97	0x3eb8b77a	0.36077482
98	0x3ea9d717	0.33171913
99	0x3ebb3235	0.36561742
100	0x3ead8f30	0.33898306
101	0x3eaecc8d	0.34140435
102	0x3eb63cbf	0.3559322
103	0x3eb009eb	0.34382567
104	0x3eb284a6	0.34866828
105	0x3ea61efe	0.3244552
106	0x3ea4e1a1	0.3220339
107	0x3eb009eb	0.34382567
108	0x3eaecc8d	0.34140435
109	0x3ea4e1a1	0.3220339
110	0x3eab1475	0.33414045
111	0x3ea61efe	0.3244552
112	0x3eb77a1d	0.35835353
113	0x3e973e9b	0.29539952
114	0x3ea4e1a1	0.3220339
115	0x3ea3a443	0.3196126
116	0x3ea4e1a1	0.3220339
117	0x3ea75c5c	0.32687652
118	0x3ea61efe	0.3244552
119	0x3e9d716f	0.30750605
120	0x3ea266e5	0.31719127
121	0x3ea4e1a1	0.3220339
122	0x3ea4e1a1	0.3220339
123	0x3eac51d2	0.33656174
124	0x3e9eaecd	0.30992737
125	0x3e973e9b	0.29539952
126	0x3e94c3e0	0.2905569
127	0x3e9c3411	0.30508474
128	0x3e9af6b4	0.30266345
129	0x3ea12988	0.31476998
130	0x3ea266e5	0.31719127
131	0x3e96013d	0.2929782
132	0x3ea266e5	0.31719127
133	0x3e910bc7	0.28329298
134	0x3e8ad8f3	0.27118644
135	0x3e924925	0.2857143
136	0x3e910bc7	0.28329298
137	0x3e99b956	0.30024213
138	0x3e94c3e0	0.2905569
139	0x3e973e9b	0.29539952
140	0x3e8d53ae	0.27602905
141	0x3e910bc7	0.28329298
142	0x3e973e9b	0.29539952
143	0x3e85e37d	0.26150122
144	0x3e899b95	0.26876512
145	0x3e910bc7	0.28329298
146	0x3e8ad8f3	0.27118644
147	0x3e924925	0.2857143
148	0x3e8c1651	0.27360776
149	0x3e885e38	0.26634383
150	0x3e7f6151	0.24939467
151	0x3e8e910c	0.27845037
152	0x3e910bc7	0.28329298
153	0x3ea12988	0.31476998
154	0x3e910bc7	0.28329298
155	0x3e910bc7	0.28329298
156	0x3e8d53ae	0.27602905
157	0x3e8368c1	0.25665858
158	0x3e8ad8f3	0.27118644
159	0x3e8ad8f3	0.27118644
160	0x3e973e9b	0.29539952
161	0x3e94c3e0	0.2905569
162	0x3e8e910c	0.27845037
163	0x3e885e38	0.26634383
164	0x3e924925	0.2857143
165	0x3e8ad8f3	0.27118644
166	0x3e822b64	0.2542373
167	0x3e8d53ae	0.27602905
168	0x3e7f6151	0.24939467
169	0x3e94c3e0	0.2905569
170	0x3e8fce69	0.28087166
171	0x3e99b956	0.30024213
172	0x3e822b64	0.2542373
173	0x3e899b95	0.26876512
174	0x3e8368c1	0.25665858
175	0x3e973e9b	0.29539952
176	0x3e8c1651	0.27360776
177	0x3e84a61f	0.2590799
178	0x3e84a61f	0.2590799
179	0x3e8e910c	0.27845037
180	0x3e7ce696	0.24697337
181	0x3e6e0633	0.23244552
182	0x3e7f6151	0.24939467
183	0x3e7a6bdb	0.24455206
184	0x3e7ce696	0.24697337
185	0x3e8d53ae	0.27602905
186	0x3e885e38	0.26634383
187	0x3e6b8b78	0.23002422
188	0x3e7a6bdb	0.24455206
189	0x3e7ce696	0.24697337
190	0x3e84a61f	0.2590799
191	0x3e8ad8f3	0.27118644
192	0x3e899b95	0.26876512
193	0x3e8720da	0.2639225
194	0x3e4dcab1	0.20096852
195	0x3e77f120	0.24213076
196	0x3e5cab14	0.21549636
197	0x3e822b64	0.2542373
198	0x3e8368c1	0.25665858
199	0x3e8ad8f3	0.27118644
200	0x3e7a6bdb	0.24455206
201	0x3e5f25d0	0.21791768
202	0x3e85e37d	0.26150122
203	0x3e7f6151	0.24939467
204	0x3e6910bc	0.2276029
205	0x3e6910bc	0.2276029
206	0x3e5f25d0	0.21791768
207	0x3e57b59e	0.21065375
208	0x3e5a3059	0.21307506
209	0x3e669601	0.2251816
210	0x3e6e0633	0.23244552
211	0x3e5f25d0	0.21791768
212	0x3e61a08b	0.22033899
213	0x3e6910bc	0.2276029
214	0x3e7a6bdb	0.24455206
215	0x3e669601	0.2251816
216	0x3e641b46	0.22276029
217	0x3e50456c	0.20338982
218	0x3e5cab14	0.21549636
219	0x3e50456c	0.20338982
220	0x3e669601	0.2251816
221	0x3e5a3059	0.21307506
222	0x3e5a3059	0.21307506
223	0x3e641b46	0.22276029
224	0x3e6910bc	0.2276029
225	0x3e6910bc	0.2276029
226	0x3e48d53b	0.19612591
227	0x3e553ae3	0.20823245
228	0x3e48d53b	0.19612591
229	0x3e553ae3	0.20823245
230	0x3e61a08b	0.22033899
231	0x3e416509	0.18886198
232	0x3e52c028	0.20581114
233	0x3e5a3059	0.21307506
234	0x3e50456c	0.20338982
235	0x3e48d53b	0.19612591
236	0x3e5a3059	0.21307506
237	0x3e669601	0.2251816
238	0x3e50456c	0.20338982
239	0x3e5cab14	0.21549636
240	0x3e61a08b	0.22033899
241	0x3e52c028	0.20581114
242	0x3e465a80	0.1937046
243	0x3e553ae3	0.20823245
244	0x3e39f4d8	0.18159807
245	0x3e641b46	0.22276029
246	0x3e416509	0.18886198
247	0x3e43dfc4	0.19128329
248	0x3e5cab14	0.21549636
249	0x3e57b59e	0.21065375
250	0x3e48d53b	0.19612591
251	0x3e50456c	0.20338982
252	0x3e52c028	0.20581114
253	0x3e50456c	0.20338982
254	0x3e34ff61	0.17675544
255	0x3e48d53b	0.19612591

item_pop_true f4 [1154, 1]
0	0x3f800000	1.0
1	0x3f50e41b	0.8159806
2	0x3f5991aa	0.8498789
3	0x3f5d49c3	0.86440676
4	0x3f4e6960	0.8062954
5	0x3f4e6960	0.8062954
6	0x3f4c8d54	0.7990315
7	0x3f4027ac	0.75060534
8	0x3f395629	0.72397095
9	0x3f377a1d	0.71670705
10	0x3f2d8f30	0.6779661
11	0x3f363cbf	0.7118644
12	0x3f2442f2	0.6416465
13	0x3f208ad9	0.62711865
14	0x3f2899b9	0.6585956
15	0x3f26bdad	0.6513317
16	0x3f2266e5	0.63438255
17	0x3f1d716f	0.6150121
18	0x3f2266e5	0.63438255
19	0x3f110bc7	0.56658596
20	0x3f142531	0.5786925
21	0x3f14c3e0	0.5811138
22	0x3f085e38	0.53268766
23	0x3f0e910c	0.55690074
24	0x3f0df25d	0.5544794
25	0x3f0368c1	0.51331717
26	0x3f0720da	0.527845
27	0x3f0368c1	0.51331717
28	0x3f00ee06	0.50363195
29	0x3ef57664	0.47941887
30	0x3f05e37d	0.52300245
31	0x3f02ca13	0.5108959
32	0x3f00ee06	0.50363195
33	0x3f004f57	0.50121063
34	0x3ee910bc	0.4552058
35	0x3ef1be4c	0.47215497
36	0x3f02ca13	0.5108959
37	0x3ef92e7d	0.4866828
38	0x3f02ca13	0.5108959
39	0x3ee1a08b	0.44067797
40	0x3ee2dde8	0.44309926
41	0x3efba938	0.4915254
42	0x3ef92e7d	0.4866828
43	0x3f0720da	0.527845
44	0x3ee910bc	0.4552058
45	0x3ee910bc	0.4552058
46	0x3edcab14	0.43099272
47	0x3ee41b46	0.44552058
48	0x3ee0632d	0.43825665
49	0x3ee558a4	0.4479419
50	0x3eea4e1a	0.45762712
51	0x3eeb8b78	0.46004844
52	0x3ed67840	0.41888618
53	0x3ee41b46	0.44552058
54	0x3ee2dde8	0.44309926
55	0x3ee2dde8	0.44309926
56	0x3eecc8d5	0.46246973
57	0x3ee558a4	0.4479419
58	0x3ed67840	0.41888618
59	0x3eda3059	0.4261501
60	0x3ec8d53b	0.39225182
61	0x3edde872	0.43341404
62	0x3ed7b59e	0.4213075
63	0x3edcab14	0.43099272
64	0x3eca1298	0.3946731
65	0x3ecc8d54	0.39951575
66	0x3eda3059	0.4261501
67	0x3ed53ae3	0.4164649
68	0x3eca1298	0.3946731
69	0x3ec797dd	0.3898305
70	0x3ed182ca	0.40920097
71	0x3ecc8d54	0.39951575
72	0x3ebeea4e	0.37288135
73	0x3edf25d0	0.43583536
74	0x3eca1298	0.3946731
75	0x3ed3fd85	0.41404358
76	0x3ec027ac	0.37530267
77	0x3ed182ca	0.40920097
78	0x3ecb4ff6	0.39709443
79	0x3ecf080f	0.40435836
80	0x3ec797dd	0.3898305
81	0x3eb63cbf	0.3559322
82	0x3eb8b77a	0.36077482
83	0x3ec797dd	0.3898305
84	0x3eb14749	0.346247
85	0x3eb8b77a	0.36077482
86	0x3ec3dfc4	0.38256657
87	0x3ec51d22	0.3849879
88	0x3eb9f4d8	0.36319613
89	0x3eb63cbf	0.3559322
90	0x3ebc6f93	0.36803874
91	0x3ebeea4e	0.37288135
92	0x3eac51d2	0.33656174
93	0x3eb3c204	0.3510896
94	0x3eac51d2	0.33656174
95	0x3eb009eb	0.34382567
96	0x3eb4ff61	0.3535109
97	0x3eb8b77a	0.36077482
98	0x3ea9d717	0.33171913
99	0x3ebb3235	0.36561742
100	0x3ead8f30	0.33898306
101	0x3eaecc8d	0.34140435
102	0x3eb63cbf	0.3559322
103	0x3eb009eb	0.34382567
104	0x3eb284a6	0.34866828
105	0x3ea61efe	0.3244552
106	0x3ea4e1a1	0.3220339
107	0x3eb009eb	0.34382567
108	0x3eaecc8d	0.34140435
109	0x3ea4e1a1	0.3220339
110	0x3eab1475	0.33414045
111	0x3ea61efe	0.3244552
112	0x3eb77a1d	0.35835353
113	0x3e973e9b	0.29539952
114	0x3ea4e1a1	0.3220339
115	0x3ea3a443	0.3196126
116	0x3ea4e1a1	0.3220339
117	0x3ea75c5c	0.32687652
118	0x3ea61efe	0.3244552
119	0x3e9d716f	0.30750605
120	0x3ea266e5	0.31719127
121	0x3ea4e1a1	0.3220339
122	0x3ea4e1a1	0.3220339
123	0x3eac51d2	0.33656174
124	0x3e9eaecd	0.30992737
125	0x3e973e9b	0.29539952
126	0x3e94c3e0	0.2905569
127	0x3e9c3411	0.30508474
128	0x3e9af6b4	0.30266345
129	0x3ea12988	0.31476998
130	0x3ea266e5	0.31719127
131	0x3e96013d	0.2929782
132	0x3ea266e5	0.31719127
133	0x3e910bc7	0.28329298
134	0x3e8ad8f3	0.27118644
135	0x3e924925	0.2857143
136	0x3e910bc7	0.28329298
137	0x3e99b956	0.30024213
138	0x3e94c3e0	0.2905569
139	0x3e973e9b	0.29539952
140	0x3e8d53ae	0.27602905
141	0x3e910bc7	0.28329298
142	0x3e973e9b	0.29539952
143	0x3e85e37d	0.26150122
144	0x3e899b95	0.26876512
145	0x3e910bc7	0.28329298
146	0x3e8ad8f3	0.27118644
147	0x3e924925	0.2857143
148	0x3e8c1651	0.27360776
149	0x3e885e38	0.26634383
150	0x3e7f6151	0.24939467
151	0x3e8e910c	0.27845037
152	0x3e910bc7	0.28329298
153	0x3ea12988	0.31476998
154	0x3e910bc7	0.28329298
155	0x3e910bc7	0.28329298
156	0x3e8d53ae	0.27602905
157	0x3e8368c1	0.25665858
158	0x3e8ad8f3	0.27118644
159	0x3e8ad8f3	0.27118644
160	0x3e973e9b	0.29539952
161	0x3e94c3e0	0.2905569
162	0x3e8e910c	0.27845037
163	0x3e885e38	0.26634383
164	0x3e924925	0.2857143
165	0x3e8ad8f3	0.27118644
166	0x3e822b64	0.2542373
167	0x3e8d53ae	0.27602905
168	0x3e7f6151	0.24939467
169	0x3e94c3e0	0.2905569
170	0x3e8fce69	0.28087166
171	0x3e99b956	0.30024213
172	0x3e822b64	0.2542373
173	0x3e899b95	0.26876512
174	0x3e8368c1	0.25665858
175	0x3e973e9b	0.29539952
176	0x3e8c1651	0.27360776
177	0x3e84a61f	0.2590799
178	0x3e84a61f	0.2590799
179	0x3e8e910c	0.27845037
180	0x3e7ce696	0.24697337
181	0x3e6e0633	0.23244552
182	0x3e7f6151	0.24939467
183	0x3e7a6bdb	0.24455206
184	0x3e7ce696	0.24697337
185	0x3e8d53ae	0.27602905
186	0x3e885e38	0.26634383
187	0x3e6b8b78	0.23002422
188	0x3e7a6bdb	0.24455206
189	0x3e7ce696	0.24697337
190	0x3e84a61f	0.2590799
191	0x3e8ad8f3	0.27118644
192	0x3e899b95	0.26876512
193	0x3e8720da	0.2639225
194	0x3e4dcab1	0.20096852
195	0x3e77f120	0.24213076
196	0x3e5cab14	0.21549636
197	0x3e822b64	0.2542373
198	0x3e8368c1	0.25665858
199	0x3e8ad8f3	0.27118644
200	0x3e7a6bdb	0.24455206
201	0x3e5f25d0	0.21791768
202	0x3e85e37d	0.26150122
203	0x3e7f6151	0.24939467
204	0x3e6910bc	0.2276029
205	0x3e6910bc	0.2276029
206	0x3e5f25d0	0.21791768
207	0x3e57b59e	0.21065375
208	0x3e5a3059	0.21307506
209	0x3e669601	0.2251816
210	0x3e6e0633	0.23244552
211	0x3e5f25d0	0.21791768
212	0x3e61a08b	0.22033899
213	0x3e6910bc	0.2276029
214	0x3e7a6bdb	0.24455206
215	0x3e669601	0.2251816
216	0x3e641b46	0.22276029
217	0x3e50456c	0.20338982
218	0x3e5cab14	0.21549636
219	0x3e50456c	0.20338982
220	0x3e669601	0.2251816
221	0x3e5a3059	0.21307506
222	0x3e5a3059	0.21307506
223	0x3e641b46	0.22276029
224	0x3e6910bc	0.2276029
225	0x3e6910bc	0.2276029
226	0x3e48d53b	0.19612591
227	0x3e553ae3	0.20823245
228	0x3e48d53b	0.19612591
229	0x3e553ae3	0.20823245
230	0x3e61a08b	0.22033899
231	0x3e416509	0.18886198
232	0x3e52c028	0.20581114
233	0x3e5a3059	0.21307506
234	0x3e50456c	0.20338982
235	0x3e48d53b	0.19612591
236	0x3e5a3059	0.21307506
237	0x3e669601	0.2251816
238	0x3e50456c	0.20338982
239	0x3e5cab14	0.21549636
240	0x3e61a08b	0.22033899
241	0x3e52c028	0.20581114
242	0x3e465a80	0.1937046
243	0x3e553ae3	0.20823245
244	0x3e39f4d8	0.18159807
245	0x3e641b46	0.22276029
246	0x3e416509	0.18886198
247	0x3e43dfc4	0.19128329
248	0x3e5cab14	0.21549636
249	0x3e57b59e	0.21065375
250	0x3e48d53b	0.19612591
251	0x3e50456c	0.20338982
252	0x3e52c028	0.20581114
253	0x3e50456c	0.20338982
254	0x3e34ff61	0.17675544
255	0x3e48d53b	0.19612591

lr1.weight f4 [1, 63]
0	0x3d6c13d7	0.05763611
1	0x3cc33879	0.02383064
2	0x3ddbbffe	0.10729979
3	0xbe518493	-0.2046073
4	0x3e29fd2f	0.16600488
5	0x3d177906	0.03698065
6	0x3e218f49	0.15777315
7	0xba2f3cef	-0.00066848
8	0x3c6d245c	0.014474001
9	0xbdfed266	-0.12442474
10	0xbc1ed3e8	-0.009694077
11	0xbe2798fe	-0.16366956
12	0xbd404c2e	-0.04694765
13	0xbcd394ad	-0.02582773
14	0x3b73ca23	0.003719934
15	0xbc9bedf3	-0.019034361
16	0xbdc9c6b8	-0.09852356
17	0xbdfadccf	-0.12249147
18	0x3cf0109d	0.029304797
19	0xbce55124	-0.027992792
20	0x3ccbaa16	0.024861377
21	0xbd4dd049	-0.050247464
22	0xbd8eeb89	-0.069785185
23	0x3d1da460	0.03848684
24	0x3b0a30c0	0.0021086186
25	0xbe4ef774	-0.20211583
26	0x3d76bc67	0.06023827
27	0x3e773a90	0.24143434
28	0xbd9f8ac6	-0.07790141
29	0xbdc77a13	-0.09740081
30	0x3d9a003b	0.07519575
31	0x3e5bf621	0.2148061
32	0xbd6a9d0b	-0.057278674
33	0xbd3ca71f	-0.046057817
34	0x3db8a93e	0.090166554
35	0x3d50d0e1	0.050980452
36	0x3baa8d27	0.005204815
37	0x3e165333	0.14680175
38	0xbda19989	-0.07890613
39	0xbd90d7fa	-0.07072444
40	0x3d7ed38d	0.06221347
41	0x3d800b27	0.06252127
42	0x3da05d2a	0.0783027
43	0xbc89c329	-0.016816692
44	0xbca40f59	-0.02002685
45	0xbe14bf6a	-0.14526144
46	0xbd52df54	-0.051482514
47	0xbea7bc65	-0.3276092
48	0x3e898643	0.26860246
49	0xbdede223	-0.11615398
50	0xbe0a66b2	-0.13515738
51	0x3ddb03f2	0.10694112
52	0x3e307d42	0.17235282
53	0x3e428745	0.18996914
54	0xbcba9694	-0.02277688
55	0x3e6673c7	0.22505103
56	0xbb8a2495	-0.0042157867
57	0xbe86a7a1	-0.26299766
58	0xbc53d8e7	-0.0129301315
59	0xbe2f333d	-0.1710939
60	0x3cd556c4	0.02604235
61	0xbe1e1370	-0.15437102
62	0x3c1df248	0.009640284
