pid/result/ml100k-PIDMF-debug2023-03-14-10-32-30/ckpt/epoch_34.pth (torch_old, 543278 bytes, 5 tensors)

users f4 [945, 64]
0	0x3fadd4dc	1.3580585
1	0xbe937689	-0.28801373
2	0xbf070485	-0.5274127
3	0x3e8f94d8	0.28043246
4	0x3daf0f06	0.08547787
5	0xbe41cdaf	-0.18926118
6	0x3ee21b64	0.44161522
7	0xbedac3fe	-0.42727655
8	0xbf182797	-0.5943541
9	0xbdef1789	-0.11674411
10	0x3f19ae0e	0.6003121
11	0xbeba4d51	-0.36387113
12	0xbeeba48a	-0.4602397
13	0x3e6c366a	0.23067632
14	0x3f2d381a	0.6766373
15	0xbe3abce6	-0.18236122
16	0x3f900473	1.1251358
17	0x3ef540d1	0.47901013
18	0x3f52174c	0.820668
19	0x3ed8744e	0.42276233
20	0x3f26a825	0.6510032
21	0xbe941584	-0.28922665
22	0xbf4dfaf4	-0.8046105
23	0xbeaad08e	-0.3336224
24	0x3f4a540c	0.79034495
25	0x3f4d207e	0.80127704
26	0xbbb58ecc	-0.0055407044
27	0xbe5e8b80	-0.21732903
28	0xbf33e5d4	-0.70272565
29	0xbf220e6c	-0.63303256
30	0xbf04b547	-0.5183911
31	0x3df4c2b8	0.11951202
32	0xbf20cd7f	-0.6281356
33	0xbf2b4576	-0.66902864
34	0xbeffea79	-0.49983576
35	0xbf0f6c38	-0.56024504
36	0xbf3b5987	-0.7318348
37	0x3cc41495	0.023935596
38	0xbf0e1204	-0.5549624
39	0xbf6df3cf	-0.9295015
40	0xbedcbf5a	-0.4311474
41	0x3f00171b	0.50035256
42	0xbedebea8	-0.43504834
43	0x3d8eaa88	0.0696612
44	0xbf868401	-1.0509034
45	0xbf36cc42	-0.7140542
46	0x3f3b6f87	0.7321705
47	0xbe0a3248	-0.13495743
48	0x3e17d7dd	0.14828439
49	0x3e510a2a	0.20414034
50	0xbf592e1f	-0.84836
51	0xbf2c0a87	-0.67203563
52	0x3f500eb9	0.81272465
53	0xbf744960	-0.9542446
54	0xbd42c9e1	-0.047555808
55	0x3f62c666	0.8858398
56	0x3e31dddb	0.17369787
57	0x3ef54fdd	0.47912493
58	0x3e506d48	0.20354187
59	0x3f800994	1.0002923
60	0x3e9fbbff	0.31198117
61	0xbef9b879	-0.48773554
62	0xbe466e4c	-0.19378012
63	0x3e20302f	0.1564338
64	0x3f0c0b6a	0.54704916
65	0xbe903aa1	-0.2816973
66	0x3e151a0f	0.14560722
67	0xbf357106	-0.70875585
68	0xbf4a6401	-0.79058844
69	0xbeabe0ee	-0.33570045
70	0x3f528c2c	0.82245135
71	0x3f39a2ca	0.7251402
72	0x3dc5c2ec	0.09656319
73	0xbe174dd9	-0.1477579
74	0xbd482d65	-0.048871417
75	0xbf53a2ab	-0.82670087
76	0xbda8126d	-0.082066394
77	0x3aa7c3a4	0.0012799394
78	0x3eb0ff07	0.3456957
79	0xbe13eabb	-0.14445011
80	0x3e41e196	0.1893371
81	0x3d5e226a	0.05423204
82	0x3e91acac	0.2845205
83	0x3efa764d	0.4891838
84	0x3e540a32	0.20707014
85	0xbd6a7c4c	-0.057247445
86	0x3f3ea65e	0.74472606
87	0xbeaec779	-0.3413656
88	0x3ea7606b	0.3269075
89	0x3f9bba99	1.216632
90	0xbf614224	-0.8799155
91	0xbf7f6339	-0.99760777
92	0xbf768879	-0.9630199
93	0xbf7fc2b3	-0.9990646
94	0x3eaca375	0.33718458
95	0xbf773d48	-0.9657788
96	0x3f444972	0.7667457
97	0x3d91555c	0.07096359
98	0x3ec938b4	0.39301074
99	0x3ef7e99d	0.4842042
100	0xbeb6cc26	-0.35702628
101	0x3e1e849f	0.15480278
102	0xbf4b5fa2	-0.794428
103	0xbfa792aa	-1.3091633
104	0x3e5da678	0.21645534
105	0xbe7d197c	-0.24716753
106	0x3f3523db	0.70757836
107	0xbea187d6	-0.31548947
108	0x3f3a8985	0.7286609
109	0xbf2b8cc1	-0.6701165
110	0xbeca8ee3	-0.3956214
111	0xbf1e2529	-0.6177545
112	0x3e5f00d1	0.21777655
113	0xbf828737	-1.0197514
114	0x3e799bd3	0.24375848
115	0xbf45a14b	-0.7719924
116	0xbf090d2d	-0.5353573
117	0x3e8d73b8	0.2762735
118	0xbed9295b	-0.42414364
119	0xbf44f0a8	-0.7692971
120	0x3f00b69a	0.5027863
121	0x3e47ad0b	0.19499604
122	0xbd5e7757	-0.05431303
123	0x3ef28ce4	0.47373116
124	0x3da492f2	0.0803584
125	0x3f561fd0	0.8364229
126	0xbed3c70b	-0.41362795
127	0xbe45acb6	-0.19304165
128	0xbf23d868	-0.64002085
129	0xbeb17342	-0.34658247
130	0xbee979bb	-0.45600685
131	0xbe96f904	-0.2948686
132	0xbe0bcd51	-0.1365254
133	0x3f2dd746	0.67906606
134	0x3f014118	0.5048995
135	0x3cf594d4	0.029978193
136	0x3eb876bd	0.3602809
137	0xbf726798	-0.9468932
138	0x3ee13df8	0.4399259
139	0x3d1104a3	0.035404813
140	0xbf19eea2	-0.6012975
141	0x3f0d5597	0.55208725
142	0x3ee30c23	0.44345197
143	0xbebdede7	-0.37095568
144	0xbf6b8f1a	-0.9201523
145	0xbe0a0b69	-0.13480915
146	0x3f8a48de	1.0803487
147	0x3ec98537	0.39359447
148	0xbef622ed	-0.4807352
149	0x3ef49d17	0.477761
150	0xbf46260f	-0.7740182
151	0x3e0dcd98	0.13847959
152	0xbe79197b	-0.24326126
153	0x3f832492	1.0245535
154	0xbd7f88e5	-0.062386412
155	0xbf61385c	-0.8797662
156	0xbe3e0d0e	-0.18559667
157	0xbe96bbff	-0.29440305
158	0xbeb974c6	-0.36221904
159	0xbf522c97	-0.8209929
160	0xbf53f97c	-0.8280256
161	0xbd256b7d	-0.040385712
162	0xbf78eded	-0.97238046
163	0xbe0cce5d	-0.13750596
164	0x3f51b15d	0.8191126
165	0x3e0ff0a0	0.14056635
166	0xbe933daa	-0.28757983
167	0xbf631b16	-0.88713205
168	0x3f0f7f75	0.5605386
169	0x3dcb866e	0.0993775
170	0xbeec5dbd	-0.46165267
171	0xbf1db16f	-0.6159887
172	0xbf554414	-0.83307004
173	0x3dffb639	0.12485928
174	0x3f08485d	0.5323542
175	0xbf9001d3	-1.1250557
176	0x3e6800e6	0.22656593
177	0x3e64cb96	0.22343287
178	0xbe627a4d	-0.22116967
179	0x3e485941	0.19565298
180	0xbf84ff8f	-1.039049
181	0xbdb36488	-0.08759409
182	0x3ee24ee8	0.44200826
183	0xbeb562ee	-0.3542704
184	0xbeca6cb8	-0.3953607
185	0x3e6e215f	0.23254918
186	0x3e956c76	0.29184312
187	0xbd9f6655	-0.0778319
188	0x3e005046	0.12530622
189	0x3f39876c	0.7247226
190	0xbee047cd	-0.4380478
191	0x3ddd6a12	0.10811247
192	0x3f17968b	0.59214085
193	0xbefc2216	-0.49244756
194	0x3f505bbc	0.81389976
195	0xbe201a64	-0.15635067
196	0xbf5bc338	-0.85844755
197	0x3c3771b5	0.011196543
198	0x3f8d50b1	1.104025
199	0xbe810184	-0.2519647
200	0x3e3a6602	0.18202975
201	0x3e613859	0.21994151
202	0x3f6cd9b7	0.92519706
203	0xbf7348ed	-0.9503315
204	0x3d322d73	0.043500375
205	0x3e887920	0.2665491
206	0x3f2bdf7a	0.67137873
207	0xbe8a8e61	-0.2706175
208	0x3f0528aa	0.52015173
209	0x3db583a6	0.088630006
210	0x3ef6e482	0.48221213
211	0xbe22d180	-0.1590023
212	0xbe05e0e9	-0.13074078
213	0xbefba3fc	-0.49148548
214	0xbf069769	-0.52574784
215	0xbeb29a57	-0.34883377
216	0xbf3a5fb8	-0.72802305
217	0xbeae6b86	-0.3406641
218	0x3f73b98f	0.95205015
219	0xbf2cef9b	-0.6755311
220	0x3e6a3e4f	0.22875331
221	0xbe42e1a3	-0.19031386
222	0x3f68a5cf	0.90878004
223	0x3f0a175b	0.5394189
224	0x3f54d541	0.831379
225	0xbf563490	-0.83673954
226	0xbe8f17c7	-0.27947828
227	0xbec98016	-0.39355534
228	0xbdf765ad	-0.1207994
229	0xbf4530f5	-0.7702783
230	0x3cb58020	0.022155821
231	0x3e9fefac	0.31237543
232	0xbf0b5523	-0.54426783
233	0x3dca37d9	0.09873933
234	0x3ddd86ef	0.10816752
235	0x3e2bcd65	0.1677757
236	0xbf526262	-0.8218137
237	0x3c193de9	0.009353139
238	0x3ee7eebd	0.4529933
239	0xbbd9357f	-0.0066286917
240	0x3e8ffa9a	0.2812088
241	0x3e7e269c	0.24819416
242	0xbdf878b7	-0.121323995
243	0xbf2042d9	-0.62602
244	0x3fceb8cb	1.6150144
245	0xbf817a92	-1.011553
246	0x3ed4cfa5	0.4156467
247	0xbf50306b	-0.8132388
248	0xbe4ed76b	-0.20199363
249	0x3efea0bb	0.49732003
250	0x3e677b65	0.22605665
251	0x3f09bcec	0.53803897
252	0xbe52f50f	-0.20601295
253	0x3e8f4e70	0.2798953
254	0x3e3b6003	0.18298344
255	0x3dd1c25e	0.10242151

items_id f4 [1154, 63]
0	0x3f1453f2	0.5794059
1	0x3f0e8c4c	0.55682826
2	0x3e3c1a73	0.18369465
3	0xbde03afc	-0.109487504
4	0x3e0b8183	0.13623624
5	0x3ede24d6	0.4338748
6	0x3f085379	0.5325237
7	0x3f0e803c	0.5566442
8	0x3f104347	0.5635266
9	0xbecccfd8	-0.40002322
10	0x3f1ee6af	0.62070745
11	0xbde81bf2	-0.11333455
12	0xbebae1a8	-0.36500287
13	0x3f003104	0.5007479
14	0x3ee41275	0.44545332
15	0xbed2b2ab	-0.41151938
16	0xbe1e7732	-0.15475157
17	0xbe8efe9e	-0.27928632
18	0x3ea2553c	0.31705654
19	0x3f2c1039	0.67212254
20	0x3f22a568	0.6353364
21	0x3ed67839	0.41888598
22	0xbea8b38c	-0.32949483
23	0x3e8fa8bb	0.2805842
24	0xbe838421	-0.25686744
25	0x3d028bf7	0.031871762
26	0x3ea2ca4c	0.31794965
27	0x3e6fe648	0.23427689
28	0xbe6a0ad1	-0.22855689
29	0xbeac1743	-0.33611497
30	0x3ed4e1c6	0.415785
31	0x3e0d8adc	0.13822502
32	0xbe21a94f	-0.15787242
33	0xbee83e98	-0.45360255
34	0x3e82d469	0.2555268
35	0x3e7abbe8	0.24485743
36	0x3f3dce8f	0.7414331
37	0x3ea85b9c	0.32882392
38	0xbe9a6ee5	-0.3016273
39	0xbe5e04cc	-0.21681517
40	0xbe8d5231	-0.2760177
41	0x3e85c29a	0.26125032
42	0x3e921fe3	0.28539953
43	0xbf0e193b	-0.5550725
44	0xbf16392b	-0.5868098
45	0xbe70848f	-0.23488067
46	0x3eeacbfd	0.45858756
47	0x3d76b453	0.060230564
48	0x3dca2c29	0.09871704
49	0xbea44bd8	-0.32089114
50	0xbe9589a9	-0.2920659
51	0x3d30082e	0.04297655
52	0x3e55e2dc	0.20887321
53	0xbc96f7d3	-0.018428719
54	0xbf27098e	-0.65248954
55	0x3e55e857	0.20889412
56	0xbf12307d	-0.5710524
57	0x3ca42d21	0.02004105
58	0xbea365d1	-0.31913617
59	0xbe08623e	-0.13318726
60	0x3e9b6d6e	0.30356926
61	0xbe2bc6e2	-0.16775087
62	0x3ee6ba93	0.4506422
63	0x3e30f775	0.17281897
64	0x3e94649d	0.28983012
65	0x3e0cde85	0.1375676
66	0xbb2e5cba	-0.0026605562
67	0x3f08e4a5	0.53473884
68	0x3d97e5e4	0.07416895
69	0x3f1af702	0.60533154
70	0x3db739e1	0.089465864
71	0x3d202433	0.039097022
72	0xbd5dda91	-0.05416352
73	0xba82f108	-0.0009990046
74	0xbd06da14	-0.03292282
75	0xbe74f2d9	-0.23920764
76	0x3d58717f	0.052842613
77	0x3c59621f	0.013268023
78	0xbe640def	-0.2227094
79	0xbe98e8a5	-0.29864994
80	0xbdfdf41a	-0.12400074
81	0x3e75f2fc	0.24018472
82	0x3c627cfa	0.013823742
83	0x3e896a0a	0.26838714
84	0x3e920519	0.28519514
85	0xbdafd1a0	-0.08584905
86	0x3eada62d	0.33915845
87	0xbe46d701	-0.19417955
88	0xbe4748ba	-0.19461337
89	0x3d72e1f6	0.059297524
90	0x3d1945e6	0.037420176
91	0x3c951443	0.018198138
92	0x3c191409	0.009343156
93	0xbd0ab36e	-0.033862524
94	0x3dbb87bc	0.09156749
95	0xbe3fae0b	-0.18718736
96	0xbe891916	-0.26776952
97	0x3e651666	0.22371826
98	0x3dec73ee	0.11545549
99	0x3ea2f966	0.318309
100	0x3e0bef23	0.13665442
101	0xbdb5226f	-0.08844458
102	0xbdb6a316	-0.08917825
103	0xbe16c2ec	-0.14722794
104	0x3e6e828a	0.23291984
105	0xbccc3eb6	-0.024932247
106	0xbd7ee302	-0.06222821
107	0xbe608368	-0.21925128
108	0xbd8867de	-0.06660436
109	0x3c8c98b3	0.017162656
110	0xbdee4f4d	-0.11636219
111	0x3dbe2475	0.092842974
112	0x39f54a57	0.0004678543
113	0xbd0764d1	-0.03305513
114	0x3d2b1dc7	0.041776445
115	0x3e47732c	0.19477528
116	0x3e61f128	0.2206465
117	0x3da4a0be	0.08038472
118	0x3e523fd6	0.20532164
119	0xbeba7cad	-0.36423245
120	0xbdeb91d6	-0.115024254
121	0x3c2294d2	0.009923177
122	0xbe072957	-0.13199364
123	0xbb8ce93a	-0.0043002637
124	0xbe8d134c	-0.27553785
125	0x3d987081	0.074433334
126	0x3ea74eb8	0.32677245
127	0x3eba63d8	0.364043
128	0x3e19822d	0.14991064
129	0xbdd75c92	-0.10515703
130	0x3eaae2a5	0.3337604
131	0x3e844ed1	0.25841382
132	0x3df329fd	0.11873243
133	0x3e1ebe8a	0.15502372
134	0x3ebdca99	0.37068632
135	0xbe90479d	-0.28179637
136	0x3ec7163e	0.38884157
137	0xbe84312a	-0.2581876
138	0xbe8db22a	-0.2767499
139	0x3e12c38c	0.14332408
140	0x3e26dade	0.16294429
141	0xbe11a63f	-0.14223574
142	0xbe733755	-0.23751576
143	0x3ad895ca	0.0016524133
144	0x3da134a7	0.07871371
145	0x3e65e744	0.22451502
146	0x3eab57c5	0.334654
147	0x3e9d8a0d	0.30769387
148	0xbe4637b0	-0.1935718
149	0x3e6eaa4d	0.23307152
150	0xbdc57135	-0.09640733
151	0xbd6ecd70	-0.05830139
152	0x3d832ea2	0.06405379
153	0x3e6e8557	0.23293053
154	0xbdca4204	-0.09875873
155	0xbd0a20b9	-0.033722613
156	0x3e7c2f03	0.24627309
157	0x3d1b06db	0.037848335
158	0xbe8b2e35	-0.2718369
159	0xbeb42c3e	-0.35190004
160	0x3e07fffe	0.13281247
161	0x3d9b8ae0	0.07594848
162	0x3ecd6439	0.40115526
163	0x3dd0e46e	0.101998195
164	0xbdd73456	-0.10508029
165	0xbe806b1a	-0.25081712
166	0xbe2b796d	-0.16745539
167	0x3dc77a50	0.09740126
168	0x3e7db862	0.24777368
169	0xbea9fbf3	-0.33200034
170	0xbe7f04be	-0.24904153
171	0xbe57eae0	-0.21085691
172	0x3e264f07	0.16241084
173	0xbe042c7c	-0.12907594
174	0x3da26210	0.0792886
175	0xbe42e55f	-0.1903281
176	0xbe838362	-0.25686175
177	0x3da79106	0.08181958
178	0x3e4d83d9	0.20069827
179	0x3e3780fd	0.17920299
180	0xbec5c8b2	-0.3862968
181	0x3b1f68a5	0.0024323848
182	0xbe8780ca	-0.26465446
183	0xbd4e6c01	-0.05039597
184	0xbdde4a46	-0.1085401
185	0xbe20a193	-0.15686636
186	0x3d8289b6	0.063739225
187	0xbe1f79c1	-0.15573789
188	0x3e92148b	0.28531298
189	0x3ecefc19	0.4042671
190	0x3e1602fc	0.14649576
191	0x3e2acad2	0.16678932
192	0xbe71bc13	-0.23606901
193	0x3e5dadd4	0.21648341
194	0x3dbd6a84	0.09248832
195	0x3eb35518	0.3502586
196	0x3ea1b449	0.3158286
197	0x3ebf0d22	0.37314707
198	0xbe84b611	-0.25920156
199	0x3e219bc2	0.15782073
200	0xbe6fddb4	-0.23424417
201	0xbe111f6c	-0.14172143
202	0x3e848d19	0.258889
203	0x3e340b19	0.17582358
204	0xbebac3bc	-0.36477458
205	0xbe5bd89a	-0.21469346
206	0xbe2317c6	-0.15927038
207	0x3dbf1dd0	0.09331858
208	0x3e2e7436	0.17036518
209	0x3ec0df02	0.3767014
210	0x3e04c59b	0.12966006
211	0xbdb3e346	-0.08783583
212	0x3d9ac1c6	0.075564906
213	0xbdb1971d	-0.08671401
214	0xbe1db035	-0.15399249
215	0x3e5308a8	0.20608771
216	0x3e2a7d2c	0.16649312
217	0xbe5b80e7	-0.21435891
218	0xbe0ad0af	-0.13556169
219	0x3e9ffcc7	0.3124754
220	0x3e08ef65	0.13372572
221	0xbd7e899e	-0.06214296
222	0xbe86575b	-0.26238522
223	0x3e944d4d	0.28965226
224	0x3dcafa71	0.09911049
225	0x3e86a823	0.26300153
226	0x3d824cf9	0.063623376
227	0xbe71af62	-0.2360206
228	0xbe4e2126	-0.20129833
229	0xbe316433	-0.17323379
230	0x3da17a04	0.07884601
231	0x3dc688b2	0.09694041
232	0xbeb8bec3	-0.3608304
233	0xbe3e6dec	-0.1859662
234	0xbd34a9da	-0.044107296
235	0x3db4a489	0.08820445
236	0xbbdcbcee	-0.0067363894
237	0xbd84c017	-0.06481951
238	0xbe65e3c4	-0.22450167
239	0xbe11d16b	-0.14240043
240	0x3d96ad44	0.073572665
241	0x3dc19884	0.09452918
242	0x3e301101	0.17193986
243	0xbeca4cc2	-0.39511687
244	0x3e5a3d6e	0.21312496
245	0xbe4b08aa	-0.19827524
246	0xbda279d0	-0.0793339
247	0xbd572e67	-0.052534487
248	0xbdc2baab	-0.0950826
249	0x3e22b625	0.15889795
250	0xbe8d1885	-0.2755777
251	0x3e33e72d	0.17568655
252	0x3eb4e397	0.35329887
253	0x3e76a7d6	0.24087462
254	0x3e7dccb4	0.2478512
255	0x3d28fb65	0.041255374

item_pop f4 [1154, 1]
0	0x3f800000	1.0
1	0x3f50e41b	0.8159806
2	0x3f5991aa	0.8498789
3	0x3f5d49c3	0.86440676
4	0x3f4e6960	0.8062954
5	0x3f4e6960	0.8062954
6	0x3f4c8d54	0.7990315
7	0x3f4027ac	0.75060534
8	0x3f395629	0.72397095
9	0x3f377a1d	0.71670705
10	0x3f2d8f30	0.6779661
11	0x3f363cbf	0.7118644
12	0x3f2442f2	0.6416465
13	0x3f208ad9	0.62711865
14	0x3f2899b9	0.6585956
15	0x3f26bdad	0.6513317
16	0x3f2266e5	0.63438255
17	0x3f1d716f	0.6150121
18	0x3f2266e5	0.63438255
19	0x3f110bc7	0.56658596
20	0x3f142531	0.5786925
21	0x3f14c3e0	0.5811138
22	0x3f085e38	0.53268766
23	0x3f0e910c	0.55690074
24	0x3f0df25d	0.5544794
25	0x3f0368c1	0.51331717
26	0x3f0720da	0.527845
27	0x3f0368c1	0.51331717
28	0x3f00ee06	0.50363195
29	0x3ef57664	0.47941887
30	0x3f05e37d	0.52300245
31	0x3f02ca13	0.5108959
32	0x3f00ee06	0.50363195
33	0x3f004f57	0.50121063
34	0x3ee910bc	0.4552058
35	0x3ef1be4c	0.47215497
36	0x3f02ca13	0.5108959
37	0x3ef92e7d	0.4866828
38	0x3f02ca13	0.5108959
39	0x3ee1a08b	0.44067797
40	0x3ee2dde8	0.44309926
41	0x3efba938	0.4915254
42	0x3ef92e7d	0.4866828
43	0x3f0720da	0.527845
44	0x3ee910bc	0.4552058
45	0x3ee910bc	0.4552058
46	0x3edcab14	0.43099272
47	0x3ee41b46	0.44552058
48	0x3ee0632d	0.43825665
49	0x3ee558a4	0.4479419
50	0x3eea4e1a	0.45762712
51	0x3eeb8b78	0.46004844
52	0x3ed67840	0.41888618
53	0x3ee41b46	0.44552058
54	0x3ee2dde8	0.44309926
55	0x3ee2dde8	0.44309926
56	0x3eecc8d5	0.46246973
57	0x3ee558a4	0.4479419
58	0x3ed67840	0.41888618
59	0x3eda3059	0.4261501
60	0x3ec8d53b	0.39225182
61	0x3edde872	0.43341404
62	0x3ed7b59e	0.4213075
63	0x3edcab14	0.43099272
64	0x3eca1298	0.3946731
65	0x3ecc8d54	0.39951575
66	0x3eda3059	0.4261501
67	0x3ed53ae3	0.4164649
68	0x3eca1298	0.3946731
69	0x3ec797dd	0.3898305
70	0x3ed182ca	0.40920097
71	0x3ecc8d54	0.39951575
72	0x3ebeea4e	0.37288135
73	0x3edf25d0	0.43583536
74	0x3eca1298	0.3946731
75	0x3ed3fd85	0.41404358
76	0x3ec027ac	0.37530267
77	0x3ed182ca	0.40920097
78	0x3ecb4ff6	0.39709443
79	0x3ecf080f	0.40435836
80	0x3ec797dd	0.3898305
81	0x3eb63cbf	0.3559322
82	0x3eb8b77a	0.36077482
83	0x3ec797dd	0.3898305
84	0x3eb14749	0.346247
85	0x3eb8b77a	0.36077482
86	0x3ec3dfc4	0.38256657
87	0x3ec51d22	0.3849879
88	0x3eb9f4d8	0.36319613
89	0x3eb63cbf	0.3559322
90	0x3ebc6f93	0.36803874
91	0x3ebeea4e	0.37288135
92	0x3eac51d2	0.33656174
93	0x3eb3c204	0.3510896
94	0x3eac51d2	0.33656174
95	0x3eb009eb	0.34382567
96	0x3eb4ff61	0.3535109
97	0x3eb8b77a	0.36077482
98	0x3ea9d717	0.33171913
99	0x3ebb3235	0.36561742
100	0x3ead8f30	0.33898306
101	0x3eaecc8d	0.34140435
102	0x3eb63cbf	0.3559322
103	0x3eb009eb	0.34382567
104	0x3eb284a6	0.34866828
105	0x3ea61efe	0.3244552
106	0x3ea4e1a1	0.3220339
107	0x3eb009eb	0.34382567
108	0x3eaecc8d	0.34140435
109	0x3ea4e1a1	0.3220339
110	0x3eab1475	0.33414045
111	0x3ea61efe	0.3244552
112	0x3eb77a1d	0.35835353
113	0x3e973e9b	0.29539952
114	0x3ea4e1a1	0.3220339
115	0x3ea3a443	0.3196126
116	0x3ea4e1a1	0.3220339
117	0x3ea75c5c	0.32687652
118	0x3ea61efe	0.3244552
119	0x3e9d716f	0.30750605
120	0x3ea266e5	0.31719127
121	0x3ea4e1a1	0.3220339
122	0x3ea4e1a1	0.3220339
123	0x3eac51d2	0.33656174
124	0x3e9eaecd	0.30992737
125	0x3e973e9b	0.29539952
126	0x3e94c3e0	0.2905569
127	0x3e9c3411	0.30508474
128	0x3e9af6b4	0.30266345
129	0x3ea12988	0.31476998
130	0x3ea266e5	0.31719127
131	0x3e96013d	0.2929782
132	0x3ea266e5	0.31719127
133	0x3e910bc7	0.28329298
134	0x3e8ad8f3	0.27118644
135	0x3e924925	0.2857143
136	0x3e910bc7	0.28329298
137	0x3e99b956	0.30024213
138	0x3e94c3e0	0.2905569
139	0x3e973e9b	0.29539952
140	0x3e8d53ae	0.27602905
141	0x3e910bc7	0.28329298
142	0x3e973e9b	0.29539952
143	0x3e85e37d	0.26150122
144	0x3e899b95	0.26876512
145	0x3e910bc7	0.28329298
146	0x3e8ad8f3	0.27118644
147	0x3e924925	0.2857143
148	0x3e8c1651	0.27360776
149	0x3e885e38	0.26634383
150	0x3e7f6151	0.24939467
151	0x3e8e910c	0.27845037
152	0x3e910bc7	0.28329298
153	0x3ea12988	0.31476998
154	0x3e910bc7	0.28329298
155	0x3e910bc7	0.28329298
156	0x3e8d53ae	0.27602905
157	0x3e8368c1	0.25665858
158	0x3e8ad8f3	0.27118644
159	0x3e8ad8f3	0.27118644
160	0x3e973e9b	0.29539952
161	0x3e94c3e0	0.2905569
162	0x3e8e910c	0.27845037
163	0x3e885e38	0.26634383
164	0x3e924925	0.2857143
165	0x3e8ad8f3	0.27118644
166	0x3e822b64	0.2542373
167	0x3e8d53ae	0.27602905
168	0x3e7f6151	0.24939467
169	0x3e94c3e0	0.2905569
170	0x3e8fce69	0.28087166
171	0x3e99b956	0.30024213
172	0x3e822b64	0.2542373
173	0x3e899b95	0.26876512
174	0x3e8368c1	0.25665858
175	0x3e973e9b	0.29539952
176	0x3e8c1651	0.27360776
177	0x3e84a61f	0.2590799
178	0x3e84a61f	0.2590799
179	0x3e8e910c	0.27845037
180	0x3e7ce696	0.24697337
181	0x3e6e0633	0.23244552
182	0x3e7f6151	0.24939467
183	0x3e7a6bdb	0.24455206
184	0x3e7ce696	0.24697337
185	0x3e8d53ae	0.27602905
186	0x3e885e38	0.26634383
187	0x3e6b8b78	0.23002422
188	0x3e7a6bdb	0.24455206
189	0x3e7ce696	0.24697337
190	0x3e84a61f	0.2590799
191	0x3e8ad8f3	0.27118644
192	0x3e899b95	0.26876512
193	0x3e8720da	0.2639225
194	0x3e4dcab1	0.20096852
195	0x3e77f120	0.24213076
196	0x3e5cab14	0.21549636
197	0x3e822b64	0.2542373
198	0x3e8368c1	0.25665858
199	0x3e8ad8f3	0.27118644
200	0x3e7a6bdb	0.24455206
201	0x3e5f25d0	0.21791768
202	0x3e85e37d	0.26150122
203	0x3e7f6151	0.24939467
204	0x3e6910bc	0.2276029
205	0x3e6910bc	0.2276029
206	0x3e5f25d0	0.21791768
207	0x3e57b59e	0.21065375
208	0x3e5a3059	0.21307506
209	0x3e669601	0.2251816
210	0x3e6e0633	0.23244552
211	0x3e5f25d0	0.21791768
212	0x3e61a08b	0.22033899
213	0x3e6910bc	0.2276029
214	0x3e7a6bdb	0.24455206
215	0x3e669601	0.2251816
216	0x3e641b46	0.22276029
217	0x3e50456c	0.20338982
218	0x3e5cab14	0.21549636
219	0x3e50456c	0.20338982
220	0x3e669601	0.2251816
221	0x3e5a3059	0.21307506
222	0x3e5a3059	0.21307506
223	0x3e641b46	0.22276029
224	0x3e6910bc	0.2276029
225	0x3e6910bc	0.2276029
226	0x3e48d53b	0.19612591
227	0x3e553ae3	0.20823245
228	0x3e48d53b	0.19612591
229	0x3e553ae3	0.20823245
230	0x3e61a08b	0.22033899
231	0x3e416509	0.18886198
232	0x3e52c028	0.20581114
233	0x3e5a3059	0.21307506
234	0x3e50456c	0.20338982
235	0x3e48d53b	0.19612591
236	0x3e5a3059	0.21307506
237	0x3e669601	0.2251816
238	0x3e50456c	0.20338982
239	0x3e5cab14	0.21549636
240	0x3e61a08b	0.22033899
241	0x3e52c028	0.20581114
242	0x3e465a80	0.1937046
243	0x3e553ae3	0.20823245
244	0x3e39f4d8	0.18159807
245	0x3e641b46	0.22276029
246	0x3e416509	0.18886198
247	0x3e43dfc4	0.19128329
248	0x3e5cab14	0.21549636
249	0x3e57b59e	0.21065375
250	0x3e48d53b	0.19612591
251	0x3e50456c	0.20338982
252	0x3e52c028	0.20581114
253	0x3e50456c	0.20338982
254	0x3e34ff61	0.17675544
255	0x3e48d53b	0.19612591

item_pop_true f4 [1154, 1]
0	0x3f800000	1.0
1	0x3f50e41b	0.8159806
2	0x3f5991aa	0.8498789
3	0x3f5d49c3	0.86440676
4	0x3f4e6960	0.8062954
5	0x3f4e6960	0.8062954
6	0x3f4c8d54	0.7990315
7	0x3f4027ac	0.75060534
8	0x3f395629	0.72397095
9	0x3f377a1d	0.71670705
10	0x3f2d8f30	0.6779661
11	0x3f363cbf	0.7118644
12	0x3f2442f2	0.6416465
13	0x3f208ad9	0.62711865
14	0x3f2899b9	0.6585956
15	0x3f26bdad	0.6513317
16	0x3f2266e5	0.63438255
17	0x3f1d716f	0.6150121
18	0x3f2266e5	0.63438255
19	0x3f110bc7	0.56658596
20	0x3f142531	0.5786925
21	0x3f14c3e0	0.5811138
22	0x3f085e38	0.53268766
23	0x3f0e910c	0.55690074
24	0x3f0df25d	0.5544794
25	0x3f0368c1	0.51331717
26	0x3f0720da	0.527845
27	0x3f0368c1	0.51331717
28	0x3f00ee06	0.50363195
29	0x3ef57664	0.47941887
30	0x3f05e37d	0.52300245
31	0x3f02ca13	0.5108959
32	0x3f00ee06	0.50363195
33	0x3f004f57	0.50121063
34	0x3ee910bc	0.4552058
35	0x3ef1be4c	0.47215497
36	0x3f02ca13	0.5108959
37	0x3ef92e7d	0.4866828
38	0x3f02ca13	0.5108959
39	0x3ee1a08b	0.44067797
40	0x3ee2dde8	0.44309926
41	0x3efba938	0.4915254
42	0x3ef92e7d	0.4866828
43	0x3f0720da	0.527845
44	0x3ee910bc	0.4552058
45	0x3ee910bc	0.4552058
46	0x3edcab14	0.43099272
47	0x3ee41b46	0.44552058
48	0x3ee0632d	0.43825665
49	0x3ee558a4	0.4479419
50	0x3eea4e1a	0.45762712
51	0x3eeb8b78	0.46004844
52	0x3ed67840	0.41888618
53	0x3ee41b46	0.44552058
54	0x3ee2dde8	0.44309926
55	0x3ee2dde8	0.44309926
56	0x3eecc8d5	0.46246973
57	0x3ee558a4	0.4479419
58	0x3ed67840	0.41888618
59	0x3eda3059	0.4261501
60	0x3ec8d53b	0.39225182
61	0x3edde872	0.43341404
62	0x3ed7b59e	0.4213075
63	0x3edcab14	0.43099272
64	0x3eca1298	0.3946731
65	0x3ecc8d54	0.39951575
66	0x3eda3059	0.4261501
67	0x3ed53ae3	0.4164649
68	0x3eca1298	0.3946731
69	0x3ec797dd	0.3898305
70	0x3ed182ca	0.40920097
71	0x3ecc8d54	0.39951575
72	0x3ebeea4e	0.37288135
73	0x3edf25d0	0.43583536
74	0x3eca1298	0.3946731
75	0x3ed3fd85	0.41404358
76	0x3ec027ac	0.37530267
77	0x3ed182ca	0.40920097
78	0x3ecb4ff6	0.39709443
79	0x3ecf080f	0.40435836
80	0x3ec797dd	0.3898305
81	0x3eb63cbf	0.3559322
82	0x3eb8b77a	0.36077482
83	0x3ec797dd	0.3898305
84	0x3eb14749	0.346247
85	0x3eb8b77a	0.36077482
86	0x3ec3dfc4	0.38256657
87	0x3ec51d22	0.3849879
88	0x3eb9f4d8	0.36319613
89	0x3eb63cbf	0.3559322
90	0x3ebc6f93	0.36803874
91	0x3ebeea4e	0.37288135
92	0x3eac51d2	0.33656174
93	0x3eb3c204	0.3510896
94	0x3eac51d2	0.33656174
95	0x3eb009eb	0.34382567
96	0x3eb4ff61	0.3535109
97	0x3eb8b77a	0.36077482
98	0x3ea9d717	0.33171913
99	0x3ebb3235	0.36561742
100	0x3ead8f30	0.33898306
101	0x3eaecc8d	0.34140435
102	0x3eb63cbf	0.3559322
103	0x3eb009eb	0.34382567
104	0x3eb284a6	0.34866828
105	0x3ea61efe	0.3244552
106	0x3ea4e1a1	0.3220339
107	0x3eb009eb	0.34382567
108	0x3eaecc8d	0.34140435
109	0x3ea4e1a1	0.3220339
110	0x3eab1475	0.33414045
111	0x3ea61efe	0.3244552
112	0x3eb77a1d	0.35835353
113	0x3e973e9b	0.29539952
114	0x3ea4e1a1	0.3220339
115	0x3ea3a443	0.3196126
116	0x3ea4e1a1	0.3220339
117	0x3ea75c5c	0.32687652
118	0x3ea61efe	0.3244552
119	0x3e9d716f	0.30750605
120	0x3ea266e5	0.31719127
121	0x3ea4e1a1	0.3220339
122	0x3ea4e1a1	0.3220339
123	0x3eac51d2	0.33656174
124	0x3e9eaecd	0.30992737
125	0x3e973e9b	0.29539952
126	0x3e94c3e0	0.2905569
127	0x3e9c3411	0.30508474
128	0x3e9af6b4	0.30266345
129	0x3ea12988	0.31476998
130	0x3ea266e5	0.31719127
131	0x3e96013d	0.2929782
132	0x3ea266e5	0.31719127
133	0x3e910bc7	0.28329298
134	0x3e8ad8f3	0.27118644
135	0x3e924925	0.2857143
136	0x3e910bc7	0.28329298
137	0x3e99b956	0.30024213
138	0x3e94c3e0	0.2905569
139	0x3e973e9b	0.29539952
140	0x3e8d53ae	0.27602905
141	0x3e910bc7	0.28329298
142	0x3e973e9b	0.29539952
143	0x3e85e37d	0.26150122
144	0x3e899b95	0.26876512
145	0x3e910bc7	0.28329298
146	0x3e8ad8f3	0.27118644
147	0x3e924925	0.2857143
148	0x3e8c1651	0.27360776
149	0x3e885e38	0.26634383
150	0x3e7f6151	0.24939467
151	0x3e8e910c	0.27845037
152	0x3e910bc7	0.28329298
153	0x3ea12988	0.31476998
154	0x3e910bc7	0.28329298
155	0x3e910bc7	0.28329298
156	0x3e8d53ae	0.27602905
157	0x3e8368c1	0.25665858
158	0x3e8ad8f3	0.27118644
159	0x3e8ad8f3	0.27118644
160	0x3e973e9b	0.29539952
161	0x3e94c3e0	0.2905569
162	0x3e8e910c	0.27845037
163	0x3e885e38	0.26634383
164	0x3e924925	0.2857143
165	0x3e8ad8f3	0.27118644
166	0x3e822b64	0.2542373
167	0x3e8d53ae	0.27602905
168	0x3e7f6151	0.24939467
169	0x3e94c3e0	0.2905569
170	0x3e8fce69	0.28087166
171	0x3e99b956	0.30024213
172	0x3e822b64	0.2542373
173	0x3e899b95	0.26876512
174	0x3e8368c1	0.25665858
175	0x3e973e9b	0.29539952
176	0x3e8c1651	0.27360776
177	0x3e84a61f	0.2590799
178	0x3e84a61f	0.2590799
179	0x3e8e910c	0.27845037
180	0x3e7ce696	0.24697337
181	0x3e6e0633	0.23244552
182	0x3e7f6151	0.24939467
183	0x3e7a6bdb	0.24455206
184	0x3e7ce696	0.24697337
185	0x3e8d53ae	0.27602905
186	0x3e885e38	0.26634383
187	0x3e6b8b78	0.23002422
188	0x3e7a6bdb	0.24455206
189	0x3e7ce696	0.24697337
190	0x3e84a61f	0.2590799
191	0x3e8ad8f3	0.27118644
192	0x3e899b95	0.26876512
193	0x3e8720da	0.2639225
194	0x3e4dcab1	0.20096852
195	0x3e77f120	0.24213076
196	0x3e5cab14	0.21549636
197	0x3e822b64	0.2542373
198	0x3e8368c1	0.25665858
199	0x3e8ad8f3	0.27118644
200	0x3e7a6bdb	0.24455206
201	0x3e5f25d0	0.21791768
202	0x3e85e37d	0.26150122
203	0x3e7f6151	0.24939467
204	0x3e6910bc	0.2276029
205	0x3e6910bc	0.2276029
206	0x3e5f25d0	0.21791768
207	0x3e57b59e	0.21065375
208	0x3e5a3059	0.21307506
209	0x3e669601	0.2251816
210	0x3e6e0633	0.23244552
211	0x3e5f25d0	0.21791768
212	0x3e61a08b	0.22033899
213	0x3e6910bc	0.2276029
214	0x3e7a6bdb	0.24455206
215	0x3e669601	0.2251816
216	0x3e641b46	0.22276029
217	0x3e50456c	0.20338982
218	0x3e5cab14	0.21549636
219	0x3e50456c	0.20338982
220	0x3e669601	0.2251816
221	0x3e5a3059	0.21307506
222	0x3e5a3059	0.21307506
223	0x3e641b46	0.22276029
224	0x3e6910bc	0.2276029
225	0x3e6910bc	0.2276029
226	0x3e48d53b	0.19612591
227	0x3e553ae3	0.20823245
228	0x3e48d53b	0.19612591
229	0x3e553ae3	0.20823245
230	0x3e61a08b	0.22033899
231	0x3e416509	0.18886198
232	0x3e52c028	0.20581114
233	0x3e5a3059	0.21307506
234	0x3e50456c	0.20338982
235	0x3e48d53b	0.19612591
236	0x3e5a3059	0.21307506
237	0x3e669601	0.2251816
238	0x3e50456c	0.20338982
239	0x3e5cab14	0.21549636
240	0x3e61a08b	0.22033899
241	0x3e52c028	0.20581114
242	0x3e465a80	0.1937046
243	0x3e553ae3	0.20823245
244	0x3e39f4d8	0.18159807
245	0x3e641b46	0.22276029
246	0x3e416509	0.18886198
247	0x3e43dfc4	0.19128329
248	0x3e5cab14	0.21549636
249	0x3e57b59e	0.21065375
250	0x3e48d53b	0.19612591
251	0x3e50456c	0.20338982
252	0x3e52c028	0.20581114
253	0x3e50456c	0.20338982
254	0x3e34ff61	0.17675544
255	0x3e48d53b	0.19612591

lr1.weight f4 [1, 63]
0	0x3d717665	0.0589508
1	0x3c9863ad	0.018602217
2	0x3ddf2290	0.10895264
3	0xbe416e01	-0.1888962
4	0x3e1536ee	0.14571735
5	0x3cfc7c63	0.030821031
6	0x3e0c41a5	0.13696916
7	0xbc2930a1	-0.010326535
8	0xbb5cd7c8	-0.0033697952
9	0xbdf08827	-0.11744719
10	0xbc8834a4	-0.016626664
11	0xbe31608d	-0.17321987
12	0xbd52a2e4	-0.051424876
13	0xbd0cd241	-0.0343802
14	0xba72103d	-0.0009233987
15	0xbb20ccb4	-0.0024536075
16	0xbdbc1699	-0.09183998
17	0xbdee3b44	-0.11632398
18	0x3d06fe7a	0.03295753
19	0xbce42ea9	-0.02785428
20	0x3c8a0df2	0.016852353
21	0xbd3a844d	-0.045536328
22	0xbd7440e6	-0.059632204
23	0x3d0dfe24	0.034666196
24	0x3c75dfa4	0.015006933
25	0xbe4290d5	-0.19000562
26	0x3d4f34c3	0.050587427
27	0x3e67181c	0.22567791
28	0xbdb14e95	-0.086575665
29	0xbdc2d004	-0.09512332
30	0x3d9f7969	0.07786829
31	0x3e3a76ef	0.18209432
32	0xbd44604b	-0.047943395
33	0xbd3c02a7	-0.045900967
34	0x3d86079a	0.06544419
35	0x3ceb86bc	0.02875077
36	0x3ba4f98d	0.0050346316
37	0x3e1662d6	0.1468614
38	0xbd96d84c	-0.07365474
39	0xbd982762	-0.07429387
40	0x3d83e40b	0.0643998
41	0x3d818a56	0.063252136
42	0x3d8f9e94	0.07012668
43	0xbc94715b	-0.018120458
44	0xbc848c6a	-0.016180236
45	0xbdde43ba	-0.108527616
46	0xbd5e50e5	-0.054276366
47	0xbea3106b	-0.31848463
48	0x3e808575	0.2510182
49	0xbdcb2c30	-0.099205375
50	0xbe002ed0	-0.12517858
51	0x3dbafd9f	0.09130406
52	0x3e2a22a0	0.16614771
53	0x3e2c1f56	0.16808829
54	0xbca08f26	-0.019599508
55	0x3e5477d0	0.2074883
56	0x3b2289ac	0.0024801297
57	0xbe81059b	-0.2519959
58	0xbbe5ef20	-0.0070170313
59	0xbe1d75ef	-0.1537702
60	0x3d0b10b4	0.033951476
61	0xbe15788f	-0.1459677
62	0x3bd60ff5	0.006532664
