pid/result/ml100k-PIDMF-debug2023-03-14-10-32-30/ckpt/epoch_48.pth (torch_old, 543278 bytes, 5 tensors)

users f4 [945, 64]
0	0x3fca8025	1.5820357
1	0xbe88187c	-0.2658118
2	0xbf1ea32f	-0.6196775
3	0x3ea0d8a2	0.31415278
4	0x3dd69a58	0.104786575
5	0xbe368dfb	-0.17827599
6	0x3efee9eb	0.4978784
7	0xbf04c164	-0.5185759
8	0xbf21368e	-0.6297387
9	0xbdfc8a06	-0.123310134
10	0x3f20396e	0.6258763
11	0xbebaf48e	-0.36514705
12	0xbf07cb30	-0.53044415
13	0x3e8e2fe0	0.277709
14	0x3f4cfb5f	0.8007106
15	0xbe5d26f2	-0.21596888
16	0x3f9efc6f	1.2420787
17	0x3f09d821	0.5384541
18	0x3f5f5efa	0.872543
19	0x3eee5cf3	0.4655529
20	0x3f407d21	0.7519093
21	0xbe934b00	-0.28768158
22	0xbf63c0fd	-0.8896635
23	0xbebcde2b	-0.3688825
24	0x3f606ff8	0.8767085
25	0x3f73c437	0.95221275
26	0xbd21ca22	-0.03949941
27	0xbe4b7fad	-0.19872923
28	0xbf436bcb	-0.76336354
29	0xbf322830	-0.6959257
30	0xbf17dcc8	-0.5932126
31	0x3e0bfff5	0.13671859
32	0xbf4328f4	-0.76234365
33	0xbf33c8d9	-0.70228344
34	0xbf22dbc5	-0.6361659
35	0xbf393797	-0.7235045
36	0xbf6147e0	-0.880003
37	0x3bdc1a3f	0.006716996
38	0xbf25e72c	-0.64805865
39	0xbf8b5a4f	-1.0886935
40	0xbecddb64	-0.40206444
41	0x3f2537b6	0.64538133
42	0xbefdd11c	-0.495736
43	0x3d33ff24	0.043944493
44	0xbf983e88	-1.1894083
45	0xbf39bf02	-0.7255708
46	0x3f363e35	0.7118867
47	0xbe1d27c5	-0.15347202
48	0x3e57281b	0.21011393
49	0x3e6fa2d0	0.23401952
50	0xbf80f4b9	-1.0074683
51	0xbf45e2db	-0.7729928
52	0x3f6c4748	0.92296267
53	0xbf73f757	-0.95299286
54	0xbd7b3251	-0.061327282
55	0x3f63f767	0.8904938
56	0x3e7ebdb1	0.24877049
57	0x3ef21643	0.4728261
58	0x3e845aec	0.25850618
59	0x3f8e85d2	1.1134589
60	0x3eb31818	0.3497932
61	0xbf0e5129	-0.5559259
62	0xbe32511b	-0.17413752
63	0x3e3aa87a	0.18228331
64	0x3f14d624	0.5813925
65	0xbe90d7e4	-0.2828971
66	0x3e1532eb	0.14570205
67	0xbf48a0f1	-0.7837058
68	0xbf4dc2e9	-0.80375534
69	0xbee21310	-0.4415517
70	0x3f7db719	0.9910751
71	0x3f5f7db2	0.8730117
72	0x3d947dfa	0.072505906
73	0xbdcc5cda	-0.099786475
74	0xbd7731dc	-0.060350284
75	0xbf736e2d	-0.9508999
76	0xbd8f22a7	-0.06989031
77	0x3d294abc	0.041331038
78	0x3ebfffd7	0.37499878
79	0xbe55f1db	-0.20893042
80	0x3e419251	0.18903472
81	0x3dd8826d	0.10571752
82	0x3e8ad132	0.27112728
83	0x3f055cf8	0.52094984
84	0x3e63e5d5	0.22255643
85	0xbcdbaaf5	-0.026814917
86	0x3f58e500	0.84724426
87	0xbec2e8be	-0.38068193
88	0x3eb0779a	0.3446625
89	0x3f9ed3f3	1.2408432
90	0xbf7015c5	-0.9378322
91	0xbf8784bc	-1.0587382
92	0xbf87c7a4	-1.06078
93	0xbf9690d6	-1.176295
94	0x3ec37129	0.38172272
95	0xbf81489d	-1.0100285
96	0x3f4b3f06	0.7939304
97	0x3c7260af	0.014793559
98	0x3efd28bf	0.4944515
99	0x3f171c6e	0.59027755
100	0xbebfab63	-0.37435445
101	0x3e6e783b	0.23288052
102	0xbf67be9c	-0.9052522
103	0xbfbb0127	-1.4609727
104	0x3e45907e	0.192934
105	0xbe90d3c9	-0.2828658
106	0x3f3ab8ac	0.72938037
107	0xbe8859d0	-0.26631021
108	0x3f5336c1	0.8250542
109	0xbf4096b7	-0.7522997
110	0xbee209cd	-0.44148102
111	0xbf29963a	-0.6624485
112	0x3e6cb4c1	0.23115827
113	0xbf921747	-1.1413354
114	0x3ea76782	0.32696158
115	0xbf6db728	-0.928576
116	0xbf1649c5	-0.58706313
117	0x3eba0e54	0.36339056
118	0xbee74ae1	-0.45174316
119	0xbf72625f	-0.9468135
120	0x3f0b8de9	0.5451341
121	0x3e523cb0	0.20530963
122	0xbc0435b7	-0.008069447
123	0x3ef4ccbe	0.47812456
124	0x3d75e664	0.06003417
125	0x3f63b17d	0.889427
126	0xbeeb1228	-0.4591229
127	0xbe206d81	-0.15666772
128	0xbf4296f8	-0.7601161
129	0xbef9bef9	-0.48778513
130	0xbef84d1f	-0.4849634
131	0xbeb14e33	-0.34629974
132	0xbe1f990c	-0.15585726
133	0x3f4ac095	0.79200107
134	0x3eddf0b3	0.433477
135	0x3d271730	0.040793598
136	0x3ec39306	0.38198107
137	0xbf848c91	-1.0355397
138	0x3f067811	0.52526957
139	0x3d28a25e	0.04117047
140	0xbf228254	-0.63480115
141	0x3f1160f2	0.5678855
142	0x3ee8dbf9	0.45480326
143	0xbed22609	-0.41044644
144	0xbf83333d	-1.0250012
145	0xbe04b89e	-0.12961051
146	0x3fa74e46	1.3070762
147	0x3ef83dec	0.48484743
148	0xbf0d83f1	-0.5527945
149	0x3f02751d	0.5095995
150	0xbf528343	-0.8223154
151	0x3dbca93a	0.09211965
152	0xbe724cc5	-0.23662098
153	0x3f93b5e5	1.1539885
154	0xbe0d17f3	-0.13778667
155	0xbf75a95b	-0.9596154
156	0xbe865271	-0.26234773
157	0xbe9ec0b8	-0.31006408
158	0xbecbf01f	-0.39831635
159	0xbf5cf785	-0.86315185
160	0xbf833fa0	-1.0253792
161	0xbcee01a2	-0.029053513
162	0xbf919c94	-1.1375909
163	0xbe3cd9b2	-0.18442419
164	0x3f77a18c	0.96730876
165	0x3e177478	0.14790523
166	0xbe8a67f5	-0.27032438
167	0xbf7add69	-0.97994095
168	0x3f2ad140	0.6672554
169	0x3db36cd2	0.0876099
170	0xbf1ed9d2	-0.6205112
171	0xbf36f5d7	-0.7146887
172	0xbf683632	-0.90707695
173	0x3dea6f24	0.1144698
174	0x3f199c60	0.60004234
175	0xbfa196d9	-1.262416
176	0x3e733771	0.23751618
177	0x3e7fe166	0.24988326
178	0xbea4f7f8	-0.32220435
179	0x3e904e85	0.28184906
180	0xbf9cc8eb	-1.2248815
181	0xbe02fb5f	-0.12791203
182	0x3eececde	0.46274465
183	0xbeb79161	-0.35853103
184	0xbec5f1f2	-0.38661152
185	0x3e62013a	0.2207078
186	0x3ebefb5d	0.3730115
187	0xbe627f45	-0.22118862
188	0x3d32f050	0.04368621
189	0x3f489045	0.7834514
190	0xbeeee15d	-0.46656314
191	0x3db93239	0.09042782
192	0x3f32405e	0.69629467
193	0xbf08212a	-0.53175604
194	0x3f735e21	0.95065504
195	0xbe426f17	-0.1898769
196	0xbf7f2f3f	-0.99681467
197	0xbc9fcab3	-0.019505834
198	0x3f9ac304	1.2090764
199	0xbeabb701	-0.33538058
200	0x3e5046d0	0.20339513
201	0x3e93c04e	0.28857654
202	0x3f84a963	1.0364193
203	0xbf8bd9ac	-1.0925803
204	0x3d645068	0.055740744
205	0x3e4dc6be	0.20095345
206	0x3f29c43b	0.6631505
207	0xbeaf5094	-0.34241164
208	0x3f0f8d03	0.5607454
209	0x3e7afa6b	0.2450959
210	0x3f18f235	0.5974458
211	0xbe80ca80	-0.25154495
212	0xbe19a3e6	-0.15003929
213	0xbec97fee	-0.39355415
214	0xbf181f07	-0.59422344
215	0xbee431f5	-0.44569364
216	0xbf53dabb	-0.8275563
217	0xbec3b40a	-0.38223296
218	0x3f84cb1c	1.0374484
219	0xbf3863fa	-0.7202755
220	0x3e4d0011	0.20019557
221	0xbe6937f8	-0.22775257
222	0x3f8af564	1.0856137
223	0x3f1ba215	0.6079419
224	0x3f83af5b	1.0287889
225	0xbf88e433	-1.0694641
226	0xbe95aeec	-0.29235017
227	0xbedde4fd	-0.43338767
228	0xbe171007	-0.14752208
229	0xbf61ea5c	-0.8824823
230	0x3d713ccd	0.058895875
231	0x3eb2a897	0.3489425
232	0xbf10e8b0	-0.5660505
233	0x3e05fec3	0.13085465
234	0x3de118d2	0.10991062
235	0x3e37506f	0.17901777
236	0xbf63e016	-0.89013803
237	0xbc9dae01	-0.01924801
238	0x3eff3557	0.49845383
239	0xbd0e3f79	-0.0347285
240	0x3ed457a3	0.41473112
241	0x3e9e77c7	0.30950758
242	0xbd82e303	-0.06390955
243	0xbf1e20ac	-0.61768603
244	0x3fe4a912	1.7864096
245	0xbf942c81	-1.1576082
246	0x3ee9e026	0.45678824
247	0xbf5efc3b	-0.87103623
248	0xbea04873	-0.31305274
249	0x3f040b59	0.51579815
250	0x3e77db63	0.24204783
251	0x3f0d9272	0.5530158
252	0xbe6bd13b	-0.23029034
253	0x3e901c16	0.28146428
254	0x3e4c6be5	0.19963033
255	0x3e01983d	0.1265573

items_id f4 [1154, 63]
0	0x3f1aadfd	0.60421735
1	0x3f1154f3	0.5677025
2	0x3e4cf87e	0.20016667
3	0xbdf20010	-0.11816418
4	0x3e3624b2	0.17787436
5	0x3ee54ed1	0.44786695
6	0x3f1f19a8	0.62148523
7	0x3f1e88f2	0.6192771
8	0x3f15b3e0	0.5847759
9	0xbed8be13	-0.42332515
10	0x3f2a1bb2	0.6644851
11	0xbdeaaea0	-0.11459088
12	0xbecafeca	-0.39647514
13	0x3f0a3cde	0.53999126
14	0x3ef1e9d9	0.47248724
15	0xbed9b28f	-0.42519042
16	0xbe5018e8	-0.20322001
17	0xbe9d57bd	-0.30731001
18	0x3ea9c0bd	0.3315486
19	0x3f35224f	0.70755476
20	0x3f37880f	0.71691984
21	0x3ee61751	0.44939664
22	0xbeb89964	-0.36054528
23	0x3ea719f0	0.32636976
24	0xbe8c7cd5	-0.2743899
25	0x3d0c67ac	0.034278557
26	0x3ead3f5c	0.33837402
27	0x3e7b966f	0.24569105
28	0xbe709f6a	-0.23498312
29	0xbeb61c9a	-0.35568696
30	0x3ee55018	0.4478767
31	0x3e193fb1	0.14965703
32	0xbe37351f	-0.17891358
33	0xbefce759	-0.49395254
34	0x3e94dbbd	0.29073897
35	0x3e880421	0.2656565
36	0x3f4371ff	0.7634582
37	0x3eb8caab	0.36092123
38	0xbe9cb0da	-0.30603677
39	0xbe71e2e3	-0.23621707
40	0xbe9c65f0	-0.30546522
41	0x3e890367	0.26760408
42	0x3e9550d3	0.29163226
43	0xbf134be4	-0.57537675
44	0xbf256263	-0.6460325
45	0xbe7383ca	-0.23780742
46	0x3ef7e3f5	0.48416105
47	0x3da20db9	0.07912774
48	0x3dda6860	0.10664439
49	0xbeaeefe8	-0.3416741
50	0xbe9c21d9	-0.30494574
51	0x3cf2ed1d	0.02965408
52	0x3e5cce9c	0.2156319
53	0x3ba88609	0.0051429314
54	0xbf2c90e5	-0.6740859
55	0x3e4e5bb8	0.20152175
56	0xbf1b6fdb	-0.6071755
57	0x3d23634c	0.03988962
58	0xbeaa6bc4	-0.33285344
59	0xbe03ce9f	-0.12871788
60	0x3ea72887	0.32648107
61	0xbe383c9e	-0.17991874
62	0x3f018288	0.505898
63	0x3e55f741	0.20895101
64	0x3ea928cc	0.33038938
65	0x3e0d6836	0.13809285
66	0x3d03adb3	0.032148074
67	0x3f210995	0.62905246
68	0x3da3ff73	0.080077074
69	0x3f3639d3	0.7118198
70	0x3df8fc88	0.121575415
71	0x3d1ae90c	0.037819907
72	0xbd579b32	-0.05263824
73	0x3cc19541	0.02363074
74	0xbd30f266	-0.04319992
75	0xbe8749ab	-0.26423392
76	0x3db6856f	0.08912169
77	0x3d1be8c6	0.038063787
78	0xbe81bf4f	-0.2534127
79	0xbeabf752	-0.33587128
80	0xbdfb1ab6	-0.12260954
81	0x3e845b69	0.2585099
82	0x3ce28c33	0.027654743
83	0x3e99ef3f	0.30065343
84	0x3ea27697	0.31731102
85	0xbdd6fbc5	-0.1049724
86	0x3ec004be	0.37503618
87	0xbe4f5aec	-0.20249528
88	0xbe403f4d	-0.18774147
89	0x3d6a0957	0.057137813
90	0x3d41b348	0.047290117
91	0x3cd036e1	0.025416793
92	0xbb8a3387	-0.0042175683
93	0xbd23ea3e	-0.040018313
94	0x3dade658	0.084912
95	0xbe4cade0	-0.19988203
96	0xbe96ff08	-0.29491448
97	0x3e83cfb5	0.25744405
98	0x3e0501ad	0.1298892
99	0x3eb88a59	0.3604305
100	0x3e0929f7	0.13394915
101	0xbddf8b31	-0.109152205
102	0xbdd640c8	-0.10461575
103	0xbe424a44	-0.18973643
104	0x3e7c5d1b	0.24644892
105	0xbcaa30ac	-0.020775162
106	0xbd5643f8	-0.052310914
107	0xbe6ad325	-0.22932108
108	0xbd939b31	-0.07207335
109	0x3ceac564	0.028658576
110	0xbdcf6ee3	-0.10128572
111	0x3dcce486	0.10004525
112	0x3b408675	0.0029377018
113	0xbd1645ce	-0.036687665
114	0x3d5dfb28	0.0541946
115	0x3e47094e	0.19437143
116	0x3e48558c	0.19563884
117	0x3d8f5395	0.06998364
118	0x3e5bb0e4	0.21454197
119	0xbed67fd7	-0.4189441
120	0xbdcd56eb	-0.10026344
121	0xbc1638f8	-0.009168856
122	0xbe174b4c	-0.14774817
123	0x3c360b5d	0.011111108
124	0xbe984f75	-0.2974812
125	0x3de0d585	0.109782256
126	0x3eabbe46	0.33543605
127	0x3ec83f68	0.39110875
128	0x3e20f202	0.15717319
129	0xbd932374	-0.071844965
130	0x3ebdb256	0.37050122
131	0x3e8c3d0c	0.27390325
132	0x3dac1cad	0.08403907
133	0x3e4e084f	0.20120357
134	0x3ec3f0a1	0.38269523
135	0xbe97a60c	-0.2961887
136	0x3ed55aa0	0.41670704
137	0xbe86dbb0	-0.26339483
138	0xbe96717c	-0.29383457
139	0x3e332b9e	0.17497107
140	0x3e348b12	0.17631176
141	0xbe326cc0	-0.17424297
142	0xbe9612f6	-0.2931134
143	0x3c080ed4	0.008304317
144	0x3dca85fc	0.09888837
145	0x3e825660	0.25456524
146	0x3ebff859	0.37494162
147	0x3ed9a5ce	0.4250931
148	0xbe5ca628	-0.21547759
149	0x3e8c0ec0	0.27355003
150	0xbde4d8e2	-0.111741796
151	0xbd8595db	-0.06522723
152	0x3db23d09	0.08703048
153	0x3e74f134	0.23920137
154	0xbdeb6b67	-0.11495095
155	0xbd445790	-0.04793507
156	0x3e828203	0.25489816
157	0x3d669700	0.05629635
158	0xbe93b285	-0.28847137
159	0xbec5febe	-0.38670915
160	0x3e10dda4	0.14147049
161	0x3db78814	0.08961502
162	0x3ee64671	0.44975618
163	0x3e0e4188	0.13892186
164	0xbe02a851	-0.1275952
165	0xbe8b068f	-0.2715344
166	0xbe56fa85	-0.20994003
167	0x3e07c507	0.13258754
168	0x3e851e39	0.2599962
169	0xbec0ab08	-0.37630486
170	0xbe8a074f	-0.269587
171	0xbe583409	-0.211136
172	0x3e599c1b	0.21250956
173	0xbe07daf0	-0.13267112
174	0x3da637dd	0.08116124
175	0xbe41456c	-0.18874139
176	0xbe86b88d	-0.26312676
177	0x3dd3c2d5	0.10339896
178	0x3e51d848	0.20492661
179	0x3e401f59	0.18761958
180	0xbecd73e3	-0.40127477
181	0x3c07d064	0.00828943
182	0xbea29820	-0.31756687
183	0xbd7df47c	-0.062000737
184	0xbdf9ec86	-0.122033164
185	0xbe27a0ee	-0.16369984
186	0x3da05755	0.07829157
187	0xbe2f3f35	-0.17113955
188	0x3e98c5ea	0.29838496
189	0x3eddae98	0.43297267
190	0x3e2c478f	0.16824172
191	0x3e40074d	0.18752785
192	0xbe5176a2	-0.20455411
193	0x3e69837c	0.22804064
194	0x3de86f6b	0.11349376
195	0x3ec1a673	0.37822303
196	0x3eb014d5	0.34390894
197	0x3ecefbf4	0.404266
198	0xbe89168a	-0.26775008
199	0x3e3ae7dd	0.18252511
200	0xbe79f6d0	-0.24410558
201	0xbe23a4b8	-0.15980804
202	0x3e892192	0.26783425
203	0x3e4cf99d	0.20017095
204	0xbeda2ee1	-0.4261389
205	0xbe719ac2	-0.23594192
206	0xbe259f69	-0.16174091
207	0x3de56b96	0.11202161
208	0x3e4e1351	0.20124556
209	0x3ed74f53	0.42052707
210	0x3e2054bf	0.15657328
211	0xbdddf830	-0.10838354
212	0x3db3e93c	0.0878472
213	0xbdb74c3f	-0.0895009
214	0xbe1f73eb	-0.15571563
215	0x3e667190	0.22504258
216	0x3e339bf1	0.17539956
217	0xbe604b8d	-0.2190382
218	0xbe1b023e	-0.15137574
219	0x3ea705cd	0.32621613
220	0x3e1b5f8d	0.15173168
221	0xbda85919	-0.08220119
222	0xbe94126f	-0.28920314
223	0x3e9e3125	0.3089687
224	0x3df4359f	0.1192429
225	0x3e9ea417	0.30984566
226	0x3dbe9f87	0.09307771
227	0xbe7c5069	-0.24640049
228	0xbe6008e6	-0.21878394
229	0xbe507b32	-0.20359495
230	0x3db6db73	0.08928575
231	0x3dde15d0	0.10844004
232	0xbebead5e	-0.37241644
233	0xbe61ef8a	-0.22064033
234	0xbd695b90	-0.056972086
235	0x3ddda267	0.108219914
236	0x3c3c287d	0.0114842625
237	0xbd9b497e	-0.07582377
238	0xbe6e48e1	-0.23269989
239	0xbe20a581	-0.15688135
240	0x3d8d90ee	0.06912409
241	0x3dd861af	0.10565507
242	0x3e2b76ba	0.1674451
243	0xbed2e741	-0.41192058
244	0x3e5bcab5	0.21464045
245	0xbe63a684	-0.2223149
246	0xbda644ac	-0.08118567
247	0xbd910e89	-0.070828505
248	0xbdd96587	-0.10615068
249	0x3e340ac6	0.17582235
250	0xbea37105	-0.31922165
251	0x3e4505b2	0.19240454
252	0x3ecc3f7d	0.39892188
253	0x3e8f3955	0.27973428
254	0x3e855181	0.26038745
255	0x3db25ce3	0.08709123

item_pop f4 [1154, 1]
0	0x3f800000	1.0
1	0x3f50e41b	0.8159806
2	0x3f5991aa	0.8498789
3	0x3f5d49c3	0.86440676
4	0x3f4e6960	0.8062954
5	0x3f4e6960	0.8062954
6	0x3f4c8d54	0.7990315
7	0x3f4027ac	0.75060534
8	0x3f395629	0.72397095
9	0x3f377a1d	0.71670705
10	0x3f2d8f30	0.6779661
11	0x3f363cbf	0.7118644
12	0x3f2442f2	0.6416465
13	0x3f208ad9	0.62711865
14	0x3f2899b9	0.6585956
15	0x3f26bdad	0.6513317
16	0x3f2266e5	0.63438255
17	0x3f1d716f	0.6150121
18	0x3f2266e5	0.63438255
19	0x3f110bc7	0.56658596
20	0x3f142531	0.5786925
21	0x3f14c3e0	0.5811138
22	0x3f085e38	0.53268766
23	0x3f0e910c	0.55690074
24	0x3f0df25d	0.5544794
25	0x3f0368c1	0.51331717
26	0x3f0720da	0.527845
27	0x3f0368c1	0.51331717
28	0x3f00ee06	0.50363195
29	0x3ef57664	0.47941887
30	0x3f05e37d	0.52300245
31	0x3f02ca13	0.5108959
32	0x3f00ee06	0.50363195
33	0x3f004f57	0.50121063
34	0x3ee910bc	0.4552058
35	0x3ef1be4c	0.47215497
36	0x3f02ca13	0.5108959
37	0x3ef92e7d	0.4866828
38	0x3f02ca13	0.5108959
39	0x3ee1a08b	0.44067797
40	0x3ee2dde8	0.44309926
41	0x3efba938	0.4915254
42	0x3ef92e7d	0.4866828
43	0x3f0720da	0.527845
44	0x3ee910bc	0.4552058
45	0x3ee910bc	0.4552058
46	0x3edcab14	0.43099272
47	0x3ee41b46	0.44552058
48	0x3ee0632d	0.43825665
49	0x3ee558a4	0.4479419
50	0x3eea4e1a	0.45762712
51	0x3eeb8b78	0.46004844
52	0x3ed67840	0.41888618
53	0x3ee41b46	0.44552058
54	0x3ee2dde8	0.44309926
55	0x3ee2dde8	0.44309926
56	0x3eecc8d5	0.46246973
57	0x3ee558a4	0.4479419
58	0x3ed67840	0.41888618
59	0x3eda3059	0.4261501
60	0x3ec8d53b	0.39225182
61	0x3edde872	0.43341404
62	0x3ed7b59e	0.4213075
63	0x3edcab14	0.43099272
64	0x3eca1298	0.3946731
65	0x3ecc8d54	0.39951575
66	0x3eda3059	0.4261501
67	0x3ed53ae3	0.4164649
68	0x3eca1298	0.3946731
69	0x3ec797dd	0.3898305
70	0x3ed182ca	0.40920097
71	0x3ecc8d54	0.39951575
72	0x3ebeea4e	0.37288135
73	0x3edf25d0	0.43583536
74	0x3eca1298	0.3946731
75	0x3ed3fd85	0.41404358
76	0x3ec027ac	0.37530267
77	0x3ed182ca	0.40920097
78	0x3ecb4ff6	0.39709443
79	0x3ecf080f	0.40435836
80	0x3ec797dd	0.3898305
81	0x3eb63cbf	0.3559322
82	0x3eb8b77a	0.36077482
83	0x3ec797dd	0.3898305
84	0x3eb14749	0.346247
85	0x3eb8b77a	0.36077482
86	0x3ec3dfc4	0.38256657
87	0x3ec51d22	0.3849879
88	0x3eb9f4d8	0.36319613
89	0x3eb63cbf	0.3559322
90	0x3ebc6f93	0.36803874
91	0x3ebeea4e	0.37288135
92	0x3eac51d2	0.33656174
93	0x3eb3c204	0.3510896
94	0x3eac51d2	0.33656174
95	0x3eb009eb	0.34382567
96	0x3eb4ff61	0.3535109
97	0x3eb8b77a	0.36077482
98	0x3ea9d717	0.33171913
99	0x3ebb3235	0.36561742
100	0x3ead8f30	0.33898306
101	0x3eaecc8d	0.34140435
102	0x3eb63cbf	0.3559322
103	0x3eb009eb	0.34382567
104	0x3eb284a6	0.34866828
105	0x3ea61efe	0.3244552
106	0x3ea4e1a1	0.3220339
107	0x3eb009eb	0.34382567
108	0x3eaecc8d	0.34140435
109	0x3ea4e1a1	0.3220339
110	0x3eab1475	0.33414045
111	0x3ea61efe	0.3244552
112	0x3eb77a1d	0.35835353
113	0x3e973e9b	0.29539952
114	0x3ea4e1a1	0.3220339
115	0x3ea3a443	0.3196126
116	0x3ea4e1a1	0.3220339
117	0x3ea75c5c	0.32687652
118	0x3ea61efe	0.3244552
119	0x3e9d716f	0.30750605
120	0x3ea266e5	0.31719127
121	0x3ea4e1a1	0.3220339
122	0x3ea4e1a1	0.3220339
123	0x3eac51d2	0.33656174
124	0x3e9eaecd	0.30992737
125	0x3e973e9b	0.29539952
126	0x3e94c3e0	0.2905569
127	0x3e9c3411	0.30508474
128	0x3e9af6b4	0.30266345
129	0x3ea12988	0.31476998
130	0x3ea266e5	0.31719127
131	0x3e96013d	0.2929782
132	0x3ea266e5	0.31719127
133	0x3e910bc7	0.28329298
134	0x3e8ad8f3	0.27118644
135	0x3e924925	0.2857143
136	0x3e910bc7	0.28329298
137	0x3e99b956	0.30024213
138	0x3e94c3e0	0.2905569
139	0x3e973e9b	0.29539952
140	0x3e8d53ae	0.27602905
141	0x3e910bc7	0.28329298
142	0x3e973e9b	0.29539952
143	0x3e85e37d	0.26150122
144	0x3e899b95	0.26876512
145	0x3e910bc7	0.28329298
146	0x3e8ad8f3	0.27118644
147	0x3e924925	0.2857143
148	0x3e8c1651	0.27360776
149	0x3e885e38	0.26634383
150	0x3e7f6151	0.24939467
151	0x3e8e910c	0.27845037
152	0x3e910bc7	0.28329298
153	0x3ea12988	0.31476998
154	0x3e910bc7	0.28329298
155	0x3e910bc7	0.28329298
156	0x3e8d53ae	0.27602905
157	0x3e8368c1	0.25665858
158	0x3e8ad8f3	0.27118644
159	0x3e8ad8f3	0.27118644
160	0x3e973e9b	0.29539952
161	0x3e94c3e0	0.2905569
162	0x3e8e910c	0.27845037
163	0x3e885e38	0.26634383
164	0x3e924925	0.2857143
165	0x3e8ad8f3	0.27118644
166	0x3e822b64	0.2542373
167	0x3e8d53ae	0.27602905
168	0x3e7f6151	0.24939467
169	0x3e94c3e0	0.2905569
170	0x3e8fce69	0.28087166
171	0x3e99b956	0.30024213
172	0x3e822b64	0.2542373
173	0x3e899b95	0.26876512
174	0x3e8368c1	0.25665858
175	0x3e973e9b	0.29539952
176	0x3e8c1651	0.27360776
177	0x3e84a61f	0.2590799
178	0x3e84a61f	0.2590799
179	0x3e8e910c	0.27845037
180	0x3e7ce696	0.24697337
181	0x3e6e0633	0.23244552
182	0x3e7f6151	0.24939467
183	0x3e7a6bdb	0.24455206
184	0x3e7ce696	0.24697337
185	0x3e8d53ae	0.27602905
186	0x3e885e38	0.26634383
187	0x3e6b8b78	0.23002422
188	0x3e7a6bdb	0.24455206
189	0x3e7ce696	0.24697337
190	0x3e84a61f	0.2590799
191	0x3e8ad8f3	0.27118644
192	0x3e899b95	0.26876512
193	0x3e8720da	0.2639225
194	0x3e4dcab1	0.20096852
195	0x3e77f120	0.24213076
196	0x3e5cab14	0.21549636
197	0x3e822b64	0.2542373
198	0x3e8368c1	0.25665858
199	0x3e8ad8f3	0.27118644
200	0x3e7a6bdb	0.24455206
201	0x3e5f25d0	0.21791768
202	0x3e85e37d	0.26150122
203	0x3e7f6151	0.24939467
204	0x3e6910bc	0.2276029
205	0x3e6910bc	0.2276029
206	0x3e5f25d0	0.21791768
207	0x3e57b59e	0.21065375
208	0x3e5a3059	0.21307506
209	0x3e669601	0.2251816
210	0x3e6e0633	0.23244552
211	0x3e5f25d0	0.21791768
212	0x3e61a08b	0.22033899
213	0x3e6910bc	0.2276029
214	0x3e7a6bdb	0.24455206
215	0x3e669601	0.2251816
216	0x3e641b46	0.22276029
217	0x3e50456c	0.20338982
218	0x3e5cab14	0.21549636
219	0x3e50456c	0.20338982
220	0x3e669601	0.2251816
221	0x3e5a3059	0.21307506
222	0x3e5a3059	0.21307506
223	0x3e641b46	0.22276029
224	0x3e6910bc	0.2276029
225	0x3e6910bc	0.2276029
226	0x3e48d53b	0.19612591
227	0x3e553ae3	0.20823245
228	0x3e48d53b	0.19612591
229	0x3e553ae3	0.20823245
230	0x3e61a08b	0.22033899
231	0x3e416509	0.18886198
232	0x3e52c028	0.20581114
233	0x3e5a3059	0.21307506
234	0x3e50456c	0.20338982
235	0x3e48d53b	0.19612591
236	0x3e5a3059	0.21307506
237	0x3e669601	0.2251816
238	0x3e50456c	0.20338982
239	0x3e5cab14	0.21549636
240	0x3e61a08b	0.22033899
241	0x3e52c028	0.20581114
242	0x3e465a80	0.1937046
243	0x3e553ae3	0.20823245
244	0x3e39f4d8	0.18159807
245	0x3e641b46	0.22276029
246	0x3e416509	0.18886198
247	0x3e43dfc4	0.19128329
248	0x3e5cab14	0.21549636
249	0x3e57b59e	0.21065375
250	0x3e48d53b	0.19612591
251	0x3e50456c	0.20338982
252	0x3e52c028	0.20581114
253	0x3e50456c	0.20338982
254	0x3e34ff61	0.17675544
255	0x3e48d53b	0.19612591

item_pop_true f4 [1154, 1]
0	0x3f800000	1.0
1	0x3f50e41b	0.8159806
2	0x3f5991aa	0.8498789
3	0x3f5d49c3	0.86440676
4	0x3f4e6960	0.8062954
5	0x3f4e6960	0.8062954
6	0x3f4c8d54	0.7990315
7	0x3f4027ac	0.75060534
8	0x3f395629	0.72397095
9	0x3f377a1d	0.71670705
10	0x3f2d8f30	0.6779661
11	0x3f363cbf	0.7118644
12	0x3f2442f2	0.6416465
13	0x3f208ad9	0.62711865
14	0x3f2899b9	0.6585956
15	0x3f26bdad	0.6513317
16	0x3f2266e5	0.63438255
17	0x3f1d716f	0.6150121
18	0x3f2266e5	0.63438255
19	0x3f110bc7	0.56658596
20	0x3f142531	0.5786925
21	0x3f14c3e0	0.5811138
22	0x3f085e38	0.53268766
23	0x3f0e910c	0.55690074
24	0x3f0df25d	0.5544794
25	0x3f0368c1	0.51331717
26	0x3f0720da	0.527845
27	0x3f0368c1	0.51331717
28	0x3f00ee06	0.50363195
29	0x3ef57664	0.47941887
30	0x3f05e37d	0.52300245
31	0x3f02ca13	0.5108959
32	0x3f00ee06	0.50363195
33	0x3f004f57	0.50121063
34	0x3ee910bc	0.4552058
35	0x3ef1be4c	0.47215497
36	0x3f02ca13	0.5108959
37	0x3ef92e7d	0.4866828
38	0x3f02ca13	0.5108959
39	0x3ee1a08b	0.44067797
40	0x3ee2dde8	0.44309926
41	0x3efba938	0.4915254
42	0x3ef92e7d	0.4866828
43	0x3f0720da	0.527845
44	0x3ee910bc	0.4552058
45	0x3ee910bc	0.4552058
46	0x3edcab14	0.43099272
47	0x3ee41b46	0.44552058
48	0x3ee0632d	0.43825665
49	0x3ee558a4	0.4479419
50	0x3eea4e1a	0.45762712
51	0x3eeb8b78	0.46004844
52	0x3ed67840	0.41888618
53	0x3ee41b46	0.44552058
54	0x3ee2dde8	0.44309926
55	0x3ee2dde8	0.44309926
56	0x3eecc8d5	0.46246973
57	0x3ee558a4	0.4479419
58	0x3ed67840	0.41888618
59	0x3eda3059	0.4261501
60	0x3ec8d53b	0.39225182
61	0x3edde872	0.43341404
62	0x3ed7b59e	0.4213075
63	0x3edcab14	0.43099272
64	0x3eca1298	0.3946731
65	0x3ecc8d54	0.39951575
66	0x3eda3059	0.4261501
67	0x3ed53ae3	0.4164649
68	0x3eca1298	0.3946731
69	0x3ec797dd	0.3898305
70	0x3ed182ca	0.40920097
71	0x3ecc8d54	0.39951575
72	0x3ebeea4e	0.37288135
73	0x3edf25d0	0.43583536
74	0x3eca1298	0.3946731
75	0x3ed3fd85	0.41404358
76	0x3ec027ac	0.37530267
77	0x3ed182ca	0.40920097
78	0x3ecb4ff6	0.39709443
79	0x3ecf080f	0.40435836
80	0x3ec797dd	0.3898305
81	0x3eb63cbf	0.3559322
82	0x3eb8b77a	0.36077482
83	0x3ec797dd	0.3898305
84	0x3eb14749	0.346247
85	0x3eb8b77a	0.36077482
86	0x3ec3dfc4	0.38256657
87	0x3ec51d22	0.3849879
88	0x3eb9f4d8	0.36319613
89	0x3eb63cbf	0.3559322
90	0x3ebc6f93	0.36803874
91	0x3ebeea4e	0.37288135
92	0x3eac51d2	0.33656174
93	0x3eb3c204	0.3510896
94	0x3eac51d2	0.33656174
95	0x3eb009eb	0.34382567
96	0x3eb4ff61	0.3535109
97	0x3eb8b77a	0.36077482
98	0x3ea9d717	0.33171913
99	0x3ebb3235	0.36561742
100	0x3ead8f30	0.33898306
101	0x3eaecc8d	0.34140435
102	0x3eb63cbf	0.3559322
103	0x3eb009eb	0.34382567
104	0x3eb284a6	0.34866828
105	0x3ea61efe	0.3244552
106	0x3ea4e1a1	0.3220339
107	0x3eb009eb	0.34382567
108	0x3eaecc8d	0.34140435
109	0x3ea4e1a1	0.3220339
110	0x3eab1475	0.33414045
111	0x3ea61efe	0.3244552
112	0x3eb77a1d	0.35835353
113	0x3e973e9b	0.29539952
114	0x3ea4e1a1	0.3220339
115	0x3ea3a443	0.3196126
116	0x3ea4e1a1	0.3220339
117	0x3ea75c5c	0.32687652
118	0x3ea61efe	0.3244552
119	0x3e9d716f	0.30750605
120	0x3ea266e5	0.31719127
121	0x3ea4e1a1	0.3220339
122	0x3ea4e1a1	0.3220339
123	0x3eac51d2	0.33656174
124	0x3e9eaecd	0.30992737
125	0x3e973e9b	0.29539952
126	0x3e94c3e0	0.2905569
127	0x3e9c3411	0.30508474
128	0x3e9af6b4	0.30266345
129	0x3ea12988	0.31476998
130	0x3ea266e5	0.31719127
131	0x3e96013d	0.2929782
132	0x3ea266e5	0.31719127
133	0x3e910bc7	0.28329298
134	0x3e8ad8f3	0.27118644
135	0x3e924925	0.2857143
136	0x3e910bc7	0.28329298
137	0x3e99b956	0.30024213
138	0x3e94c3e0	0.2905569
139	0x3e973e9b	0.29539952
140	0x3e8d53ae	0.27602905
141	0x3e910bc7	0.28329298
142	0x3e973e9b	0.29539952
143	0x3e85e37d	0.26150122
144	0x3e899b95	0.26876512
145	0x3e910bc7	0.28329298
146	0x3e8ad8f3	0.27118644
147	0x3e924925	0.2857143
148	0x3e8c1651	0.27360776
149	0x3e885e38	0.26634383
150	0x3e7f6151	0.24939467
151	0x3e8e910c	0.27845037
152	0x3e910bc7	0.28329298
153	0x3ea12988	0.31476998
154	0x3e910bc7	0.28329298
155	0x3e910bc7	0.28329298
156	0x3e8d53ae	0.27602905
157	0x3e8368c1	0.25665858
158	0x3e8ad8f3	0.27118644
159	0x3e8ad8f3	0.27118644
160	0x3e973e9b	0.29539952
161	0x3e94c3e0	0.2905569
162	0x3e8e910c	0.27845037
163	0x3e885e38	0.26634383
164	0x3e924925	0.2857143
165	0x3e8ad8f3	0.27118644
166	0x3e822b64	0.2542373
167	0x3e8d53ae	0.27602905
168	0x3e7f6151	0.24939467
169	0x3e94c3e0	0.2905569
170	0x3e8fce69	0.28087166
171	0x3e99b956	0.30024213
172	0x3e822b64	0.2542373
173	0x3e899b95	0.26876512
174	0x3e8368c1	0.25665858
175	0x3e973e9b	0.29539952
176	0x3e8c1651	0.27360776
177	0x3e84a61f	0.2590799
178	0x3e84a61f	0.2590799
179	0x3e8e910c	0.27845037
180	0x3e7ce696	0.24697337
181	0x3e6e0633	0.23244552
182	0x3e7f6151	0.24939467
183	0x3e7a6bdb	0.24455206
184	0x3e7ce696	0.24697337
185	0x3e8d53ae	0.27602905
186	0x3e885e38	0.26634383
187	0x3e6b8b78	0.23002422
188	0x3e7a6bdb	0.24455206
189	0x3e7ce696	0.24697337
190	0x3e84a61f	0.2590799
191	0x3e8ad8f3	0.27118644
192	0x3e899b95	0.26876512
193	0x3e8720da	0.2639225
194	0x3e4dcab1	0.20096852
195	0x3e77f120	0.24213076
196	0x3e5cab14	0.21549636
197	0x3e822b64	0.2542373
198	0x3e8368c1	0.25665858
199	0x3e8ad8f3	0.27118644
200	0x3e7a6bdb	0.24455206
201	0x3e5f25d0	0.21791768
202	0x3e85e37d	0.26150122
203	0x3e7f6151	0.24939467
204	0x3e6910bc	0.2276029
205	0x3e6910bc	0.2276029
206	0x3e5f25d0	0.21791768
207	0x3e57b59e	0.21065375
208	0x3e5a3059	0.21307506
209	0x3e669601	0.2251816
210	0x3e6e0633	0.23244552
211	0x3e5f25d0	0.21791768
212	0x3e61a08b	0.22033899
213	0x3e6910bc	0.2276029
214	0x3e7a6bdb	0.24455206
215	0x3e669601	0.2251816
216	0x3e641b46	0.22276029
217	0x3e50456c	0.20338982
218	0x3e5cab14	0.21549636
219	0x3e50456c	0.20338982
220	0x3e669601	0.2251816
221	0x3e5a3059	0.21307506
222	0x3e5a3059	0.21307506
223	0x3e641b46	0.22276029
224	0x3e6910bc	0.2276029
225	0x3e6910bc	0.2276029
226	0x3e48d53b	0.19612591
227	0x3e553ae3	0.20823245
228	0x3e48d53b	0.19612591
229	0x3e553ae3	0.20823245
230	0x3e61a08b	0.22033899
231	0x3e416509	0.18886198
232	0x3e52c028	0.20581114
233	0x3e5a3059	0.21307506
234	0x3e50456c	0.20338982
235	0x3e48d53b	0.19612591
236	0x3e5a3059	0.21307506
237	0x3e669601	0.2251816
238	0x3e50456c	0.20338982
239	0x3e5cab14	0.21549636
240	0x3e61a08b	0.22033899
241	0x3e52c028	0.20581114
242	0x3e465a80	0.1937046
243	0x3e553ae3	0.20823245
244	0x3e39f4d8	0.18159807
245	0x3e641b46	0.22276029
246	0x3e416509	0.18886198
247	0x3e43dfc4	0.19128329
248	0x3e5cab14	0.21549636
249	0x3e57b59e	0.21065375
250	0x3e48d53b	0.19612591
251	0x3e50456c	0.20338982
252	0x3e52c028	0.20581114
253	0x3e50456c	0.20338982
254	0x3e34ff61	0.17675544
255	0x3e48d53b	0.19612591

lr1.weight f4 [1, 63]
0	0x3d70bd02	0.058774002
1	0x3c86d715	0.016459981
2	0x3ddca945	0.10774473
3	0xbe38a556	-0.1803182
4	0x3e097275	0.13422568
5	0x3cea888c	0.028629564
6	0x3e0346d3	0.12819986
7	0xbc36fd3c	-0.011168774
8	0xbc2bef18	-0.010494016
9	0xbde54730	-0.111952186
10	0xbca56c20	-0.02019316
11	0xbe351127	-0.17682324
12	0xbd4c3896	-0.049858652
13	0xbd185c96	-0.03719767
14	0xbb3e45b9	-0.0029033257
15	0x3b50d058	0.0031862464
16	0xbdb9d1cb	-0.09073218
17	0xbdea0a9c	-0.11427805
18	0x3d08ad21	0.033368234
19	0xbce561b5	-0.028000692
20	0x3c3567c1	0.0110721
21	0xbd256647	-0.040380742
22	0xbd64bff5	-0.055847127
23	0x3d096bab	0.033549946
24	0x3c917adb	0.017758777
25	0xbe39a60c	-0.18129748
26	0x3d3d72e8	0.04625216
27	0x3e5b084f	0.21389888
28	0xbdb87e78	-0.09008497
29	0xbdb908f9	-0.090349145
30	0x3da0296f	0.07820403
31	0x3e2995c0	0.16561031
32	0xbd300c4d	-0.04298048
33	0xbd37d9fc	-0.04488562
34	0x3d78007a	0.06054733
35	0x3caa4739	0.020785915
36	0x3b8d2434	0.0043072943
37	0x3e0ecd67	0.13945542
38	0xbd8fe91b	-0.07026883
39	0xbd98573d	-0.074385144
40	0x3d82fc7e	0.06395815
41	0x3d80e323	0.06293323
42	0x3d863432	0.06552924
43	0xbca19cdd	-0.019728119
44	0xbc61127f	-0.01373732
45	0xbdba23f4	-0.09088889
46	0xbd56c156	-0.052430473
47	0xbe9d1a66	-0.30684203
48	0x3e747b75	0.2387522
49	0xbdc3322f	-0.09531056
50	0xbdeeae67	-0.11654358
51	0x3db2d7a9	0.0873254
52	0x3e28bf3a	0.16479197
53	0x3e2224dc	0.15834373
54	0xbc803a1c	-0.015652709
55	0x3e49120c	0.1963579
56	0x3b82da98	0.0039933436
57	0xbe751535	-0.23933871
58	0xbb928087	-0.004470888
59	0xbe1b7766	-0.15182266
60	0x3d1903b6	0.037357055
61	0xbe11acc0	-0.14226055
62	0x3bd1e00b	0.006404882
