pid/result/ml100k-PIDMF-debug2023-03-14-10-32-30/ckpt/epoch_42.pth (torch_old, 543278 bytes, 5 tensors)

users f4 [945, 64]
000000 78 66 bf 3f 70 a7 8e be 76 31 17 bf b0 b5 9b 3e
       1.4953146 -0.2786212 -0.59059846 0.30412054
000010 7d 87 cd 3d dc bb 46 be 2e 28 f6 3e 58 4e f8 be
       0.10035608 -0.194076 0.4807753 -0.48497272
000020 0b a8 1f bf 57 a0 02 be b1 cb 1c 3f c6 b4 b7 be
       -0.6236579 -0.12756477 0.6124831 -0.35880107
000030 fd 83 00 bf fc ec 82 3e 09 af 3e 3f d7 cd 48 be
       -0.502014 0.2557143 0.7448583 -0.19609772
000040 0b 17 9b 3f 36 2f 04 3f 2c 45 59 3f 2f 7d e5 3e
       1.2116407 0.5163454 0.8487117 0.4482207
000050 59 55 36 3f 8f 25 96 be 5f 9d 5b bf ea 6f ba be
       0.7122398 -0.2932553 -0.85787004 -0.3641351
000060 93 3a 5a 3f a0 91 67 3f 7c 2f d1 bc ed 25 55 be
       0.8524563 0.9045658 -0.025535338 -0.20815249
000070 c9 23 3e bf 52 8d 2d bf 9d 2a 11 bf 07 0b 06 3e
       -0.74273354 -0.6779376 -0.5670565 0.13090144
000080 13 d9 33 bf c8 c6 2d bf e3 30 18 bf fc 5a 29 bf
       -0.70253104 -0.6788144 -0.59449595 -0.66154456
000090 fc 61 54 bf bd 59 3c 38 1f b7 1b bf 27 43 84 bf
       -0.8296201 4.4906268e-05 -0.60826296 -1.0332993
0000a0 c1 3a cf be f0 99 15 3f d6 b6 f2 be fb 04 79 3d
       -0.40474513 0.58438015 -0.47405118 0.060795765
0000b0 28 2a 92 bf ed 06 3b bf 5f 04 37 3f 88 d4 1b be
       -1.1419115 -0.7305744 0.71491045 -0.15217793
0000c0 74 b6 42 3e 4b 44 64 3e 6d b5 72 bf a2 30 3c bf
       0.19014913 0.22291677 -0.94808084 -0.7351171
0000d0 f1 6f 60 3f 31 47 77 bf be 1c 47 bd 04 f8 65 3f
       0.8767081 -0.96593004 -0.048611395 0.89831567
0000e0 57 cc 61 3e 13 42 ec 3e 17 38 72 3e 58 2b 8a 3f
       0.22050606 0.4614416 0.23654209 1.0794477
0000f0 77 13 a9 3e 0e f6 04 bf 22 66 43 be 01 38 2b 3e
       0.33022663 -0.5193795 -0.1908193 0.16720583
000100 cf dd 11 3f 47 62 90 be 0c b7 11 3e 67 8a 40 bf
       0.5697908 -0.2819998 0.14229983 -0.75211185
000110 3a 17 4c bf 2e c7 cd be 7b 83 6f 3f 7d 15 50 3f
       -0.7972294 -0.40191025 0.9356 0.8128279
000120 1a ae a9 3d 88 18 fb bd 5b 01 7d bd ad be 66 bf
       0.0828516 -0.12260538 -0.06176887 -0.901347
000130 a0 4c a1 bd c7 84 12 3d d6 4b b9 3e 4d 79 49 be
       -0.07875943 0.035771158 0.3619067 -0.19675179
000140 b8 ae 3c 3e 4b 95 bf 3d ff 2d 92 3e a2 89 02 3f
       0.18426025 0.09354647 0.28550717 0.5099126
000150 71 b8 56 3e 20 ba f0 bc d8 52 4f 3f e2 28 bc be
       0.20968796 -0.029385626 0.80985785 -0.3674994
000160 a0 a9 ab 3e 5e ab 9e 3f 0d 4a 6a bf de 5b 85 bf
       0.3352785 1.2396047 -0.9151924 -1.0418661
000170 e3 68 84 bf f9 1a 8f bf 39 4f b7 3e 1a b0 7d bf
       -1.0344509 -1.1180106 0.3580263 -0.99096835
000180 a9 55 49 3f f7 23 1f 3d 8c e2 e2 3e b1 c8 0e 3f
       0.7864633 0.038852658 0.44313467 0.5577498
000190 43 d1 b6 be de ad 4b 3e fc cd 5e bf 73 2f b4 bf
       -0.3570653 0.19890544 -0.8703306 -1.407698
0001a0 7f bc 52 3e d1 c9 8c be 25 61 39 3f 38 54 90 be
       0.20579718 -0.27497724 0.72413856 -0.28189254
0001b0 0c a8 4a 3f 18 09 39 bf 4f 25 d9 be 06 7c 26 bf
       0.7916267 -0.722795 -0.42411277 -0.65032995
0001c0 f9 38 62 3e 55 c0 8a bf a3 fb 94 3e bf 25 62 bf
       0.22092046 -1.0839945 0.29098234 -0.88338846
0001d0 c0 1d 11 bf 4c e1 a9 3e 0f fe de be de 32 63 bf
       -0.5668602 0.331797 -0.43553206 -0.8874949
0001e0 f4 52 08 3f a6 8a 3e 3e 16 0e bf bc 91 28 ed 3e
       0.53251576 0.18607578 -0.023322146 0.46320012
0001f0 ab db 90 3d 65 ad 5c 3f 5b d1 e7 be 1e 61 2e be
       0.07073148 0.8620208 -0.45276913 -0.17029235
000200 75 42 37 bf 4a 6d da be bd 6f f8 be 0a 78 ac be
       -0.7158578 -0.42661506 -0.4852275 -0.33685333
000210 46 5e 16 be 01 ec 3f 3f 3f 11 e9 3e ab 23 11 3d
       -0.146844 0.7496949 0.4552097 0.035434406
000220 50 04 c4 3e 59 18 80 bf c6 69 f6 3e 05 24 3e 3d
       0.3828454 -1.000743 0.48127574 0.04642107
000230 4c 30 1f bf cf 95 0e 3f 68 2d e4 3e d0 01 cd be
       -0.6218307 0.5569734 0.44565892 -0.40040445
000240 04 51 7c bf 15 72 00 be 9f e1 9c 3f 9c 8b e6 3e
       -0.9856112 -0.12543519 1.2256354 0.45028389
000250 60 7b 07 bf 9c 65 02 3f 27 dc 4e bf cb 45 e3 3d
       -0.5292263 0.50936294 -0.80804676 0.11097296
000260 a2 62 71 be da e8 8c 3f 67 84 dd bd 17 bf 6d bf
       -0.23572782 1.1008561 -0.10816269 -0.92869705
000270 ad 5e 6c be 4e 7f 97 be 5e e4 c4 be c6 37 59 bf
       -0.23082991 -0.29589313 -0.3845548 -0.8485073
000280 1f 19 75 bf 0a 16 07 bd da ee 89 bf 9d 7d 2b be
       -0.95741457 -0.032980002 -1.0776017 -0.16747136
000290 17 69 6b 3f e0 e0 15 3e 90 e7 8f be 06 e8 70 bf
       0.9195723 0.14636564 -0.28106356 -0.9410404
0002a0 41 f5 20 3f 0b d8 c0 3d 20 30 0f bf ce e8 2e bf
       0.6287423 0.09416207 -0.5593281 -0.6832398
0002b0 db d1 63 bf 51 7b f5 3d b1 96 15 3f a6 8a 9a bf
       -0.8899209 0.11986411 0.5843306 -1.2073562
0002c0 0b de 71 3e e5 0a 73 3e 56 72 8f be ef aa 83 3e
       0.23619859 0.23734625 -0.2801692 0.2571635
0002d0 02 59 95 bf 96 4e d1 bd c9 4b eb 3e 3f c2 af be
       -1.1667788 -0.10220067 0.45956257 -0.34327886
0002e0 1b a3 cc be be 93 63 3e 94 99 ad 3e f7 19 2c be
       -0.3996819 0.22224328 0.33906233 -0.1680678
0002f0 95 c0 a7 3d 4b 7d 41 3f f8 6a eb be ac 28 cd 3d
       0.08191029 0.75581807 -0.45980048 0.10017523
000300 2f a0 27 3f a6 ff 03 bf 83 83 66 3f 9c 20 2f be
       0.65478796 -0.51561964 0.9004442 -0.17102283
000310 ae a9 70 bf 78 e3 34 bc dd 3f 96 3f 77 b3 99 be
       -0.9400891 -0.011040561 1.173824 -0.30019733
000320 84 b5 49 3e a3 97 8c 3e b8 70 7e 3f f2 f9 85 bf
       0.19698149 0.2745944 0.99390745 -1.0466902
000330 c0 b0 4c 3d 63 f2 65 3e bc bc 2b 3f a5 16 ac be
       0.04997325 0.22455744 0.6708486 -0.33611026
000340 af 7e 0c 3f b4 d9 41 3e ce c4 0f 3f 01 e2 5b be
       0.54880804 0.18930703 0.56159675 -0.21472932
000350 69 8f 10 be 27 0c df be 37 3b 10 bf 45 23 d1 be
       -0.14117207 -0.4356396 -0.56340355 -0.4084722
000360 31 2c 49 bf 58 7f b7 be 58 2a 81 3f d2 f6 2f bf
       -0.78583056 -0.35839343 1.0091047 -0.6873599
000370 29 83 59 3e 42 a5 64 be 34 2b 81 3f 35 87 15 3f
       0.2124144 -0.22328666 1.009131 0.58409435
000380 e1 34 75 3f fd 56 7d bf c6 1d 8d be 27 63 db be
       0.9578381 -0.9896086 -0.27561778 -0.42849085
000390 dd 79 0f be 73 cb 57 bf 78 4a 6c 3d 1d de ae 3e
       -0.14011331 -0.84294814 0.057688206 0.34153834
0003a0 72 e3 0f bf ee e8 e8 3d d6 94 e8 3d 22 08 38 3e
       -0.5620643 0.11372553 0.11356513 0.17971852
0003b0 8a 4d 61 bf bf 86 80 bc 29 9b f3 3e 3c 13 e6 bc
       -0.8800894 -0.015689252 0.47579315 -0.028085344
0003c0 6e e1 b9 3e 6c 04 95 3e 6c f3 a9 bd cd aa 20 bf
       0.36304802 0.29104936 -0.08298382 -0.6276062
0003d0 ac de dd 3f e3 00 8d bf 55 9d e0 3e 5c d7 5a bf
       1.7333579 -1.1015896 0.43870035 -0.8548486
0003e0 bc d3 8e be 61 b0 04 3f 27 ca 70 3e 72 78 0c 3f
       -0.27895916 0.5183163 0.23514615 0.54871285
0003f0 a2 91 5b be 1f e6 8a 3e 19 f4 44 3e c0 fb f2 3d
       -0.21442273 0.27128693 0.19233741 0.11864424

items_id f4 [1154, 63]
000000 b3 fe 18 3f 27 99 10 3f 1f 91 48 3e 41 45 eb bd
       0.5976364 0.5648369 0.1958661 -0.114878185
000010 5c 13 1f 3e 72 60 e3 3e 7d e1 15 3f 2d d0 17 3f
       0.15534729 0.4440952 0.5854719 0.59302026
000020 58 02 14 3f 9a 91 d4 be 7e 0b 26 3f c3 45 eb bd
       0.57816076 -0.41517335 0.64861286 -0.11487915
000030 a8 8b c5 be b5 69 06 3f 57 0e ed 3e a2 58 d6 be
       -0.38583112 0.52505046 0.46300003 -0.41864496
000040 94 dc 38 be 07 8e 98 be 95 15 a8 3e 13 13 32 3f
       -0.18052894 -0.29795858 0.32828966 0.69560355
000050 c0 30 2f 3f bd 7e dd 3e c2 87 b2 be 2e b1 9d 3e
       0.6843376 0.43260756 -0.348692 0.3079924
000060 9c c1 89 be aa 70 0b 3d 88 70 a9 3e 4e 8e 77 3e
       -0.26905525 0.03404299 0.33093667 0.24175379
000070 c3 87 6e be 8f 54 b2 be 63 9d e1 3e 4c 15 14 3e
       -0.23293976 -0.34830138 0.4406539 0.14461249
000080 09 51 2f be 88 9f f5 be e1 dd 8c 3e 13 f1 84 3e
       -0.17120756 -0.47973275 0.2751303 0.25965175
000090 e9 a2 41 3f 27 83 b1 3e 39 53 9c be 10 84 6c be
       0.75639206 0.34670374 -0.30532244 -0.23097253
0000a0 5f 8f 97 be ea e2 87 3e 0c 20 95 3e 94 b8 12 bf
       -0.2960157 0.2654031 0.29126012 -0.57312894
0000b0 bd 88 20 bf 2f 23 73 be e3 9a f2 3e 44 5f 92 3d
       -0.62708646 -0.2374389 0.47383794 0.07147077
0000c0 51 ea d2 3d 59 1f ac be 2a 6e 99 be 0f 38 10 3d
       0.102985986 -0.33617666 -0.2996686 0.03520971
0000d0 ae 1f 5b 3e a6 c3 9f bb e1 5a 2c bf c3 cf 52 3e
       0.21398804 -0.004875618 -0.6732617 0.20587067
0000e0 ed 99 17 bf d1 16 07 3d b9 35 a8 be b6 00 06 be
       -0.5921925 0.032980744 -0.32853487 -0.13086209
0000f0 b6 d2 a2 3e 51 15 2e be f6 67 f8 3e a7 e1 44 3e
       0.31801385 -0.17000319 0.48516816 0.19226705
000100 da 66 a0 3e 81 ca 0c 3e a3 5f af 3c 92 e1 17 3f
       0.3132847 0.13749124 0.021407908 0.5932857
000110 d8 6c 9e 3d 7a 1c 2d 3f ac b2 dc 3d e6 82 25 3d
       0.07735604 0.67621577 0.107762665 0.040408038
000120 3c 4c 58 bd 72 b3 62 3c d8 57 1e bd a6 75 82 be
       -0.052807078 0.013836728 -0.038657993 -0.25480384
000130 9b c1 96 3d da b0 ed 3c 1f bd 76 be 4c 21 a6 be
       0.07361146 0.029014993 -0.24095581 -0.32447278
000140 a2 f2 f8 bd ce 22 81 3e 7f 60 a5 3c 76 88 92 3e
       -0.121556535 0.25221866 0.020187614 0.28619736
000150 65 ee 9e 3e f4 81 c6 bd 46 6d b8 3e a0 05 4d be
       0.31041256 -0.09692755 0.3602087 -0.20021677
000160 4a 38 42 be 69 34 71 3d 80 b2 32 3d 19 a5 b1 3c
       -0.18966785 0.058887873 0.043627262 0.02168517
000170 5e 4c 1c 3a 0f af 21 bd 20 ac b1 3d bd c6 46 be
       0.00059623073 -0.03947359 0.08675408 -0.1941175
000180 5b 11 91 be 44 7e 79 3e aa 3f fd 3d c9 25 b0 3e
       -0.28333554 0.24364573 0.123656586 0.34403828
000190 7b d5 0b 3e 69 13 d1 bd 02 13 c8 bd da 48 30 be
       0.13655655 -0.1020878 -0.097692505 -0.1721529
0001a0 a7 57 76 3e 69 7d b6 bc 3a 04 68 bd 4d 64 64 be
       0.24056874 -0.022276597 -0.056644656 -0.22303887
0001b0 eb c2 8e bd 78 87 d0 3c 60 8c df bd 46 db c4 3d
       -0.069707714 0.025455222 -0.10915446 0.096121356
0001c0 da 6e 41 3b f7 0e 10 bd ba 46 4e 3d 24 7e 47 3e
       0.0029515536 -0.03517052 0.05036042 0.19481713
0001d0 aa 47 53 3e 40 29 9f 3d 5e 41 57 3e 3d 31 cc be
       0.20632806 0.0777154 0.2102103 -0.39881316
0001e0 2b 70 da bd 67 cd 32 bb d8 68 10 be 0e 4e 91 3b
       -0.106659256 -0.0027283074 -0.14102495 0.0044343537
0001f0 2f e4 94 be 87 0b c2 3d 25 70 a9 3e ed 0a c2 3e
       -0.2908034 0.09474855 0.33093372 0.3789896
000200 f0 ca 1d 3e eb 10 ae bd 7c e7 b5 3e 46 6f 88 3e
       0.15409446 -0.084993206 0.3552817 0.26647395
000210 e9 45 da 3d fc 5b 3c 3e da 78 c0 3e 40 f8 94 be
       0.106578656 0.18394464 0.37592202 -0.2909565
000220 0c bc cf 3e eb 5b 85 be 7a 68 92 be aa 9f 26 3e
       0.40573156 -0.2604669 -0.28595334 0.16271845
000230 55 a6 2d 3e 01 95 22 be a1 fe 8c be 22 c7 0b 3c
       0.16957982 -0.15877153 -0.27538016 0.008531364
000240 e1 d2 ba 3d 01 4a 78 3e e8 ef b5 3e 1b eb c1 3e
       0.09122253 0.2424698 0.35534596 0.37874684
000250 97 a7 53 be dd 3e 84 3e d5 c1 d8 bd 77 ad 81 bd
       -0.20669399 0.2582921 -0.105838455 -0.06331914
000260 cf e9 9c 3d 96 4d 72 3e 31 94 dd bd 9b 2c 28 bd
       0.07661783 0.23662409 -0.10819281 -0.041058164
000270 e2 3b 81 3e 1d ee 45 3d 29 8e 90 be df 82 bf be
       0.25241 0.048322786 -0.2823346 -0.37404534
000280 3f 2f 0d 3e 62 f3 ab 3d 17 fb db 3e 38 f8 fb 3d
       0.13787554 0.08396031 0.42965004 0.12303203
000290 a1 dc f2 bd ee 93 86 be 74 4f 45 be e3 e9 f1 3d
       -0.11858488 -0.26284736 -0.1926859 0.118121885
0002a0 ff bf 81 3e 0c cb b5 be 1c 80 84 be 23 ce 56 be
       0.25341794 -0.35506475 -0.2587899 -0.20977072
0002b0 65 18 46 3e ae 7d 06 be f0 7c a7 3d 56 1a 41 be
       0.19345243 -0.1313388 0.08178127 -0.18857703
0002c0 59 88 85 be 8d c9 ba 3d 6c 6c 4f 3e 0b ba 3c 3e
       -0.26080588 0.09120474 0.20256203 0.18430345
0002d0 53 ea c8 be 55 80 a0 3b 73 62 97 be 5e d0 6b bd
       -0.39241275 0.004898111 -0.29567298 -0.05757176
0002e0 67 51 eb bd 2d 65 24 be 05 52 96 3d 8d 6a 29 be
       -0.11490136 -0.1605422 0.07339863 -0.16544552
0002f0 db de 95 3e 58 40 d8 3e 49 b0 24 3e 93 f0 37 3e
       0.29271588 0.4223659 0.16082872 0.17962866
000300 36 ec 60 be fb 6a 65 3e e2 07 d7 3d ec 2f c0 3e
       -0.21965107 0.22404091 0.104995504 0.3753656
000310 99 62 aa 3e 90 c7 c8 3e 25 b3 87 be a1 dc 31 3e
       0.3327835 0.39214754 -0.26503864 0.1736932
000320 1e b6 75 be 8b c4 1c be 37 7e 87 3e f8 63 44 3e
       -0.23995253 -0.1530935 0.26463482 0.1917876
000330 a8 06 ce be 76 85 63 be 41 ba 24 be 2e bd d7 3d
       -0.40239453 -0.2221888 -0.16086675 0.1053413
000340 c8 84 42 3e 1e cf cd 3e 49 43 10 3e 42 08 cd bd
       0.18995965 0.4019708 0.14088167 -0.10011341
000350 bb 4c a6 3d 54 a0 b5 bd a4 82 1e be 5a 77 5e 3e
       0.08120104 -0.08868471 -0.15479523 0.21725217
000360 b4 27 2e 3e d0 3c 5e be ce 1c 14 be 53 50 a5 3e
       0.17007333 -0.21702886 -0.14464113 0.32287845
000370 f9 84 13 3e 92 63 99 bd 89 7b 8e be 75 b6 99 3e
       0.14406194 -0.07489695 -0.27828625 0.30022016
000380 45 53 e0 3d 5d 4d 95 3e a6 45 9f 3d 1c ef 7a be
       0.109533824 0.29160586 0.07776956 -0.24505275
000390 9f f7 57 be 96 c9 45 be 18 4c ad 3d ca 6b d4 3d
       -0.21090554 -0.1931518 0.08461779 0.10372122
0003a0 df f3 bc be d9 eb 55 be ac f1 52 bd 5d a1 ce 3d
       -0.3690481 -0.2089075 -0.051500008 0.10089371
0003b0 0c e8 92 3b 6a c9 97 bd c5 0d 6c be d6 ab 1a be
       0.0044832285 -0.074114636 -0.23052128 -0.15104613
0003c0 8f 05 8f 3d c2 5d ce 3d cf b1 2d 3e 7b 3c d1 be
       0.06983482 0.10076477 0.1696236 -0.40866455
0003d0 c9 ca 5a 3e fa 10 5d be 45 f9 a4 bd c1 56 81 bd
       0.21366419 -0.21588507 -0.08055357 -0.06315375
0003e0 54 1c d1 bd df 10 2e 3e 5f 1b 99 be f6 71 40 3e
       -0.10210481 0.16998623 -0.29903695 0.18793473
0003f0 70 ba c1 3e f0 56 88 3e 07 58 82 3e 69 9e 8e 3d
       0.37837553 0.26628828 0.25457785 0.06963808

item_pop f4 [1154, 1]
000000 00 00 80 3f 1b e4 50 3f aa 91 59 3f c3 49 5d 3f
       1.0 0.8159806 0.8498789 0.86440676
000010 60 69 4e 3f 60 69 4e 3f 54 8d 4c 3f ac 27 40 3f
       0.8062954 0.8062954 0.7990315 0.75060534
000020 29 56 39 3f 1d 7a 37 3f 30 8f 2d 3f bf 3c 36 3f
       0.72397095 0.71670705 0.6779661 0.7118644
000030 f2 42 24 3f d9 8a 20 3f b9 99 28 3f ad bd 26 3f
       0.6416465 0.62711865 0.6585956 0.6513317
000040 e5 66 22 3f 6f 71 1d 3f e5 66 22 3f c7 0b 11 3f
       0.63438255 0.6150121 0.63438255 0.56658596
000050 31 25 14 3f e0 c3 14 3f 38 5e 08 3f 0c 91 0e 3f
       0.5786925 0.5811138 0.53268766 0.55690074
000060 5d f2 0d 3f c1 68 03 3f da 20 07 3f c1 68 03 3f
       0.5544794 0.51331717 0.527845 0.51331717
000070 06 ee 00 3f 64 76 f5 3e 7d e3 05 3f 13 ca 02 3f
       0.50363195 0.47941887 0.52300245 0.5108959
000080 06 ee 00 3f 57 4f 00 3f bc 10 e9 3e 4c be f1 3e
       0.50363195 0.50121063 0.4552058 0.47215497
000090 13 ca 02 3f 7d 2e f9 3e 13 ca 02 3f 8b a0 e1 3e
       0.5108959 0.4866828 0.5108959 0.44067797
0000a0 e8 dd e2 3e 38 a9 fb 3e 7d 2e f9 3e da 20 07 3f
       0.44309926 0.4915254 0.4866828 0.527845
0000b0 bc 10 e9 3e bc 10 e9 3e 14 ab dc 3e 46 1b e4 3e
       0.4552058 0.4552058 0.43099272 0.44552058
0000c0 2d 63 e0 3e a4 58 e5 3e 1a 4e ea 3e 78 8b eb 3e
       0.43825665 0.4479419 0.45762712 0.46004844
0000d0 40 78 d6 3e 46 1b e4 3e e8 dd e2 3e e8 dd e2 3e
       0.41888618 0.44552058 0.44309926 0.44309926
0000e0 d5 c8 ec 3e a4 58 e5 3e 40 78 d6 3e 59 30 da 3e
       0.46246973 0.4479419 0.41888618 0.4261501
0000f0 3b d5 c8 3e 72 e8 dd 3e 9e b5 d7 3e 14 ab dc 3e
       0.39225182 0.43341404 0.4213075 0.43099272
000100 98 12 ca 3e 54 8d cc 3e 59 30 da 3e e3 3a d5 3e
       0.3946731 0.39951575 0.4261501 0.4164649
000110 98 12 ca 3e dd 97 c7 3e ca 82 d1 3e 54 8d cc 3e
       0.3946731 0.3898305 0.40920097 0.39951575
000120 4e ea be 3e d0 25 df 3e 98 12 ca 3e 85 fd d3 3e
       0.37288135 0.43583536 0.3946731 0.41404358
000130 ac 27 c0 3e ca 82 d1 3e f6 4f cb 3e 0f 08 cf 3e
       0.37530267 0.40920097 0.39709443 0.40435836
000140 dd 97 c7 3e bf 3c b6 3e 7a b7 b8 3e dd 97 c7 3e
       0.3898305 0.3559322 0.36077482 0.3898305
000150 49 47 b1 3e 7a b7 b8 3e c4 df c3 3e 22 1d c5 3e
       0.346247 0.36077482 0.38256657 0.3849879
000160 d8 f4 b9 3e bf 3c b6 3e 93 6f bc 3e 4e ea be 3e
       0.36319613 0.3559322 0.36803874 0.37288135
000170 d2 51 ac 3e 04 c2 b3 3e d2 51 ac 3e eb 09 b0 3e
       0.33656174 0.3510896 0.33656174 0.34382567
000180 61 ff b4 3e 7a b7 b8 3e 17 d7 a9 3e 35 32 bb 3e
       0.3535109 0.36077482 0.33171913 0.36561742
000190 30 8f ad 3e 8d cc ae 3e bf 3c b6 3e eb 09 b0 3e
       0.33898306 0.34140435 0.3559322 0.34382567
0001a0 a6 84 b2 3e fe 1e a6 3e a1 e1 a4 3e eb 09 b0 3e
       0.34866828 0.3244552 0.3220339 0.34382567
0001b0 8d cc ae 3e a1 e1 a4 3e 75 14 ab 3e fe 1e a6 3e
       0.34140435 0.3220339 0.33414045 0.3244552
0001c0 1d 7a b7 3e 9b 3e 97 3e a1 e1 a4 3e 43 a4 a3 3e
       0.35835353 0.29539952 0.3220339 0.3196126
0001d0 a1 e1 a4 3e 5c 5c a7 3e fe 1e a6 3e 6f 71 9d 3e
       0.3220339 0.32687652 0.3244552 0.30750605
0001e0 e5 66 a2 3e a1 e1 a4 3e a1 e1 a4 3e d2 51 ac 3e
       0.31719127 0.3220339 0.3220339 0.33656174
0001f0 cd ae 9e 3e 9b 3e 97 3e e0 c3 94 3e 11 34 9c 3e
       0.30992737 0.29539952 0.2905569 0.30508474
000200 b4 f6 9a 3e 88 29 a1 3e e5 66 a2 3e 3d 01 96 3e
       0.30266345 0.31476998 0.31719127 0.2929782
000210 e5 66 a2 3e c7 0b 91 3e f3 d8 8a 3e 25 49 92 3e
       0.31719127 0.28329298 0.27118644 0.2857143
000220 c7 0b 91 3e 56 b9 99 3e e0 c3 94 3e 9b 3e 97 3e
       0.28329298 0.30024213 0.2905569 0.29539952
000230 ae 53 8d 3e c7 0b 91 3e 9b 3e 97 3e 7d e3 85 3e
       0.27602905 0.28329298 0.29539952 0.26150122
000240 95 9b 89 3e c7 0b 91 3e f3 d8 8a 3e 25 49 92 3e
       0.26876512 0.28329298 0.27118644 0.2857143
000250 51 16 8c 3e 38 5e 88 3e 51 61 7f 3e 0c 91 8e 3e
       0.27360776 0.26634383 0.24939467 0.27845037
000260 c7 0b 91 3e 88 29 a1 3e c7 0b 91 3e c7 0b 91 3e
       0.28329298 0.31476998 0.28329298 0.28329298
000270 ae 53 8d 3e c1 68 83 3e f3 d8 8a 3e f3 d8 8a 3e
       0.27602905 0.25665858 0.27118644 0.27118644
000280 9b 3e 97 3e e0 c3 94 3e 0c 91 8e 3e 38 5e 88 3e
       0.29539952 0.2905569 0.27845037 0.26634383
000290 25 49 92 3e f3 d8 8a 3e 64 2b 82 3e ae 53 8d 3e
       0.2857143 0.27118644 0.2542373 0.27602905
0002a0 51 61 7f 3e e0 c3 94 3e 69 ce 8f 3e 56 b9 99 3e
       0.24939467 0.2905569 0.28087166 0.30024213
0002b0 64 2b 82 3e 95 9b 89 3e c1 68 83 3e 9b 3e 97 3e
       0.2542373 0.26876512 0.25665858 0.29539952
0002c0 51 16 8c 3e 1f a6 84 3e 1f a6 84 3e 0c 91 8e 3e
       0.27360776 0.2590799 0.2590799 0.27845037
0002d0 96 e6 7c 3e 33 06 6e 3e 51 61 7f 3e db 6b 7a 3e
       0.24697337 0.23244552 0.24939467 0.24455206
0002e0 96 e6 7c 3e ae 53 8d 3e 38 5e 88 3e 78 8b 6b 3e
       0.24697337 0.27602905 0.26634383 0.23002422
0002f0 db 6b 7a 3e 96 e6 7c 3e 1f a6 84 3e f3 d8 8a 3e
       0.24455206 0.24697337 0.2590799 0.27118644
000300 95 9b 89 3e da 20 87 3e b1 ca 4d 3e 20 f1 77 3e
       0.26876512 0.2639225 0.20096852 0.24213076
000310 14 ab 5c 3e 64 2b 82 3e c1 68 83 3e f3 d8 8a 3e
       0.21549636 0.2542373 0.25665858 0.27118644
000320 db 6b 7a 3e d0 25 5f 3e 7d e3 85 3e 51 61 7f 3e
       0.24455206 0.21791768 0.26150122 0.24939467
000330 bc 10 69 3e bc 10 69 3e d0 25 5f 3e 9e b5 57 3e
       0.2276029 0.2276029 0.21791768 0.21065375
000340 59 30 5a 3e 01 96 66 3e 33 06 6e 3e d0 25 5f 3e
       0.21307506 0.2251816 0.23244552 0.21791768
000350 8b a0 61 3e bc 10 69 3e db 6b 7a 3e 01 96 66 3e
       0.22033899 0.2276029 0.24455206 0.2251816
000360 46 1b 64 3e 6c 45 50 3e 14 ab 5c 3e 6c 45 50 3e
       0.22276029 0.20338982 0.21549636 0.20338982
000370 01 96 66 3e 59 30 5a 3e 59 30 5a 3e 46 1b 64 3e
       0.2251816 0.21307506 0.21307506 0.22276029
000380 bc 10 69 3e bc 10 69 3e 3b d5 48 3e e3 3a 55 3e
       0.2276029 0.2276029 0.19612591 0.20823245
000390 3b d5 48 3e e3 3a 55 3e 8b a0 61 3e 09 65 41 3e
       0.19612591 0.20823245 0.22033899 0.18886198
0003a0 28 c0 52 3e 59 30 5a 3e 6c 45 50 3e 3b d5 48 3e
       0.20581114 0.21307506 0.20338982 0.19612591
0003b0 59 30 5a 3e 01 96 66 3e 6c 45 50 3e 14 ab 5c 3e
       0.21307506 0.2251816 0.20338982 0.21549636
0003c0 8b a0 61 3e 28 c0 52 3e 80 5a 46 3e e3 3a 55 3e
       0.22033899 0.20581114 0.1937046 0.20823245
0003d0 d8 f4 39 3e 46 1b 64 3e 09 65 41 3e c4 df 43 3e
       0.18159807 0.22276029 0.18886198 0.19128329
0003e0 14 ab 5c 3e 9e b5 57 3e 3b d5 48 3e 6c 45 50 3e
       0.21549636 0.21065375 0.19612591 0.20338982
0003f0 28 c0 52 3e 6c 45 50 3e 61 ff 34 3e 3b d5 48 3e
       0.20581114 0.20338982 0.17675544 0.19612591

item_pop_true f4 [1154, 1]
000000 00 00 80 3f 1b e4 50 3f aa 91 59 3f c3 49 5d 3f
       1.0 0.8159806 0.8498789 0.86440676
000010 60 69 4e 3f 60 69 4e 3f 54 8d 4c 3f ac 27 40 3f
       0.8062954 0.8062954 0.7990315 0.75060534
000020 29 56 39 3f 1d 7a 37 3f 30 8f 2d 3f bf 3c 36 3f
       0.72397095 0.71670705 0.6779661 0.7118644
000030 f2 42 24 3f d9 8a 20 3f b9 99 28 3f ad bd 26 3f
       0.6416465 0.62711865 0.6585956 0.6513317
000040 e5 66 22 3f 6f 71 1d 3f e5 66 22 3f c7 0b 11 3f
       0.63438255 0.6150121 0.63438255 0.56658596
000050 31 25 14 3f e0 c3 14 3f 38 5e 08 3f 0c 91 0e 3f
       0.5786925 0.5811138 0.53268766 0.55690074
000060 5d f2 0d 3f c1 68 03 3f da 20 07 3f c1 68 03 3f
       0.5544794 0.51331717 0.527845 0.51331717
000070 06 ee 00 3f 64 76 f5 3e 7d e3 05 3f 13 ca 02 3f
       0.50363195 0.47941887 0.52300245 0.5108959
000080 06 ee 00 3f 57 4f 00 3f bc 10 e9 3e 4c be f1 3e
       0.50363195 0.50121063 0.4552058 0.47215497
000090 13 ca 02 3f 7d 2e f9 3e 13 ca 02 3f 8b a0 e1 3e
       0.5108959 0.4866828 0.5108959 0.44067797
0000a0 e8 dd e2 3e 38 a9 fb 3e 7d 2e f9 3e da 20 07 3f
       0.44309926 0.4915254 0.4866828 0.527845
0000b0 bc 10 e9 3e bc 10 e9 3e 14 ab dc 3e 46 1b e4 3e
       0.4552058 0.4552058 0.43099272 0.44552058
0000c0 2d 63 e0 3e a4 58 e5 3e 1a 4e ea 3e 78 8b eb 3e
       0.43825665 0.4479419 0.45762712 0.46004844
0000d0 40 78 d6 3e 46 1b e4 3e e8 dd e2 3e e8 dd e2 3e
       0.41888618 0.44552058 0.44309926 0.44309926
0000e0 d5 c8 ec 3e a4 58 e5 3e 40 78 d6 3e 59 30 da 3e
       0.46246973 0.4479419 0.41888618 0.4261501
0000f0 3b d5 c8 3e 72 e8 dd 3e 9e b5 d7 3e 14 ab dc 3e
       0.39225182 0.43341404 0.4213075 0.43099272
000100 98 12 ca 3e 54 8d cc 3e 59 30 da 3e e3 3a d5 3e
       0.3946731 0.39951575 0.4261501 0.4164649
000110 98 12 ca 3e dd 97 c7 3e ca 82 d1 3e 54 8d cc 3e
       0.3946731 0.3898305 0.40920097 0.39951575
000120 4e ea be 3e d0 25 df 3e 98 12 ca 3e 85 fd d3 3e
       0.37288135 0.43583536 0.3946731 0.41404358
000130 ac 27 c0 3e ca 82 d1 3e f6 4f cb 3e 0f 08 cf 3e
       0.37530267 0.40920097 0.39709443 0.40435836
000140 dd 97 c7 3e bf 3c b6 3e 7a b7 b8 3e dd 97 c7 3e
       0.3898305 0.3559322 0.36077482 0.3898305
000150 49 47 b1 3e 7a b7 b8 3e c4 df c3 3e 22 1d c5 3e
       0.346247 0.36077482 0.38256657 0.3849879
000160 d8 f4 b9 3e bf 3c b6 3e 93 6f bc 3e 4e ea be 3e
       0.36319613 0.3559322 0.36803874 0.37288135
000170 d2 51 ac 3e 04 c2 b3 3e d2 51 ac 3e eb 09 b0 3e
       0.33656174 0.3510896 0.33656174 0.34382567
000180 61 ff b4 3e 7a b7 b8 3e 17 d7 a9 3e 35 32 bb 3e
       0.3535109 0.36077482 0.33171913 0.36561742
000190 30 8f ad 3e 8d cc ae 3e bf 3c b6 3e eb 09 b0 3e
       0.33898306 0.34140435 0.3559322 0.34382567
0001a0 a6 84 b2 3e fe 1e a6 3e a1 e1 a4 3e eb 09 b0 3e
       0.34866828 0.3244552 0.3220339 0.34382567
0001b0 8d cc ae 3e a1 e1 a4 3e 75 14 ab 3e fe 1e a6 3e
       0.34140435 0.3220339 0.33414045 0.3244552
0001c0 1d 7a b7 3e 9b 3e 97 3e a1 e1 a4 3e 43 a4 a3 3e
       0.35835353 0.29539952 0.3220339 0.3196126
0001d0 a1 e1 a4 3e 5c 5c a7 3e fe 1e a6 3e 6f 71 9d 3e
       0.3220339 0.32687652 0.3244552 0.30750605
0001e0 e5 66 a2 3e a1 e1 a4 3e a1 e1 a4 3e d2 51 ac 3e
       0.31719127 0.3220339 0.3220339 0.33656174
0001f0 cd ae 9e 3e 9b 3e 97 3e e0 c3 94 3e 11 34 9c 3e
       0.30992737 0.29539952 0.2905569 0.30508474
000200 b4 f6 9a 3e 88 29 a1 3e e5 66 a2 3e 3d 01 96 3e
       0.30266345 0.31476998 0.31719127 0.2929782
000210 e5 66 a2 3e c7 0b 91 3e f3 d8 8a 3e 25 49 92 3e
       0.31719127 0.28329298 0.27118644 0.2857143
000220 c7 0b 91 3e 56 b9 99 3e e0 c3 94 3e 9b 3e 97 3e
       0.28329298 0.30024213 0.2905569 0.29539952
000230 ae 53 8d 3e c7 0b 91 3e 9b 3e 97 3e 7d e3 85 3e
       0.27602905 0.28329298 0.29539952 0.26150122
000240 95 9b 89 3e c7 0b 91 3e f3 d8 8a 3e 25 49 92 3e
       0.26876512 0.28329298 0.27118644 0.2857143
000250 51 16 8c 3e 38 5e 88 3e 51 61 7f 3e 0c 91 8e 3e
       0.27360776 0.26634383 0.24939467 0.27845037
000260 c7 0b 91 3e 88 29 a1 3e c7 0b 91 3e c7 0b 91 3e
       0.28329298 0.31476998 0.28329298 0.28329298
000270 ae 53 8d 3e c1 68 83 3e f3 d8 8a 3e f3 d8 8a 3e
       0.27602905 0.25665858 0.27118644 0.27118644
000280 9b 3e 97 3e e0 c3 94 3e 0c 91 8e 3e 38 5e 88 3e
       0.29539952 0.2905569 0.27845037 0.26634383
000290 25 49 92 3e f3 d8 8a 3e 64 2b 82 3e ae 53 8d 3e
       0.2857143 0.27118644 0.2542373 0.27602905
0002a0 51 61 7f 3e e0 c3 94 3e 69 ce 8f 3e 56 b9 99 3e
       0.24939467 0.2905569 0.28087166 0.30024213
0002b0 64 2b 82 3e 95 9b 89 3e c1 68 83 3e 9b 3e 97 3e
       0.2542373 0.26876512 0.25665858 0.29539952
0002c0 51 16 8c 3e 1f a6 84 3e 1f a6 84 3e 0c 91 8e 3e
       0.27360776 0.2590799 0.2590799 0.27845037
0002d0 96 e6 7c 3e 33 06 6e 3e 51 61 7f 3e db 6b 7a 3e
       0.24697337 0.23244552 0.24939467 0.24455206
0002e0 96 e6 7c 3e ae 53 8d 3e 38 5e 88 3e 78 8b 6b 3e
       0.24697337 0.27602905 0.26634383 0.23002422
0002f0 db 6b 7a 3e 96 e6 7c 3e 1f a6 84 3e f3 d8 8a 3e
       0.24455206 0.24697337 0.2590799 0.27118644
000300 95 9b 89 3e da 20 87 3e b1 ca 4d 3e 20 f1 77 3e
       0.26876512 0.2639225 0.20096852 0.24213076
000310 14 ab 5c 3e 64 2b 82 3e c1 68 83 3e f3 d8 8a 3e
       0.21549636 0.2542373 0.25665858 0.27118644
000320 db 6b 7a 3e d0 25 5f 3e 7d e3 85 3e 51 61 7f 3e
       0.24455206 0.21791768 0.26150122 0.24939467
000330 bc 10 69 3e bc 10 69 3e d0 25 5f 3e 9e b5 57 3e
       0.2276029 0.2276029 0.21791768 0.21065375
000340 59 30 5a 3e 01 96 66 3e 33 06 6e 3e d0 25 5f 3e
       0.21307506 0.2251816 0.23244552 0.21791768
000350 8b a0 61 3e bc 10 69 3e db 6b 7a 3e 01 96 66 3e
       0.22033899 0.2276029 0.24455206 0.2251816
000360 46 1b 64 3e 6c 45 50 3e 14 ab 5c 3e 6c 45 50 3e
       0.22276029 0.20338982 0.21549636 0.20338982
000370 01 96 66 3e 59 30 5a 3e 59 30 5a 3e 46 1b 64 3e
       0.2251816 0.21307506 0.21307506 0.22276029
000380 bc 10 69 3e bc 10 69 3e 3b d5 48 3e e3 3a 55 3e
       0.2276029 0.2276029 0.19612591 0.20823245
000390 3b d5 48 3e e3 3a 55 3e 8b a0 61 3e 09 65 41 3e
       0.19612591 0.20823245 0.22033899 0.18886198
0003a0 28 c0 52 3e 59 30 5a 3e 6c 45 50 3e 3b d5 48 3e
       0.20581114 0.21307506 0.20338982 0.19612591
0003b0 59 30 5a 3e 01 96 66 3e 6c 45 50 3e 14 ab 5c 3e
       0.21307506 0.2251816 0.20338982 0.21549636
0003c0 8b a0 61 3e 28 c0 52 3e 80 5a 46 3e e3 3a 55 3e
       0.22033899 0.20581114 0.1937046 0.20823245
0003d0 d8 f4 39 3e 46 1b 64 3e 09 65 41 3e c4 df 43 3e
       0.18159807 0.22276029 0.18886198 0.19128329
0003e0 14 ab 5c 3e 9e b5 57 3e 3b d5 48 3e 6c 45 50 3e
       0.21549636 0.21065375 0.19612591 0.20338982
0003f0 28 c0 52 3e 6c 45 50 3e 61 ff 34 3e 3b d5 48 3e
       0.20581114 0.20338982 0.17675544 0.19612591

lr1.weight f4 [1, 63]
000000 be 9f 71 3d 15 f2 89 3c 6d f8 dd 3d 46 68 3c be
       0.058990233 0.016839067 0.10838399 -0.18399152
000010 52 24 0e 3e 98 8d ef 3c d6 92 06 3e 25 9a 3a bc
       0.13881043 0.029242322 0.13141951 -0.01138929
000020 95 d1 03 bc 38 fd e9 bd 37 5a 97 bc 63 82 33 be
       -0.008045574 -0.11425251 -0.018475635 -0.17530207
000030 62 7e 4f bd 6d ac 13 bd df 3a e7 ba 8a ce aa 3a
       -0.050657637 -0.03605311 -0.0017641446 0.0013031524
000040 cb 4e b9 bd 88 5d ea bd 0b 3c 03 3d a1 4c e4 bc
       -0.09048232 -0.11443621 0.032039683 -0.02786857
000050 21 a3 58 3c fc d5 2d bd 01 79 6b bd 5c 53 0a 3d
       0.013222487 -0.0424404 -0.057488445 0.033770904
000060 02 54 88 3c 6d e7 3c be 1f c0 46 3d 4e 3b 60 3e
       0.01664162 -0.18447657 0.048523065 0.21897623
000070 87 70 b6 bd 54 96 be bd ac 5f a1 3d f5 61 30 3e
       -0.08908182 -0.093060166 0.07879576 0.17224868
000080 a0 e8 37 bd 52 00 3b bd 62 69 7d 3d e9 ff c2 3c
       -0.044899583 -0.045654602 0.06186808 0.023803668
000090 eb bb 84 3b 15 b4 11 3e c5 86 93 bd 57 a3 97 bd
       0.004050722 0.14228852 -0.072034396 -0.074042015
0000a0 b5 0c 83 3d 29 2c 82 3d 01 58 89 3d 6e be 9d bc
       0.06398908 0.06356079 0.067062385 -0.019255843
0000b0 42 a7 6c bc 12 c9 c5 bd 2c 32 5c bd e5 b7 9f be
       -0.014444174 -0.09657492 -0.053758785 -0.31194988
0000c0 7b 26 79 3e 79 ce c5 bd 06 86 f5 bd 0e b9 b6 3d
       0.24331085 -0.09658522 -0.119884536 0.08922015
0000d0 6d eb 28 3e 9e cc 25 3e 2b 54 8c bc 2c 61 4d 3e
       0.16496058 0.16191337 -0.017129978 0.200566
0000e0 6c 43 5f 3b 4d ae 7a be 0e 4c a0 bb 61 a8 1c be
       0.0034067286 -0.24480553 -0.004891879 -0.15298606
0000f0 79 24 16 3d 44 16 14 be eb 6c d0 3b
       0.036655877 -0.14461619 0.0063606403
