pid/result/ml100k-PIDMF-debug2023-03-14-10-32-30/ckpt/epoch_26.pth (torch_old, 543278 bytes, 5 tensors)

users f4 [945, 64]
00000000: 129c 953f 081f 8abe 431c debe a860 753e
00000010: 3e0c 3f3d 13fb 31be d377 cb3e d4db b6be
00000020: 4ae6 0bbf d1f2 edbd 822c 0a3f d692 acbe
00000030: 2adf cfbe aa7a 5a3e 2f38 1a3f 6601 1ebe
00000040: 634c 803f d1e3 dc3e 708c 443f b56a c73e
00000050: 9897 133f 2c25 8dbe be7c 32bf a114 9fbe
00000060: a3b4 313f 3bd4 303f 95ba 88bb c90c 68be
00000070: b2b0 23bf 7a29 16bf c626 ebbe 5f98 9e3d
00000080: b064 04bf 57dc 1fbf afba c5be d112 d8be
00000090: 3e9f 19bf 7e6a 45bb 99e9 00bf 069c 47bf
000000a0: b90a ddbe c5d6 ca3e 85d5 b7be dfe5 923d
000000b0: 4018 69bf 1ee8 30bf ab18 2e3f 8803 ecbd
000000c0: 1d1c b33d 6864 3b3e 627b 3cbf fabf 14bf
000000d0: 4a82 323f 6d13 68bf 325c 82bd 680a 583f
000000e0: 4fa9 e53d be5e ee3e 184c 143e fcbc 5f3f
000000f0: c5a8 913e e6ed e0be de71 24be 7c26 0c3e
00000100: 8dd4 033f d206 88be a8c0 063e 5ba1 26bf
00000110: 03fc 43bf a66c 87be 6aca 2d3f 90fc 133f
00000120: 272e c13d 3c94 2cbe 913d 57bd 4a0c 33bf
00000130: b96b a5bd 2180 ddbc 1392 a33e 8ed5 a2bd
00000140: 2c8f 593e 7b97 b4bb 419d 8e3e 4e70 ed3e
00000150: 28d4 343e 0fba aabd a5a0 303f f244 a9be
00000160: 6b97 9e3e a947 933f 488b 54bf 65c9 69bf
00000170: c681 5bbf b48b 59bf 948d a53e 1205 66bf
00000180: f2c3 3b3f 8d2c d53d 0514 a03e 997b d43e
00000190: ef05 a9be 5242 8b3d 6568 38bf 5da0 95bf
000001a0: 7496 703e 7550 68be a4af 2b3f 231f aabe
000001b0: edaa 273f 5808 1fbf 4f3c bfbe 285e 0bbf
000001c0: 6537 533e bf5d 6fbf ca43 3d3e 9311 21bf
000001d0: 4ad5 ebbe e106 5a3e bd95 d2be 9dde 1fbf
000001e0: 1c88 ed3e 55ce 383e 12ad a0bd 6643 e33e
000001f0: 0c82 af3d 0ceb 4a3f 62f5 b8be 6401 56be
00000200: f719 0cbf 9093 84be be36 d6be 297a 83be
00000210: 6d96 fcbd 89bf 173f becb 023f 4fd7 6a3c
00000220: 2d22 ae3e 10d6 56bf 5899 c53e 71ca a53c
00000230: 45b7 0fbf cadc 043f ddd2 d33e 7f9e a2be
00000240: 01f3 50bf c99a 0ebe c31b 6a3f b799 a43e
00000250: 91bf dcbe f01b d83e c86d 30bf b9d5 273e
00000260: f531 74be 59bf 643f f5d3 dabb ed0d 4ebf
00000270: 6c55 00be 89a4 8fbe 660b a5be 7ad8 3dbf
00000280: 01d2 2ebf 9961 dabc 32b9 54bf 02cb d6bd
00000290: f611 2f3f 6cd6 ef3d e703 91be 0ae8 4bbf
000002a0: c407 f03e ce54 cb3d 3357 b9be cd86 0abf
000002b0: 5e43 3ebf a010 0e3e fc27 f13e 2d1a 7cbf
000002c0: b951 573e 346e 433e f573 23be e06e f33d
000002d0: 9cfc 61bf c7f7 61bd 42f3 d83e 8222 b5be
000002e0: fbb2 c8be a26a 763e aec3 7a3e c665 bc3c
000002f0: ea37 263e daaf 2b3f 839c ccbe bb45 e63d
00000300: 7e14 063f 43e6 dbbe 15ec 313f b781 04be
00000310: d01e 3abf 09f6 393d e600 7c3f bf9d 4ebe
00000320: 2a45 2b3e 4bbd 1e3e 00a7 583f c104 52bf
00000330: 7cad e43c c82e 9c3e 585c 2a3f 615e 80be
00000340: f644 e83e 03aa aa3c c2d8 d13e 65c6 c1bd
00000350: 483e eabd 89de fdbe 84db 01bf 92f4 67be
00000360: e5e5 26bf 5409 94be a5b0 623f 3921 1dbf
00000370: 733d 6e3e 9876 25be dda6 463f 74b5 e33e
00000380: e127 2d3f 4c28 31bf cece 8abe a937 a8be
00000390: 67ac aebd 2de8 2cbf f65e 8ebc f4f0 783e
000003a0: 48fc 06bf 801c b93d 8ed0 c33d a17f 0f3e
000003b0: 0c8e 41bf 7c29 de3c c2d7 dc3e fdfe 9b3c
000003c0: 2b49 3e3e 630a 3c3e 7b6f 0bbe eece 18bf
000003d0: 60c5 b73f b5ee 51bf 818b bc3e 7c8a 42bf
000003e0: a0b9 1fbe 3f32 e63e c0dc 5b3e 3ace fe3e
000003f0: 262b 20be 5bad 883e b5cd 303e 6c62 d33d
1.1688254 -0.269768 -0.43380937 0.23962653 0.046642534 -0.17380933 0.39739856 -0.3571459
-0.5464827 -0.11618579 0.53974164 -0.33705777 -0.40599948 0.21335855 0.6024198 -0.15430221
1.0023311 0.4314256 0.7677679 0.38948599 0.5765319 -0.27567422 -0.6972159 -0.31070426
0.69416255 0.6907384 -0.004172633 -0.22661127 -0.6394149 -0.5865704 -0.4592802 0.07743906
-0.51716137 -0.62445587 -0.3861899 -0.42201856 -0.6000861 -0.0030123289 -0.5035644 -0.7797245
-0.43172243 0.3961698 -0.3590509 0.07172751 -0.9105263 -0.6910418 0.6800639 -0.11524111
0.087455966 0.1830002 -0.7362577 -0.58105433 0.69730055 -0.9065464 -0.06365241 0.8439088
0.11213934 0.46556658 0.14482152 0.8739774 0.28449073 -0.43931502 -0.16059062 0.13686556
0.514962 -0.26567703 0.1315943 -0.6508996 -0.76556414 -0.2645008 0.67886984 0.57807255
0.09432631 -0.16853422 -0.05254895 -0.69940627 -0.08077187 -0.027038636 0.31947383 -0.079508886
0.21246022 -0.005511222 0.2785435 0.46374744 0.17659056 -0.08336269 0.68995124 -0.33060414
0.30974898 1.1506244 -0.83025026 -0.9132293 -0.85744894 -0.84978795 0.32334578 -0.89851487
0.73345864 0.10408888 0.31265274 0.41500548 -0.3301234 0.06799759 -0.72034293 -1.1689564
0.23494893 -0.22686942 0.6706488 -0.3322688 0.6549519 -0.62122107 -0.373507 -0.54440546
0.206266 -0.9350242 0.1848289 -0.6291744 -0.46061164 0.21291687 -0.41129866 -0.62449056
0.46392906 0.1804746 -0.078455105 0.44387358 0.08569726 0.79264903 -0.36124712 -0.20898968
-0.5472712 -0.2589383 -0.4183864 -0.25679138 -0.12333379 0.59276634 0.51092136 0.01433356
0.3401045 -0.83920383 0.38593554 0.020238133 -0.5613902 0.518994 0.41371813 -0.31761548
-0.81620795 -0.13926233 0.9144861 0.32148525 -0.43114904 0.42208815 -0.6891751 0.16390122
-0.23847182 0.89354473 -0.0066780993 -0.8049 -0.12532586 -0.28055218 -0.3223526 -0.7415844
-0.6828919 -0.026657866 -0.83095086 -0.104879394 0.6838678 0.117108196 -0.2832329 -0.7965094
0.46880925 0.099282846 -0.3619934 -0.5411194 -0.74321544 0.1387353 0.47100818 -0.9847744
0.21027268 0.19085008 -0.15962203 0.11886382 -0.88276076 -0.05516794 0.4237309 -0.3537789
-0.3919905 0.24064115 0.24488708 0.022997748 0.16232267 0.67065203 -0.3996316 0.11243769
0.5237502 -0.42949113 0.6950086 -0.12940107 -0.72703266 0.045400653 0.9843887 -0.20177363
0.16725603 0.15501897 0.8462982 -0.82038504 0.027914755 0.3050444 0.66547155 -0.25072005
0.45365113 0.020833021 0.40985686 -0.09461669 -0.114376605 -0.49583843 -0.5072558 -0.2265189
-0.6519454 -0.28913367 0.8855079 -0.6137882 0.23265629 -0.16158521 0.77598363 0.44474375
0.67638975 -0.69202113 -0.27110904 -0.32854965 -0.08528977 -0.6754177 -0.017379265 0.24310666
-0.527287 0.09038639 0.09561263 0.1401353 -0.7560737 0.02711939 0.4313336 0.019042486
0.18582599 0.18363337 -0.13616745 -0.5969075 1.4357109 -0.82004863 0.36825183 -0.7599256
-0.15598154 0.4496021 0.21470928 0.49766713 -0.1564146 0.2669476 0.17265971 0.10321507

items_id f4 [1154, 63]
00000000: 42f2 0c3f 9a82 093f 7f24 2e3e 468e e4bd
00000010: ed64 ea3d 2aff d73e fb07 f43e db23 043f
00000020: c324 093f 81b6 c2be 711d 153f 00b9 d9bd
00000030: 3654 afbe c670 f03e 64b8 d83e f272 c4be
00000040: edff d0bd 8a79 88be efe4 9a3e a144 233f
00000050: 56bd 133f c9f2 c03e b1e5 9ebe f60b 7d3e
00000060: 917f 76be ced7 fa3c d89a 9a3e 99fb 683e
00000070: 226e 60be 3244 a4be d7fc c93e 0603 053e
00000080: dac7 11be f928 d8be f14d 6d3e 7606 6c3e
00000090: e349 363f 3f47 9b3e 04c1 95be e090 4cbe
000000a0: 93ce 7cbe abb3 803e b1cc 8d3e 7fbe 08bf
000000b0: 2040 0bbf 8695 6abe d116 dd3e b5e7 3d3d
000000c0: b775 c13d 748a 9dbe db79 91be 61b5 483d
000000d0: 802b 4f3e f935 f5bc fd76 21bf 7f58 5a3e
000000e0: 9cf8 0abf 605c 163c ae5b 9bbe 5e0d 07be
000000f0: bb41 923e 57bd 20be 59ab d03e 9d05 2b3e
00000100: ad18 883e d3fc 103e 09a4 02bd 8030 f23e
00000110: 858d 983d 906f 073f e582 933d 783b 323d
00000120: 2dde 63bd c325 d7bb 57cd e5bc 90e8 65be
00000130: 5ab2 1b3d ea8f 3b3b 9559 50be 89e2 86be
00000140: 9937 00be f6c0 653e 816f 403c f89a 833e
00000150: 6f07 873e 81bf 99bd 7aca a13e fac0 43be
00000160: 1d30 4abe 136d 753d 3462 f63c dd81 683c
00000170: 4ddf 873c 4b19 b5bc b0b7 c33d b50a 36be
00000180: 4bdd 81be c235 4f3e 9f9c de3d 8c31 9a3e
00000190: a45f 0a3e f0af 9ebd c223 a9bd 3c7f 00be
000001a0: 2142 693e 9829 d3bc 8c8e 95bd 47be 5ebe
000001b0: 5bfb 8dbd 0d32 103c 5578 f6bd 586d b23d
000001c0: 24ec b2bb 7abf 0cbd 3822 1b3d 2320 493e
000001d0: 015f 683e 076e 963d 5e7a 4c3e 88d0 aabe
000001e0: 5278 f9bd 18d9 903c 8d48 00be b1ae 4bbc
000001f0: c80b 83be 0aea 6d3d 5fd2 9c3e 97f1 ae3e
00000200: 5187 103e 58f7 ffbd fa69 a03e d1c6 7a3e
00000210: 76fa 133e 4b60 013e bdd6 b63e 0b33 8bbe
00000220: e19d bb3e c3c3 81be 4e44 85be d4f4 fb3d
00000230: b0e7 193e c28e f0bd a5ab 48be bd76 9237
00000240: 14d1 7e3d 224b 4c3e 7643 9b3e 6c63 703e
00000250: 7d46 3cbe 11c2 553e d919 aebd 8a06 53bd
00000260: a9ad 4d3d 07f1 683e 6cbb acbd 972e bfbc
00000270: 788e 723e 896b f73c da23 83be faf4 a8be
00000280: 94ce fa3d 5b32 8a3d c63e b83e ad25 a73d
00000290: cbba b5bd 219a 73be bb78 0dbe acec 9f3d
000002a0: 50b8 733e 5af6 9cbe a0fc 71be 7bdd 53be
000002b0: 64ab 083e 8793 07be a867 a83d 9abe 42be
000002c0: 8426 7ebe 40bd 933d 63da 493e 0136 313e
000002d0: f815 babe edfa c4ba 452f 6fbe 4425 30bd
000002e0: 9071 c7bd c4bd 19be 4ff5 453d bb21 0ebe
000002f0: 5a23 8a3e 5a05 c13e 5332 003e 35fd 1b3e
00000300: 442e 81be 4bcc 543e 94b3 9b3d 7ec9 a53e
00000310: 1b09 983e df9e b23e 01b5 7ebe 9580 013e
00000320: d1ec 68be 75a1 06be 4346 793e 9dfd 1e3e
00000330: d93e a5be 9503 51be a3eb 20be def0 a13d
00000340: bd29 163e c833 b03e 9579 d33d 0b40 93bd
00000350: 28c1 703d 683f a4bd fd00 1dbe 7ccc 433e
00000360: 0ea4 263e 3329 59be b1d2 00be 0766 973e
00000370: 2c77 fd3d 9e1c 45bd d35e 75be ef61 8c3e
00000380: 434f a93d 9db3 673e 1a2a 403d c6fc 64be
00000390: cd4a 40be a555 19be 53a2 8c3d 3acd b43d
000003a0: e4b2 b0be 10f8 18be 069c 16bd 2aee 8d3d
000003b0: 46b2 9fbc a7a1 6bbd 9c03 5dbe dd65 08be
000003c0: e0bb 9a3d 87d2 b13d bf77 333e 7685 bdbe
000003d0: 2964 573e a905 35be 3dc4 a1bd d832 1dbd
000003e0: 8b76 b1bd 9ff0 123e 8fe4 81be 2599 193e
000003f0: 9f19 a63e 68e3 5a3e 04d0 763e 0c51 fd39
0.55057156 0.5371491 0.1700611 -0.11159949 0.11445031 0.42186862 0.4766234 0.5161721
0.5357172 -0.38029864 0.5824805 -0.10630989 -0.34243935 0.4696104 0.4232818 -0.38368946
-0.10205064 -0.26655227 0.30252787 0.63776594 0.5771078 0.3768523 -0.31034616 0.24711594
-0.240721 0.030620482 0.3019626 0.22752227 -0.21917012 -0.3208328 0.39450714 0.12989435
-0.14236394 -0.4221876 0.23174264 0.2304934 0.7120649 0.30327794 -0.29248822 -0.1997714
-0.24688177 0.25137076 0.2769523 -0.53415674 -0.5439472 -0.22908601 0.4318147 0.04636355
0.094462804 -0.30769694 -0.2841328 0.0490011 0.20231438 -0.029932963 -0.63072187 0.21322821
-0.542856 0.009177297 -0.30343384 -0.13188693 0.28565773 -0.15697227 0.40755728 0.1670136
0.26581326 0.14158945 -0.031894717 0.47302628 0.07448868 0.52904606 0.072027005 0.043513745
-0.055631805 -0.006565781 -0.028052015 -0.22451997 0.038011886 0.0028619715 -0.20346673 -0.26344708
-0.12521209 0.2243689 0.011745335 0.2570417 0.2637286 -0.075072296 0.3159979 -0.19116583
-0.19744916 0.059918474 0.030076124 0.014191118 0.01658597 -0.022106787 0.0955652 -0.17777522
-0.25364146 0.2023535 0.10869717 0.30115926 0.13513047 -0.07748401 -0.082587734 -0.12548536
0.22779132 -0.02577667 -0.07302579 -0.21752273 -0.06932708 0.008800996 -0.1203467 0.08712262
-0.005460279 -0.034362294 0.03787443 0.19641165 0.22692491 0.07345205 0.19968554 -0.33362222
-0.121811524 0.017681643 -0.12527676 -0.012431786 -0.25594926 0.058084525 0.3062925 0.34168693
0.14114119 -0.12498349 0.31330854 0.24489905 0.14451012 0.12634389 0.35710707 -0.2718738
0.3664389 -0.25344667 -0.26028675 0.12302557 0.15029788 -0.11745979 -0.19596727 1.7459848e-05
0.06221111 0.19950536 0.30324906 0.23475426 -0.18386264 0.20874812 -0.08501024 -0.051519908
0.050214443 0.22748195 -0.084341854 -0.023337645 0.2368716 0.030202644 -0.2561329 -0.32999402
0.12246433 0.06747886 0.35985392 0.08161483 -0.088735186 -0.23789264 -0.13815586 0.078088135
0.23800778 -0.306567 -0.23631525 -0.20689957 0.1334663 -0.13239871 0.08222896 -0.19018021
-0.2481938 0.07213831 0.19712214 0.17305757 -0.36344886 -0.0015028395 -0.23357876 -0.04300429
-0.09738457 -0.15013796 0.048329648 -0.13880055 0.26980096 0.37699395 0.12519197 0.1523331
-0.2523061 0.20781057 0.07602611 0.3238029 0.29694447 0.34886834 -0.24873735 0.12646706
-0.22746588 -0.13147528 0.24343209 0.15526433 -0.3227451 -0.20411523 -0.15714888 0.0790727
0.1466436 0.34414506 0.10325924 -0.071899496 0.05877796 -0.08019906 -0.15332408 0.19120973
0.1627352 -0.21207123 -0.12580372 0.29570028 0.12376246 -0.048122995 -0.23961954 0.27418467
0.08267071 0.22627111 0.04691515 -0.2236205 -0.18778534 -0.14974077 0.068668984 0.08828206
-0.34511483 -0.14938378 -0.03676989 0.06930192 -0.019494187 -0.05752721 -0.21583408 -0.13320108
0.075553656 0.08682733 0.17526148 -0.37015885 0.21034302 -0.1767794 -0.078987576 -0.038378567
-0.086651884 0.14349602 -0.2536969 0.14999826 0.32441422 0.21375811 0.24102789 0.00048316305

item_pop f4 [1154, 1]
00000000: 0000 803f 1be4 503f aa91 593f c349 5d3f
00000010: 6069 4e3f 6069 4e3f 548d 4c3f ac27 403f
00000020: 2956 393f 1d7a 373f 308f 2d3f bf3c 363f
00000030: f242 243f d98a 203f b999 283f adbd 263f
00000040: e566 223f 6f71 1d3f e566 223f c70b 113f
00000050: 3125 143f e0c3 143f 385e 083f 0c91 0e3f
00000060: 5df2 0d3f c168 033f da20 073f c168 033f
00000070: 06ee 003f 6476 f53e 7de3 053f 13ca 023f
00000080: 06ee 003f 574f 003f bc10 e93e 4cbe f13e
00000090: 13ca 023f 7d2e f93e 13ca 023f 8ba0 e13e
000000a0: e8dd e23e 38a9 fb3e 7d2e f93e da20 073f
000000b0: bc10 e93e bc10 e93e 14ab dc3e 461b e43e
000000c0: 2d63 e03e a458 e53e 1a4e ea3e 788b eb3e
000000d0: 4078 d63e 461b e43e e8dd e23e e8dd e23e
000000e0: d5c8 ec3e a458 e53e 4078 d63e 5930 da3e
000000f0: 3bd5 c83e 72e8 dd3e 9eb5 d73e 14ab dc3e
00000100: 9812 ca3e 548d cc3e 5930 da3e e33a d53e
00000110: 9812 ca3e dd97 c73e ca82 d13e 548d cc3e
00000120: 4eea be3e d025 df3e 9812 ca3e 85fd d33e
00000130: ac27 c03e ca82 d13e f64f cb3e 0f08 cf3e
00000140: dd97 c73e bf3c b63e 7ab7 b83e dd97 c73e
00000150: 4947 b13e 7ab7 b83e c4df c33e 221d c53e
00000160: d8f4 b93e bf3c b63e 936f bc3e 4eea be3e
00000170: d251 ac3e 04c2 b33e d251 ac3e eb09 b03e
00000180: 61ff b43e 7ab7 b83e 17d7 a93e 3532 bb3e
00000190: 308f ad3e 8dcc ae3e bf3c b63e eb09 b03e
000001a0: a684 b23e fe1e a63e a1e1 a43e eb09 b03e
000001b0: 8dcc ae3e a1e1 a43e 7514 ab3e fe1e a63e
000001c0: 1d7a b73e 9b3e 973e a1e1 a43e 43a4 a33e
000001d0: a1e1 a43e 5c5c a73e fe1e a63e 6f71 9d3e
000001e0: e566 a23e a1e1 a43e a1e1 a43e d251 ac3e
000001f0: cdae 9e3e 9b3e 973e e0c3 943e 1134 9c3e
00000200: b4f6 9a3e 8829 a13e e566 a23e 3d01 963e
00000210: e566 a23e c70b 913e f3d8 8a3e 2549 923e
00000220: c70b 913e 56b9 993e e0c3 943e 9b3e 973e
00000230: ae53 8d3e c70b 913e 9b3e 973e 7de3 853e
00000240: 959b 893e c70b 913e f3d8 8a3e 2549 923e
00000250: 5116 8c3e 385e 883e 5161 7f3e 0c91 8e3e
00000260: c70b 913e 8829 a13e c70b 913e c70b 913e
00000270: ae53 8d3e c168 833e f3d8 8a3e f3d8 8a3e
00000280: 9b3e 973e e0c3 943e 0c91 8e3e 385e 883e
00000290: 2549 923e f3d8 8a3e 642b 823e ae53 8d3e
000002a0: 5161 7f3e e0c3 943e 69ce 8f3e 56b9 993e
000002b0: 642b 823e 959b 893e c168 833e 9b3e 973e
000002c0: 5116 8c3e 1fa6 843e 1fa6 843e 0c91 8e3e
000002d0: 96e6 7c3e 3306 6e3e 5161 7f3e db6b 7a3e
000002e0: 96e6 7c3e ae53 8d3e 385e 883e 788b 6b3e
000002f0: db6b 7a3e 96e6 7c3e 1fa6 843e f3d8 8a3e
00000300: 959b 893e da20 873e b1ca 4d3e 20f1 773e
00000310: 14ab 5c3e 642b 823e c168 833e f3d8 8a3e
00000320: db6b 7a3e d025 5f3e 7de3 853e 5161 7f3e
00000330: bc10 693e bc10 693e d025 5f3e 9eb5 573e
00000340: 5930 5a3e 0196 663e 3306 6e3e d025 5f3e
00000350: 8ba0 613e bc10 693e db6b 7a3e 0196 663e
00000360: 461b 643e 6c45 503e 14ab 5c3e 6c45 503e
00000370: 0196 663e 5930 5a3e 5930 5a3e 461b 643e
00000380: bc10 693e bc10 693e 3bd5 483e e33a 553e
00000390: 3bd5 483e e33a 553e 8ba0 613e 0965 413e
000003a0: 28c0 523e 5930 5a3e 6c45 503e 3bd5 483e
000003b0: 5930 5a3e 0196 663e 6c45 503e 14ab 5c3e
000003c0: 8ba0 613e 28c0 523e 805a 463e e33a 553e
000003d0: d8f4 393e 461b 643e 0965 413e c4df 433e
000003e0: 14ab 5c3e 9eb5 573e 3bd5 483e 6c45 503e
000003f0: 28c0 523e 6c45 503e 61ff 343e 3bd5 483e
1.0 0.8159806 0.8498789 0.86440676 0.8062954 0.8062954 0.7990315 0.75060534
0.72397095 0.71670705 0.6779661 0.7118644 0.6416465 0.62711865 0.6585956 0.6513317
0.63438255 0.6150121 0.63438255 0.56658596 0.5786925 0.5811138 0.53268766 0.55690074
0.5544794 0.51331717 0.527845 0.51331717 0.50363195 0.47941887 0.52300245 0.5108959
0.50363195 0.50121063 0.4552058 0.47215497 0.5108959 0.4866828 0.5108959 0.44067797
0.44309926 0.4915254 0.4866828 0.527845 0.4552058 0.4552058 0.43099272 0.44552058
0.43825665 0.4479419 0.45762712 0.46004844 0.41888618 0.44552058 0.44309926 0.44309926
0.46246973 0.4479419 0.41888618 0.4261501 0.39225182 0.43341404 0.4213075 0.43099272
0.3946731 0.39951575 0.4261501 0.4164649 0.3946731 0.3898305 0.40920097 0.39951575
0.37288135 0.43583536 0.3946731 0.41404358 0.37530267 0.40920097 0.39709443 0.40435836
0.3898305 0.3559322 0.36077482 0.3898305 0.346247 0.36077482 0.38256657 0.3849879
0.36319613 0.3559322 0.36803874 0.37288135 0.33656174 0.3510896 0.33656174 0.34382567
0.3535109 0.36077482 0.33171913 0.36561742 0.33898306 0.34140435 0.3559322 0.34382567
0.34866828 0.3244552 0.3220339 0.34382567 0.34140435 0.3220339 0.33414045 0.3244552
0.35835353 0.29539952 0.3220339 0.3196126 0.3220339 0.32687652 0.3244552 0.30750605
0.31719127 0.3220339 0.3220339 0.33656174 0.30992737 0.29539952 0.2905569 0.30508474
0.30266345 0.31476998 0.31719127 0.2929782 0.31719127 0.28329298 0.27118644 0.2857143
0.28329298 0.30024213 0.2905569 0.29539952 0.27602905 0.28329298 0.29539952 0.26150122
0.26876512 0.28329298 0.27118644 0.2857143 0.27360776 0.26634383 0.24939467 0.27845037
0.28329298 0.31476998 0.28329298 0.28329298 0.27602905 0.25665858 0.27118644 0.27118644
0.29539952 0.2905569 0.27845037 0.26634383 0.2857143 0.27118644 0.2542373 0.27602905
0.24939467 0.2905569 0.28087166 0.30024213 0.2542373 0.26876512 0.25665858 0.29539952
0.27360776 0.2590799 0.2590799 0.27845037 0.24697337 0.23244552 0.24939467 0.24455206
0.24697337 0.27602905 0.26634383 0.23002422 0.24455206 0.24697337 0.2590799 0.27118644
0.26876512 0.2639225 0.20096852 0.24213076 0.21549636 0.2542373 0.25665858 0.27118644
0.24455206 0.21791768 0.26150122 0.24939467 0.2276029 0.2276029 0.21791768 0.21065375
0.21307506 0.2251816 0.23244552 0.21791768 0.22033899 0.2276029 0.24455206 0.2251816
0.22276029 0.20338982 0.21549636 0.20338982 0.2251816 0.21307506 0.21307506 0.22276029
0.2276029 0.2276029 0.19612591 0.20823245 0.19612591 0.20823245 0.22033899 0.18886198
0.20581114 0.21307506 0.20338982 0.19612591 0.21307506 0.2251816 0.20338982 0.21549636
0.22033899 0.20581114 0.1937046 0.20823245 0.18159807 0.22276029 0.18886198 0.19128329
0.21549636 0.21065375 0.19612591 0.20338982 0.20581114 0.20338982 0.17675544 0.19612591

item_pop_true f4 [1154, 1]
00000000: 0000 803f 1be4 503f aa91 593f c349 5d3f
00000010: 6069 4e3f 6069 4e3f 548d 4c3f ac27 403f
00000020: 2956 393f 1d7a 373f 308f 2d3f bf3c 363f
00000030: f242 243f d98a 203f b999 283f adbd 263f
00000040: e566 223f 6f71 1d3f e566 223f c70b 113f
00000050: 3125 143f e0c3 143f 385e 083f 0c91 0e3f
00000060: 5df2 0d3f c168 033f da20 073f c168 033f
00000070: 06ee 003f 6476 f53e 7de3 053f 13ca 023f
00000080: 06ee 003f 574f 003f bc10 e93e 4cbe f13e
00000090: 13ca 023f 7d2e f93e 13ca 023f 8ba0 e13e
000000a0: e8dd e23e 38a9 fb3e 7d2e f93e da20 073f
000000b0: bc10 e93e bc10 e93e 14ab dc3e 461b e43e
000000c0: 2d63 e03e a458 e53e 1a4e ea3e 788b eb3e
000000d0: 4078 d63e 461b e43e e8dd e23e e8dd e23e
000000e0: d5c8 ec3e a458 e53e 4078 d63e 5930 da3e
000000f0: 3bd5 c83e 72e8 dd3e 9eb5 d73e 14ab dc3e
00000100: 9812 ca3e 548d cc3e 5930 da3e e33a d53e
00000110: 9812 ca3e dd97 c73e ca82 d13e 548d cc3e
00000120: 4eea be3e d025 df3e 9812 ca3e 85fd d33e
00000130: ac27 c03e ca82 d13e f64f cb3e 0f08 cf3e
00000140: dd97 c73e bf3c b63e 7ab7 b83e dd97 c73e
00000150: 4947 b13e 7ab7 b83e c4df c33e 221d c53e
00000160: d8f4 b93e bf3c b63e 936f bc3e 4eea be3e
00000170: d251 ac3e 04c2 b33e d251 ac3e eb09 b03e
00000180: 61ff b43e 7ab7 b83e 17d7 a93e 3532 bb3e
00000190: 308f ad3e 8dcc ae3e bf3c b63e eb09 b03e
000001a0: a684 b23e fe1e a63e a1e1 a43e eb09 b03e
000001b0: 8dcc ae3e a1e1 a43e 7514 ab3e fe1e a63e
000001c0: 1d7a b73e 9b3e 973e a1e1 a43e 43a4 a33e
000001d0: a1e1 a43e 5c5c a73e fe1e a63e 6f71 9d3e
000001e0: e566 a23e a1e1 a43e a1e1 a43e d251 ac3e
000001f0: cdae 9e3e 9b3e 973e e0c3 943e 1134 9c3e
00000200: b4f6 9a3e 8829 a13e e566 a23e 3d01 963e
00000210: e566 a23e c70b 913e f3d8 8a3e 2549 923e
00000220: c70b 913e 56b9 993e e0c3 943e 9b3e 973e
00000230: ae53 8d3e c70b 913e 9b3e 973e 7de3 853e
00000240: 959b 893e c70b 913e f3d8 8a3e 2549 923e
00000250: 5116 8c3e 385e 883e 5161 7f3e 0c91 8e3e
00000260: c70b 913e 8829 a13e c70b 913e c70b 913e
00000270: ae53 8d3e c168 833e f3d8 8a3e f3d8 8a3e
00000280: 9b3e 973e e0c3 943e 0c91 8e3e 385e 883e
00000290: 2549 923e f3d8 8a3e 642b 823e ae53 8d3e
000002a0: 5161 7f3e e0c3 943e 69ce 8f3e 56b9 993e
000002b0: 642b 823e 959b 893e c168 833e 9b3e 973e
000002c0: 5116 8c3e 1fa6 843e 1fa6 843e 0c91 8e3e
000002d0: 96e6 7c3e 3306 6e3e 5161 7f3e db6b 7a3e
000002e0: 96e6 7c3e ae53 8d3e 385e 883e 788b 6b3e
000002f0: db6b 7a3e 96e6 7c3e 1fa6 843e f3d8 8a3e
00000300: 959b 893e da20 873e b1ca 4d3e 20f1 773e
00000310: 14ab 5c3e 642b 823e c168 833e f3d8 8a3e
00000320: db6b 7a3e d025 5f3e 7de3 853e 5161 7f3e
00000330: bc10 693e bc10 693e d025 5f3e 9eb5 573e
00000340: 5930 5a3e 0196 663e 3306 6e3e d025 5f3e
00000350: 8ba0 613e bc10 693e db6b 7a3e 0196 663e
00000360: 461b 643e 6c45 503e 14ab 5c3e 6c45 503e
00000370: 0196 663e 5930 5a3e 5930 5a3e 461b 643e
00000380: bc10 693e bc10 693e 3bd5 483e e33a 553e
00000390: 3bd5 483e e33a 553e 8ba0 613e 0965 413e
000003a0: 28c0 523e 5930 5a3e 6c45 503e 3bd5 483e
000003b0: 5930 5a3e 0196 663e 6c45 503e 14ab 5c3e
000003c0: 8ba0 613e 28c0 523e 805a 463e e33a 553e
000003d0: d8f4 393e 461b 643e 0965 413e c4df 433e
000003e0: 14ab 5c3e 9eb5 573e 3bd5 483e 6c45 503e
000003f0: 28c0 523e 6c45 503e 61ff 343e 3bd5 483e
1.0 0.8159806 0.8498789 0.86440676 0.8062954 0.8062954 0.7990315 0.75060534
0.72397095 0.71670705 0.6779661 0.7118644 0.6416465 0.62711865 0.6585956 0.6513317
0.63438255 0.6150121 0.63438255 0.56658596 0.5786925 0.5811138 0.53268766 0.55690074
0.5544794 0.51331717 0.527845 0.51331717 0.50363195 0.47941887 0.52300245 0.5108959
0.50363195 0.50121063 0.4552058 0.47215497 0.5108959 0.4866828 0.5108959 0.44067797
0.44309926 0.4915254 0.4866828 0.527845 0.4552058 0.4552058 0.43099272 0.44552058
0.43825665 0.4479419 0.45762712 0.46004844 0.41888618 0.44552058 0.44309926 0.44309926
0.46246973 0.4479419 0.41888618 0.4261501 0.39225182 0.43341404 0.4213075 0.43099272
0.3946731 0.39951575 0.4261501 0.4164649 0.3946731 0.3898305 0.40920097 0.39951575
0.37288135 0.43583536 0.3946731 0.41404358 0.37530267 0.40920097 0.39709443 0.40435836
0.3898305 0.3559322 0.36077482 0.3898305 0.346247 0.36077482 0.38256657 0.3849879
0.36319613 0.3559322 0.36803874 0.37288135 0.33656174 0.3510896 0.33656174 0.34382567
0.3535109 0.36077482 0.33171913 0.36561742 0.33898306 0.34140435 0.3559322 0.34382567
0.34866828 0.3244552 0.3220339 0.34382567 0.34140435 0.3220339 0.33414045 0.3244552
0.35835353 0.29539952 0.3220339 0.3196126 0.3220339 0.32687652 0.3244552 0.30750605
0.31719127 0.3220339 0.3220339 0.33656174 0.30992737 0.29539952 0.2905569 0.30508474
0.30266345 0.31476998 0.31719127 0.2929782 0.31719127 0.28329298 0.27118644 0.2857143
0.28329298 0.30024213 0.2905569 0.29539952 0.27602905 0.28329298 0.29539952 0.26150122
0.26876512 0.28329298 0.27118644 0.2857143 0.27360776 0.26634383 0.24939467 0.27845037
0.28329298 0.31476998 0.28329298 0.28329298 0.27602905 0.25665858 0.27118644 0.27118644
0.29539952 0.2905569 0.27845037 0.26634383 0.2857143 0.27118644 0.2542373 0.27602905
0.24939467 0.2905569 0.28087166 0.30024213 0.2542373 0.26876512 0.25665858 0.29539952
0.27360776 0.2590799 0.2590799 0.27845037 0.24697337 0.23244552 0.24939467 0.24455206
0.24697337 0.27602905 0.26634383 0.23002422 0.24455206 0.24697337 0.2590799 0.27118644
0.26876512 0.2639225 0.20096852 0.24213076 0.21549636 0.2542373 0.25665858 0.27118644
0.24455206 0.21791768 0.26150122 0.24939467 0.2276029 0.2276029 0.21791768 0.21065375
0.21307506 0.2251816 0.23244552 0.21791768 0.22033899 0.2276029 0.24455206 0.2251816
0.22276029 0.20338982 0.21549636 0.20338982 0.2251816 0.21307506 0.21307506 0.22276029
0.2276029 0.2276029 0.19612591 0.20823245 0.19612591 0.20823245 0.22033899 0.18886198
0.20581114 0.21307506 0.20338982 0.19612591 0.21307506 0.2251816 0.20338982 0.21549636
0.22033899 0.20581114 0.1937046 0.20823245 0.18159807 0.22276029 0.18886198 0.19128329
0.21549636 0.21065375 0.19612591 0.20338982 0.20581114 0.20338982 0.17675544 0.19612591

lr1.weight f4 [1, 63]
00000000: 7d8e 713d 808d a93c 860c de3d 8fce 47be
00000010: 243b 1d3e d64a 083d 6ee4 143e 6b06 00bc
00000020: f595 3f3b cc6e f7bd 21f6 55bc d277 2ebe
00000030: 5416 51bd ac45 01bd 4d80 a33a af45 0dbc
00000040: 2b8a c0bd b4ee f3bd d236 013d e7f8 dcbc
00000050: 1028 a83c c194 42bd 09c2 7cbd 3705 133d
00000060: bcc2 2a3c c6eb 48be de2b 5f3d f3ca 6e3e
00000070: b391 aabd 444b c8bd b3d2 9e3d 75d5 473e
00000080: 38d2 56bd ef48 3cbd 05b6 963d 5540 163d
00000090: 700b 923b 2357 173e d8a1 9cbd 378c 94bd
000000a0: fc53 833d 2d87 803d 523b 963d 5104 8ebc
000000b0: 1a6b 8dbc b8d2 fcbd 6c32 60bd 84ab a6be
000000c0: e49e 843e 080b d4bd c9c9 05be d4a1 c53d
000000d0: bac2 2a3e dd26 343e 62c0 b4bc c424 5c3e
000000e0: cf10 d338 0117 84be 6742 1bbc da97 22be
000000f0: ff07 fe3c 00fd 18be 0674 f83b
0.058973778 0.020697355 0.108422324 -0.1951239 0.15354592 0.033274494 0.14540264 -0.00781403
0.0029233668 -0.1208168 -0.01305917 -0.17037895 -0.051046684 -0.031560585 0.001247415 -0.008622571
-0.094013534 -0.119107634 0.03154642 -0.026974155 0.020526916 -0.047505144 -0.061708484 0.035893645
0.010422405 -0.1962119 0.054485194 0.23319606 -0.08328571 -0.09779981 0.077550314 0.19515021
-0.052446574 -0.045967992 0.07358936 0.036682446 0.00445693 0.14779334 -0.07648057 -0.07253306
0.06412503 0.06275783 0.07335533 -0.017336043 -0.017262984 -0.12344879 -0.054735586 -0.3255273
0.25902474 -0.103536665 -0.13065256 0.09650007 0.16675845 0.1759295 -0.022064392 0.214984
0.00010064395 -0.257988 -0.009476281 -0.1587824 0.031009672 -0.14940262 0.0075821904
