pid/result/ml100k-PIDMF-debug2023-03-14-10-32-30/ckpt/epoch_19.pth (torch_old, 543278 bytes, 5 tensors)

users f4 [945, 64]
00000000: a08d 703f 5569 67be b284 aabe 86ce 6d3e
00000010: 0673 f83c dbf5 10be ef07 aa3e 01f0 84be
00000020: d7cf f4be 726c c2bd c76a e73e 0ead 95be
00000030: f279 afbe 2455 3e3e 5bde 033f 8541 1bbe
00000040: 04da 503f 14f2 bc3e 9896 2c3f 4826 af3e
00000050: dce6 f73e 3144 61be beb1 0dbf b865 87be
00000060: 2e0d 0f3f 0a46 0c3f afaa 783c 1f08 41be
00000070: d8cf 0ebf 21f4 fdbe 368a c7be 63db 423d
00000080: 3825 dabe 55d6 0fbf cd3c 8cbe 0def 9fbe
00000090: 72f3 e7be be5d 763b fc10 dcbe 7203 1dbf
000000a0: ef64 d1be 5f2e 9c3e 0ef5 87be 6ed9 843d
000000b0: eb67 35bf b933 18bf 1c41 1e3f 5da5 51bd
000000c0: 3280 4e3c 5d63 323e 6e51 17bf e914 fdbe
000000d0: b5b7 0e3f 968c 46bf abca 82bd c239 3c3f
000000e0: 53ea 953d 940c d73e 91c3 a23d 6191 333f
000000f0: fde9 6c3e d5e1 cdbe 00dd f1bd 7934 f73d
00000100: a499 f33e 9e04 64be a51e 093e be25 14bf
00000110: 6e9a 39bf 2cf5 45be 30c4 033f 6064 e03e
00000120: 285b b43d eada 4dbe e3ef 25bd cd43 0ebf
00000130: eeb5 aabd 2bef fcbc d538 953e 4c79 bcbc
00000140: f6e7 753e 2907 9dbd eb76 7c3e 56c1 df3e
00000150: c1a7 143e 7b1b 02be 5e95 183f 1588 9fbe
00000160: 6586 883e 5cc4 853f a9b3 42bf 75d6 4abf
00000170: e168 3cbf d5fd 30bf 00bb a33e 8e28 4abf
00000180: 5d4f 2d3f 9f56 fa3d 953b 5a3e fffb a33e
00000190: 266f 87be 6813 1cbd 22ea 1ebf c8fc 78bf
000001a0: 3f80 6a3e 18fd 47be 0d88 1b3f cb20 adbe
000001b0: 95f0 0b3f 0844 0fbf 86fa b0be 0684 d5be
000001c0: a35c 333e 55e4 50bf 5130 f03d 02f1 fbbe
000001d0: 4787 b7be 6293 183e 8317 ccbe a608 fdbe
000001e0: 249a e13e c9b8 e43d 58a2 cdbd fd7a c33e
000001f0: c5d0 b23d ded3 363f 4ef4 80be 9b2f 59be
00000200: 7d04 d9be ba07 22be d4a0 afbe c1ed 66be
00000210: 570f e2bd ee32 013f cfc3 f13e fa93 243d
00000220: bf33 ab3e 91fd 2dbf 03ff c33e 146d 19bd
00000230: 4058 f4be 073d f83e 3d26 cd3e df76 88be
00000240: 55e3 2bbf 338b 1fbe 6aa2 2f3f 0565 853e
00000250: 3b16 b7be 9fa2 9d3e b473 17bf 6b59 803e
00000260: 70ed 6bbe f137 333f 70a0 a33d 29ae 30bf
00000270: 2a81 20bd 83d6 63be b961 82be cde3 1dbf
00000280: 70f5 0abf 84de 96bc 64f6 23bf fc52 82bd
00000290: e68a 033f 8d60 f03d a0dc 63be b4ef 2dbf
000002a0: 5901 ad3e c214 143e 2748 8bbe 50ee e7be
000002b0: 89c8 27bf dfa9 2a3e 0348 de3e ef0c 4abf
000002c0: 2a3c 5d3e d4da df3d df20 9abd 69a4 c43d
000002d0: e86d 2dbf f0d5 b0bc 3638 bf3e b7af adbe
000002e0: 2298 b2be 4d95 7f3e bc19 603e 220a 173e
000002f0: 8f2b 313e fe83 243f 5cca a7be daa4 123e
00000300: 33ef d53e f422 b4be d4dc 113f 9110 d5bd
00000310: dbc3 1ebf e4a7 cd3d c36d 503f 85f0 fdbd
00000320: a8bf 323e 9968 9f3d 733d 3f3f 4746 2dbf
00000330: 1550 233b 2fed a13e 2d02 1d3f f206 36be
00000340: a1ad c23e fa9d 11bd fdb0 9b3e 09eb 01bd
00000350: 8f3d b6bd 51ee e7be afdc e6be c60c e3bd
00000360: a357 0ebf eed4 5dbe 063f 473f 8ce7 0cbf
00000370: 0494 543e 3282 eabd b4af 243f 6d72 ba3e
00000380: 0461 fc3e 20c6 10bf 7832 84be 9144 85be
00000390: 2914 93bd c556 03bf 321a 4fbb eb6a 173e
000003a0: ed56 fabe 935e ce3d 863d a33d 9028 b53d
000003b0: f993 24bf a16d 4d3d d388 d33e 060f ee3c
000003c0: 4796 fa3d f42b e03d 401d eebd a70f ffbe
000003d0: a467 973f 0717 2bbf 801e 9a3e 90a1 2bbf
000003e0: 69e1 06be fea5 d53e 0d91 553e 4156 ea3e
000003f0: 3ec9 05be 2a59 933e ae65 bb3d 9e1f c13d
0.939661 -0.22598775 -0.33304363 0.23223314 0.030328285 -0.14156286 0.33209178 -0.25964358
-0.4781482 -0.094933406 0.45198652 -0.29233593 -0.34272724 0.18587166 0.5151116 -0.15161712
0.81582665 0.3690344 0.6741729 0.34208894 0.4841832 -0.21998669 -0.5534934 -0.26444793
0.55879486 0.5479437 0.015177413 -0.18850754 -0.55785894 -0.49600318 -0.38972634 0.047572505
-0.4260652 -0.5618642 -0.27390137 -0.3123707 -0.45302922 0.0037592496 -0.42981708 -0.6133338
-0.4089732 0.30504128 -0.2655415 0.06486784 -0.7086169 -0.5945392 0.618181 -0.051183093
0.012603806 0.17420717 -0.59108627 -0.49430016 0.55749065 -0.7755827 -0.06386312 0.7352563
0.073200844 0.42001784 0.079474576 0.70143706 0.23136134 -0.4021136 -0.118097305 0.12070555
0.47578156 -0.22267386 0.13390596 -0.5787009 -0.72501266 -0.19331807 0.51471233 0.4382658
0.08806449 -0.2010304 -0.040511977 -0.55572206 -0.083354816 -0.030875763 0.29144922 -0.023007058
0.24014267 -0.07667381 0.24654739 0.4370219 0.14517118 -0.12705795 0.59602916 -0.3115851
0.26665035 1.0450549 -0.7605539 -0.79233485 -0.7359753 -0.69137317 0.31978607 -0.7896813
0.67699224 0.12223553 0.21311791 0.32028195 -0.26451987 -0.038104445 -0.6207601 -0.97260714
0.22900485 -0.19530141 0.6075447 -0.33814082 0.54663974 -0.5596318 -0.34566134 -0.41702288
0.17515807 -0.8159841 0.117279656 -0.49207312 -0.35845396 0.14899972 -0.39861688 -0.4942066
0.44062912 0.111680575 -0.1004073 0.3817977 0.08731226 0.71417034 -0.2518639 -0.21209566
-0.42386237 -0.1582326 -0.3430239 -0.22551633 -0.11038082 0.5046834 0.47219703 0.040180184
0.33437917 -0.67965037 0.38280496 -0.03745754 -0.4772358 0.4848406 0.40068236 -0.2665319
-0.67143756 -0.15580444 0.686072 0.26053634 -0.35759148 0.30788133 -0.59160924 0.2506822
-0.23039794 0.70007235 0.079895854 -0.6901575 -0.03918568 -0.22249798 -0.2546518 -0.6167572
-0.5428076 -0.01841665 -0.6404784 -0.06363484 0.5138382 0.117371656 -0.2225213 -0.6794388
0.3379009 0.14461043 -0.27203485 -0.45299006 -0.6554037 0.16666363 0.43414316 -0.78925985
0.21604982 0.1093041 -0.07525801 0.09601671 -0.6774583 -0.021586388 0.37347573 -0.33923122
-0.34881693 0.24959297 0.21884817 0.14749959 0.17301773 0.64263904 -0.32771575 0.14320698
0.41784057 -0.35182917 0.5697758 -0.104035504 -0.620176 0.10041788 0.81417483 -0.12399391
0.17455924 0.07783622 0.7470314 -0.6768536 0.0024919559 0.3162627 0.61331445 -0.17776087
0.38023093 -0.03555105 0.3040847 -0.031718288 -0.0889846 -0.45299008 -0.45090243 -0.11086421
-0.55602473 -0.21663257 0.7783054 -0.5504081 0.20759588 -0.11450614 0.643306 0.36415425
0.49292767 -0.56552315 -0.25819755 -0.26028875 -0.071815796 -0.51304275 -0.0031601307 0.1478688
-0.48894444 0.10076632 0.07970719 0.08845627 -0.6428829 0.05015338 0.41315326 0.029059898
0.122356944 0.109458834 -0.11626673 -0.4981663 1.1828504 -0.6683201 0.30101395 -0.670434
-0.13171925 0.41728204 0.20856114 0.45768932 -0.13065049 0.28778964 0.09150253 0.094298586

items_id f4 [1154, 63]
00000000: 6184 003f 66b8 013f 1967 193e 650d e4bd
00000010: c20c cc3d ebe1 cb3e 0f16 d53e 218a f23e
00000020: 2b65 003f a9a2 b8be 118a 083f 8fb3 c9bd
00000030: 973e 9fbe af33 dc3e 4c44 c83e 4934 b6be
00000040: 9277 a4bd e919 7ebe 2328 8e3e cb19 173f
00000050: 5a6a 043f 9db9 a83e f8a6 96be 54a4 5f3e
00000060: 4426 60be 7649 ec3c 500a 933e fc2c 603e
00000070: 510e 50be 9ef8 9abe 7c60 b63e d94f 043e
00000080: 47d3 f7bd 0461 c4be d19a 563e 953d 573e
00000090: 6094 293f 06c0 923e cb4c 8bbe 7f5e 34be
000000a0: 5115 5bbe f254 723e ba1a 863e 7461 fcbe
000000b0: 06cb febe c75c 5dbe f5b7 cc3e c10f f13c
000000c0: edef c93d a184 95be 933e 89be f68d 503d
000000d0: 3acb 443e 8723 0ebd e338 14bf 6ae3 533e
000000e0: 0581 01bf 225c d23a add0 8ebe 251a fdbd
000000f0: 4316 853e 1d8f 19be 2607 b63e 8b8f 253e
00000100: 65f4 7f3e 69d9 153e 97f3 7abd ed79 c93e
00000110: b963 a63d 2c70 e53e c3e4 723d 0beb 7b3d
00000120: 7b1a 69bd 0e5d e5bb 029e e6bc 8149 5abe
00000130: cad1 ae3c 6cca 2fbb 13b3 35be 23e3 5ebe
00000140: a39e 0bbe 7425 553e e179 9a3c 33ac 773e
00000150: f0d8 6e3e ecb2 85bd e075 953e 819a 41be
00000160: eca7 47be b5e7 6c3d 4192 bb3c 351b 053c
00000170: 20ae af3c b2ad 98bb c5b9 ca3d bbe3 2bbe
00000180: ce87 74be 288a 353e 7136 d13d 3a0a 903e
00000190: ad83 063e 2038 8bbd eac9 a2bd 831f d5bd
000001a0: 4f6e 633e 7a2d c0bc 4bd9 b0bd 580b 57be
000001b0: ca12 8bbd eb24 6039 3c40 00be 255e a93d
000001c0: 41a7 83bc 6aa1 10bd 9ade 0e3d 7117 4b3e
000001d0: b2f2 693e 5f44 633d d552 463e 1d22 97be
000001e0: 5968 04be c78b c63c cf9e edbd 1a4c c2bc
000001f0: 39be 69be 1fa3 2a3d d9b8 923e 42d9 a23e
00000200: 0d32 083e f17a 17be 83fb 923e 2002 6c3e
00000210: 6441 263e 7e48 c33d 9902 ad3e d26d 85be
00000220: b00e b03e 0634 7dbe 30cd 78be cfdf cc3d
00000230: d867 0f3e fa4a babd e87e 15be 861d bdba
00000240: 4670 333d c663 353e 6a3a 8a3e 4a67 243e
00000250: f679 30be 942b 3f3e cf24 97bd bcf6 43bd
00000260: 48f4 153d 7160 633e 4b68 93bd f2e3 3abc
00000270: 3c6e 683e ed04 b63c f4ef 76be 7182 9abe
00000280: ce68 e83d a8bf 743d ef76 a23e 4039 7b3d
00000290: d4d2 9cbd 6b55 65be 38d4 e0bd 8cea 6b3d
000002a0: c39b 693e 5942 8fbe 4b48 63be 61b0 51be
000002b0: 473d d23d 56fb 08be 6e86 a83d 0fca 43be
000002c0: f485 78be 87c0 6c3d 7b1a 453e b276 313e
000002d0: 59fc afbe d7ff 82bb 504b 42be 5d80 19bd
000002e0: c641 acbd 3a73 12be 6be7 013d 8968 f7bd
000002f0: 2cd3 813e 5c01 b73e 9e85 dd3d cd96 0e3e
00000300: 8857 84be bb0a 483e eaae 793d 28b6 943e
00000310: bee3 8e3e 710b a73e d3b8 74be 8118 ca3d
00000320: a55a 60be e64b f6bd 7e7f 653e e761 0b3e
00000330: a27c 91be 0f7f 32be 45e3 1dbe 29b0 8e3d
00000340: b3d0 003e bc88 a13e ba09 ae3d 9c2c 70bd
00000350: 558d 303d 6d2f 97bd 0de2 18be 352d 343e
00000360: a489 243e 5a10 55be 7c76 f0bd 2e9c 903e
00000370: 7d6d e83d 12e4 0bbd fcb5 60be 3c7f 843e
00000380: 138f 8b3d f29f 423e 2662 0f3d 9a29 58be
00000390: 2b9e 36be b292 02be 3971 743d 7bc2 a23d
000003a0: 69be a9be c549 e4bd 1727 01bd aab9 593d
000003b0: be36 edbc 9bdf 44bd 24b5 57be 2d33 00be
000003c0: e04a a63d 6fca a13d f27b 343e 0ffe b5be
000003d0: 8953 573e 6d7d 1abe 2866 a3bd 4956 d4bc
000003e0: cfbf a0bd 8144 043e a5d5 6ebe 5255 013e
000003f0: 21ca 9a3e 00e0 3d3e 874e 6f3e f928 4cbd
0.50201994 0.50671995 0.14980735 -0.11135367 0.09963371 0.398208 0.41618392 0.4737101
0.5015437 -0.360616 0.5333567 -0.09848701 -0.3110244 0.4300818 0.39114606 -0.35586765
-0.08030619 -0.24814571 0.27764997 0.5902373 0.5172478 0.32954112 -0.29424262 0.2184003
-0.21889597 0.028843623 0.28718805 0.2189216 -0.20317961 -0.30267805 0.35620487 0.12921084
-0.12100845 -0.38355267 0.20957495 0.21019585 0.6624203 0.28662127 -0.27207026 -0.17614172
-0.2139485 0.23665217 0.26192266 -0.492931 -0.4976427 -0.21617423 0.39984098 0.029426457
0.09860215 -0.2920275 -0.26805553 0.050916635 0.1921815 -0.03470185 -0.578993 0.2069222
-0.50587493 0.0016049186 -0.27893582 -0.12358502 0.25993547 -0.14996 0.3555233 0.16168039
0.24995573 0.14633717 -0.06126746 0.39350834 0.08124489 0.44812143 0.059300195 0.06150345
-0.05691002 -0.0069996184 -0.028151516 -0.21317102 0.02134027 -0.0026823534 -0.17744093 -0.21766333
-0.13634734 0.20815068 0.018856945 0.24186783 0.23324943 -0.06528267 0.29191494 -0.18906595
-0.19497651 0.05783816 0.022896888 0.008124162 0.021445334 -0.004659378 0.09898714 -0.16786091
-0.2387993 0.17728484 0.10215462 0.28132802 0.13136168 -0.06797814 -0.07948668 -0.10406401
0.22210048 -0.023459185 -0.08635195 -0.21000421 -0.06790693 0.00021376058 -0.12524503 0.0826991
-0.016070964 -0.035310186 0.03488026 0.19833161 0.22846487 0.055485126 0.19367535 -0.29518214
-0.1293043 0.024236573 -0.11602556 -0.023717929 -0.2282647 0.04165947 0.28656653 0.3180638
0.13300343 -0.14792992 0.28707513 0.23047686 0.16235882 0.09535311 0.33791044 -0.2606035
0.34386206 -0.24726877 -0.24297023 0.100036256 0.14004457 -0.09096332 -0.14599192 -0.0014428354
0.043808244 0.17713842 0.2699769 0.16055027 -0.17234024 0.18668967 -0.073800676 -0.047842726
0.036609918 0.22204758 -0.07197627 -0.011406885 0.22698301 0.022219146 -0.24114972 -0.30177644
0.11348115 0.05975309 0.31731364 0.061333895 -0.076574 -0.22395866 -0.109779775 0.05759673
0.22813325 -0.27980307 -0.22195546 -0.2047744 0.10265594 -0.13377127 0.082287654 -0.19120048
-0.24269849 0.057800796 0.19248383 0.17330435 -0.34372213 -0.0039977836 -0.18974042 -0.037475932
-0.08410983 -0.14301768 0.031714838 -0.120804854 0.25356424 0.35743225 0.10816501 0.13924713
-0.2584803 0.19535343 0.060957827 0.29045224 0.27908128 0.32625917 -0.2389863 0.09867955
-0.21909578 -0.12026195 0.22411916 0.13611566 -0.284154 -0.17431282 -0.15418728 0.06967194
0.12579612 0.31549633 0.08497949 -0.058636293 0.043103535 -0.073820926 -0.14929982 0.1759537
0.1606813 -0.20807019 -0.11741349 0.28244156 0.11349008 -0.03415305 -0.21944422 0.25878322
0.068143986 0.19006327 0.03500571 -0.2110962 -0.17833774 -0.12751272 0.05967829 0.079472505
-0.33153084 -0.11146883 -0.03153142 0.05315558 -0.028956767 -0.04806481 -0.21065193 -0.12519522
0.0811975 0.07899939 0.17625406 -0.35545394 0.2102796 -0.15086909 -0.07978469 -0.02592005
-0.078490846 0.12916757 -0.23323686 0.12630203 0.30232337 0.1854248 0.233698 -0.049843762

item_pop f4 [1154, 1]
00000000: 0000 803f 1be4 503f aa91 593f c349 5d3f
00000010: 6069 4e3f 6069 4e3f 548d 4c3f ac27 403f
00000020: 2956 393f 1d7a 373f 308f 2d3f bf3c 363f
00000030: f242 243f d98a 203f b999 283f adbd 263f
00000040: e566 223f 6f71 1d3f e566 223f c70b 113f
00000050: 3125 143f e0c3 143f 385e 083f 0c91 0e3f
00000060: 5df2 0d3f c168 033f da20 073f c168 033f
00000070: 06ee 003f 6476 f53e 7de3 053f 13ca 023f
00000080: 06ee 003f 574f 003f bc10 e93e 4cbe f13e
00000090: 13ca 023f 7d2e f93e 13ca 023f 8ba0 e13e
000000a0: e8dd e23e 38a9 fb3e 7d2e f93e da20 073f
000000b0: bc10 e93e bc10 e93e 14ab dc3e 461b e43e
000000c0: 2d63 e03e a458 e53e 1a4e ea3e 788b eb3e
000000d0: 4078 d63e 461b e43e e8dd e23e e8dd e23e
000000e0: d5c8 ec3e a458 e53e 4078 d63e 5930 da3e
000000f0: 3bd5 c83e 72e8 dd3e 9eb5 d73e 14ab dc3e
00000100: 9812 ca3e 548d cc3e 5930 da3e e33a d53e
00000110: 9812 ca3e dd97 c73e ca82 d13e 548d cc3e
00000120: 4eea be3e d025 df3e 9812 ca3e 85fd d33e
00000130: ac27 c03e ca82 d13e f64f cb3e 0f08 cf3e
00000140: dd97 c73e bf3c b63e 7ab7 b83e dd97 c73e
00000150: 4947 b13e 7ab7 b83e c4df c33e 221d c53e
00000160: d8f4 b93e bf3c b63e 936f bc3e 4eea be3e
00000170: d251 ac3e 04c2 b33e d251 ac3e eb09 b03e
00000180: 61ff b43e 7ab7 b83e 17d7 a93e 3532 bb3e
00000190: 308f ad3e 8dcc ae3e bf3c b63e eb09 b03e
000001a0: a684 b23e fe1e a63e a1e1 a43e eb09 b03e
000001b0: 8dcc ae3e a1e1 a43e 7514 ab3e fe1e a63e
000001c0: 1d7a b73e 9b3e 973e a1e1 a43e 43a4 a33e
000001d0: a1e1 a43e 5c5c a73e fe1e a63e 6f71 9d3e
000001e0: e566 a23e a1e1 a43e a1e1 a43e d251 ac3e
000001f0: cdae 9e3e 9b3e 973e e0c3 943e 1134 9c3e
00000200: b4f6 9a3e 8829 a13e e566 a23e 3d01 963e
00000210: e566 a23e c70b 913e f3d8 8a3e 2549 923e
00000220: c70b 913e 56b9 993e e0c3 943e 9b3e 973e
00000230: ae53 8d3e c70b 913e 9b3e 973e 7de3 853e
00000240: 959b 893e c70b 913e f3d8 8a3e 2549 923e
00000250: 5116 8c3e 385e 883e 5161 7f3e 0c91 8e3e
00000260: c70b 913e 8829 a13e c70b 913e c70b 913e
00000270: ae53 8d3e c168 833e f3d8 8a3e f3d8 8a3e
00000280: 9b3e 973e e0c3 943e 0c91 8e3e 385e 883e
00000290: 2549 923e f3d8 8a3e 642b 823e ae53 8d3e
000002a0: 5161 7f3e e0c3 943e 69ce 8f3e 56b9 993e
000002b0: 642b 823e 959b 893e c168 833e 9b3e 973e
000002c0: 5116 8c3e 1fa6 843e 1fa6 843e 0c91 8e3e
000002d0: 96e6 7c3e 3306 6e3e 5161 7f3e db6b 7a3e
000002e0: 96e6 7c3e ae53 8d3e 385e 883e 788b 6b3e
000002f0: db6b 7a3e 96e6 7c3e 1fa6 843e f3d8 8a3e
00000300: 959b 893e da20 873e b1ca 4d3e 20f1 773e
00000310: 14ab 5c3e 642b 823e c168 833e f3d8 8a3e
00000320: db6b 7a3e d025 5f3e 7de3 853e 5161 7f3e
00000330: bc10 693e bc10 693e d025 5f3e 9eb5 573e
00000340: 5930 5a3e 0196 663e 3306 6e3e d025 5f3e
00000350: 8ba0 613e bc10 693e db6b 7a3e 0196 663e
00000360: 461b 643e 6c45 503e 14ab 5c3e 6c45 503e
00000370: 0196 663e 5930 5a3e 5930 5a3e 461b 643e
00000380: bc10 693e bc10 693e 3bd5 483e e33a 553e
00000390: 3bd5 483e e33a 553e 8ba0 613e 0965 413e
000003a0: 28c0 523e 5930 5a3e 6c45 503e 3bd5 483e
000003b0: 5930 5a3e 0196 663e 6c45 503e 14ab 5c3e
000003c0: 8ba0 613e 28c0 523e 805a 463e e33a 553e
000003d0: d8f4 393e 461b 643e 0965 413e c4df 433e
000003e0: 14ab 5c3e 9eb5 573e 3bd5 483e 6c45 503e
000003f0: 28c0 523e 6c45 503e 61ff 343e 3bd5 483e
1.0 0.8159806 0.8498789 0.86440676 0.8062954 0.8062954 0.7990315 0.75060534
0.72397095 0.71670705 0.6779661 0.7118644 0.6416465 0.62711865 0.6585956 0.6513317
0.63438255 0.6150121 0.63438255 0.56658596 0.5786925 0.5811138 0.53268766 0.55690074
0.5544794 0.51331717 0.527845 0.51331717 0.50363195 0.47941887 0.52300245 0.5108959
0.50363195 0.50121063 0.4552058 0.47215497 0.5108959 0.4866828 0.5108959 0.44067797
0.44309926 0.4915254 0.4866828 0.527845 0.4552058 0.4552058 0.43099272 0.44552058
0.43825665 0.4479419 0.45762712 0.46004844 0.41888618 0.44552058 0.44309926 0.44309926
0.46246973 0.4479419 0.41888618 0.4261501 0.39225182 0.43341404 0.4213075 0.43099272
0.3946731 0.39951575 0.4261501 0.4164649 0.3946731 0.3898305 0.40920097 0.39951575
0.37288135 0.43583536 0.3946731 0.41404358 0.37530267 0.40920097 0.39709443 0.40435836
0.3898305 0.3559322 0.36077482 0.3898305 0.346247 0.36077482 0.38256657 0.3849879
0.36319613 0.3559322 0.36803874 0.37288135 0.33656174 0.3510896 0.33656174 0.34382567
0.3535109 0.36077482 0.33171913 0.36561742 0.33898306 0.34140435 0.3559322 0.34382567
0.34866828 0.3244552 0.3220339 0.34382567 0.34140435 0.3220339 0.33414045 0.3244552
0.35835353 0.29539952 0.3220339 0.3196126 0.3220339 0.32687652 0.3244552 0.30750605
0.31719127 0.3220339 0.3220339 0.33656174 0.30992737 0.29539952 0.2905569 0.30508474
0.30266345 0.31476998 0.31719127 0.2929782 0.31719127 0.28329298 0.27118644 0.2857143
0.28329298 0.30024213 0.2905569 0.29539952 0.27602905 0.28329298 0.29539952 0.26150122
0.26876512 0.28329298 0.27118644 0.2857143 0.27360776 0.26634383 0.24939467 0.27845037
0.28329298 0.31476998 0.28329298 0.28329298 0.27602905 0.25665858 0.27118644 0.27118644
0.29539952 0.2905569 0.27845037 0.26634383 0.2857143 0.27118644 0.2542373 0.27602905
0.24939467 0.2905569 0.28087166 0.30024213 0.2542373 0.26876512 0.25665858 0.29539952
0.27360776 0.2590799 0.2590799 0.27845037 0.24697337 0.23244552 0.24939467 0.24455206
0.24697337 0.27602905 0.26634383 0.23002422 0.24455206 0.24697337 0.2590799 0.27118644
0.26876512 0.2639225 0.20096852 0.24213076 0.21549636 0.2542373 0.25665858 0.27118644
0.24455206 0.21791768 0.26150122 0.24939467 0.2276029 0.2276029 0.21791768 0.21065375
0.21307506 0.2251816 0.23244552 0.21791768 0.22033899 0.2276029 0.24455206 0.2251816
0.22276029 0.20338982 0.21549636 0.20338982 0.2251816 0.21307506 0.21307506 0.22276029
0.2276029 0.2276029 0.19612591 0.20823245 0.19612591 0.20823245 0.22033899 0.18886198
0.20581114 0.21307506 0.20338982 0.19612591 0.21307506 0.2251816 0.20338982 0.21549636
0.22033899 0.20581114 0.1937046 0.20823245 0.18159807 0.22276029 0.18886198 0.19128329
0.21549636 0.21065375 0.19612591 0.20338982 0.20581114 0.20338982 0.17675544 0.19612591

item_pop_true f4 [1154, 1]
00000000: 0000 803f 1be4 503f aa91 593f c349 5d3f
00000010: 6069 4e3f 6069 4e3f 548d 4c3f ac27 403f
00000020: 2956 393f 1d7a 373f 308f 2d3f bf3c 363f
00000030: f242 243f d98a 203f b999 283f adbd 263f
00000040: e566 223f 6f71 1d3f e566 223f c70b 113f
00000050: 3125 143f e0c3 143f 385e 083f 0c91 0e3f
00000060: 5df2 0d3f c168 033f da20 073f c168 033f
00000070: 06ee 003f 6476 f53e 7de3 053f 13ca 023f
00000080: 06ee 003f 574f 003f bc10 e93e 4cbe f13e
00000090: 13ca 023f 7d2e f93e 13ca 023f 8ba0 e13e
000000a0: e8dd e23e 38a9 fb3e 7d2e f93e da20 073f
000000b0: bc10 e93e bc10 e93e 14ab dc3e 461b e43e
000000c0: 2d63 e03e a458 e53e 1a4e ea3e 788b eb3e
000000d0: 4078 d63e 461b e43e e8dd e23e e8dd e23e
000000e0: d5c8 ec3e a458 e53e 4078 d63e 5930 da3e
000000f0: 3bd5 c83e 72e8 dd3e 9eb5 d73e 14ab dc3e
00000100: 9812 ca3e 548d cc3e 5930 da3e e33a d53e
00000110: 9812 ca3e dd97 c73e ca82 d13e 548d cc3e
00000120: 4eea be3e d025 df3e 9812 ca3e 85fd d33e
00000130: ac27 c03e ca82 d13e f64f cb3e 0f08 cf3e
00000140: dd97 c73e bf3c b63e 7ab7 b83e dd97 c73e
00000150: 4947 b13e 7ab7 b83e c4df c33e 221d c53e
00000160: d8f4 b93e bf3c b63e 936f bc3e 4eea be3e
00000170: d251 ac3e 04c2 b33e d251 ac3e eb09 b03e
00000180: 61ff b43e 7ab7 b83e 17d7 a93e 3532 bb3e
00000190: 308f ad3e 8dcc ae3e bf3c b63e eb09 b03e
000001a0: a684 b23e fe1e a63e a1e1 a43e eb09 b03e
000001b0: 8dcc ae3e a1e1 a43e 7514 ab3e fe1e a63e
000001c0: 1d7a b73e 9b3e 973e a1e1 a43e 43a4 a33e
000001d0: a1e1 a43e 5c5c a73e fe1e a63e 6f71 9d3e
000001e0: e566 a23e a1e1 a43e a1e1 a43e d251 ac3e
000001f0: cdae 9e3e 9b3e 973e e0c3 943e 1134 9c3e
00000200: b4f6 9a3e 8829 a13e e566 a23e 3d01 963e
00000210: e566 a23e c70b 913e f3d8 8a3e 2549 923e
00000220: c70b 913e 56b9 993e e0c3 943e 9b3e 973e
00000230: ae53 8d3e c70b 913e 9b3e 973e 7de3 853e
00000240: 959b 893e c70b 913e f3d8 8a3e 2549 923e
00000250: 5116 8c3e 385e 883e 5161 7f3e 0c91 8e3e
00000260: c70b 913e 8829 a13e c70b 913e c70b 913e
00000270: ae53 8d3e c168 833e f3d8 8a3e f3d8 8a3e
00000280: 9b3e 973e e0c3 943e 0c91 8e3e 385e 883e
00000290: 2549 923e f3d8 8a3e 642b 823e ae53 8d3e
000002a0: 5161 7f3e e0c3 943e 69ce 8f3e 56b9 993e
000002b0: 642b 823e 959b 893e c168 833e 9b3e 973e
000002c0: 5116 8c3e 1fa6 843e 1fa6 843e 0c91 8e3e
000002d0: 96e6 7c3e 3306 6e3e 5161 7f3e db6b 7a3e
000002e0: 96e6 7c3e ae53 8d3e 385e 883e 788b 6b3e
000002f0: db6b 7a3e 96e6 7c3e 1fa6 843e f3d8 8a3e
00000300: 959b 893e da20 873e b1ca 4d3e 20f1 773e
00000310: 14ab 5c3e 642b 823e c168 833e f3d8 8a3e
00000320: db6b 7a3e d025 5f3e 7de3 853e 5161 7f3e
00000330: bc10 693e bc10 693e d025 5f3e 9eb5 573e
00000340: 5930 5a3e 0196 663e 3306 6e3e d025 5f3e
00000350: 8ba0 613e bc10 693e db6b 7a3e 0196 663e
00000360: 461b 643e 6c45 503e 14ab 5c3e 6c45 503e
00000370: 0196 663e 5930 5a3e 5930 5a3e 461b 643e
00000380: bc10 693e bc10 693e 3bd5 483e e33a 553e
00000390: 3bd5 483e e33a 553e 8ba0 613e 0965 413e
000003a0: 28c0 523e 5930 5a3e 6c45 503e 3bd5 483e
000003b0: 5930 5a3e 0196 663e 6c45 503e 14ab 5c3e
000003c0: 8ba0 613e 28c0 523e 805a 463e e33a 553e
000003d0: d8f4 393e 461b 643e 0965 413e c4df 433e
000003e0: 14ab 5c3e 9eb5 573e 3bd5 483e 6c45 503e
000003f0: 28c0 523e 6c45 503e 61ff 343e 3bd5 483e
1.0 0.8159806 0.8498789 0.86440676 0.8062954 0.8062954 0.7990315 0.75060534
0.72397095 0.71670705 0.6779661 0.7118644 0.6416465 0.62711865 0.6585956 0.6513317
0.63438255 0.6150121 0.63438255 0.56658596 0.5786925 0.5811138 0.53268766 0.55690074
0.5544794 0.51331717 0.527845 0.51331717 0.50363195 0.47941887 0.52300245 0.5108959
0.50363195 0.50121063 0.4552058 0.47215497 0.5108959 0.4866828 0.5108959 0.44067797
0.44309926 0.4915254 0.4866828 0.527845 0.4552058 0.4552058 0.43099272 0.44552058
0.43825665 0.4479419 0.45762712 0.46004844 0.41888618 0.44552058 0.44309926 0.44309926
0.46246973 0.4479419 0.41888618 0.4261501 0.39225182 0.43341404 0.4213075 0.43099272
0.3946731 0.39951575 0.4261501 0.4164649 0.3946731 0.3898305 0.40920097 0.39951575
0.37288135 0.43583536 0.3946731 0.41404358 0.37530267 0.40920097 0.39709443 0.40435836
0.3898305 0.3559322 0.36077482 0.3898305 0.346247 0.36077482 0.38256657 0.3849879
0.36319613 0.3559322 0.36803874 0.37288135 0.33656174 0.3510896 0.33656174 0.34382567
0.3535109 0.36077482 0.33171913 0.36561742 0.33898306 0.34140435 0.3559322 0.34382567
0.34866828 0.3244552 0.3220339 0.34382567 0.34140435 0.3220339 0.33414045 0.3244552
0.35835353 0.29539952 0.3220339 0.3196126 0.3220339 0.32687652 0.3244552 0.30750605
0.31719127 0.3220339 0.3220339 0.33656174 0.30992737 0.29539952 0.2905569 0.30508474
0.30266345 0.31476998 0.31719127 0.2929782 0.31719127 0.28329298 0.27118644 0.2857143
0.28329298 0.30024213 0.2905569 0.29539952 0.27602905 0.28329298 0.29539952 0.26150122
0.26876512 0.28329298 0.27118644 0.2857143 0.27360776 0.26634383 0.24939467 0.27845037
0.28329298 0.31476998 0.28329298 0.28329298 0.27602905 0.25665858 0.27118644 0.27118644
0.29539952 0.2905569 0.27845037 0.26634383 0.2857143 0.27118644 0.2542373 0.27602905
0.24939467 0.2905569 0.28087166 0.30024213 0.2542373 0.26876512 0.25665858 0.29539952
0.27360776 0.2590799 0.2590799 0.27845037 0.24697337 0.23244552 0.24939467 0.24455206
0.24697337 0.27602905 0.26634383 0.23002422 0.24455206 0.24697337 0.2590799 0.27118644
0.26876512 0.2639225 0.20096852 0.24213076 0.21549636 0.2542373 0.25665858 0.27118644
0.24455206 0.21791768 0.26150122 0.24939467 0.2276029 0.2276029 0.21791768 0.21065375
0.21307506 0.2251816 0.23244552 0.21791768 0.22033899 0.2276029 0.24455206 0.2251816
0.22276029 0.20338982 0.21549636 0.20338982 0.2251816 0.21307506 0.21307506 0.22276029
0.2276029 0.2276029 0.19612591 0.20823245 0.19612591 0.20823245 0.22033899 0.18886198
0.20581114 0.21307506 0.20338982 0.19612591 0.21307506 0.2251816 0.20338982 0.21549636
0.22033899 0.20581114 0.1937046 0.20823245 0.18159807 0.22276029 0.18886198 0.19128329
0.21549636 0.21065375 0.19612591 0.20338982 0.20581114 0.20338982 0.17675544 0.19612591

lr1.weight f4 [1, 63]
00000000: b093 6c3d 133a bc3c 7560 dc3d 03c5 4fbe
00000010: eb6c 283e 695f 153d 064f 1f3e dd56 c0ba
00000020: ec80 543c f517 febd f825 27bc cf62 29be
00000030: 61a8 43bd 6d1a dbbc 2bce 593b f305 8fbc
00000040: fb80 c9bd 7393 fabd 76a3 f13c 2038 e2bc
00000050: c936 c73c bbac 4dbd a0be 8bbd 9d53 193d
00000060: 2757 733b 4f36 4ebe b32e 733d d1d4 763e
00000070: cc4a a1bd cc36 c7bd 3d07 9b3d da94 583e
00000080: e0e8 69bd c56b 3cbd cec7 b13d 3092 453d
00000090: afea ad3b 65ec 153e 4466 a1bd 0534 91bd
000000a0: 1769 803d 67e3 7e3d 32d9 9e3d 6b5d 89bc
000000b0: ba8c a1bc ad6d 11be 4e08 55bd fbdc a7be
000000c0: afdb 883e 9b28 ebbd fbf1 09be c884 d63d
000000d0: fbee 2e3e d88c 3f3e 950e babc 2be0 653e
000000e0: c349 5abb b36e 86be ffe3 4fbc 6780 2dbe
000000f0: 2bb8 d63c 67f2 1cbe 2801 153c
0.057758033 0.02297691 0.10760585 -0.20289998 0.16447799 0.036467943 0.15557489 -0.0014674325
0.0129701905 -0.12406913 -0.010201924 -0.16541599 -0.047768 -0.026746 0.0033234458 -0.017458891
-0.09839054 -0.12235155 0.02949689 -0.027614653 0.024318116 -0.050213557 -0.06823468 0.037433255
0.0037130804 -0.20137905 0.059370708 0.2410462 -0.078755945 -0.097272485 0.0756974 0.21150532
-0.057106853 -0.046001215 0.08680688 0.04823512 0.0053075175 0.14640959 -0.07880834 -0.0709
0.06270044 0.062228587 0.077562705 -0.016768178 -0.019720424 -0.14201994 -0.052009873 -0.32785782
0.26730105 -0.11482354 -0.13471214 0.10474545 0.17083351 0.18706071 -0.022712031 0.22448795
-0.0033308126 -0.26256332 -0.012688636 -0.16943513 0.026210865 -0.15326844 0.009094514
