pid/result/ml100k-PIDMF-debug2023-03-14-10-32-30/ckpt/epoch_1.pth (torch_old, 543278 bytes, 5 tensors)

users f4 [945, 64]
000000 73 fd 34 3e 0f 09 4f bd b8 ed 67 bc 28 8d a4 3d
       0.17674808 -0.05054575 -0.014155798 0.08034736
000010 7c 9c 12 3d 1e 1c 13 3c 11 14 6b 3d 3a 7a 91 b9
       0.035793766 0.008978872 0.057392184 -0.0002774762
000020 1b 46 da bd 06 4a 82 bd ab c6 fa 3d ca 26 07 be
       -0.10657903 -0.06361775 0.12244924 -0.1319839
000030 60 d3 86 bd dd cc a0 3d 12 57 1d 3e 78 12 46 bd
       -0.06583285 0.078515746 0.15365246 -0.048357457
000040 ac 4c 14 3e f8 6b b0 3d 2c 4f 18 3e 85 e7 02 3e
       0.14482373 0.086143434 0.14873952 0.1278363
000050 de f4 ef 3d 78 54 a7 3c 56 00 cc bd c8 e2 3d bd
       0.117166266 0.02042602 -0.099610016 -0.046358854
000060 1c e4 6c 3d 1f ab 53 3d de fc 44 3d 3d ae 8d ba
       0.05783473 0.051676866 0.048092715 -0.0010809373
000070 7a 73 24 be 2d 53 c7 bd 27 85 4e bd 00 29 34 3d
       -0.16059676 -0.097326614 -0.050419953 0.043984413
000080 f1 7d fe bd 49 68 03 be af 88 bd bd 79 2c 45 bd
       -0.12426365 -0.1283275 -0.09254586 -0.048138116
000090 03 46 76 bd 20 b0 0c bd 22 43 ef bd c0 6f b8 bd
       -0.060125362 -0.034347653 -0.116827264 -0.090056896
0000a0 e9 3d 0b be 14 c2 bd 3d 6d 53 0e bd ca 1f ee 3c
       -0.13597836 0.09265533 -0.03474753 0.029067893
0000b0 0d 7c 01 be 88 12 cc bd 4c 97 0a 3e f8 b5 99 3d
       -0.12644978 -0.09964472 0.13534278 0.07505411
0000c0 74 39 87 bd 63 c5 4c 3c fd f2 b8 bd 3d ed de bd
       -0.06602755 0.012498233 -0.09030721 -0.10885093
0000d0 68 0f 09 3e ca 9a 4d bd 46 55 a5 bc d8 6a ca 3d
       0.13384783 -0.050196446 -0.020182263 0.0988366
0000e0 4f 88 08 3d 43 47 47 3d 7c 1a 9d bb cc a3 d7 3d
       0.03333312 0.048651945 -0.004794417 0.10529289
0000f0 24 15 cc 3c 9d bf 01 be 66 70 60 3d 85 9c ad 3d
       0.024912424 -0.12670751 0.05479469 0.08477119
000100 ee 7f 11 3e 26 42 d4 bd d2 2f af bc 7f e5 b5 bd
       0.14208958 -0.10364179 -0.021385107 -0.088816635
000110 1e 56 b9 bd 02 02 02 be 56 22 ae 3d d7 06 b5 3d
       -0.09049629 -0.12696078 0.08502643 0.08839195
000120 31 c6 03 bc 4a 5c c2 bd e6 11 50 bd 7f e9 88 bd
       -0.008042858 -0.09490259 -0.05079832 -0.06685161
000130 6a d4 d1 bb 4e 59 89 3d 06 28 aa 3d 23 4a b9 bd
       -0.0064034956 0.06706487 0.08308415 -0.090473436
000140 ba 92 bb bd f7 e4 0b 3c 58 9e b4 3d eb 1f cf 3d
       -0.09158845 0.008538476 0.08819264 0.1011351
000150 43 a8 6e 3d 38 2a 8c 3d 69 dc ab 3d 01 18 38 3d
       0.058265936 0.0684399 0.08391649 0.044944767
000160 3d 49 d6 3d 2c 28 28 3e 87 1f f9 bd 4d 1e 04 be
       0.10463188 0.16421574 -0.121642165 -0.12902184
000170 6a a7 27 be ca 3e 03 be c5 37 40 bc b8 08 d1 bd
       -0.16372457 -0.12816921 -0.0117320465 -0.10206741
000180 01 26 1f 3e 2f 16 1e 3c 23 a5 b1 3d 7c 4a 85 3d
       0.15541841 0.009648844 0.086740755 0.065083474
000190 91 e5 87 3d 59 22 aa 3d 38 19 05 be 2a 01 1d be
       0.06635583 0.083073325 -0.12997901 -0.15332475
0001a0 20 38 47 bc a4 08 76 3c 99 3b e1 3d 8e 89 b9 bd
       -0.012159377 0.0150167085 0.109976955 -0.090594396
0001b0 c2 e8 2e 3d 2c d6 ab bd c9 0d c2 bc fb b3 8d bd
       0.042702444 -0.083904594 -0.023688214 -0.06919094
0001c0 2a 24 8c 3d e3 ef eb bd b9 d3 d3 3d b6 52 37 bd
       0.06842835 -0.11520364 0.10343117 -0.044756614
0001d0 12 8d 39 bd bb fe e4 3c f4 d3 3a bd 26 e4 fd bd
       -0.04530055 0.027953496 -0.04561229 -0.123970315
0001e0 30 f7 de 3d 0a 1a 9d 3b ba ff df 3c 9f 3f 04 bd
       0.10886991 0.004794364 0.02734362 -0.032287236
0001f0 95 e6 70 3d b6 6b 42 3c 76 c7 ec bc aa 3c 95 3d
       0.05881365 0.011866501 -0.028903704 0.072869614
000200 5c 7e 14 bd e4 a1 71 bc 1b 06 36 bd d8 e9 9b bd
       -0.03625332 -0.01474807 -0.044439416 -0.076129615
000210 b6 45 83 bd 78 18 08 3e d2 c9 e8 3d 24 c1 db bb
       -0.06409781 0.13290584 0.11366619 -0.0067063738
000220 53 3e d3 3d df 25 d3 bd 50 5d 12 3e d3 55 41 bc
       0.10314622 -0.10309958 0.14293408 -0.011800247
000230 df 57 9b bd 0c 18 d7 3d 91 78 08 3e 49 ad e6 bd
       -0.075851195 0.105026335 0.13327242 -0.1126352
000240 d9 ad 98 bd 55 10 ac 3b 69 7f f1 3d d6 d5 be 3c
       -0.07455034 0.0052509704 0.1179188 0.023295324
000250 ca c1 b3 bd 31 61 68 3c 49 34 0e be 32 97 f3 3d
       -0.08777197 0.0141833285 -0.13887133 0.118940726
000260 46 d8 dd bd ba 13 c7 3d 61 d0 91 3d 1f 11 00 be
       -0.108322665 0.097205594 0.07119823 -0.12506531
000270 14 21 46 3c cb 60 2f bd 4b 64 08 bd df 10 d1 bd
       0.012092847 -0.04281692 -0.03329877 -0.10208296
000280 22 0e b5 bd 9a 87 fb 3c 5e 8a ae bd 0b 5c 73 3c
       -0.08840586 0.030704308 -0.08522485 0.014853488
000290 36 9d cd 3d 69 8b 5e 3d 82 c1 8f 3b ab c5 d5 bd
       0.10039751 0.05433217 0.0043870816 -0.10438093
0002a0 85 05 c6 3c 77 fc 4d 3d 20 03 48 bd cd 6f bb bd
       0.024172554 0.050289597 -0.048831105 -0.09152184
0002b0 a1 54 b8 bd f3 cb 00 3d c0 0a a7 3d 62 d5 1e be
       -0.09000517 0.0314445 0.08156347 -0.15511087
0002c0 60 ef 65 3d a8 50 26 bc 9d 1a 84 bd 46 1d 60 bd
       0.05613649 -0.010151066 -0.064503886 -0.054715417
0002d0 8e 5e fd bd c6 d7 2f 3d 5b 25 42 3d 25 0a 8f bd
       -0.123715505 0.042930387 0.047398906 -0.06984357
0002e0 1c d2 e8 3c 83 5c 66 3d 1f e2 a3 3d 17 f4 71 3d
       0.0284205 0.05624057 0.080021136 0.059070673
0002f0 99 d8 85 3c 6e 4a 16 3e 03 4f 21 3b 00 9c 50 3e
       0.016338633 0.1467683 0.0024613745 0.2037201
000300 64 53 bb 3d 0f ae 29 bd 4a 7f d7 3d 0d 65 38 3d
       0.09146765 -0.04142576 0.10522325 0.045018245
000310 19 5c df bd c5 9c 09 3d 59 f2 09 3e 78 e8 91 bc
       -0.10906238 0.033596773 0.13471355 -0.017811045
000320 d3 04 12 bd 95 01 c2 3c 98 9d 25 3e 4e 61 c5 bd
       -0.035649132 0.023682395 0.16173398 -0.096377
000330 58 94 5a 3b 59 e6 17 3d 09 61 02 3e c4 92 50 bd
       0.003335258 0.03708491 0.12732328 -0.050921217
000340 88 ca c4 3c 5a 4c 04 3d d2 a6 8a 3d aa 28 c9 3c
       0.024022356 0.032299377 0.067701 0.024555523
000350 07 67 6f bd 60 73 5a bd 56 1e bb bd 34 0c 74 3c
       -0.058447864 -0.053332686 -0.091366455 0.014895488
000360 9d 55 d0 bd 46 4a 2e bc 76 3c cf 3d e4 9d 99 bd
       -0.101725794 -0.010637825 0.10118954 -0.07500818
000370 a5 e4 93 3d 04 dd 29 bd 01 40 ff 3d 64 87 4b 3d
       0.07221345 -0.041470543 0.1246338 0.049689665
000380 13 3a 62 3d cd 28 08 be 9d 6b 8c ba f3 94 9d bd
       0.055231165 -0.13296814 -0.0010713224 -0.076944254
000390 64 a7 a3 bc bd 20 6b bd 61 ea 76 bd cd 64 8b 3c
       -0.019977279 -0.05740427 -0.060282115 0.017015839
0003a0 5c cc 03 be 00 80 44 bd 64 26 af 3c e2 bd 72 3d
       -0.12870926 -0.047973633 0.02138061 0.059263118
0003b0 e6 29 ec bd 03 df 35 3d b3 e6 3a 3d e1 95 e3 3c
       -0.11531429 0.044402134 0.04563017 0.027781429
0003c0 a7 0b 0f bd 33 a8 ae 3d f8 5b 22 3c 68 43 f1 bc
       -0.034923222 0.08528175 0.009909622 -0.029451087
0003d0 42 2b 31 3e 10 fe cb bd 8b 6b 4f 3d 52 d1 c3 bd
       0.17301658 -0.09960568 0.05063967 -0.09561409
0003e0 ed 65 26 bd c5 9b de 3d 66 4a 28 3d 5d 46 43 3d
       -0.040624548 0.108695544 0.041086577 0.047674526
0003f0 18 e0 4a bd 52 a4 40 3c 43 b8 18 bc 28 2b 75 3d
       -0.04953012 0.011757927 -0.009321275 0.05985561

items_id f4 [1154, 63]
000000 2f c9 ce 3d c1 b1 79 3e 1b da 88 bb 12 5c 77 bd
       0.100969665 0.24384214 -0.004176391 -0.06039054
000010 7f 6c 1f 3e e9 d2 08 3e e3 d6 6b 3e db fb 55 3e
       0.15568732 0.13361706 0.23031192 0.20896856
000020 1b 1f 0a 3e 54 1b 55 be fe 70 2d 3e 32 31 ae 3a
       0.13488428 -0.20811206 0.16937634 0.0013289808
000030 ea 1d 8c bd b3 4c 07 3e 59 18 04 3e d7 59 25 be
       -0.06841643 0.13212852 0.12899913 -0.16147552
000040 04 c5 f3 bc 16 94 f4 bd a7 43 c1 3d 31 df 31 3e
       -0.02975703 -0.11942308 0.09436732 0.17370297
000050 18 0a 03 3e 28 e0 c0 3b 7f bf 43 be 71 cb 59 3d
       0.12796819 0.0058860965 -0.19116019 0.053172532
000060 b8 f0 3e bd 56 6d bf 3c 02 d4 29 3e 3e 02 45 3e
       -0.046616286 0.023367565 0.16584781 0.19239137
000070 60 f0 a8 bd db a8 2f be 4a 25 74 3d bf 1d 04 3e
       -0.08248973 -0.17154257 0.059605874 0.12901972
000080 4a e1 d5 bb 9b 4b f4 bd e9 f2 e8 3d cc 1a ae 3d
       -0.0065271007 -0.11928483 0.113744564 0.08501205
000090 7d 68 81 3e 94 1d 4d 3e b8 0a da bd 35 5e 94 bc
       0.2527503 0.20030814 -0.10646576 -0.018111328
0000a0 f8 a8 89 3c 26 0e b5 3d 58 c3 f7 3d e1 5d 9d bd
       0.016804203 0.08840589 0.12097806 -0.076839216
0000b0 b2 46 5a be 4d ef 07 be 6d a7 14 3e 1b bd 17 bd
       -0.2131603 -0.1327488 0.14516993 -0.03704558
0000c0 91 11 1a 3e c4 a7 32 be cc b0 1d be 24 72 b0 3b
       0.15045764 -0.1744681 -0.15399474 0.0053847004
0000d0 1e 95 d4 3d 0d 55 7a bc c2 5f 0f be 18 7a 29 3e
       0.10380004 -0.015279067 -0.14001372 0.16550481
0000e0 3c 51 44 be 3d a3 b3 bb e3 a7 b7 bd 0f db 9d bd
       -0.19171613 -0.005482106 -0.08967569 -0.07707798
0000f0 56 64 82 3d 46 d6 fc bd df 5a a7 3d 1e bc 33 3e
       0.06366794 -0.12345557 0.08171629 0.1755223
000100 8f 41 5f 3e c6 0f 20 3e 1f 2c 7b bd 2c bd 02 3e
       0.21802352 0.15631017 -0.061321374 0.12767476
000110 30 b5 c5 3d 9d 21 2b 3e 42 9f e4 3c 45 86 c1 3d
       0.096536994 0.16712041 0.027907971 0.09449438
000120 cd 68 56 bd d9 58 1d bc d5 d7 71 bc c2 43 46 be
       -0.05234604 -0.009603702 -0.014760931 -0.19361785
000130 1c 03 09 bc 3d cd 09 bc 36 95 da bd 6f 0c 18 bd
       -0.008362558 -0.008410749 -0.10672991 -0.037121233
000140 be b8 19 be b1 82 2d 3e 67 d0 81 3d 9f ff 67 3e
       -0.1501188 0.16944386 0.06338578 0.22656105
000150 02 98 33 3e 1d fa ce bc b3 0e 62 3e ab a1 3c be
       0.17538455 -0.025265748 0.2207592 -0.18421046
000160 66 4f 22 be fe d7 29 3d 4c db ad bc c4 b7 17 3b
       -0.158506 0.04146575 -0.021222733 0.0023150304
000170 9b ac 14 3d 6d 81 33 3d cd f9 87 3d 41 6c 0e be
       0.036297422 0.043824602 0.066394426 -0.13908483
000180 f9 a0 52 be 05 92 b2 3d 38 3c 92 3d 5e dd 7b 3e
       -0.20569219 0.08719257 0.07140392 0.24596164
000190 15 c8 c1 3d b6 ca 36 bd 49 b3 91 bd 67 48 8b bd
       0.09461991 -0.044626914 -0.07114274 -0.06800919
0001a0 9f b1 52 3e 49 67 b9 bc 2a 47 13 be 5c 9d 39 be
       0.2057557 -0.022632258 -0.14382616 -0.18126434
0001b0 59 db 56 bd 12 a9 b6 bc 3e fa bd bd 28 65 f2 3c
       -0.05245528 -0.022297416 -0.092762455 0.02958925
0001c0 22 5f f0 bc e5 38 e2 bc b2 71 85 3c d0 cc 3d 3e
       -0.029342238 -0.02761502 0.016289566 0.18535161
0001d0 83 a6 40 3e a7 a6 88 bc a8 19 21 3e 2b db 59 be
       0.18813519 -0.016681029 0.15732443 -0.21275012
0001e0 c7 b5 e1 bd 84 64 04 3d ff 18 93 bd 18 2e 2b bd
       -0.110209994 0.03232242 -0.07182502 -0.041792005
0001f0 a3 ce d9 bd 19 c1 7c 3b b7 33 31 3e 95 20 62 3e
       -0.10635116 0.0038567244 0.17304884 0.22082742
000200 63 08 a8 3d 33 a5 0d be eb 01 68 3e 81 40 15 3e
       0.08204725 -0.1383255 0.22656982 0.14575388
000210 ec b2 f3 3d 24 22 a4 ba 39 ec 64 3e 40 c2 52 be
       0.11899361 -0.0012522382 0.22355737 -0.20581913
000220 e1 4f 68 3e 3b c6 52 be ae d0 2b be 5f cf 0e 3b
       0.22686721 -0.20583431 -0.16778824 0.0021791083
000230 fa 08 88 3d db 2c 91 36 7e 89 c9 bc c7 44 eb 3c
       0.06642337 4.3265586e-06 -0.024601694 0.028719319
000240 9e 41 d3 bc 11 c9 6d 3d 37 da 0f 3e 8b 73 be bc
       -0.025788125 0.05805308 0.14048086 -0.023248455
000250 66 99 01 be 72 9c e1 3d 68 28 71 bc 94 ff a7 bc
       -0.12656173 0.11016168 -0.014719106 -0.020507611
000260 cb 6d 7b bc ed 53 49 3e be 74 b8 bc 3a a5 0d 3d
       -0.015346001 0.19660921 -0.022516605 0.0345814
000270 46 b9 0e 3e c2 1d 07 bc 1e 69 3f be 0b c0 56 be
       0.13937864 -0.008246841 -0.18692443 -0.20971696
000280 69 fc 8d 3d 18 cf 5a 3c 3f 2f 1d 3e df b5 0c 3c
       0.06932909 0.013355039 0.15350054 0.008588283
000290 b8 46 4c bc 18 56 2a be f8 25 9d bc 2c 4a 5a bc
       -0.012468033 -0.16634405 -0.019183144 -0.013323348
0002a0 49 80 34 3e e9 d5 18 be 4b ee 03 be 7e ca 2a be
       0.17627062 -0.1492535 -0.1288387 -0.16678807
0002b0 03 44 4b ba 2e e3 00 be e9 db 99 3d f2 05 23 be
       -0.000775397 -0.12586662 0.07512648 -0.15920237
0002c0 40 8c 4e be ae 5f 46 3c 07 7b 21 3e e3 7c 1c 3e
       -0.20170689 0.012107773 0.15769587 0.15282016
0002d0 03 e5 57 be 90 3a ed bc 54 0a 76 bd f2 e5 04 bc
       -0.21083455 -0.028958589 -0.060068443 -0.008111464
0002e0 7f da 90 bc 1d b0 d8 bd f9 66 0f bd ac 4c 9e bd
       -0.017682312 -0.10580466 -0.03501031 -0.07729468
0002f0 7e b4 1f 3e fb 4a 77 3e 1a 7d b2 3c c2 59 a7 3d
       0.15596196 0.24149697 0.021788169 0.08171417
000300 93 40 78 be 47 41 37 3e fa 87 95 bc 70 c6 4a 3e
       -0.24243383 0.17895995 -0.018253315 0.1980226
000310 73 f4 4d 3e c6 11 5d 3e b7 5a 48 be 95 8a e8 bb
       0.20112781 0.21588811 -0.19565855 -0.0070965984
000320 4d a1 3a be 83 45 75 bd 85 7b 1b 3e 0c 2b 6e 3d
       -0.18225594 -0.059880745 0.15183838 0.05814652
000330 9b f0 3e be 46 8b fe bd 72 9e f9 bd b8 57 1d 3c
       -0.18646471 -0.12428908 -0.12188424 0.009603433
000340 45 f8 a7 3c d1 8a 42 3e c7 48 97 bc c2 73 b1 bc
       0.020504126 0.18998267 -0.01846732 -0.021661643
000350 a6 7b e4 3b b4 e8 fb bc ee 0d 09 be fb e3 05 3e
       0.006972748 -0.03075061 -0.1338422 0.13075249
000360 1f 3b 0f 3e 4c 3c 32 be 34 f3 9d bd dd d7 47 3e
       0.13987397 -0.17405814 -0.07712403 0.19515939
000370 64 65 ae 3d bf 0d 95 3b a2 e2 10 be 51 ef 57 3e
       0.085154325 0.004548758 -0.14148954 0.21087386
000380 d6 cf d1 3c cc 16 49 3d b5 83 67 bb 8a b5 1f be
       0.0256118 0.049094006 -0.0035326306 -0.15596595
000390 d9 e0 06 be d4 03 6e bd d8 85 90 3c 6e f5 05 3d
       -0.1317171 -0.05810912 0.017641947 0.032704763
0003a0 0f 45 68 be 8f 3e 41 bc 6a 65 eb 3b d7 07 57 bc
       -0.22682594 -0.0117947 0.0071837204 -0.013124428
0003b0 19 a7 19 bd 0c 0e 1b bd 71 a8 30 be 45 1c a7 bd
       -0.037512872 -0.037855193 -0.17251755 -0.08159689
0003c0 f8 e1 89 3d 68 62 30 3d 48 e5 2e 3e ed cf 6a be
       0.06732553 0.043062598 0.17079651 -0.2293088
0003d0 f0 ad 3f 3e 68 95 64 bd ea ad 82 bd a5 d4 12 3d
       0.18718696 -0.055806547 -0.06380828 0.035847325
0003e0 42 6f 2e bd a9 a2 8d 3d f9 ff 30 be d5 16 26 3d
       -0.042586572 0.069157906 -0.17285146 0.040549118
0003f0 87 42 62 3e 2a 9c d4 3d dd a5 4f 3e 8f cb b6 bd
       0.2209569 0.103813484 0.20278116 -0.089255445

item_pop f4 [1154, 1]
000000 00 00 80 3f 1b e4 50 3f aa 91 59 3f c3 49 5d 3f
       1.0 0.8159806 0.8498789 0.86440676
000010 60 69 4e 3f 60 69 4e 3f 54 8d 4c 3f ac 27 40 3f
       0.8062954 0.8062954 0.7990315 0.75060534
000020 29 56 39 3f 1d 7a 37 3f 30 8f 2d 3f bf 3c 36 3f
       0.72397095 0.71670705 0.6779661 0.7118644
000030 f2 42 24 3f d9 8a 20 3f b9 99 28 3f ad bd 26 3f
       0.6416465 0.62711865 0.6585956 0.6513317
000040 e5 66 22 3f 6f 71 1d 3f e5 66 22 3f c7 0b 11 3f
       0.63438255 0.6150121 0.63438255 0.56658596
000050 31 25 14 3f e0 c3 14 3f 38 5e 08 3f 0c 91 0e 3f
       0.5786925 0.5811138 0.53268766 0.55690074
000060 5d f2 0d 3f c1 68 03 3f da 20 07 3f c1 68 03 3f
       0.5544794 0.51331717 0.527845 0.51331717
000070 06 ee 00 3f 64 76 f5 3e 7d e3 05 3f 13 ca 02 3f
       0.50363195 0.47941887 0.52300245 0.5108959
000080 06 ee 00 3f 57 4f 00 3f bc 10 e9 3e 4c be f1 3e
       0.50363195 0.50121063 0.4552058 0.47215497
000090 13 ca 02 3f 7d 2e f9 3e 13 ca 02 3f 8b a0 e1 3e
       0.5108959 0.4866828 0.5108959 0.44067797
0000a0 e8 dd e2 3e 38 a9 fb 3e 7d 2e f9 3e da 20 07 3f
       0.44309926 0.4915254 0.4866828 0.527845
0000b0 bc 10 e9 3e bc 10 e9 3e 14 ab dc 3e 46 1b e4 3e
       0.4552058 0.4552058 0.43099272 0.44552058
0000c0 2d 63 e0 3e a4 58 e5 3e 1a 4e ea 3e 78 8b eb 3e
       0.43825665 0.4479419 0.45762712 0.46004844
0000d0 40 78 d6 3e 46 1b e4 3e e8 dd e2 3e e8 dd e2 3e
       0.41888618 0.44552058 0.44309926 0.44309926
0000e0 d5 c8 ec 3e a4 58 e5 3e 40 78 d6 3e 59 30 da 3e
       0.46246973 0.4479419 0.41888618 0.4261501
0000f0 3b d5 c8 3e 72 e8 dd 3e 9e b5 d7 3e 14 ab dc 3e
       0.39225182 0.43341404 0.4213075 0.43099272
000100 98 12 ca 3e 54 8d cc 3e 59 30 da 3e e3 3a d5 3e
       0.3946731 0.39951575 0.4261501 0.4164649
000110 98 12 ca 3e dd 97 c7 3e ca 82 d1 3e 54 8d cc 3e
       0.3946731 0.3898305 0.40920097 0.39951575
000120 4e ea be 3e d0 25 df 3e 98 12 ca 3e 85 fd d3 3e
       0.37288135 0.43583536 0.3946731 0.41404358
000130 ac 27 c0 3e ca 82 d1 3e f6 4f cb 3e 0f 08 cf 3e
       0.37530267 0.40920097 0.39709443 0.40435836
000140 dd 97 c7 3e bf 3c b6 3e 7a b7 b8 3e dd 97 c7 3e
       0.3898305 0.3559322 0.36077482 0.3898305
000150 49 47 b1 3e 7a b7 b8 3e c4 df c3 3e 22 1d c5 3e
       0.346247 0.36077482 0.38256657 0.3849879
000160 d8 f4 b9 3e bf 3c b6 3e 93 6f bc 3e 4e ea be 3e
       0.36319613 0.3559322 0.36803874 0.37288135
000170 d2 51 ac 3e 04 c2 b3 3e d2 51 ac 3e eb 09 b0 3e
       0.33656174 0.3510896 0.33656174 0.34382567
000180 61 ff b4 3e 7a b7 b8 3e 17 d7 a9 3e 35 32 bb 3e
       0.3535109 0.36077482 0.33171913 0.36561742
000190 30 8f ad 3e 8d cc ae 3e bf 3c b6 3e eb 09 b0 3e
       0.33898306 0.34140435 0.3559322 0.34382567
0001a0 a6 84 b2 3e fe 1e a6 3e a1 e1 a4 3e eb 09 b0 3e
       0.34866828 0.3244552 0.3220339 0.34382567
0001b0 8d cc ae 3e a1 e1 a4 3e 75 14 ab 3e fe 1e a6 3e
       0.34140435 0.3220339 0.33414045 0.3244552
0001c0 1d 7a b7 3e 9b 3e 97 3e a1 e1 a4 3e 43 a4 a3 3e
       0.35835353 0.29539952 0.3220339 0.3196126
0001d0 a1 e1 a4 3e 5c 5c a7 3e fe 1e a6 3e 6f 71 9d 3e
       0.3220339 0.32687652 0.3244552 0.30750605
0001e0 e5 66 a2 3e a1 e1 a4 3e a1 e1 a4 3e d2 51 ac 3e
       0.31719127 0.3220339 0.3220339 0.33656174
0001f0 cd ae 9e 3e 9b 3e 97 3e e0 c3 94 3e 11 34 9c 3e
       0.30992737 0.29539952 0.2905569 0.30508474
000200 b4 f6 9a 3e 88 29 a1 3e e5 66 a2 3e 3d 01 96 3e
       0.30266345 0.31476998 0.31719127 0.2929782
000210 e5 66 a2 3e c7 0b 91 3e f3 d8 8a 3e 25 49 92 3e
       0.31719127 0.28329298 0.27118644 0.2857143
000220 c7 0b 91 3e 56 b9 99 3e e0 c3 94 3e 9b 3e 97 3e
       0.28329298 0.30024213 0.2905569 0.29539952
000230 ae 53 8d 3e c7 0b 91 3e 9b 3e 97 3e 7d e3 85 3e
       0.27602905 0.28329298 0.29539952 0.26150122
000240 95 9b 89 3e c7 0b 91 3e f3 d8 8a 3e 25 49 92 3e
       0.26876512 0.28329298 0.27118644 0.2857143
000250 51 16 8c 3e 38 5e 88 3e 51 61 7f 3e 0c 91 8e 3e
       0.27360776 0.26634383 0.24939467 0.27845037
000260 c7 0b 91 3e 88 29 a1 3e c7 0b 91 3e c7 0b 91 3e
       0.28329298 0.31476998 0.28329298 0.28329298
000270 ae 53 8d 3e c1 68 83 3e f3 d8 8a 3e f3 d8 8a 3e
       0.27602905 0.25665858 0.27118644 0.27118644
000280 9b 3e 97 3e e0 c3 94 3e 0c 91 8e 3e 38 5e 88 3e
       0.29539952 0.2905569 0.27845037 0.26634383
000290 25 49 92 3e f3 d8 8a 3e 64 2b 82 3e ae 53 8d 3e
       0.2857143 0.27118644 0.2542373 0.27602905
0002a0 51 61 7f 3e e0 c3 94 3e 69 ce 8f 3e 56 b9 99 3e
       0.24939467 0.2905569 0.28087166 0.30024213
0002b0 64 2b 82 3e 95 9b 89 3e c1 68 83 3e 9b 3e 97 3e
       0.2542373 0.26876512 0.25665858 0.29539952
0002c0 51 16 8c 3e 1f a6 84 3e 1f a6 84 3e 0c 91 8e 3e
       0.27360776 0.2590799 0.2590799 0.27845037
0002d0 96 e6 7c 3e 33 06 6e 3e 51 61 7f 3e db 6b 7a 3e
       0.24697337 0.23244552 0.24939467 0.24455206
0002e0 96 e6 7c 3e ae 53 8d 3e 38 5e 88 3e 78 8b 6b 3e
       0.24697337 0.27602905 0.26634383 0.23002422
0002f0 db 6b 7a 3e 96 e6 7c 3e 1f a6 84 3e f3 d8 8a 3e
       0.24455206 0.24697337 0.2590799 0.27118644
000300 95 9b 89 3e da 20 87 3e b1 ca 4d 3e 20 f1 77 3e
       0.26876512 0.2639225 0.20096852 0.24213076
000310 14 ab 5c 3e 64 2b 82 3e c1 68 83 3e f3 d8 8a 3e
       0.21549636 0.2542373 0.25665858 0.27118644
000320 db 6b 7a 3e d0 25 5f 3e 7d e3 85 3e 51 61 7f 3e
       0.24455206 0.21791768 0.26150122 0.24939467
000330 bc 10 69 3e bc 10 69 3e d0 25 5f 3e 9e b5 57 3e
       0.2276029 0.2276029 0.21791768 0.21065375
000340 59 30 5a 3e 01 96 66 3e 33 06 6e 3e d0 25 5f 3e
       0.21307506 0.2251816 0.23244552 0.21791768
000350 8b a0 61 3e bc 10 69 3e db 6b 7a 3e 01 96 66 3e
       0.22033899 0.2276029 0.24455206 0.2251816
000360 46 1b 64 3e 6c 45 50 3e 14 ab 5c 3e 6c 45 50 3e
       0.22276029 0.20338982 0.21549636 0.20338982
000370 01 96 66 3e 59 30 5a 3e 59 30 5a 3e 46 1b 64 3e
       0.2251816 0.21307506 0.21307506 0.22276029
000380 bc 10 69 3e bc 10 69 3e 3b d5 48 3e e3 3a 55 3e
       0.2276029 0.2276029 0.19612591 0.20823245
000390 3b d5 48 3e e3 3a 55 3e 8b a0 61 3e 09 65 41 3e
       0.19612591 0.20823245 0.22033899 0.18886198
0003a0 28 c0 52 3e 59 30 5a 3e 6c 45 50 3e 3b d5 48 3e
       0.20581114 0.21307506 0.20338982 0.19612591
0003b0 59 30 5a 3e 01 96 66 3e 6c 45 50 3e 14 ab 5c 3e
       0.21307506 0.2251816 0.20338982 0.21549636
0003c0 8b a0 61 3e 28 c0 52 3e 80 5a 46 3e e3 3a 55 3e
       0.22033899 0.20581114 0.1937046 0.20823245
0003d0 d8 f4 39 3e 46 1b 64 3e 09 65 41 3e c4 df 43 3e
       0.18159807 0.22276029 0.18886198 0.19128329
0003e0 14 ab 5c 3e 9e b5 57 3e 3b d5 48 3e 6c 45 50 3e
       0.21549636 0.21065375 0.19612591 0.20338982
0003f0 28 c0 52 3e 6c 45 50 3e 61 ff 34 3e 3b d5 48 3e
       0.20581114 0.20338982 0.17675544 0.19612591

item_pop_true f4 [1154, 1]
000000 00 00 80 3f 1b e4 50 3f aa 91 59 3f c3 49 5d 3f
       1.0 0.8159806 0.8498789 0.86440676
000010 60 69 4e 3f 60 69 4e 3f 54 8d 4c 3f ac 27 40 3f
       0.8062954 0.8062954 0.7990315 0.75060534
000020 29 56 39 3f 1d 7a 37 3f 30 8f 2d 3f bf 3c 36 3f
       0.72397095 0.71670705 0.6779661 0.7118644
000030 f2 42 24 3f d9 8a 20 3f b9 99 28 3f ad bd 26 3f
       0.6416465 0.62711865 0.6585956 0.6513317
000040 e5 66 22 3f 6f 71 1d 3f e5 66 22 3f c7 0b 11 3f
       0.63438255 0.6150121 0.63438255 0.56658596
000050 31 25 14 3f e0 c3 14 3f 38 5e 08 3f 0c 91 0e 3f
       0.5786925 0.5811138 0.53268766 0.55690074
000060 5d f2 0d 3f c1 68 03 3f da 20 07 3f c1 68 03 3f
       0.5544794 0.51331717 0.527845 0.51331717
000070 06 ee 00 3f 64 76 f5 3e 7d e3 05 3f 13 ca 02 3f
       0.50363195 0.47941887 0.52300245 0.5108959
000080 06 ee 00 3f 57 4f 00 3f bc 10 e9 3e 4c be f1 3e
       0.50363195 0.50121063 0.4552058 0.47215497
000090 13 ca 02 3f 7d 2e f9 3e 13 ca 02 3f 8b a0 e1 3e
       0.5108959 0.4866828 0.5108959 0.44067797
0000a0 e8 dd e2 3e 38 a9 fb 3e 7d 2e f9 3e da 20 07 3f
       0.44309926 0.4915254 0.4866828 0.527845
0000b0 bc 10 e9 3e bc 10 e9 3e 14 ab dc 3e 46 1b e4 3e
       0.4552058 0.4552058 0.43099272 0.44552058
0000c0 2d 63 e0 3e a4 58 e5 3e 1a 4e ea 3e 78 8b eb 3e
       0.43825665 0.4479419 0.45762712 0.46004844
0000d0 40 78 d6 3e 46 1b e4 3e e8 dd e2 3e e8 dd e2 3e
       0.41888618 0.44552058 0.44309926 0.44309926
0000e0 d5 c8 ec 3e a4 58 e5 3e 40 78 d6 3e 59 30 da 3e
       0.46246973 0.4479419 0.41888618 0.4261501
0000f0 3b d5 c8 3e 72 e8 dd 3e 9e b5 d7 3e 14 ab dc 3e
       0.39225182 0.43341404 0.4213075 0.43099272
000100 98 12 ca 3e 54 8d cc 3e 59 30 da 3e e3 3a d5 3e
       0.3946731 0.39951575 0.4261501 0.4164649
000110 98 12 ca 3e dd 97 c7 3e ca 82 d1 3e 54 8d cc 3e
       0.3946731 0.3898305 0.40920097 0.39951575
000120 4e ea be 3e d0 25 df 3e 98 12 ca 3e 85 fd d3 3e
       0.37288135 0.43583536 0.3946731 0.41404358
000130 ac 27 c0 3e ca 82 d1 3e f6 4f cb 3e 0f 08 cf 3e
       0.37530267 0.40920097 0.39709443 0.40435836
000140 dd 97 c7 3e bf 3c b6 3e 7a b7 b8 3e dd 97 c7 3e
       0.3898305 0.3559322 0.36077482 0.3898305
000150 49 47 b1 3e 7a b7 b8 3e c4 df c3 3e 22 1d c5 3e
       0.346247 0.36077482 0.38256657 0.3849879
000160 d8 f4 b9 3e bf 3c b6 3e 93 6f bc 3e 4e ea be 3e
       0.36319613 0.3559322 0.36803874 0.37288135
000170 d2 51 ac 3e 04 c2 b3 3e d2 51 ac 3e eb 09 b0 3e
       0.33656174 0.3510896 0.33656174 0.34382567
000180 61 ff b4 3e 7a b7 b8 3e 17 d7 a9 3e 35 32 bb 3e
       0.3535109 0.36077482 0.33171913 0.36561742
000190 30 8f ad 3e 8d cc ae 3e bf 3c b6 3e eb 09 b0 3e
       0.33898306 0.34140435 0.3559322 0.34382567
0001a0 a6 84 b2 3e fe 1e a6 3e a1 e1 a4 3e eb 09 b0 3e
       0.34866828 0.3244552 0.3220339 0.34382567
0001b0 8d cc ae 3e a1 e1 a4 3e 75 14 ab 3e fe 1e a6 3e
       0.34140435 0.3220339 0.33414045 0.3244552
0001c0 1d 7a b7 3e 9b 3e 97 3e a1 e1 a4 3e 43 a4 a3 3e
       0.35835353 0.29539952 0.3220339 0.3196126
0001d0 a1 e1 a4 3e 5c 5c a7 3e fe 1e a6 3e 6f 71 9d 3e
       0.3220339 0.32687652 0.3244552 0.30750605
0001e0 e5 66 a2 3e a1 e1 a4 3e a1 e1 a4 3e d2 51 ac 3e
       0.31719127 0.3220339 0.3220339 0.33656174
0001f0 cd ae 9e 3e 9b 3e 97 3e e0 c3 94 3e 11 34 9c 3e
       0.30992737 0.29539952 0.2905569 0.30508474
000200 b4 f6 9a 3e 88 29 a1 3e e5 66 a2 3e 3d 01 96 3e
       0.30266345 0.31476998 0.31719127 0.2929782
000210 e5 66 a2 3e c7 0b 91 3e f3 d8 8a 3e 25 49 92 3e
       0.31719127 0.28329298 0.27118644 0.2857143
000220 c7 0b 91 3e 56 b9 99 3e e0 c3 94 3e 9b 3e 97 3e
       0.28329298 0.30024213 0.2905569 0.29539952
000230 ae 53 8d 3e c7 0b 91 3e 9b 3e 97 3e 7d e3 85 3e
       0.27602905 0.28329298 0.29539952 0.26150122
000240 95 9b 89 3e c7 0b 91 3e f3 d8 8a 3e 25 49 92 3e
       0.26876512 0.28329298 0.27118644 0.2857143
000250 51 16 8c 3e 38 5e 88 3e 51 61 7f 3e 0c 91 8e 3e
       0.27360776 0.26634383 0.24939467 0.27845037
000260 c7 0b 91 3e 88 29 a1 3e c7 0b 91 3e c7 0b 91 3e
       0.28329298 0.31476998 0.28329298 0.28329298
000270 ae 53 8d 3e c1 68 83 3e f3 d8 8a 3e f3 d8 8a 3e
       0.27602905 0.25665858 0.27118644 0.27118644
000280 9b 3e 97 3e e0 c3 94 3e 0c 91 8e 3e 38 5e 88 3e
       0.29539952 0.2905569 0.27845037 0.26634383
000290 25 49 92 3e f3 d8 8a 3e 64 2b 82 3e ae 53 8d 3e
       0.2857143 0.27118644 0.2542373 0.27602905
0002a0 51 61 7f 3e e0 c3 94 3e 69 ce 8f 3e 56 b9 99 3e
       0.24939467 0.2905569 0.28087166 0.30024213
0002b0 64 2b 82 3e 95 9b 89 3e c1 68 83 3e 9b 3e 97 3e
       0.2542373 0.26876512 0.25665858 0.29539952
0002c0 51 16 8c 3e 1f a6 84 3e 1f a6 84 3e 0c 91 8e 3e
       0.27360776 0.2590799 0.2590799 0.27845037
0002d0 96 e6 7c 3e 33 06 6e 3e 51 61 7f 3e db 6b 7a 3e
       0.24697337 0.23244552 0.24939467 0.24455206
0002e0 96 e6 7c 3e ae 53 8d 3e 38 5e 88 3e 78 8b 6b 3e
       0.24697337 0.27602905 0.26634383 0.23002422
0002f0 db 6b 7a 3e 96 e6 7c 3e 1f a6 84 3e f3 d8 8a 3e
       0.24455206 0.24697337 0.2590799 0.27118644
000300 95 9b 89 3e da 20 87 3e b1 ca 4d 3e 20 f1 77 3e
       0.26876512 0.2639225 0.20096852 0.24213076
000310 14 ab 5c 3e 64 2b 82 3e c1 68 83 3e f3 d8 8a 3e
       0.21549636 0.2542373 0.25665858 0.27118644
000320 db 6b 7a 3e d0 25 5f 3e 7d e3 85 3e 51 61 7f 3e
       0.24455206 0.21791768 0.26150122 0.24939467
000330 bc 10 69 3e bc 10 69 3e d0 25 5f 3e 9e b5 57 3e
       0.2276029 0.2276029 0.21791768 0.21065375
000340 59 30 5a 3e 01 96 66 3e 33 06 6e 3e d0 25 5f 3e
       0.21307506 0.2251816 0.23244552 0.21791768
000350 8b a0 61 3e bc 10 69 3e db 6b 7a 3e 01 96 66 3e
       0.22033899 0.2276029 0.24455206 0.2251816
000360 46 1b 64 3e 6c 45 50 3e 14 ab 5c 3e 6c 45 50 3e
       0.22276029 0.20338982 0.21549636 0.20338982
000370 01 96 66 3e 59 30 5a 3e 59 30 5a 3e 46 1b 64 3e
       0.2251816 0.21307506 0.21307506 0.22276029
000380 bc 10 69 3e bc 10 69 3e 3b d5 48 3e e3 3a 55 3e
       0.2276029 0.2276029 0.19612591 0.20823245
000390 3b d5 48 3e e3 3a 55 3e 8b a0 61 3e 09 65 41 3e
       0.19612591 0.20823245 0.22033899 0.18886198
0003a0 28 c0 52 3e 59 30 5a 3e 6c 45 50 3e 3b d5 48 3e
       0.20581114 0.21307506 0.20338982 0.19612591
0003b0 59 30 5a 3e 01 96 66 3e 6c 45 50 3e 14 ab 5c 3e
       0.21307506 0.2251816 0.20338982 0.21549636
0003c0 8b a0 61 3e 28 c0 52 3e 80 5a 46 3e e3 3a 55 3e
       0.22033899 0.20581114 0.1937046 0.20823245
0003d0 d8 f4 39 3e 46 1b 64 3e 09 65 41 3e c4 df 43 3e
       0.18159807 0.22276029 0.18886198 0.19128329
0003e0 14 ab 5c 3e 9e b5 57 3e 3b d5 48 3e 6c 45 50 3e
       0.21549636 0.21065375 0.19612591 0.20338982
0003f0 28 c0 52 3e 6c 45 50 3e 61 ff 34 3e 3b d5 48 3e
       0.20581114 0.20338982 0.17675544 0.19612591

lr1.weight f4 [1, 63]
000000 62 eb ca 3d 59 35 fc 3d b9 5e 29 3e a3 ad e3 bd
       0.09908177 0.12314863 0.1654004 -0.11117103
000010 19 2b fe 3d 29 83 f9 3d be 55 dc 3d 12 72 f5 3d
       0.12410564 0.1218322 0.107585415 0.11984648
000020 41 c9 cb 3d db 5c 31 be 59 c6 d7 3d 33 46 35 be
       0.099504955 -0.17320578 0.10535879 -0.1770256
000030 cd 28 07 be 46 75 f4 3d a8 b3 f2 3d b7 fe 00 be
       -0.13199158 0.11936431 0.11850673 -0.12597166
000040 9f 07 d0 bd d0 c2 01 be b7 75 f6 3d 5a 22 a3 3d
       -0.101577036 -0.12671971 0.12034171 0.079655364
000050 2c 7b d9 3d 63 49 84 3d 17 fa 3e be ba fc 01 3e
       0.10619196 0.0645931 -0.18650089 0.12694064
000060 b1 77 09 be 83 81 35 be 3b 3d 39 3e d7 df 5e 3e
       -0.13424565 -0.17725186 0.18089764 0.21765076
000070 e0 54 1e be b0 d7 37 be e3 54 c6 3d b2 97 2c 3e
       -0.15462065 -0.17953372 0.096841596 0.16854742
000080 5a 8b 29 be ad b2 09 be f4 41 0b 3e f4 a6 10 3e
       -0.16557065 -0.13447066 0.13599378 0.14126188
000090 2b 5d d4 3d a7 c5 1c 3e ba 9e 02 be 55 19 11 be
       0.10369333 0.15309773 -0.12755862 -0.1416982
0000a0 77 8b d8 bd de 5f 1b 3e e9 49 22 3e 5e 0a be bd
       -0.10573476 0.15173289 0.15848507 -0.09279321
0000b0 af d7 c0 bd fc 0d 1f be 45 ec e8 3d 22 45 38 be
       -0.094161384 -0.15532678 0.1137319 -0.17995122
0000c0 3d 8e 22 3e 88 f1 23 be 80 94 1d be de 62 da 3d
       0.15874572 -0.16010106 -0.1538868 0.10663389
0000d0 d7 0a 5a 3e 72 f6 24 3e c1 b2 b9 bd 41 30 41 3e
       0.21293198 0.16109636 -0.09067298 0.18866064
0000e0 cc e7 fa bd dc 44 38 be 0d 01 01 be c3 56 42 be
       -0.12251243 -0.17995018 -0.12598057 -0.1897841
0000f0 98 ea 10 3e d3 be 03 be 3d fa bf 3d
       0.1415199 -0.12865762 0.09373901
