pid/result/ml100k-PIDMF-debug2023-03-14-10-32-30/ckpt/epoch_38.pth (torch_old, 543278 bytes, 5 tensors)

users f4 [945, 64]
1.4370368 -0.2833066 -0.5556671 0.2926992 0.09391391 -0.19199593 0.45983067 -0.45679036
-0.6073257 -0.123717405 0.61470616 -0.3603583 -0.48679915 0.24347132 0.71616817 -0.19576137
1.1787565 0.49552697 0.83875126 0.44025525 0.6913576 -0.29627112 -0.83494437 -0.34601343
0.8227441 0.85178024 -0.012097302 -0.21677825 -0.7222302 -0.6578299 -0.5445315 0.11138109
-0.6722305 -0.6794664 -0.54600215 -0.61026555 -0.7822318 0.013669723 -0.5797134 -0.99013627
-0.41217482 0.54814357 -0.45133442 0.06192458 -1.0980209 -0.7260157 0.7296088 -0.13959959
0.1745041 0.21143754 -0.9024822 -0.7005504 0.8475394 -0.9648056 -0.05440658 0.9028797
0.19814943 0.47178066 0.21822064 1.0435311 0.32411838 -0.49881995 -0.18839815 0.16356614
0.5536279 -0.28347012 0.13960463 -0.7324069 -0.7933757 -0.37597916 0.89282525 0.7608633
0.076785274 -0.13516223 -0.061697885 -0.8666569 -0.07294424 0.014491807 0.35098633 -0.17128442
0.18162726 0.08030796 0.29083818 0.49575922 0.2004043 -0.048569202 0.7805806 -0.35339364
0.32781452 1.2293984 -0.908155 -1.018646 -0.9966161 -1.0652703 0.34482184 -0.9778245
0.7797963 0.058825254 0.4180026 0.5310713 -0.3639832 0.17402658 -0.83760864 -1.360262
0.20618927 -0.26369843 0.7151307 -0.29290393 0.75886506 -0.69447786 -0.41550127 -0.6393076
0.21485855 -1.0513873 0.2683293 -0.8462183 -0.56065863 0.306621 -0.42344666 -0.8395499
0.5182199 0.18912965 -0.033800032 0.46983674 0.079108186 0.8457576 -0.43332478 -0.18498078
-0.6763413 -0.38836327 -0.4663662 -0.32056516 -0.1401728 0.7234509 0.47026312 0.030092636
0.37665722 -0.9802665 0.46260568 0.043975238 -0.60731757 0.5639087 0.45214015 -0.39458597
-0.95125574 -0.13514224 1.165177 0.42463621 -0.49352273 0.5038011 -0.7942167 0.12451969
-0.23321053 1.0617236 -0.08067686 -0.90692365 -0.21251085 -0.29247808 -0.37125394 -0.82607937
-0.9053164 -0.044863965 -1.0292226 -0.14875174 0.8778055 0.14177723 -0.28302965 -0.92454416
0.5897509 0.10111809 -0.51458627 -0.64846283 -0.8697977 0.12467764 0.57420534 -1.167003
0.22586323 0.22603402 -0.24741143 0.22435911 -1.1070533 -0.097103275 0.45024976 -0.3450431
-0.40138766 0.22858402 0.3112375 -0.13120249 0.11225019 0.73911 -0.44905165 0.10662095
0.6211436 -0.51016587 0.8722763 -0.15848434 -0.9040207 -0.004184536 1.1457189 -0.277341
0.18449643 0.24890666 0.9545746 -0.9910674 0.04426755 0.24419808 0.67401 -0.29627448
0.5302303 0.1444261 0.5107114 -0.18467405 -0.14129764 -0.4713041 -0.55005956 -0.38694915
-0.75384295 -0.34025824 0.97838444 -0.6821993 0.22168481 -0.21077758 0.9570776 0.58023477
0.89766955 -0.91792023 -0.2889868 -0.41018173 -0.13057573 -0.79875 0.04493743 0.3327006
-0.5477023 0.09891213 0.11666586 0.17819592 -0.858256 0.0012308372 0.46163172 -0.014896075
0.3215664 0.28121883 -0.10525227 -0.63031864 1.6828303 -1.0677845 0.4357694 -0.8508091
-0.24234466 0.5121035 0.22669065 0.5372763 -0.20887598 0.2731132 0.18417439 0.10634337
00000000: d2f0 b73f 900d 91be 3340 0ebf abdc 953e
00000010: f055 c03d 959a 44be ed6e eb3e 6de0 e9be
00000020: b279 1bbf 8d5f fdbd 625d 1d3f e280 b8be
00000030: bd3d f9be 8c50 793e cc56 373f ab75 48be
00000040: 7ee1 963f b6b5 fd3e 67b8 563f 2369 e13e
00000050: d0fc 303f d9b0 97be eabe 55bf ac28 b1be
00000060: 5b9f 523f 450e 5a3f c333 46bc 1efb 5dbe
00000070: 14e4 38bf 8a67 28bf 6b66 0bbf c51b e43d
00000080: 4c17 2cbf 83f1 2dbf ccc6 0bbf 5d3a 1cbf
00000090: 5840 48bf f9f6 5f3c 1968 14bf 9279 7dbf
000000a0: 9408 d3be 2353 0c3f 4e15 e7be a1a4 7d3d
000000b0: f38b 8cbf 2adc 39bf a4c7 3a3f 32f3 0ebe
000000c0: 34b1 323e 1583 583e 1309 67bf 4557 33bf
000000d0: 58f8 583f 80fd 76bf 6fd9 5ebd 2023 673f
000000e0: afe7 4a3e 3c8d f13e 3b75 5f3e 6d92 853f
000000f0: d8f2 a53e 5465 ffbe 72eb 40be e27d 273e
00000100: 8fba 0d3f ff22 91be 84f4 0e3e 057f 3bbf
00000110: ab1a 4bbf 5780 c0be 3290 643f f0c7 423f
00000120: 9941 9d3d f867 0abe ecb6 7cbd 3add 5dbf
00000130: ca63 95bd 0b6f 6d3c 7bb4 b33e 2f65 2fbe
00000140: 7ffc 393e 8078 a43d bee8 943e 27d4 fd3e
00000150: c936 4d3e 80f0 46bd 21d4 473f 03f0 b4be
00000160: 4ed7 a73e ed5c 9d3f d97c 68bf fe62 82bf
00000170: 3c22 7fbf c75a 88bf 7d8c b03e b552 7abf
00000180: bba0 473f c0f2 703d 7004 d63e 4af4 073f
00000190: 025c babe 0634 323e 856d 56bf 111d aebf
000001a0: 4823 533e 7b03 87be ce12 373f 81f7 95be
000001b0: fb44 423f 4dc9 31bf 95bc d4be aaa9 23bf
000001c0: e103 5c3e dc93 86bf 7562 893e c3a1 58bf
000001d0: 5387 0fbf 6dfd 9c3e 00ce d8be beec 56bf
000001e0: 0faa 043f 34ab 413e e771 0abd 718e f03e
000001f0: 7903 a23d 9283 583f bfdc ddbe 9a6b 3dbe
00000200: b424 2dbf 8dd7 c6be 8dc7 eebe 1e21 a4be
00000210: 7589 0fbe 1434 393f 54c6 f03e d584 f63c
00000220: 37d9 c03e bff2 7abf a7da ec3e 611f 343d
00000230: 2a79 1bbf 525c 103f ea7e e73e 2c07 cabe
00000240: 7f85 73bf ba62 0abe 8524 953f eb69 d93e
00000250: 03af fcbe 1cf9 003f c951 4bbf 2e04 ff3d
00000260: bece 6ebe 8fe6 873f e939 a5bd 262c 68bf
00000270: 729c 59be b0bf 95be ff14 bebe f079 53bf
00000280: d1c2 67bf 47c3 37bd 91bd 83bf 6052 18be
00000290: dcb7 603f 0d2e 113e 43e9 90be edae 6cbf
000002a0: eaf9 163f 0017 cf3d edbb 03bf a901 26bf
000002b0: 10ab 5ebf fe56 ff3d 1fff 123f 5b60 95bf
000002c0: b148 673e 7675 673e 6c59 7dbe 65be 653e
000002d0: ecb3 8dbf 15de c6bd 2387 e63e 7da9 b0be
000002e0: af82 cdbe ee11 6a3e 865a 9f3e f259 06be
000002f0: 6de3 e53d 5036 3d3f 19ea e5be 165c da3d
00000300: 4403 1f3f 3b9a 02bf 804d 5f3f b849 22be
00000310: e76d 67bf 6f1e 89bb eba6 923f a4ff 8dbe
00000320: a2ec 3c3e 63e1 7e3e 005f 743f 98b6 7dbf
00000330: e451 353d 100f 7a3e eb8b 2c3f 4ab1 97be
00000340: 2cbd 073f 70e4 133e fbbd 023f 321b 3dbe
00000350: 54b0 10be c54e f1be b4d0 0cbf 331e c6be
00000360: dafb 40bf 5436 aebe 6777 7a3f 9da4 2ebf
00000370: 5801 633e 14d6 57be 0a03 753f 448a 143f
00000380: accd 653f d2fc 6abf 14f6 93be 5703 d2be
00000390: a5b5 05be e17a 4cbf 5010 383d bc57 aa3e
000003a0: 3836 0cbf 7192 ca3d 83ee ee3d fe78 363e
000003b0: aab6 5bbf 0b54 a13a fe5a ec3e ab0e 74bc
000003c0: 5aa4 a43e eafb 8f3e 818e d7bd 905c 21bf
000003d0: fc66 d73f 2aad 88bf 2b1d df3e a0ce 59bf
000003e0: 3329 78be 3719 033f 9821 683e f18a 093f
000003f0: 96e3 55be 7ed5 8b3e 3698 3c3e 8eca d93d

items_id f4 [1154, 63]
0.583962 0.5602673 0.18958311 -0.108904324 0.14474829 0.43951234 0.5563685 0.57509744
0.5712426 -0.40783885 0.6339232 -0.11319622 -0.37623155 0.5151587 0.45429048 -0.41803554
-0.17344585 -0.28823972 0.3230261 0.68335843 0.6608835 0.42430583 -0.34001997 0.2943062
-0.26283833 0.0333104 0.32698217 0.23789506 -0.23073053 -0.3422911 0.4284223 0.14288405
-0.16328402 -0.46603352 0.26642865 0.25118947 0.75010824 0.33848807 -0.3030302 -0.22283317
-0.28667155 0.2643383 0.28719383 -0.5633466 -0.60759526 -0.23544689 0.46640384 0.06337506
0.09920963 -0.32877252 -0.29624406 0.038811475 0.21278422 -0.011211253 -0.6617614 0.20725498
-0.58437955 0.025453849 -0.3238647 -0.13178372 0.31159157 -0.17076908 0.46755943 0.18244368
0.30226016 0.13610516 0.009685633 0.5668504 0.0738898 0.6420034 0.101417154 0.039656144
-0.053353146 0.0062109544 -0.03643756 -0.2465774 0.063453026 0.019966936 -0.23365612 -0.31489614
-0.1227274 0.2452457 0.016597314 0.27569163 0.29838264 -0.09228789 0.351436 -0.19601662
-0.19341359 0.059008513 0.04047196 0.020798124 0.0050478694 -0.040984478 0.088480204 -0.19112833
-0.27457333 0.23515904 0.12040368 0.32919714 0.13798325 -0.0947007 -0.09411569 -0.16124462
0.23717727 -0.02410107 -0.057405002 -0.22112633 -0.06799729 0.021293383 -0.113111295 0.09452688
0.0020985384 -0.03462506 0.046969533 0.19387615 0.21286076 0.07962856 0.20823099 -0.38289115
-0.11062764 0.004918564 -0.13638245 0.00031482225 -0.28335473 0.08490086 0.33200067 0.37318978
0.15263489 -0.09596497 0.34236732 0.26317978 0.10789453 0.17073326 0.3763386 -0.28624913
0.3971718 -0.26003265 -0.28396577 0.15453759 0.1671342 -0.1538004 -0.2606997 0.0053955414
0.08568438 0.23559368 0.3500247 0.34638098 -0.20044708 0.24633788 -0.101702645 -0.061404683
0.07147474 0.23516752 -0.10458831 -0.03774628 0.25056824 0.04129869 -0.2785546 -0.36535826
0.13690837 0.07746292 0.417988 0.11351028 -0.11227776 -0.25794256 -0.1807055 0.10861849
0.2516308 -0.34606224 -0.25638357 -0.21029145 0.17973983 -0.12980424 0.07976841 -0.18857571
-0.25799042 0.08684351 0.20180751 0.1820206 -0.39112476 0.0038982853 -0.28513214 -0.053247795
-0.11428497 -0.15858136 0.071036085 -0.16217752 0.28989357 0.4121006 0.15298387 0.17205092
-0.22607902 0.22247568 0.09824601 0.36855507 0.3242688 0.3825742 -0.26213378 0.16674747
-0.23728599 -0.14730287 0.26167884 0.1844167 -0.38343632 -0.22122872 -0.16102883 0.100818865
0.17887217 0.38929877 0.13383365 -0.09444438 0.078363165 -0.08853231 -0.15461697 0.21212369
0.16886272 -0.21532051 -0.1405283 0.31618112 0.13777323 -0.068906374 -0.27208906 0.2953361
0.10371104 0.2769211 0.06970878 -0.24004775 -0.2058761 -0.1836776 0.0819548 0.100414544
-0.36523345 -0.19962175 -0.047983844 0.09555741 -0.0014127156 -0.06968073 -0.22683239 -0.1460102
0.07030019 0.09797986 0.17130788 -0.40148917 0.21259889 -0.20950359 -0.07902091 -0.059167672
-0.09890098 0.16469973 -0.28849852 0.1803905 0.36618814 0.25499043 0.25111213 0.055510826
00000000: 897e 153f ae6d 0f3f 1322 423e 3b09 dfbd
00000010: e538 143e c307 e13e 2b6e 0e3f 9639 133f
00000020: f43c 123f 41d0 d0be ca48 223f 6bd3 e7bd
00000030: 6ca1 c0be 71e1 033f c398 e83e c108 d6be
00000040: ca9b 31be 2894 93be ad63 a53e 94f0 2e3f
00000050: a92f 293f 9d3e d93e 1917 aebe 4daf 963e
00000060: bf92 86be 7c70 083d 356a a73e c39a 733e
00000070: a044 6cbe c740 afbe 2b5a db3e 3250 123e
00000080: ed33 27be f29b eebe 5669 883e e89b 803e
00000090: 1807 403f 4f4e ad3e c626 9bbe 612e 64be
000000a0: 9dc6 92be 5a57 873e 120b 933e 7c37 10bf
000000b0: 5d8b 1bbf fd18 71be 7ccc ee3e c9ca 813d
000000c0: 6b2e cb3d df54 a8be 4dad 97be c8f8 1e3d
000000d0: 1be4 593e 67af 37bc 3269 29bf a63a 543e
000000e0: e699 15bf 9784 d03c 98d1 a5be 50f2 06be
000000f0: ee88 9f3e 17de 2ebe f363 ef3e 84d2 3a3e
00000100: d8c1 9a3e 275f 0b3e 7db0 1e3c 1c1d 113f
00000110: 8953 973d 565a 243f ccb3 cf3d 7b6e 223d
00000120: d488 5abd 4385 cb3b 8d3f 15bd c97e 7cbe
00000130: a9f3 813d b391 a33c 8d43 6fbe 113a a1be
00000140: 8158 fbbd b021 7b3e 17f7 873c 7427 8d3e
00000150: 9cc5 983e 6f01 bdbd 6bef b33e 95b8 48be
00000160: 360e 46be e9b2 713d edc5 253d d460 aa3c
00000170: 9968 a53b 57df 27bd 1c35 b53d 25b7 43be
00000180: e094 8cbe 88cd 703e 3496 f63d 878c a83e
00000190: 7b4b 0d3e 71f2 c1bd babf c0bd 4f1d 25be
000001a0: 99de 723e 9b6f c5bc 8221 6bbd f16e 62be
000001b0: 2a42 8bbd 766f ae3c e5a6 e7bd 4f97 c13d
000001c0: a287 093b 02d3 0dbd 2063 403d 7887 463e
000001d0: 2cf8 593e 4c14 a33d 813a 553e 4f0a c4be
000001e0: be90 e2bd e82b a13b d7a7 0bbe ba0e a539
000001f0: df13 91be 81e0 ad3d fefb a93e bb12 bf3e
00000200: 524c 1c3e 4889 c4bd c54a af3e 80bf 863e
00000210: cff7 dc3d b3d4 2e3e 74af c03e 3f8f 92be
00000220: 1a5a cb3e 0023 85be f663 91be 1a3f 1e3e
00000230: 3a25 2b3e da7d 1dbe 6e7a 85be 15cd b03b
00000240: 4b7b af3d 783f 713e 7036 b33e d958 b13e
00000250: 0042 4dbe ff3f 7c3e 7a49 d0bd 7a83 7bbd
00000260: 5961 923d c1cf 703e 6532 d6bd d89b 1abd
00000270: 7b4a 803e d128 293d b59e 8ebe 3d10 bbbe
00000280: b531 0c3e e1a4 9e3d 8602 d63e 1478 e83d
00000290: e2f1 e5bd 0c11 84be dd0a 39be 5f73 de3d
000002a0: c1d5 803e 122f b1be b544 83be a456 57be
000002b0: b80d 383e 67eb 04be 9f5d a33d fe19 41be
000002c0: 5217 84be 03db b13d a1a6 4e3e 9c63 3a3e
000002d0: 8141 c8be 607a 7f3b d7fc 91be 5c1a 5abd
000002e0: 3d0e eabd 2763 22be 5e7b 913d dd11 26be
000002f0: ee6c 943e dafe d23e cea7 1c3e 1e2e 303e
00000300: 4281 67be aad0 633e 3435 c93d 40b3 bc3e
00000310: 8f06 a63e c4e0 c33e 6636 86be d9bf 2a3e
00000320: 19fb 72be 90d6 16be c5fa 853e bbd7 3c3e
00000330: c451 c4be c889 62be bee4 24be 1f7a ce3d
00000340: 442a 373e 2b52 c73e b00b 093e 0e6c c1bd
00000350: de7c a03d 6e50 b5bd e953 1ebe f436 593e
00000360: 59ea 2c3e fb7c 5cbe a7e6 0fbe 7ee2 a13e
00000370: 6d14 0d3e c91e 8dbd 424f 8bbe 4b36 973e
00000380: 7466 d43d 9ac8 8d3e 7ac3 8e3d 14cf 75be
00000390: 2fd1 52be fb15 3cbe ebd7 a73d 24a6 cd3d
000003a0: e1ff babe a569 4cbe b58a 44bd 9ab3 c33d
000003b0: df2a b9ba c5b4 8ebd c046 68be b383 15be
000003c0: 8cf9 8f3d aaa9 c83d 556b 2f3e fd8f cdbe
000003d0: 86b3 593e 1c88 56be b7d5 a1bd cd59 72bd
000003e0: 998c cabd 0ca7 283e 14b6 93be 4ab8 383e
000003f0: 037d bb3e 1b8e 823e c591 803e 525f 633d

item_pop f4 [1154, 1]
1.0 0.8159806 0.8498789 0.86440676 0.8062954 0.8062954 0.7990315 0.75060534
0.72397095 0.71670705 0.6779661 0.7118644 0.6416465 0.62711865 0.6585956 0.6513317
0.63438255 0.6150121 0.63438255 0.56658596 0.5786925 0.5811138 0.53268766 0.55690074
0.5544794 0.51331717 0.527845 0.51331717 0.50363195 0.47941887 0.52300245 0.5108959
0.50363195 0.50121063 0.4552058 0.47215497 0.5108959 0.4866828 0.5108959 0.44067797
0.44309926 0.4915254 0.4866828 0.527845 0.4552058 0.4552058 0.43099272 0.44552058
0.43825665 0.4479419 0.45762712 0.46004844 0.41888618 0.44552058 0.44309926 0.44309926
0.46246973 0.4479419 0.41888618 0.4261501 0.39225182 0.43341404 0.4213075 0.43099272
0.3946731 0.39951575 0.4261501 0.4164649 0.3946731 0.3898305 0.40920097 0.39951575
0.37288135 0.43583536 0.3946731 0.41404358 0.37530267 0.40920097 0.39709443 0.40435836
0.3898305 0.3559322 0.36077482 0.3898305 0.346247 0.36077482 0.38256657 0.3849879
0.36319613 0.3559322 0.36803874 0.37288135 0.33656174 0.3510896 0.33656174 0.34382567
0.3535109 0.36077482 0.33171913 0.36561742 0.33898306 0.34140435 0.3559322 0.34382567
0.34866828 0.3244552 0.3220339 0.34382567 0.34140435 0.3220339 0.33414045 0.3244552
0.35835353 0.29539952 0.3220339 0.3196126 0.3220339 0.32687652 0.3244552 0.30750605
0.31719127 0.3220339 0.3220339 0.33656174 0.30992737 0.29539952 0.2905569 0.30508474
0.30266345 0.31476998 0.31719127 0.2929782 0.31719127 0.28329298 0.27118644 0.2857143
0.28329298 0.30024213 0.2905569 0.29539952 0.27602905 0.28329298 0.29539952 0.26150122
0.26876512 0.28329298 0.27118644 0.2857143 0.27360776 0.26634383 0.24939467 0.27845037
0.28329298 0.31476998 0.28329298 0.28329298 0.27602905 0.25665858 0.27118644 0.27118644
0.29539952 0.2905569 0.27845037 0.26634383 0.2857143 0.27118644 0.2542373 0.27602905
0.24939467 0.2905569 0.28087166 0.30024213 0.2542373 0.26876512 0.25665858 0.29539952
0.27360776 0.2590799 0.2590799 0.27845037 0.24697337 0.23244552 0.24939467 0.24455206
0.24697337 0.27602905 0.26634383 0.23002422 0.24455206 0.24697337 0.2590799 0.27118644
0.26876512 0.2639225 0.20096852 0.24213076 0.21549636 0.2542373 0.25665858 0.27118644
0.24455206 0.21791768 0.26150122 0.24939467 0.2276029 0.2276029 0.21791768 0.21065375
0.21307506 0.2251816 0.23244552 0.21791768 0.22033899 0.2276029 0.24455206 0.2251816
0.22276029 0.20338982 0.21549636 0.20338982 0.2251816 0.21307506 0.21307506 0.22276029
0.2276029 0.2276029 0.19612591 0.20823245 0.19612591 0.20823245 0.22033899 0.18886198
0.20581114 0.21307506 0.20338982 0.19612591 0.21307506 0.2251816 0.20338982 0.21549636
0.22033899 0.20581114 0.1937046 0.20823245 0.18159807 0.22276029 0.18886198 0.19128329
0.21549636 0.21065375 0.19612591 0.20338982 0.20581114 0.20338982 0.17675544 0.19612591
00000000: 0000 803f 1be4 503f aa91 593f c349 5d3f
00000010: 6069 4e3f 6069 4e3f 548d 4c3f ac27 403f
00000020: 2956 393f 1d7a 373f 308f 2d3f bf3c 363f
00000030: f242 243f d98a 203f b999 283f adbd 263f
00000040: e566 223f 6f71 1d3f e566 223f c70b 113f
00000050: 3125 143f e0c3 143f 385e 083f 0c91 0e3f
00000060: 5df2 0d3f c168 033f da20 073f c168 033f
00000070: 06ee 003f 6476 f53e 7de3 053f 13ca 023f
00000080: 06ee 003f 574f 003f bc10 e93e 4cbe f13e
00000090: 13ca 023f 7d2e f93e 13ca 023f 8ba0 e13e
000000a0: e8dd e23e 38a9 fb3e 7d2e f93e da20 073f
000000b0: bc10 e93e bc10 e93e 14ab dc3e 461b e43e
000000c0: 2d63 e03e a458 e53e 1a4e ea3e 788b eb3e
000000d0: 4078 d63e 461b e43e e8dd e23e e8dd e23e
000000e0: d5c8 ec3e a458 e53e 4078 d63e 5930 da3e
000000f0: 3bd5 c83e 72e8 dd3e 9eb5 d73e 14ab dc3e
00000100: 9812 ca3e 548d cc3e 5930 da3e e33a d53e
00000110: 9812 ca3e dd97 c73e ca82 d13e 548d cc3e
00000120: 4eea be3e d025 df3e 9812 ca3e 85fd d33e
00000130: ac27 c03e ca82 d13e f64f cb3e 0f08 cf3e
00000140: dd97 c73e bf3c b63e 7ab7 b83e dd97 c73e
00000150: 4947 b13e 7ab7 b83e c4df c33e 221d c53e
00000160: d8f4 b93e bf3c b63e 936f bc3e 4eea be3e
00000170: d251 ac3e 04c2 b33e d251 ac3e eb09 b03e
00000180: 61ff b43e 7ab7 b83e 17d7 a93e 3532 bb3e
00000190: 308f ad3e 8dcc ae3e bf3c b63e eb09 b03e
000001a0: a684 b23e fe1e a63e a1e1 a43e eb09 b03e
000001b0: 8dcc ae3e a1e1 a43e 7514 ab3e fe1e a63e
000001c0: 1d7a b73e 9b3e 973e a1e1 a43e 43a4 a33e
000001d0: a1e1 a43e 5c5c a73e fe1e a63e 6f71 9d3e
000001e0: e566 a23e a1e1 a43e a1e1 a43e d251 ac3e
000001f0: cdae 9e3e 9b3e 973e e0c3 943e 1134 9c3e
00000200: b4f6 9a3e 8829 a13e e566 a23e 3d01 963e
00000210: e566 a23e c70b 913e f3d8 8a3e 2549 923e
00000220: c70b 913e 56b9 993e e0c3 943e 9b3e 973e
00000230: ae53 8d3e c70b 913e 9b3e 973e 7de3 853e
00000240: 959b 893e c70b 913e f3d8 8a3e 2549 923e
00000250: 5116 8c3e 385e 883e 5161 7f3e 0c91 8e3e
00000260: c70b 913e 8829 a13e c70b 913e c70b 913e
00000270: ae53 8d3e c168 833e f3d8 8a3e f3d8 8a3e
00000280: 9b3e 973e e0c3 943e 0c91 8e3e 385e 883e
00000290: 2549 923e f3d8 8a3e 642b 823e ae53 8d3e
000002a0: 5161 7f3e e0c3 943e 69ce 8f3e 56b9 993e
000002b0: 642b 823e 959b 893e c168 833e 9b3e 973e
000002c0: 5116 8c3e 1fa6 843e 1fa6 843e 0c91 8e3e
000002d0: 96e6 7c3e 3306 6e3e 5161 7f3e db6b 7a3e
000002e0: 96e6 7c3e ae53 8d3e 385e 883e 788b 6b3e
000002f0: db6b 7a3e 96e6 7c3e 1fa6 843e f3d8 8a3e
00000300: 959b 893e da20 873e b1ca 4d3e 20f1 773e
00000310: 14ab 5c3e 642b 823e c168 833e f3d8 8a3e
00000320: db6b 7a3e d025 5f3e 7de3 853e 5161 7f3e
00000330: bc10 693e bc10 693e d025 5f3e 9eb5 573e
00000340: 5930 5a3e 0196 663e 3306 6e3e d025 5f3e
00000350: 8ba0 613e bc10 693e db6b 7a3e 0196 663e
00000360: 461b 643e 6c45 503e 14ab 5c3e 6c45 503e
00000370: 0196 663e 5930 5a3e 5930 5a3e 461b 643e
00000380: bc10 693e bc10 693e 3bd5 483e e33a 553e
00000390: 3bd5 483e e33a 553e 8ba0 613e 0965 413e
000003a0: 28c0 523e 5930 5a3e 6c45 503e 3bd5 483e
000003b0: 5930 5a3e 0196 663e 6c45 503e 14ab 5c3e
000003c0: 8ba0 613e 28c0 523e 805a 463e e33a 553e
000003d0: d8f4 393e 461b 643e 0965 413e c4df 433e
000003e0: 14ab 5c3e 9eb5 573e 3bd5 483e 6c45 503e
000003f0: 28c0 523e 6c45 503e 61ff 343e 3bd5 483e

item_pop_true f4 [1154, 1]
1.0 0.8159806 0.8498789 0.86440676 0.8062954 0.8062954 0.7990315 0.75060534
0.72397095 0.71670705 0.6779661 0.7118644 0.6416465 0.62711865 0.6585956 0.6513317
0.63438255 0.6150121 0.63438255 0.56658596 0.5786925 0.5811138 0.53268766 0.55690074
0.5544794 0.51331717 0.527845 0.51331717 0.50363195 0.47941887 0.52300245 0.5108959
0.50363195 0.50121063 0.4552058 0.47215497 0.5108959 0.4866828 0.5108959 0.44067797
0.44309926 0.4915254 0.4866828 0.527845 0.4552058 0.4552058 0.43099272 0.44552058
0.43825665 0.4479419 0.45762712 0.46004844 0.41888618 0.44552058 0.44309926 0.44309926
0.46246973 0.4479419 0.41888618 0.4261501 0.39225182 0.43341404 0.4213075 0.43099272
0.3946731 0.39951575 0.4261501 0.4164649 0.3946731 0.3898305 0.40920097 0.39951575
0.37288135 0.43583536 0.3946731 0.41404358 0.37530267 0.40920097 0.39709443 0.40435836
0.3898305 0.3559322 0.36077482 0.3898305 0.346247 0.36077482 0.38256657 0.3849879
0.36319613 0.3559322 0.36803874 0.37288135 0.33656174 0.3510896 0.33656174 0.34382567
0.3535109 0.36077482 0.33171913 0.36561742 0.33898306 0.34140435 0.3559322 0.34382567
0.34866828 0.3244552 0.3220339 0.34382567 0.34140435 0.3220339 0.33414045 0.3244552
0.35835353 0.29539952 0.3220339 0.3196126 0.3220339 0.32687652 0.3244552 0.30750605
0.31719127 0.3220339 0.3220339 0.33656174 0.30992737 0.29539952 0.2905569 0.30508474
0.30266345 0.31476998 0.31719127 0.2929782 0.31719127 0.28329298 0.27118644 0.2857143
0.28329298 0.30024213 0.2905569 0.29539952 0.27602905 0.28329298 0.29539952 0.26150122
0.26876512 0.28329298 0.27118644 0.2857143 0.27360776 0.26634383 0.24939467 0.27845037
0.28329298 0.31476998 0.28329298 0.28329298 0.27602905 0.25665858 0.27118644 0.27118644
0.29539952 0.2905569 0.27845037 0.26634383 0.2857143 0.27118644 0.2542373 0.27602905
0.24939467 0.2905569 0.28087166 0.30024213 0.2542373 0.26876512 0.25665858 0.29539952
0.27360776 0.2590799 0.2590799 0.27845037 0.24697337 0.23244552 0.24939467 0.24455206
0.24697337 0.27602905 0.26634383 0.23002422 0.24455206 0.24697337 0.2590799 0.27118644
0.26876512 0.2639225 0.20096852 0.24213076 0.21549636 0.2542373 0.25665858 0.27118644
0.24455206 0.21791768 0.26150122 0.24939467 0.2276029 0.2276029 0.21791768 0.21065375
0.21307506 0.2251816 0.23244552 0.21791768 0.22033899 0.2276029 0.24455206 0.2251816
0.22276029 0.20338982 0.21549636 0.20338982 0.2251816 0.21307506 0.21307506 0.22276029
0.2276029 0.2276029 0.19612591 0.20823245 0.19612591 0.20823245 0.22033899 0.18886198
0.20581114 0.21307506 0.20338982 0.19612591 0.21307506 0.2251816 0.20338982 0.21549636
0.22033899 0.20581114 0.1937046 0.20823245 0.18159807 0.22276029 0.18886198 0.19128329
0.21549636 0.21065375 0.19612591 0.20338982 0.20581114 0.20338982 0.17675544 0.19612591
00000000: 0000 803f 1be4 503f aa91 593f c349 5d3f
00000010: 6069 4e3f 6069 4e3f 548d 4c3f ac27 403f
00000020: 2956 393f 1d7a 373f 308f 2d3f bf3c 363f
00000030: f242 243f d98a 203f b999 283f adbd 263f
00000040: e566 223f 6f71 1d3f e566 223f c70b 113f
00000050: 3125 143f e0c3 143f 385e 083f 0c91 0e3f
00000060: 5df2 0d3f c168 033f da20 073f c168 033f
00000070: 06ee 003f 6476 f53e 7de3 053f 13ca 023f
00000080: 06ee 003f 574f 003f bc10 e93e 4cbe f13e
00000090: 13ca 023f 7d2e f93e 13ca 023f 8ba0 e13e
000000a0: e8dd e23e 38a9 fb3e 7d2e f93e da20 073f
000000b0: bc10 e93e bc10 e93e 14ab dc3e 461b e43e
000000c0: 2d63 e03e a458 e53e 1a4e ea3e 788b eb3e
000000d0: 4078 d63e 461b e43e e8dd e23e e8dd e23e
000000e0: d5c8 ec3e a458 e53e 4078 d63e 5930 da3e
000000f0: 3bd5 c83e 72e8 dd3e 9eb5 d73e 14ab dc3e
00000100: 9812 ca3e 548d cc3e 5930 da3e e33a d53e
00000110: 9812 ca3e dd97 c73e ca82 d13e 548d cc3e
00000120: 4eea be3e d025 df3e 9812 ca3e 85fd d33e
00000130: ac27 c03e ca82 d13e f64f cb3e 0f08 cf3e
00000140: dd97 c73e bf3c b63e 7ab7 b83e dd97 c73e
00000150: 4947 b13e 7ab7 b83e c4df c33e 221d c53e
00000160: d8f4 b93e bf3c b63e 936f bc3e 4eea be3e
00000170: d251 ac3e 04c2 b33e d251 ac3e eb09 b03e
00000180: 61ff b43e 7ab7 b83e 17d7 a93e 3532 bb3e
00000190: 308f ad3e 8dcc ae3e bf3c b63e eb09 b03e
000001a0: a684 b23e fe1e a63e a1e1 a43e eb09 b03e
000001b0: 8dcc ae3e a1e1 a43e 7514 ab3e fe1e a63e
000001c0: 1d7a b73e 9b3e 973e a1e1 a43e 43a4 a33e
000001d0: a1e1 a43e 5c5c a73e fe1e a63e 6f71 9d3e
000001e0: e566 a23e a1e1 a43e a1e1 a43e d251 ac3e
000001f0: cdae 9e3e 9b3e 973e e0c3 943e 1134 9c3e
00000200: b4f6 9a3e 8829 a13e e566 a23e 3d01 963e
00000210: e566 a23e c70b 913e f3d8 8a3e 2549 923e
00000220: c70b 913e 56b9 993e e0c3 943e 9b3e 973e
00000230: ae53 8d3e c70b 913e 9b3e 973e 7de3 853e
00000240: 959b 893e c70b 913e f3d8 8a3e 2549 923e
00000250: 5116 8c3e 385e 883e 5161 7f3e 0c91 8e3e
00000260: c70b 913e 8829 a13e c70b 913e c70b 913e
00000270: ae53 8d3e c168 833e f3d8 8a3e f3d8 8a3e
00000280: 9b3e 973e e0c3 943e 0c91 8e3e 385e 883e
00000290: 2549 923e f3d8 8a3e 642b 823e ae53 8d3e
000002a0: 5161 7f3e e0c3 943e 69ce 8f3e 56b9 993e
000002b0: 642b 823e 959b 893e c168 833e 9b3e 973e
000002c0: 5116 8c3e 1fa6 843e 1fa6 843e 0c91 8e3e
000002d0: 96e6 7c3e 3306 6e3e 5161 7f3e db6b 7a3e
000002e0: 96e6 7c3e ae53 8d3e 385e 883e 788b 6b3e
000002f0: db6b 7a3e 96e6 7c3e 1fa6 843e f3d8 8a3e
00000300: 959b 893e da20 873e b1ca 4d3e 20f1 773e
00000310: 14ab 5c3e 642b 823e c168 833e f3d8 8a3e
00000320: db6b 7a3e d025 5f3e 7de3 853e 5161 7f3e
00000330: bc10 693e bc10 693e d025 5f3e 9eb5 573e
00000340: 5930 5a3e 0196 663e 3306 6e3e d025 5f3e
00000350: 8ba0 613e bc10 693e db6b 7a3e 0196 663e
00000360: 461b 643e 6c45 503e 14ab 5c3e 6c45 503e
00000370: 0196 663e 5930 5a3e 5930 5a3e 461b 643e
00000380: bc10 693e bc10 693e 3bd5 483e e33a 553e
00000390: 3bd5 483e e33a 553e 8ba0 613e 0965 413e
000003a0: 28c0 523e 5930 5a3e 6c45 503e 3bd5 483e
000003b0: 5930 5a3e 0196 663e 6c45 503e 14ab 5c3e
000003c0: 8ba0 613e 28c0 523e 805a 463e e33a 553e
000003d0: d8f4 393e 461b 643e 0965 413e c4df 433e
000003e0: 14ab 5c3e 9eb5 573e 3bd5 483e 6c45 503e
000003f0: 28c0 523e 6c45 503e 61ff 343e 3bd5 483e

lr1.weight f4 [1, 63]
0.059013516 0.01800833 0.10864346 -0.18659063 0.14164075 0.029809408 0.13405241 -0.011031013
-0.006068995 -0.11569449 -0.01773469 -0.17416658 -0.051341683 -0.035237893 -0.0017435272 -0.0008028308
-0.0915401 -0.11494163 0.03308267 -0.028307745 0.014999214 -0.043402992 -0.058157384 0.033636402
0.015922315 -0.18698706 0.049109317 0.22229551 -0.088396765 -0.09382447 0.078479975 0.17615296
-0.046461895 -0.045506716 0.063732974 0.026503917 0.0048939763 0.14487612 -0.0725376 -0.07391627
0.06417926 0.063360535 0.06814821 -0.018547844 -0.015107907 -0.10193214 -0.054103605 -0.31484744
0.24668609 -0.09821453 -0.122492075 0.090062715 0.16594736 0.16459967 -0.018032907 0.20337895
0.002635676 -0.24812004 -0.0060323207 -0.15274712 0.0353021 -0.14477055 0.0059148334
00000000: 28b8 713d 3586 933c 7680 de3d 9d11 3fbe
00000010: 460a 113e dc32 f43c 0945 093e 6cbb 34bc
00000020: 6cde c6bb 3cf1 ecbd 5748 91bc b958 32be
00000030: a84b 52bd 9c55 10bd 1187 e4ba 1075 52ba
00000040: 6079 bbbd 8466 ebbd b281 073d a5e5 e7bc
00000050: 43bf 753c 56c7 31bd 7036 6ebd 53c6 093d
00000060: 846f 823c 8979 3fbe da26 493d 6fa1 633e
00000070: 5d09 b5bd 0b27 c0bd 1cba a03d 7161 343e
00000080: d44e 3ebd 4065 3abd 6f86 823d be1e d93c
00000090: a65d a03b 685a 143e 988e 94bd 6a61 97bd
000000a0: 6a70 833d 2bc3 813d 4a91 8b3d a6f1 97bc
000000b0: 2887 77bc ccc1 d0bd be9b 5dbd af33 a1be
000000c0: 479b 7c3e b324 c9bd 20dd fabd cd72 b83d
000000d0: 1bee 293e d18c 283e bfb9 93bc 9242 503e
000000e0: 4ebb 2c3b 2e13 7ebe c6aa c5bb be69 1cbe
000000f0: ef98 103d bb3e 14be 38d1 c13b
