pid/result/ml100k-PIDMF-debug2023-03-14-10-32-30/ckpt/epoch_49.pth (torch_old, 543278 bytes, 5 tensors)

users f4 [945, 64]
0	0x3fcbf235	1.5933291
1	0xbe894425	-0.26809803
2	0xbf20113f	-0.62526315
3	0x3ea26ead	0.31725064
4	0x3ddd6118	0.10809535
5	0xbe35e525	-0.17763193
6	0x3f005298	0.5012603
7	0xbf058fdc	-0.52172637
8	0xbf221889	-0.6331869
9	0xbdf9abb0	-0.1219095
10	0x3f202ee9	0.6257158
11	0xbeba71cf	-0.36414954
12	0xbf087d13	-0.5331585
13	0x3e8fffb9	0.28124788
14	0x3f4f54d3	0.80988806
15	0xbe5e7a0a	-0.21726242
16	0x3f9faf42	1.247536
17	0x3f0bd4e8	0.54621744
18	0x3f5fda0b	0.8744208
19	0x3eef0497	0.4668319
20	0x3f42b453	0.760564
21	0xbe932883	-0.28741845
22	0xbf64ea74	-0.8942025
23	0xbebd92e4	-0.3702613
24	0x3f622294	0.8833401
25	0x3f75106d	0.9572819
26	0xbd1f797f	-0.038934227
27	0xbe49716f	-0.19672178
28	0xbf43d34a	-0.76494277
29	0xbf31a0af	-0.6938581
30	0xbf19741a	-0.5994278
31	0x3e0a4929	0.13504471
32	0xbf4577bd	-0.7713583
33	0xbf35bc03	-0.7099001
34	0xbf24bdae	-0.6435193
35	0xbf3bbd8a	-0.7333609
36	0xbf63887e	-0.88880146
37	0x3c21fc1b	0.009886767
38	0xbf2608de	-0.6485728
39	0xbf8c9c26	-1.0985153
40	0xbecc7898	-0.39935756
41	0x3f27bac1	0.6551934
42	0xbeff9890	-0.49921083
43	0x3d27cbe0	0.040965915
44	0xbf98c21b	-1.1934236
45	0xbf3851c1	-0.71999747
46	0x3f365813	0.7122814
47	0xbe1c446c	-0.15260476
48	0x3e59ad16	0.21257433
49	0x3e75596c	0.23959893
50	0xbf820237	-1.0156926
51	0xbf47eaf7	-0.780929
52	0x3f6d8dfb	0.9279477
53	0xbf738f70	-0.95140743
54	0xbd74dc82	-0.059780605
55	0x3f63e6c7	0.89024013
56	0x3e84295a	0.258128
57	0x3eef48f6	0.46735352
58	0x3e8729d4	0.263991
59	0x3f8f65aa	1.12029
60	0x3eb1f79f	0.34759232
61	0xbf104452	-0.5635425
62	0xbe2fcd2f	-0.17168115
63	0x3e3b3709	0.18282713
64	0x3f15158f	0.5823602
65	0xbe92afb8	-0.28649688
66	0x3e15df26	0.14635906
67	0xbf49929d	-0.7873934
68	0xbf4df029	-0.8044458
69	0xbee5dca2	-0.44894892
70	0x3f80335f	1.0015677
71	0x3f62183e	0.8831824
72	0x3d9597af	0.07304322
73	0xbdc3d6c1	-0.095624454
74	0xbd75d213	-0.060014796
75	0xbf75c9a3	-0.960108
76	0xbd8e2b55	-0.06941859
77	0x3d3d00f6	0.046143495
78	0x3ec11b22	0.37716013
79	0xbe5bd05f	-0.21466206
80	0x3e430641	0.19045354
81	0x3dd4e91f	0.10396027
82	0x3e8aa3a0	0.2707796
83	0x3f059f28	0.5219598
84	0x3e639c3f	0.22227572
85	0xbcf617fb	-0.030040732
86	0x3f59ca31	0.85074145
87	0xbec3e190	-0.38258028
88	0x3eb10f16	0.34581822
89	0x3f9eeec2	1.2416613
90	0xbf703a87	-0.93839306
91	0xbf87aeb8	-1.0600195
92	0xbf87f356	-1.0621135
93	0xbf982f88	-1.1889505
94	0x3ec4bfba	0.38427526
95	0xbf815421	-1.0103799
96	0x3f4b961e	0.79525936
97	0x3c621d90	0.013800994
98	0x3f007ac9	0.50187355
99	0x3f19811a	0.5996262
100	0xbec12c4d	-0.3772911
101	0x3e728d1f	0.23686646
102	0xbf6a1814	-0.9144299
103	0xbfbc6349	-1.47178
104	0x3e46ebee	0.19425938
105	0xbe929776	-0.2863118
106	0x3f3ac944	0.72963357
107	0xbe871050	-0.26379633
108	0x3f5327c3	0.82482547
109	0xbf40fd93	-0.75386924
110	0xbee291fb	-0.44252
111	0xbf2a5b1b	-0.66545266
112	0x3e6ecb52	0.23319748
113	0xbf92efc6	-1.1479423
114	0x3eabed92	0.3357969
115	0xbf6f7d08	-0.9355016
116	0xbf1561e9	-0.58352524
117	0x3ebc9659	0.36833456
118	0xbee8ac70	-0.4544406
119	0xbf75fba3	-0.9608709
120	0x3f0b759c	0.5447633
121	0x3e544b28	0.20731795
122	0xbbb64ff6	-0.0055637313
123	0x3ef73e92	0.48289925
124	0x3d713593	0.058888983
125	0x3f644081	0.89160925
126	0xbeea4588	-0.45756173
127	0xbe1ceaf4	-0.15324003
128	0xbf440cbc	-0.7658193
129	0xbefeb941	-0.49750713
130	0xbef74443	-0.48294267
131	0xbeb284bb	-0.3486689
132	0xbe233109	-0.15936674
133	0x3f4d0530	0.8008604
134	0x3ed90650	0.4238763
135	0x3d2817df	0.04103839
136	0x3ec3d49e	0.38248152
137	0xbf8490d4	-1.0356698
138	0x3f08ce68	0.5343995
139	0x3d118036	0.035522662
140	0xbf2275ea	-0.6346117
141	0x3f116d5b	0.5680749
142	0x3ee7c0eb	0.45264372
143	0xbed46c8a	-0.4148906
144	0xbf830e82	-1.0238802
145	0xbe056754	-0.13027698
146	0x3fa8ecc8	1.319726
147	0x3efdb470	0.49551725
148	0xbf0dc86e	-0.55383956
149	0x3f030892	0.5118495
150	0xbf52246a	-0.82086813
151	0x3db62044	0.08892873
152	0xbe72d0ff	-0.23712538
153	0x3f947916	1.1599452
154	0xbe152d09	-0.14567961
155	0xbf7786d3	-0.966901
156	0xbe883534	-0.2660309
157	0xbe9ff558	-0.3124187
158	0xbeca220a	-0.39479095
159	0xbf5f105d	-0.87134343
160	0xbf8455fa	-1.0338738
161	0xbd021e0a	-0.03176693
162	0xbf934241	-1.1504594
163	0xbe3e7e02	-0.18602756
164	0x3f7b5c94	0.9818814
165	0x3e1b1887	0.15146075
166	0xbe86f41c	-0.26358116
167	0xbf7d4a3e	-0.9894141
168	0x3f2d7e3f	0.6777076
169	0x3db88111	0.090089925
170	0xbf1f92fa	-0.62333643
171	0xbf3925ef	-0.7232351
172	0xbf6b51a2	-0.91921437
173	0x3df12a62	0.11775662
174	0x3f1a75ba	0.60335886
175	0xbfa257fa	-1.2683098
176	0x3e748e8c	0.23882502
177	0x3e7bdc1b	0.24595682
178	0xbea3c64b	-0.31987223
179	0x3e943397	0.2894561
180	0xbf9e3074	-1.2358537
181	0xbe054ee1	-0.13018371
182	0x3eeb2ed4	0.45934165
183	0xbeb5a07d	-0.35474005
184	0xbec4cd36	-0.38437814
185	0x3e616c63	0.22014003
186	0x3ec03b14	0.37545073
187	0xbe6c1f77	-0.23058878
188	0x3d2501af	0.04028481
189	0x3f498d3b	0.78731126
190	0xbeee3f9a	-0.465329
191	0x3db6a2de	0.08917783
192	0x3f34b416	0.7058729
193	0xbf089b78	-0.53362226
194	0x3f76c18e	0.9638909
195	0xbe454678	-0.19265163
196	0xbf80be4d	-1.0058075
197	0xbc99427c	-0.01870846
198	0x3f9b6329	1.2139636
199	0xbeb1477f	-0.3462486
200	0x3e4bbf8d	0.1989729
201	0x3e98a3e5	0.29812542
202	0x3f8540e7	1.0410432
203	0xbf8c6d6a	-1.097089
204	0x3d544fa1	0.051833753
205	0x3e44cb59	0.19218196
206	0x3f29689e	0.6617526
207	0xbeb0e290	-0.34547853
208	0x3f11664f	0.56796736
209	0x3e83a3c5	0.25710884
210	0x3f1b4557	0.6065268
211	0xbe82eb58	-0.25570178
212	0xbe19bea8	-0.15014136
213	0xbec755b2	-0.38932568
214	0xbf17e409	-0.5933233
215	0xbee8a29c	-0.4543656
216	0xbf547025	-0.8298362
217	0xbec53d5b	-0.38523373
218	0x3f852652	1.040232
219	0xbf395af3	-0.724044
220	0x3e498d9f	0.1968293
221	0xbe6b5b6a	-0.2298409
222	0x3f8c8a25	1.0979658
223	0x3f1d1cae	0.61371887
224	0x3f84f17e	1.0386198
225	0xbf8b26e4	-1.0871243
226	0xbe97e2cc	-0.2966522
227	0xbedd97dc	-0.43279922
228	0xbe175907	-0.14780055
229	0xbf64e217	-0.89407486
230	0x3d74ff7e	0.05981397
231	0x3eb70660	0.3574705
232	0xbf105c45	-0.5639079
233	0x3e0381d1	0.1284249
234	0x3de36cb8	0.11104721
235	0x3e394758	0.18093622
236	0xbf645777	-0.8919596
237	0xbcdfec90	-0.027334481
238	0x3f0095b5	0.50228435
239	0xbd0d964f	-0.034567174
240	0x3ed9c68e	0.42534298
241	0x3ea0fc6e	0.3144259
242	0xbd7e28d8	-0.06205067
243	0xbf1cc50b	-0.61238164
244	0x3fe5c62c	1.7951102
245	0xbf9519bd	-1.164848
246	0x3ee9cf4c	0.45665967
247	0xbf5f30b3	-0.87183684
248	0xbea1cbec	-0.31600893
249	0x3f0417be	0.5159873
250	0x3e793235	0.24335559
251	0x3f0c9033	0.5490753
252	0xbe6e66f6	-0.23281464
253	0x3e8e048d	0.27737847
254	0x3e5273b6	0.20551953
255	0x3e047f38	0.12939155

items_id f4 [1154, 63]
0	0x3f1ab409	0.6043096
1	0x3f10f9c5	0.5663112
2	0x3e4e5e91	0.20153262
3	0xbdf28092	-0.11840929
4	0x3e3805d9	0.1797098
5	0x3ee4dfe6	0.4470207
6	0x3f207a74	0.6268685
7	0x3f1f1c08	0.6215215
8	0x3f15291a	0.5826584
9	0xbed8f82e	-0.42376846
10	0x3f2ab107	0.6667637
11	0xbde85efe	-0.11346243
12	0xbecb5fec	-0.3972162
13	0x3f0a4266	0.54007566
14	0x3ef2315e	0.4730329
15	0xbed96494	-0.42459548
16	0xbe501655	-0.20321019
17	0xbe9daa3f	-0.3079395
18	0x3ea9fab3	0.3319908
19	0x3f35f342	0.71074307
20	0x3f38ce35	0.72189647
21	0x3ee6c881	0.45074847
22	0xbeb95222	-0.36195475
23	0x3ea84d65	0.32871547
24	0xbe8c54cb	-0.27408442
25	0x3d0f952f	0.035054382
26	0x3ead54ed	0.33853856
27	0x3e7cb7a7	0.24679433
28	0xbe712a4c	-0.23551291
29	0xbeb67f5f	-0.3564405
30	0x3ee65a46	0.44990748
31	0x3e1a3f87	0.15063296
32	0xbe37ac38	-0.1793679
33	0xbefe111e	-0.49622434
34	0x3e95c652	0.2925287
35	0x3e8910ed	0.26770726
36	0x3f43af21	0.764391
37	0x3eb954ca	0.361975
38	0xbe9be300	-0.30446625
39	0xbe7381b5	-0.23779948
40	0xbe9c494d	-0.30524674
41	0x3e88c5f5	0.2671353
42	0x3e95a953	0.29230747
43	0xbf133a21	-0.5751057
44	0xbf25d1a8	-0.64773035
45	0xbe7587da	-0.23977605
46	0x3ef6db4a	0.4821418
47	0x3da33fa8	0.07971126
48	0x3ddc28db	0.1074998
49	0xbeaf434e	-0.34231037
50	0xbe9cbf14	-0.3061453
51	0x3ce20527	0.027590347
52	0x3e5d5fd4	0.21618587
53	0x3be5bf76	0.0070113493
54	0xbf2d017d	-0.67580396
55	0x3e4d9698	0.20076978
56	0xbf1b27c0	-0.6060753
57	0x3d291f78	0.041289777
58	0xbeaab5f9	-0.3334196
59	0xbe03c0ab	-0.12866466
60	0x3ea758fd	0.3268508
61	0xbe394ec3	-0.18096451
62	0x3f0204ae	0.5078839
63	0x3e568230	0.209481
64	0x3eaab585	0.33341613
65	0x3e0ce4fc	0.13759226
66	0x3d0ba7c8	0.034095556
67	0x3f22cf58	0.6359763
68	0x3da3e2c4	0.080022365
69	0x3f3791f9	0.7170711
70	0x3dffe8a2	0.12495543
71	0x3d1da905	0.038491268
72	0xbd5347fe	-0.05158233
73	0x3ccb8327	0.024842812
74	0xbd30c88b	-0.043160003
75	0xbe889e59	-0.2668331
76	0x3dbbc58d	0.09168539
77	0x3d210917	0.03931531
78	0xbe82166c	-0.25407732
79	0xbeae6b87	-0.34066412
80	0xbdfaa168	-0.12237817
81	0x3e84c916	0.25934666
82	0x3cda358f	0.026636867
83	0x3e9a2b5e	0.30111212
84	0x3ea4bd9a	0.32175905
85	0xbdd90746	-0.105970904
86	0x3ec14b12	0.37752587
87	0xbe50018d	-0.20313092
88	0xbe409bd5	-0.18809445
89	0x3d69922c	0.057024166
90	0x3d46218f	0.048371848
91	0x3cd792b8	0.026315078
92	0xbba38a48	-0.0049908496
93	0xbd276e23	-0.04087652
94	0x3dac4944	0.08412412
95	0xbe4cf65b	-0.20015852
96	0xbe97e1e1	-0.2966452
97	0x3e8583a0	0.26076984
98	0x3e04f7ea	0.12985197
99	0x3eb96aca	0.36214286
100	0x3e099239	0.13434686
101	0xbde18882	-0.11012365
102	0xbdd8f47f	-0.10593509
103	0xbe452162	-0.19251016
104	0x3e7de3a9	0.24793877
105	0xbcad2e64	-0.021140285
106	0xbd53fb91	-0.051753584
107	0xbe69cdb5	-0.22832377
108	0xbd927cba	-0.07152696
109	0x3cee7e31	0.029112907
110	0xbdcee56e	-0.10102354
111	0x3dcde002	0.10052492
112	0x3b64ea8c	0.003492984
113	0xbd15894e	-0.036507897
114	0x3d61c8af	0.055123027
115	0x3e467601	0.19380952
116	0x3e473a57	0.19455849
117	0x3d8fbd92	0.070185795
118	0x3e5cdf03	0.21569447
119	0xbed7e62c	-0.42167795
120	0xbdcb8a48	-0.099384844
121	0xbc21b946	-0.009870833
122	0xbe17bd26	-0.14818248
123	0x3c3fe59b	0.011712457
124	0xbe989720	-0.298028
125	0x3de22f97	0.11044233
126	0x3eabd7af	0.3356299
127	0x3ec87d98	0.3915832
128	0x3e213721	0.15743686
129	0xbd8f7789	-0.070052214
130	0x3ebf7e14	0.37400877
131	0x3e8bc90d	0.27301827
132	0x3daf1e82	0.08550741
133	0x3e4ec2f3	0.20191555
134	0x3ec28b87	0.37997076
135	0xbe97d711	-0.2965627
136	0x3ed5b8c5	0.4174253
137	0xbe86ebde	-0.26351827
138	0xbe9698ef	-0.29413554
139	0x3e32b298	0.1745094
140	0x3e34fbad	0.17674132
141	0xbe34115f	-0.17584752
142	0xbe9638a6	-0.29340094
143	0x3c1394a7	0.009007609
144	0x3dccf17e	0.100069985
145	0x3e824f18	0.2545097
146	0x3ec0a220	0.37623692
147	0x3edb8dba	0.42881566
148	0xbe5d6134	-0.21619111
149	0x3e8d2350	0.27566004
150	0xbde45e97	-0.11150854
151	0xbd86a163	-0.06573751
152	0x3db4a67c	0.08820817
153	0x3e74d1c6	0.23908147
154	0xbdebe7a3	-0.115187906
155	0xbd44b9f6	-0.04802891
156	0x3e82eff1	0.25573686
157	0x3d6df9b3	0.05809946
158	0xbe93e98d	-0.28889123
159	0xbec691d5	-0.38783136
160	0x3e11efdf	0.1425166
161	0x3db5eb94	0.088828236
162	0x3ee5f1d3	0.4491106
163	0x3e104a30	0.140908
164	0xbe03f1f9	-0.12885274
165	0xbe8b4b3e	-0.27205843
166	0xbe59ea3e	-0.21280763
167	0x3e0a33cf	0.13496326
168	0x3e852e15	0.2601172
169	0xbec1e812	-0.37872368
170	0xbe89688c	-0.26837575
171	0xbe588664	-0.21145016
172	0x3e5b2cc0	0.2140379
173	0xbe074626	-0.13210353
174	0x3da5a2cb	0.08087691
175	0xbe4154c5	-0.18879993
176	0xbe86fd89	-0.26365307
177	0x3dd522b7	0.10407012
178	0x3e512d92	0.2042754
179	0x3e3fd9e2	0.1873546
180	0xbecd3504	-0.4007951
181	0x3c168353	0.009186584
182	0xbea2cbd9	-0.31796148
183	0xbd82a378	-0.063788354
184	0xbdfabe38	-0.122433126
185	0xbe280c5a	-0.16410962
186	0x3d9fa0b0	0.077943206
187	0xbe303f94	-0.17211753
188	0x3e99d58d	0.3004574
189	0x3edf145b	0.43570217
190	0x3e2dbc75	0.16966422
191	0x3e41a61b	0.1891102
192	0xbe514d78	-0.20439708
193	0x3e690e0f	0.22759269
194	0x3dedff52	0.11620964
195	0x3ec3742b	0.38174567
196	0x3eb1f454	0.3475672
197	0x3ed09a20	0.40742588
198	0xbe8965da	-0.2683552
199	0x3e3daa6b	0.1852204
200	0xbe7b14e1	-0.24519683
201	0xbe2503dd	-0.16114755
202	0x3e89d685	0.26921478
203	0x3e4f7287	0.20258532
204	0xbedc3fcc	-0.43017423
205	0xbe76961f	-0.24080704
206	0xbe265dac	-0.1624667
207	0x3de3cde1	0.11123253
208	0x3e50328e	0.20331785
209	0x3ed868c9	0.42267445
210	0x3e20b2d5	0.15693219
211	0xbde040c9	-0.10949857
212	0x3db46859	0.08808965
213	0xbdb51dcc	-0.08843574
214	0xbe1fdf73	-0.15612583
215	0x3e68726a	0.22699896
216	0x3e334706	0.17507562
217	0xbe60ac84	-0.2194081
218	0xbe1c1870	-0.15243697
219	0x3ea77e69	0.3271363
220	0x3e1bf704	0.15230948
221	0xbdab1892	-0.08354296
222	0xbe94e340	-0.29079628
223	0x3e9f1c81	0.31076434
224	0x3df5a207	0.11993795
225	0x3e9f778c	0.31145895
226	0x3dc3a7aa	0.09553464
227	0xbe7caa79	-0.24674405
228	0xbe6126a9	-0.21987404
229	0xbe544357	-0.20728813
230	0x3db9a991	0.09065545
231	0x3dde884f	0.108658426
232	0xbebf4cc2	-0.3736325
233	0xbe641e1b	-0.2227711
234	0xbd67266f	-0.056433138
235	0x3de20f6c	0.11038098
236	0x3c5743d8	0.013138734
237	0xbd9c27b6	-0.07624762
238	0xbe6f6139	-0.23376931
239	0xbe21e119	-0.15808524
240	0x3d8b4d8e	0.06801902
241	0x3dd8de8a	0.10589321
242	0x3e2b049a	0.16700974
243	0xbed4d02b	-0.4156507
244	0x3e5b5078	0.21417415
245	0xbe66126f	-0.2246797
246	0xbda6efb3	-0.08151188
247	0xbd9238f7	-0.071397714
248	0xbdda2393	-0.106513165
249	0x3e36207a	0.17785826
250	0xbea41176	-0.32044572
251	0x3e46be73	0.19408588
252	0x3ecd9802	0.40155035
253	0x3e90f34d	0.28310624
254	0x3e85b623	0.26115522
255	0x3db69d6b	0.08916744

item_pop f4 [1154, 1]
0	0x3f800000	1.0
1	0x3f50e41b	0.8159806
2	0x3f5991aa	0.8498789
3	0x3f5d49c3	0.86440676
4	0x3f4e6960	0.8062954
5	0x3f4e6960	0.8062954
6	0x3f4c8d54	0.7990315
7	0x3f4027ac	0.75060534
8	0x3f395629	0.72397095
9	0x3f377a1d	0.71670705
10	0x3f2d8f30	0.6779661
11	0x3f363cbf	0.7118644
12	0x3f2442f2	0.6416465
13	0x3f208ad9	0.62711865
14	0x3f2899b9	0.6585956
15	0x3f26bdad	0.6513317
16	0x3f2266e5	0.63438255
17	0x3f1d716f	0.6150121
18	0x3f2266e5	0.63438255
19	0x3f110bc7	0.56658596
20	0x3f142531	0.5786925
21	0x3f14c3e0	0.5811138
22	0x3f085e38	0.53268766
23	0x3f0e910c	0.55690074
24	0x3f0df25d	0.5544794
25	0x3f0368c1	0.51331717
26	0x3f0720da	0.527845
27	0x3f0368c1	0.51331717
28	0x3f00ee06	0.50363195
29	0x3ef57664	0.47941887
30	0x3f05e37d	0.52300245
31	0x3f02ca13	0.5108959
32	0x3f00ee06	0.50363195
33	0x3f004f57	0.50121063
34	0x3ee910bc	0.4552058
35	0x3ef1be4c	0.47215497
36	0x3f02ca13	0.5108959
37	0x3ef92e7d	0.4866828
38	0x3f02ca13	0.5108959
39	0x3ee1a08b	0.44067797
40	0x3ee2dde8	0.44309926
41	0x3efba938	0.4915254
42	0x3ef92e7d	0.4866828
43	0x3f0720da	0.527845
44	0x3ee910bc	0.4552058
45	0x3ee910bc	0.4552058
46	0x3edcab14	0.43099272
47	0x3ee41b46	0.44552058
48	0x3ee0632d	0.43825665
49	0x3ee558a4	0.4479419
50	0x3eea4e1a	0.45762712
51	0x3eeb8b78	0.46004844
52	0x3ed67840	0.41888618
53	0x3ee41b46	0.44552058
54	0x3ee2dde8	0.44309926
55	0x3ee2dde8	0.44309926
56	0x3eecc8d5	0.46246973
57	0x3ee558a4	0.4479419
58	0x3ed67840	0.41888618
59	0x3eda3059	0.4261501
60	0x3ec8d53b	0.39225182
61	0x3edde872	0.43341404
62	0x3ed7b59e	0.4213075
63	0x3edcab14	0.43099272
64	0x3eca1298	0.3946731
65	0x3ecc8d54	0.39951575
66	0x3eda3059	0.4261501
67	0x3ed53ae3	0.4164649
68	0x3eca1298	0.3946731
69	0x3ec797dd	0.3898305
70	0x3ed182ca	0.40920097
71	0x3ecc8d54	0.39951575
72	0x3ebeea4e	0.37288135
73	0x3edf25d0	0.43583536
74	0x3eca1298	0.3946731
75	0x3ed3fd85	0.41404358
76	0x3ec027ac	0.37530267
77	0x3ed182ca	0.40920097
78	0x3ecb4ff6	0.39709443
79	0x3ecf080f	0.40435836
80	0x3ec797dd	0.3898305
81	0x3eb63cbf	0.3559322
82	0x3eb8b77a	0.36077482
83	0x3ec797dd	0.3898305
84	0x3eb14749	0.346247
85	0x3eb8b77a	0.36077482
86	0x3ec3dfc4	0.38256657
87	0x3ec51d22	0.3849879
88	0x3eb9f4d8	0.36319613
89	0x3eb63cbf	0.3559322
90	0x3ebc6f93	0.36803874
91	0x3ebeea4e	0.37288135
92	0x3eac51d2	0.33656174
93	0x3eb3c204	0.3510896
94	0x3eac51d2	0.33656174
95	0x3eb009eb	0.34382567
96	0x3eb4ff61	0.3535109
97	0x3eb8b77a	0.36077482
98	0x3ea9d717	0.33171913
99	0x3ebb3235	0.36561742
100	0x3ead8f30	0.33898306
101	0x3eaecc8d	0.34140435
102	0x3eb63cbf	0.3559322
103	0x3eb009eb	0.34382567
104	0x3eb284a6	0.34866828
105	0x3ea61efe	0.3244552
106	0x3ea4e1a1	0.3220339
107	0x3eb009eb	0.34382567
108	0x3eaecc8d	0.34140435
109	0x3ea4e1a1	0.3220339
110	0x3eab1475	0.33414045
111	0x3ea61efe	0.3244552
112	0x3eb77a1d	0.35835353
113	0x3e973e9b	0.29539952
114	0x3ea4e1a1	0.3220339
115	0x3ea3a443	0.3196126
116	0x3ea4e1a1	0.3220339
117	0x3ea75c5c	0.32687652
118	0x3ea61efe	0.3244552
119	0x3e9d716f	0.30750605
120	0x3ea266e5	0.31719127
121	0x3ea4e1a1	0.3220339
122	0x3ea4e1a1	0.3220339
123	0x3eac51d2	0.33656174
124	0x3e9eaecd	0.30992737
125	0x3e973e9b	0.29539952
126	0x3e94c3e0	0.2905569
127	0x3e9c3411	0.30508474
128	0x3e9af6b4	0.30266345
129	0x3ea12988	0.31476998
130	0x3ea266e5	0.31719127
131	0x3e96013d	0.2929782
132	0x3ea266e5	0.31719127
133	0x3e910bc7	0.28329298
134	0x3e8ad8f3	0.27118644
135	0x3e924925	0.2857143
136	0x3e910bc7	0.28329298
137	0x3e99b956	0.30024213
138	0x3e94c3e0	0.2905569
139	0x3e973e9b	0.29539952
140	0x3e8d53ae	0.27602905
141	0x3e910bc7	0.28329298
142	0x3e973e9b	0.29539952
143	0x3e85e37d	0.26150122
144	0x3e899b95	0.26876512
145	0x3e910bc7	0.28329298
146	0x3e8ad8f3	0.27118644
147	0x3e924925	0.2857143
148	0x3e8c1651	0.27360776
149	0x3e885e38	0.26634383
150	0x3e7f6151	0.24939467
151	0x3e8e910c	0.27845037
152	0x3e910bc7	0.28329298
153	0x3ea12988	0.31476998
154	0x3e910bc7	0.28329298
155	0x3e910bc7	0.28329298
156	0x3e8d53ae	0.27602905
157	0x3e8368c1	0.25665858
158	0x3e8ad8f3	0.27118644
159	0x3e8ad8f3	0.27118644
160	0x3e973e9b	0.29539952
161	0x3e94c3e0	0.2905569
162	0x3e8e910c	0.27845037
163	0x3e885e38	0.26634383
164	0x3e924925	0.2857143
165	0x3e8ad8f3	0.27118644
166	0x3e822b64	0.2542373
167	0x3e8d53ae	0.27602905
168	0x3e7f6151	0.24939467
169	0x3e94c3e0	0.2905569
170	0x3e8fce69	0.28087166
171	0x3e99b956	0.30024213
172	0x3e822b64	0.2542373
173	0x3e899b95	0.26876512
174	0x3e8368c1	0.25665858
175	0x3e973e9b	0.29539952
176	0x3e8c1651	0.27360776
177	0x3e84a61f	0.2590799
178	0x3e84a61f	0.2590799
179	0x3e8e910c	0.27845037
180	0x3e7ce696	0.24697337
181	0x3e6e0633	0.23244552
182	0x3e7f6151	0.24939467
183	0x3e7a6bdb	0.24455206
184	0x3e7ce696	0.24697337
185	0x3e8d53ae	0.27602905
186	0x3e885e38	0.26634383
187	0x3e6b8b78	0.23002422
188	0x3e7a6bdb	0.24455206
189	0x3e7ce696	0.24697337
190	0x3e84a61f	0.2590799
191	0x3e8ad8f3	0.27118644
192	0x3e899b95	0.26876512
193	0x3e8720da	0.2639225
194	0x3e4dcab1	0.20096852
195	0x3e77f120	0.24213076
196	0x3e5cab14	0.21549636
197	0x3e822b64	0.2542373
198	0x3e8368c1	0.25665858
199	0x3e8ad8f3	0.27118644
200	0x3e7a6bdb	0.24455206
201	0x3e5f25d0	0.21791768
202	0x3e85e37d	0.26150122
203	0x3e7f6151	0.24939467
204	0x3e6910bc	0.2276029
205	0x3e6910bc	0.2276029
206	0x3e5f25d0	0.21791768
207	0x3e57b59e	0.21065375
208	0x3e5a3059	0.21307506
209	0x3e669601	0.2251816
210	0x3e6e0633	0.23244552
211	0x3e5f25d0	0.21791768
212	0x3e61a08b	0.22033899
213	0x3e6910bc	0.2276029
214	0x3e7a6bdb	0.24455206
215	0x3e669601	0.2251816
216	0x3e641b46	0.22276029
217	0x3e50456c	0.20338982
218	0x3e5cab14	0.21549636
219	0x3e50456c	0.20338982
220	0x3e669601	0.2251816
221	0x3e5a3059	0.21307506
222	0x3e5a3059	0.21307506
223	0x3e641b46	0.22276029
224	0x3e6910bc	0.2276029
225	0x3e6910bc	0.2276029
226	0x3e48d53b	0.19612591
227	0x3e553ae3	0.20823245
228	0x3e48d53b	0.19612591
229	0x3e553ae3	0.20823245
230	0x3e61a08b	0.22033899
231	0x3e416509	0.18886198
232	0x3e52c028	0.20581114
233	0x3e5a3059	0.21307506
234	0x3e50456c	0.20338982
235	0x3e48d53b	0.19612591
236	0x3e5a3059	0.21307506
237	0x3e669601	0.2251816
238	0x3e50456c	0.20338982
239	0x3e5cab14	0.21549636
240	0x3e61a08b	0.22033899
241	0x3e52c028	0.20581114
242	0x3e465a80	0.1937046
243	0x3e553ae3	0.20823245
244	0x3e39f4d8	0.18159807
245	0x3e641b46	0.22276029
246	0x3e416509	0.18886198
247	0x3e43dfc4	0.19128329
248	0x3e5cab14	0.21549636
249	0x3e57b59e	0.21065375
250	0x3e48d53b	0.19612591
251	0x3e50456c	0.20338982
252	0x3e52c028	0.20581114
253	0x3e50456c	0.20338982
254	0x3e34ff61	0.17675544
255	0x3e48d53b	0.19612591

item_pop_true f4 [1154, 1]
0	0x3f800000	1.0
1	0x3f50e41b	0.8159806
2	0x3f5991aa	0.8498789
3	0x3f5d49c3	0.86440676
4	0x3f4e6960	0.8062954
5	0x3f4e6960	0.8062954
6	0x3f4c8d54	0.7990315
7	0x3f4027ac	0.75060534
8	0x3f395629	0.72397095
9	0x3f377a1d	0.71670705
10	0x3f2d8f30	0.6779661
11	0x3f363cbf	0.7118644
12	0x3f2442f2	0.6416465
13	0x3f208ad9	0.62711865
14	0x3f2899b9	0.6585956
15	0x3f26bdad	0.6513317
16	0x3f2266e5	0.63438255
17	0x3f1d716f	0.6150121
18	0x3f2266e5	0.63438255
19	0x3f110bc7	0.56658596
20	0x3f142531	0.5786925
21	0x3f14c3e0	0.5811138
22	0x3f085e38	0.53268766
23	0x3f0e910c	0.55690074
24	0x3f0df25d	0.5544794
25	0x3f0368c1	0.51331717
26	0x3f0720da	0.527845
27	0x3f0368c1	0.51331717
28	0x3f00ee06	0.50363195
29	0x3ef57664	0.47941887
30	0x3f05e37d	0.52300245
31	0x3f02ca13	0.5108959
32	0x3f00ee06	0.50363195
33	0x3f004f57	0.50121063
34	0x3ee910bc	0.4552058
35	0x3ef1be4c	0.47215497
36	0x3f02ca13	0.5108959
37	0x3ef92e7d	0.4866828
38	0x3f02ca13	0.5108959
39	0x3ee1a08b	0.44067797
40	0x3ee2dde8	0.44309926
41	0x3efba938	0.4915254
42	0x3ef92e7d	0.4866828
43	0x3f0720da	0.527845
44	0x3ee910bc	0.4552058
45	0x3ee910bc	0.4552058
46	0x3edcab14	0.43099272
47	0x3ee41b46	0.44552058
48	0x3ee0632d	0.43825665
49	0x3ee558a4	0.4479419
50	0x3eea4e1a	0.45762712
51	0x3eeb8b78	0.46004844
52	0x3ed67840	0.41888618
53	0x3ee41b46	0.44552058
54	0x3ee2dde8	0.44309926
55	0x3ee2dde8	0.44309926
56	0x3eecc8d5	0.46246973
57	0x3ee558a4	0.4479419
58	0x3ed67840	0.41888618
59	0x3eda3059	0.4261501
60	0x3ec8d53b	0.39225182
61	0x3edde872	0.43341404
62	0x3ed7b59e	0.4213075
63	0x3edcab14	0.43099272
64	0x3eca1298	0.3946731
65	0x3ecc8d54	0.39951575
66	0x3eda3059	0.4261501
67	0x3ed53ae3	0.4164649
68	0x3eca1298	0.3946731
69	0x3ec797dd	0.3898305
70	0x3ed182ca	0.40920097
71	0x3ecc8d54	0.39951575
72	0x3ebeea4e	0.37288135
73	0x3edf25d0	0.43583536
74	0x3eca1298	0.3946731
75	0x3ed3fd85	0.41404358
76	0x3ec027ac	0.37530267
77	0x3ed182ca	0.40920097
78	0x3ecb4ff6	0.39709443
79	0x3ecf080f	0.40435836
80	0x3ec797dd	0.3898305
81	0x3eb63cbf	0.3559322
82	0x3eb8b77a	0.36077482
83	0x3ec797dd	0.3898305
84	0x3eb14749	0.346247
85	0x3eb8b77a	0.36077482
86	0x3ec3dfc4	0.38256657
87	0x3ec51d22	0.3849879
88	0x3eb9f4d8	0.36319613
89	0x3eb63cbf	0.3559322
90	0x3ebc6f93	0.36803874
91	0x3ebeea4e	0.37288135
92	0x3eac51d2	0.33656174
93	0x3eb3c204	0.3510896
94	0x3eac51d2	0.33656174
95	0x3eb009eb	0.34382567
96	0x3eb4ff61	0.3535109
97	0x3eb8b77a	0.36077482
98	0x3ea9d717	0.33171913
99	0x3ebb3235	0.36561742
100	0x3ead8f30	0.33898306
101	0x3eaecc8d	0.34140435
102	0x3eb63cbf	0.3559322
103	0x3eb009eb	0.34382567
104	0x3eb284a6	0.34866828
105	0x3ea61efe	0.3244552
106	0x3ea4e1a1	0.3220339
107	0x3eb009eb	0.34382567
108	0x3eaecc8d	0.34140435
109	0x3ea4e1a1	0.3220339
110	0x3eab1475	0.33414045
111	0x3ea61efe	0.3244552
112	0x3eb77a1d	0.35835353
113	0x3e973e9b	0.29539952
114	0x3ea4e1a1	0.3220339
115	0x3ea3a443	0.3196126
116	0x3ea4e1a1	0.3220339
117	0x3ea75c5c	0.32687652
118	0x3ea61efe	0.3244552
119	0x3e9d716f	0.30750605
120	0x3ea266e5	0.31719127
121	0x3ea4e1a1	0.3220339
122	0x3ea4e1a1	0.3220339
123	0x3eac51d2	0.33656174
124	0x3e9eaecd	0.30992737
125	0x3e973e9b	0.29539952
126	0x3e94c3e0	0.2905569
127	0x3e9c3411	0.30508474
128	0x3e9af6b4	0.30266345
129	0x3ea12988	0.31476998
130	0x3ea266e5	0.31719127
131	0x3e96013d	0.2929782
132	0x3ea266e5	0.31719127
133	0x3e910bc7	0.28329298
134	0x3e8ad8f3	0.27118644
135	0x3e924925	0.2857143
136	0x3e910bc7	0.28329298
137	0x3e99b956	0.30024213
138	0x3e94c3e0	0.2905569
139	0x3e973e9b	0.29539952
140	0x3e8d53ae	0.27602905
141	0x3e910bc7	0.28329298
142	0x3e973e9b	0.29539952
143	0x3e85e37d	0.26150122
144	0x3e899b95	0.26876512
145	0x3e910bc7	0.28329298
146	0x3e8ad8f3	0.27118644
147	0x3e924925	0.2857143
148	0x3e8c1651	0.27360776
149	0x3e885e38	0.26634383
150	0x3e7f6151	0.24939467
151	0x3e8e910c	0.27845037
152	0x3e910bc7	0.28329298
153	0x3ea12988	0.31476998
154	0x3e910bc7	0.28329298
155	0x3e910bc7	0.28329298
156	0x3e8d53ae	0.27602905
157	0x3e8368c1	0.25665858
158	0x3e8ad8f3	0.27118644
159	0x3e8ad8f3	0.27118644
160	0x3e973e9b	0.29539952
161	0x3e94c3e0	0.2905569
162	0x3e8e910c	0.27845037
163	0x3e885e38	0.26634383
164	0x3e924925	0.2857143
165	0x3e8ad8f3	0.27118644
166	0x3e822b64	0.2542373
167	0x3e8d53ae	0.27602905
168	0x3e7f6151	0.24939467
169	0x3e94c3e0	0.2905569
170	0x3e8fce69	0.28087166
171	0x3e99b956	0.30024213
172	0x3e822b64	0.2542373
173	0x3e899b95	0.26876512
174	0x3e8368c1	0.25665858
175	0x3e973e9b	0.29539952
176	0x3e8c1651	0.27360776
177	0x3e84a61f	0.2590799
178	0x3e84a61f	0.2590799
179	0x3e8e910c	0.27845037
180	0x3e7ce696	0.24697337
181	0x3e6e0633	0.23244552
182	0x3e7f6151	0.24939467
183	0x3e7a6bdb	0.24455206
184	0x3e7ce696	0.24697337
185	0x3e8d53ae	0.27602905
186	0x3e885e38	0.26634383
187	0x3e6b8b78	0.23002422
188	0x3e7a6bdb	0.24455206
189	0x3e7ce696	0.24697337
190	0x3e84a61f	0.2590799
191	0x3e8ad8f3	0.27118644
192	0x3e899b95	0.26876512
193	0x3e8720da	0.2639225
194	0x3e4dcab1	0.20096852
195	0x3e77f120	0.24213076
196	0x3e5cab14	0.21549636
197	0x3e822b64	0.2542373
198	0x3e8368c1	0.25665858
199	0x3e8ad8f3	0.27118644
200	0x3e7a6bdb	0.24455206
201	0x3e5f25d0	0.21791768
202	0x3e85e37d	0.26150122
203	0x3e7f6151	0.24939467
204	0x3e6910bc	0.2276029
205	0x3e6910bc	0.2276029
206	0x3e5f25d0	0.21791768
207	0x3e57b59e	0.21065375
208	0x3e5a3059	0.21307506
209	0x3e669601	0.2251816
210	0x3e6e0633	0.23244552
211	0x3e5f25d0	0.21791768
212	0x3e61a08b	0.22033899
213	0x3e6910bc	0.2276029
214	0x3e7a6bdb	0.24455206
215	0x3e669601	0.2251816
216	0x3e641b46	0.22276029
217	0x3e50456c	0.20338982
218	0x3e5cab14	0.21549636
219	0x3e50456c	0.20338982
220	0x3e669601	0.2251816
221	0x3e5a3059	0.21307506
222	0x3e5a3059	0.21307506
223	0x3e641b46	0.22276029
224	0x3e6910bc	0.2276029
225	0x3e6910bc	0.2276029
226	0x3e48d53b	0.19612591
227	0x3e553ae3	0.20823245
228	0x3e48d53b	0.19612591
229	0x3e553ae3	0.20823245
230	0x3e61a08b	0.22033899
231	0x3e416509	0.18886198
232	0x3e52c028	0.20581114
233	0x3e5a3059	0.21307506
234	0x3e50456c	0.20338982
235	0x3e48d53b	0.19612591
236	0x3e5a3059	0.21307506
237	0x3e669601	0.2251816
238	0x3e50456c	0.20338982
239	0x3e5cab14	0.21549636
240	0x3e61a08b	0.22033899
241	0x3e52c028	0.20581114
242	0x3e465a80	0.1937046
243	0x3e553ae3	0.20823245
244	0x3e39f4d8	0.18159807
245	0x3e641b46	0.22276029
246	0x3e416509	0.18886198
247	0x3e43dfc4	0.19128329
248	0x3e5cab14	0.21549636
249	0x3e57b59e	0.21065375
250	0x3e48d53b	0.19612591
251	0x3e50456c	0.20338982
252	0x3e52c028	0.20581114
253	0x3e50456c	0.20338982
254	0x3e34ff61	0.17675544
255	0x3e48d53b	0.19612591

lr1.weight f4 [1, 63]
0	0x3d71ea39	0.059061263
1	0x3c84fede	0.016234811
2	0x3ddc4eda	0.10757227
3	0xbe388c3d	-0.18022247
4	0x3e08b328	0.13349593
5	0x3cea5d56	0.02860896
6	0x3e030e70	0.12798476
7	0xbc379c94	-0.011206765
8	0xbc345def	-0.011008724
9	0xbde4da39	-0.11174435
10	0xbca7300d	-0.020408655
11	0xbe351a72	-0.1768587
12	0xbd4bfac5	-0.0497997
13	0xbd18c852	-0.037300415
14	0xbb38debb	-0.002820893
15	0x3b5dcce0	0.003384404
16	0xbdb967b9	-0.09052987
17	0xbde9971c	-0.11405775
18	0x3d07d269	0.033159647
19	0xbce7205a	-0.028213669
20	0x3c30f1b4	0.010799814
21	0xbd260c3c	-0.04053901
22	0xbd646a68	-0.05576554
23	0x3d08f323	0.033435
24	0x3c907d99	0.017638015
25	0xbe38ded5	-0.18053754
26	0x3d3be740	0.045874834
27	0x3e5a9148	0.21344483
28	0xbdb88120	-0.09009004
29	0xbdb8309d	-0.08993647
30	0x3da00cb0	0.0781492
31	0x3e29786c	0.16549844
32	0xbd2f1919	-0.042748544
33	0xbd376781	-0.044776443
34	0x3d776dbd	0.06040739
35	0x3ca92ce1	0.020651283
36	0x3b89d4db	0.0042062826
37	0x3e0ef37b	0.13960068
38	0xbd8fa252	-0.07013382
39	0xbd98104e	-0.07424985
40	0x3d827a17	0.06370943
41	0x3d810a8f	0.06300842
42	0x3d85c3dc	0.06531498
43	0xbca1a7e1	-0.019733371
44	0xbc60e9ce	-0.013727618
45	0xbdb972df	-0.09055113
46	0xbd55d213	-0.052202296
47	0xbe9d34d0	-0.30704355
48	0x3e73f5c3	0.2382422
49	0xbdc2859d	-0.09498141
50	0xbded867c	-0.115979165
51	0x3db2a6d6	0.08723228
52	0x3e285e4f	0.16442226
53	0x3e221a9f	0.15830468
54	0xbc7dd3c7	-0.015492386
55	0x3e487f04	0.19579703
56	0x3b884d4c	0.004159605
57	0xbe748ee5	-0.23882635
58	0xbb888948	-0.004166756
59	0xbe1b490f	-0.15164588
60	0x3d19dcf1	0.03756422
61	0xbe1224ea	-0.14271894
62	0x3bccb9a5	0.0062477165
