pid/result/ml100k-PIDMF-debug2023-03-14-10-32-30/ckpt/epoch_44.pth (torch_old, 543278 bytes, 5 tensors)

users f4 [945, 64]
00000000: 0181 c33f 8f3b 8dbe 4eed 18bf 670f a03e
00000010: fece d13d a8ea 3fbe c354 f83e 3415 fcbe
00000020: 4bd1 1fbf cbcd 09be c4a5 1f3f c820 b4be
00000030: 4ecb 02bf 820f 883e 04f9 433f c048 50be
00000040: 12eb 9c3f 6619 053f fb7d 5b3f 88bc e83e
00000050: d9c2 393f 58c1 95be 73f7 5ebf f3ee babe
00000060: 432e 5b3f 4cb3 6b3f 5bb2 e1bc 680c 4fbe
00000070: f6e5 3fbf dfd3 2ebf c760 12bf 09da 0c3e
00000080: ad52 37bf 5c5d 2fbf c457 1cbf 7124 30bf
00000090: 5c94 58bf ede2 833b 3c24 20bf fc64 87bf
000000a0: f08e cebe 5950 1b3f 9f16 f5be 4db8 573d
000000b0: bfb1 93bf 61fb 3abf 4448 373f a855 1cbe
000000c0: 7701 493e 5795 683e 2c11 79bf 7824 40bf
000000d0: fecc 663f c50e 76bf 0662 6abd 387e 643f
000000e0: cac0 6e3e e34f ef3e 4da2 773e 5618 8c3f
000000f0: 4d4d ac3e 1cbd 07bf a799 3fbe 691d 313e
00000100: 1981 133f df86 8fbe a7ac 163e 8d1d 41bf
00000110: 2a5b 4dbf 465f d4be 80cb 753f 0609 553f
00000120: b90e 9b3d 13b8 f1bd a507 7dbd b14b 68bf
00000130: 228e 9cbd 9fd4 203d e0ca ba3e 1ed5 4abe
00000140: bd52 3e3e f376 c83d 62c5 913e 324e 043f
00000150: 8b82 5a3e 36d7 cfbc 1542 533f d7c3 c0be
00000160: d3e5 ab3e d8aa 9f3f 9125 6dbf fc96 84bf
00000170: 43c2 85bf edaf 92bf 9598 bd3e 2d92 7ebf
00000180: a7db 493f af87 dc3c 8d01 eb3e c08e 113f
00000190: 6d8d b9be ec29 5c3e 39b1 63bf cfd5 b6bf
000001a0: b4a0 4f3e 2db6 8ebe c27e 3a3f b39c 8ebe
000001b0: ce75 4e3f 5c1e 3cbf 871e dcbe fbfb 27bf
000001c0: 44ca 653e fe2d 8dbf 3a35 9c3e 0eef 66bf
000001d0: 0587 12bf a8f9 aa3e db40 e3be 336e 67bf
000001e0: 45e0 083f 4228 463e 2bb2 c9bc 6cef ef3e
000001f0: 1620 923d 5a08 5e3f 891c e6be da49 28be
00000200: 7b37 3bbf bf25 e3be e09b f8be a9e3 b0be
00000210: 53c8 19be d15a 433f a87c e23e 26ce 003d
00000220: c696 c63e d9b3 82bf 4f8b fd3e ab3f 4f3d
00000230: 9494 20bf 2d4b 0f3f e158 e53e 95aa cebe
00000240: c02c 80bf 4c21 02be 4fb3 a03f 1805 eb3e
00000250: e971 08bf e4c8 003f c2c7 4fbf 45b8 cc3d
00000260: db7a 70be f5d8 8f3f 6d6f f6bd 6b4f 71bf
00000270: 5d49 78be 8e30 9bbe dd8c c7be 55d7 59bf
00000280: 26e7 7cbf 152f 04bd c5f5 8cbf 6346 35be
00000290: 47e3 6e3f 7469 103e 45be 8fbe 9e49 75bf
000002a0: 3488 253f ebfc bd3d eda9 15bf 87db 31bf
000002b0: 8934 64bf 516f e83d 73b5 163f cca3 9cbf
000002c0: 298c 783e a4cf 773e 19d4 96be 2235 873e
000002d0: 33ef 97bf 27a4 dfbd 8485 eb3e a11d b2be
000002e0: 22f5 cbbe 4d8f 653e d31e b53e ce10 3cbe
000002f0: 2089 8a3d ec60 433f 62f5 eabe 4506 c73d
00000300: 76b4 2c3f 8c5b 05bf 28e8 6a3f fd2c 39be
00000310: 4da8 75bf 6df6 31bc 71df 973f 7d09 a3be
00000320: e36d 4d3e 61ee 8d3e 1c26 813f 6aff 88bf
00000330: b204 483d ad7b 623e f408 2b3f 821b aebe
00000340: 9b19 0e3f c028 523e 45c8 113f 66a9 66be
00000350: bdf9 10be a947 d8be 2aa3 11bf 6f11 d7be
00000360: 9f94 4dbf cde2 bebe 3dc5 823f e948 35bf
00000370: 293f 553e ed62 62be 0e15 843f 1ecf 173f
00000380: cab8 7b3f 8e4d 81bf 0158 92be c3ff dabe
00000390: 5261 0ebe 345b 5cbf 9d03 683d 8ba3 ae3e
000003a0: 12a6 0fbf 669c f73d e008 e03d 53ec 363e
000003b0: d6e8 60bf 9734 82bc 18ae f93e 0156 e9bc
000003c0: a39c c23e 2fc4 973e 1a3d 98bd 085b 1fbf
000003d0: 9870 e03f b533 8fbf 0f7c e33e 8e47 5cbf
000003e0: dccf 95be 97ce 043f 3717 723e 80f3 0c3f
000003f0: ec04 60be 14ed 8c3e f2e2 503e 7c51 f83d
1.5273744 -0.27584502 -0.597371 0.3126175 0.10244559 -0.18741858 0.48502168 -0.49234927
-0.6242873 -0.1345741 0.62362313 -0.3518126 -0.5109147 0.26574332 0.7655184 -0.20340252
1.2259238 0.5199188 0.85739106 0.45456338 0.7256294 -0.29249072 -0.8709633 -0.3651043
0.85617465 0.9207046 -0.027550867 -0.20219576 -0.7496027 -0.6829204 -0.5717892 0.13755049
-0.7161053 -0.6850183 -0.6107142 -0.68805605 -0.8460138 0.0040248544 -0.6255529 -1.0577693
-0.40343428 0.60669476 -0.4786882 0.052665997 -1.1538619 -0.73039824 0.71594644 -0.1526705
0.19629465 0.22713219 -0.9729183 -0.75055647 0.90156543 -0.96116287 -0.05722239 0.89255095
0.2331573 0.46740636 0.24183007 1.0944927 0.33652726 -0.53022933 -0.18710957 0.17296375
0.5761886 -0.28032586 0.14714299 -0.75435716 -0.8021723 -0.41478938 0.9601364 0.83216894
0.075711675 -0.118026875 -0.06177487 -0.90740496 -0.07644297 0.03926527 0.36482906 -0.1980786
0.1858625 0.09788313 0.28470904 0.51681817 0.2133886 -0.025371175 0.8252271 -0.37649414
0.3357378 1.2474012 -0.92635447 -1.0358577 -1.0449909 -1.1459938 0.37030473 -0.99441797
0.7885079 0.026920168 0.4589962 0.56858444 -0.36240712 0.21500367 -0.88942295 -1.4283999
0.20276147 -0.27873364 0.7284967 -0.27853927 0.80648506 -0.73483825 -0.4299204 -0.65618867
0.2244044 -1.1029661 0.3050936 -0.9020852 -0.57237273 0.33393598 -0.44385418 -0.90402526
0.5346721 0.19351295 -0.02462109 0.46862352 0.07135026 0.86731493 -0.44943646 -0.16434422
-0.7313153 -0.44364735 -0.48556423 -0.3454869 -0.15017824 0.7631045 0.4423573 0.0314466
0.38786906 -1.0211135 0.49520347 0.050597828 -0.6272671 0.55974084 0.44794372 -0.4036452
-1.0013657 -0.12708014 1.2554721 0.45902324 -0.53298813 0.50306535 -0.8116418 0.09996084
-0.23484366 1.1238085 -0.120329715 -0.9426181 -0.24246736 -0.30310482 -0.38974658 -0.85094196
-0.98790205 -0.032271463 -1.1012503 -0.17702632 0.9331555 0.14102727 -0.28074852 -0.95815456
0.64660954 0.09276756 -0.5846241 -0.694756 -0.8914266 0.11349357 0.5887062 -1.2237487
0.24272217 0.24200302 -0.29458693 0.26407725 -1.1869873 -0.109199814 0.46000302 -0.3478823
-0.3983546 0.22417946 0.3537508 -0.18365785 0.06764436 0.76319766 -0.45890337 0.09717993
0.6746286 -0.52092814 0.9176049 -0.18083568 -0.9595993 -0.010861975 1.1865064 -0.31843176
0.2006145 0.2772093 1.0089755 -1.0702946 0.048832603 0.22117491 0.66810536 -0.34005362
0.5550782 0.20523357 0.5694621 -0.22525558 -0.14157768 -0.42242172 -0.56889594 -0.42005488
-0.803049 -0.3728241 1.0216442 -0.7081438 0.20824875 -0.2210805 1.0318925 0.5930041
0.9832884 -1.0101793 -0.28582767 -0.42773256 -0.13904312 -0.86076665 0.05664407 0.34109148
-0.5611278 0.120903775 0.10939193 0.17863588 -0.8785528 -0.015894217 0.48765635 -0.028483393
0.3801013 0.29641864 -0.07433529 -0.6224828 1.7534361 -1.1187655 0.44430587 -0.86046684
-0.29260147 0.5187773 0.23641668 0.5505905 -0.21876878 0.27524626 0.20399073 0.12124917

items_id f4 [1154, 63]
00000000: 14f5 193f 1fef 103f b9be 483e d506 edbd
00000010: cb7c 233e b7b3 e23e f634 1a3f 9802 193f
00000020: 024f 143f 16db d5be f0c8 263f 0e00 eabd
00000030: 9d95 c6be 2f2b 073f 2c51 ee3e 3fc0 d6be
00000040: 5499 3abe 8dd6 99be 6109 a83e 6ab0 323f
00000050: 7f54 303f 7e79 dd3e 6bd8 b4be 470a a03e
00000060: 4aa8 8abe 0ff0 0d3d 6673 aa3e 19cf 783e
00000070: 4191 6ebe 8ca9 b3be c674 e13e 7e18 153e
00000080: 98a9 31be bc6d f7be 8a5f 8f3e dbe3 853e
00000090: ccaa 413f 5f95 b43e 5799 9dbe 5607 6ebe
000000a0: 3318 98be f801 883e 718c 953e 3c95 12bf
000000b0: db14 22bf 7909 73be a9e3 f23e 1af2 933d
000000c0: cb95 d83d 940c adbe 798b 9abe 360f f53c
000000d0: 4c27 5b3e 7df7 53bb 7f54 2cbf 170d 523e
000000e0: 952f 18bf e79d 123d dd4f a8be 034a 04be
000000f0: 1973 a33e ba32 31be 53ab fa3e c487 493e
00000100: 9e0f a33e b4db 0c3e 1665 cf3c 0189 1b3f
00000110: 09bb 9e3d 18fb 2f3f 4826 e63d 81ae 233d
00000120: e84f 53bd 13c2 8e3c f8e4 22bd 330d 84be
00000130: 947d a23d c077 ff3c 91c9 7abe 756d a8be
00000140: 4c93 f9bd d5dd 813e 8c50 a13c bc01 953e
00000150: 3865 a03e a298 ccbd 6b8a bb3e 0688 4dbe
00000160: 7732 42be 7131 6f3d aca2 373d a115 bd3c
00000170: 66e9 a5ba 2766 24bd 2a45 b03d fce1 48be
00000180: b8df 92be 2281 7e3e 815b 013e 6369 b23e
00000190: d26a 0c3e bdbf d5bd 62b6 cbbd c06e 36be
000001a0: 5b1f 783e 22f4 b6bc ab5e 59bd b207 68be
000001b0: bb5e 8fbd 3af6 d23c 5187 dabd 71b6 c93d
000001c0: c255 4b3b 011a 10bd b08b 4f3d ecf0 463e
000001d0: f21c 4f3e 8c49 9e3d a7fa 583e c2af d0be
000001e0: f871 d4bd 637c 79bb a899 12be db59 c13b
000001f0: 8c57 96be a472 c73d 5c6c a83e f976 c33e
00000200: 62cd 1e3e 5d62 a6bd d82e b83e 542c 893e
00000210: 67df d43d 9c5f 423e ee97 c03e 21fc 95be
00000220: dc38 d13e b051 85be ea1f 94be 86a9 2b3e
00000230: 5584 2e3e ebfe 27be 2ad1 8fbe eaa4 0d3c
00000240: 8dd2 c13d d34d 7b3e ab9d b93e f17f ca3e
00000250: ac37 57be 8d81 863e db24 dabd 9487 81bd
00000260: a523 a43d ee4b 733e e403 e2bd 8f4a 33bd
00000270: 6d16 813e ad7d 4e3d 85d8 90be fa8d c1be
00000280: c194 0f3e 016a af3d 12e0 de3e c974 023e
00000290: d54e f7bd 72f5 87be 0350 49be dd46 fd3d
000002a0: 5d29 833e 720b b9be 3abd 86be 28bd 57be
000002b0: 2c87 4c3e 9088 07be b50e a63d 14a4 3fbe
000002c0: ae56 85be 1a23 c13d cddd 4f3e 7b3d 3e3e
000002d0: 20fb c8be 6454 be3b 7619 9cbe 5fc0 74bd
000002e0: 622a f1bd 301c 25be a6fe 983d b815 2cbe
000002f0: 9107 963e 5318 da3e 0164 283e ce73 3a3e
00000300: 71a0 5cbe a405 663e 5db7 dd3d 90d5 bc3e
00000310: c94f ac3e 4f18 cb3e cfa4 88be 1956 373e
00000320: d03c 77be a81f 20be 3c89 893e d6d9 453e
00000330: 963a d1be 5409 68be e024 25be e79a db3d
00000340: e6e8 473e 631b d13e 9a57 143e 853f d3bd
00000350: b2d8 b03d 0145 b8bd 7e05 1fbe 04fa 613e
00000360: 48fa 2f3e 5e27 5ebe f75d 17be d125 a73e
00000370: 154b 173e 574e 9ebd 9bb6 90be e7bb 9b3e
00000380: e621 eb3d c7f9 973e 909f aa3d fea5 7cbe
00000390: fb41 5bbe c0c0 48be e4e1 b33d 377a da3d
000003a0: 670b bebe 4e6c 58be d811 57bd fc0c d33d
000003b0: 4393 d93b 91a6 9abd c70b 6dbe 683d 1cbe
000003c0: ba48 8e3d 5401 d23d 03df 2d3e 19c6 d0be
000003d0: 71de 5b3e 83c8 60be 077e a4bd ae3a 85bd
000003e0: 23c3 d2bd fa05 313e 1380 9cbe 986f 413e
000003f0: 0f2b c63e e793 8a3e 714d 833e 3462 9a3d
0.60139585 0.5661487 0.19604005 -0.11573569 0.15965573 0.44277737 0.6023706 0.5976958
0.57933056 -0.41768712 0.65150356 -0.11425792 -0.3878602 0.5280027 0.46546304 -0.41943547
-0.18222553 -0.30046502 0.32819656 0.69800436 0.6887893 0.43256754 -0.35321364 0.3125784
-0.2708152 0.034652766 0.33291167 0.24297751 -0.23297597 -0.35090292 0.44034404 0.14560124
-0.17349851 -0.48325908 0.28002578 0.26150402 0.7565124 0.3527021 -0.30781052 -0.23244986
-0.29705963 0.26564002 0.2920871 -0.57258964 -0.6331307 -0.23734082 0.47439316 0.072239116
0.10575446 -0.3379866 -0.30184534 0.02991448 0.2140171 -0.003234356 -0.6731643 0.20512806
-0.59447604 0.03579512 -0.3287343 -0.12918858 0.3192375 -0.17304507 0.48958835 0.19680697
0.31847852 0.13755685 0.025316756 0.60755926 0.07750518 0.68742514 0.1123777 0.03996134
-0.051589876 0.017426526 -0.039769143 -0.2579132 0.079341084 0.031185031 -0.24490954 -0.3289601
-0.12186298 0.25364557 0.019691728 0.29102886 0.31327224 -0.0999005 0.36629042 -0.2007142
-0.18964563 0.05839676 0.04483287 0.023081603 -0.0012658059 -0.040136483 0.08606942 -0.19617456
-0.2868631 0.24853948 0.12632562 0.3484603 0.13712624 -0.10436962 -0.09946896 -0.17815685
0.24230711 -0.022333208 -0.053068798 -0.22659186 -0.0700049 0.025752176 -0.10670341 0.09849251
0.0031026457 -0.03518105 0.050670326 0.19427842 0.20225886 0.07728872 0.21189366 -0.40759093
-0.103733 -0.0038068525 -0.14316428 0.005900604 -0.29363668 0.09738663 0.32895172 0.38176706
0.15508035 -0.0812423 0.3597324 0.26791632 0.10394173 0.18981785 0.37615913 -0.29293922
0.40863693 -0.26038885 -0.28930598 0.16763887 0.17042668 -0.16405837 -0.28089267 0.008645276
0.094639875 0.24541406 0.36253104 0.39550737 -0.21017331 0.26270714 -0.10651561 -0.063246876
0.08014611 0.23759434 -0.11035898 -0.043772276 0.25212422 0.050412823 -0.2829019 -0.37803632
0.14021589 0.085651405 0.43530327 0.12739863 -0.12075583 -0.26554447 -0.19659428 0.12367032
0.25617495 -0.36141545 -0.26316243 -0.21068251 0.19973439 -0.13235688 0.08108274 -0.18714935
-0.26042694 0.09430523 0.20299454 0.1857814 -0.39254093 0.0058084 -0.30488175 -0.059753772
-0.11775662 -0.16124034 0.07470445 -0.1680516 0.29302648 0.42596683 0.16444398 0.18208238
-0.21545579 0.22463089 0.108259894 0.36881685 0.3365462 0.39666983 -0.2668824 0.17903937
-0.24144292 -0.15637076 0.26862514 0.19321379 -0.4086501 -0.22659808 -0.16127348 0.10722905
0.19522437 0.40841207 0.14486542 -0.1031485 0.08635081 -0.089975365 -0.15529439 0.2206803
0.17185318 -0.21694705 -0.14781938 0.3264604 0.14774735 -0.07729786 -0.28264317 0.30416796
0.11481075 0.29682752 0.083312154 -0.24672696 -0.21411888 -0.19604778 0.087833196 0.10667842
-0.37118074 -0.21135065 -0.05250725 0.10305211 0.0066398694 -0.07551301 -0.23149024 -0.152578
0.06947465 0.102541596 0.16979603 -0.40776137 0.21471573 -0.21951489 -0.0803185 -0.06505333
-0.102911256 0.17287436 -0.30566463 0.18890226 0.38704726 0.27065966 0.2564502 0.07538262

item_pop f4 [1154, 1]
00000000: 0000 803f 1be4 503f aa91 593f c349 5d3f
00000010: 6069 4e3f 6069 4e3f 548d 4c3f ac27 403f
00000020: 2956 393f 1d7a 373f 308f 2d3f bf3c 363f
00000030: f242 243f d98a 203f b999 283f adbd 263f
00000040: e566 223f 6f71 1d3f e566 223f c70b 113f
00000050: 3125 143f e0c3 143f 385e 083f 0c91 0e3f
00000060: 5df2 0d3f c168 033f da20 073f c168 033f
00000070: 06ee 003f 6476 f53e 7de3 053f 13ca 023f
00000080: 06ee 003f 574f 003f bc10 e93e 4cbe f13e
00000090: 13ca 023f 7d2e f93e 13ca 023f 8ba0 e13e
000000a0: e8dd e23e 38a9 fb3e 7d2e f93e da20 073f
000000b0: bc10 e93e bc10 e93e 14ab dc3e 461b e43e
000000c0: 2d63 e03e a458 e53e 1a4e ea3e 788b eb3e
000000d0: 4078 d63e 461b e43e e8dd e23e e8dd e23e
000000e0: d5c8 ec3e a458 e53e 4078 d63e 5930 da3e
000000f0: 3bd5 c83e 72e8 dd3e 9eb5 d73e 14ab dc3e
00000100: 9812 ca3e 548d cc3e 5930 da3e e33a d53e
00000110: 9812 ca3e dd97 c73e ca82 d13e 548d cc3e
00000120: 4eea be3e d025 df3e 9812 ca3e 85fd d33e
00000130: ac27 c03e ca82 d13e f64f cb3e 0f08 cf3e
00000140: dd97 c73e bf3c b63e 7ab7 b83e dd97 c73e
00000150: 4947 b13e 7ab7 b83e c4df c33e 221d c53e
00000160: d8f4 b93e bf3c b63e 936f bc3e 4eea be3e
00000170: d251 ac3e 04c2 b33e d251 ac3e eb09 b03e
00000180: 61ff b43e 7ab7 b83e 17d7 a93e 3532 bb3e
00000190: 308f ad3e 8dcc ae3e bf3c b63e eb09 b03e
000001a0: a684 b23e fe1e a63e a1e1 a43e eb09 b03e
000001b0: 8dcc ae3e a1e1 a43e 7514 ab3e fe1e a63e
000001c0: 1d7a b73e 9b3e 973e a1e1 a43e 43a4 a33e
000001d0: a1e1 a43e 5c5c a73e fe1e a63e 6f71 9d3e
000001e0: e566 a23e a1e1 a43e a1e1 a43e d251 ac3e
000001f0: cdae 9e3e 9b3e 973e e0c3 943e 1134 9c3e
00000200: b4f6 9a3e 8829 a13e e566 a23e 3d01 963e
00000210: e566 a23e c70b 913e f3d8 8a3e 2549 923e
00000220: c70b 913e 56b9 993e e0c3 943e 9b3e 973e
00000230: ae53 8d3e c70b 913e 9b3e 973e 7de3 853e
00000240: 959b 893e c70b 913e f3d8 8a3e 2549 923e
00000250: 5116 8c3e 385e 883e 5161 7f3e 0c91 8e3e
00000260: c70b 913e 8829 a13e c70b 913e c70b 913e
00000270: ae53 8d3e c168 833e f3d8 8a3e f3d8 8a3e
00000280: 9b3e 973e e0c3 943e 0c91 8e3e 385e 883e
00000290: 2549 923e f3d8 8a3e 642b 823e ae53 8d3e
000002a0: 5161 7f3e e0c3 943e 69ce 8f3e 56b9 993e
000002b0: 642b 823e 959b 893e c168 833e 9b3e 973e
000002c0: 5116 8c3e 1fa6 843e 1fa6 843e 0c91 8e3e
000002d0: 96e6 7c3e 3306 6e3e 5161 7f3e db6b 7a3e
000002e0: 96e6 7c3e ae53 8d3e 385e 883e 788b 6b3e
000002f0: db6b 7a3e 96e6 7c3e 1fa6 843e f3d8 8a3e
00000300: 959b 893e da20 873e b1ca 4d3e 20f1 773e
00000310: 14ab 5c3e 642b 823e c168 833e f3d8 8a3e
00000320: db6b 7a3e d025 5f3e 7de3 853e 5161 7f3e
00000330: bc10 693e bc10 693e d025 5f3e 9eb5 573e
00000340: 5930 5a3e 0196 663e 3306 6e3e d025 5f3e
00000350: 8ba0 613e bc10 693e db6b 7a3e 0196 663e
00000360: 461b 643e 6c45 503e 14ab 5c3e 6c45 503e
00000370: 0196 663e 5930 5a3e 5930 5a3e 461b 643e
00000380: bc10 693e bc10 693e 3bd5 483e e33a 553e
00000390: 3bd5 483e e33a 553e 8ba0 613e 0965 413e
000003a0: 28c0 523e 5930 5a3e 6c45 503e 3bd5 483e
000003b0: 5930 5a3e 0196 663e 6c45 503e 14ab 5c3e
000003c0: 8ba0 613e 28c0 523e 805a 463e e33a 553e
000003d0: d8f4 393e 461b 643e 0965 413e c4df 433e
000003e0: 14ab 5c3e 9eb5 573e 3bd5 483e 6c45 503e
000003f0: 28c0 523e 6c45 503e 61ff 343e 3bd5 483e
1.0 0.8159806 0.8498789 0.86440676 0.8062954 0.8062954 0.7990315 0.75060534
0.72397095 0.71670705 0.6779661 0.7118644 0.6416465 0.62711865 0.6585956 0.6513317
0.63438255 0.6150121 0.63438255 0.56658596 0.5786925 0.5811138 0.53268766 0.55690074
0.5544794 0.51331717 0.527845 0.51331717 0.50363195 0.47941887 0.52300245 0.5108959
0.50363195 0.50121063 0.4552058 0.47215497 0.5108959 0.4866828 0.5108959 0.44067797
0.44309926 0.4915254 0.4866828 0.527845 0.4552058 0.4552058 0.43099272 0.44552058
0.43825665 0.4479419 0.45762712 0.46004844 0.41888618 0.44552058 0.44309926 0.44309926
0.46246973 0.4479419 0.41888618 0.4261501 0.39225182 0.43341404 0.4213075 0.43099272
0.3946731 0.39951575 0.4261501 0.4164649 0.3946731 0.3898305 0.40920097 0.39951575
0.37288135 0.43583536 0.3946731 0.41404358 0.37530267 0.40920097 0.39709443 0.40435836
0.3898305 0.3559322 0.36077482 0.3898305 0.346247 0.36077482 0.38256657 0.3849879
0.36319613 0.3559322 0.36803874 0.37288135 0.33656174 0.3510896 0.33656174 0.34382567
0.3535109 0.36077482 0.33171913 0.36561742 0.33898306 0.34140435 0.3559322 0.34382567
0.34866828 0.3244552 0.3220339 0.34382567 0.34140435 0.3220339 0.33414045 0.3244552
0.35835353 0.29539952 0.3220339 0.3196126 0.3220339 0.32687652 0.3244552 0.30750605
0.31719127 0.3220339 0.3220339 0.33656174 0.30992737 0.29539952 0.2905569 0.30508474
0.30266345 0.31476998 0.31719127 0.2929782 0.31719127 0.28329298 0.27118644 0.2857143
0.28329298 0.30024213 0.2905569 0.29539952 0.27602905 0.28329298 0.29539952 0.26150122
0.26876512 0.28329298 0.27118644 0.2857143 0.27360776 0.26634383 0.24939467 0.27845037
0.28329298 0.31476998 0.28329298 0.28329298 0.27602905 0.25665858 0.27118644 0.27118644
0.29539952 0.2905569 0.27845037 0.26634383 0.2857143 0.27118644 0.2542373 0.27602905
0.24939467 0.2905569 0.28087166 0.30024213 0.2542373 0.26876512 0.25665858 0.29539952
0.27360776 0.2590799 0.2590799 0.27845037 0.24697337 0.23244552 0.24939467 0.24455206
0.24697337 0.27602905 0.26634383 0.23002422 0.24455206 0.24697337 0.2590799 0.27118644
0.26876512 0.2639225 0.20096852 0.24213076 0.21549636 0.2542373 0.25665858 0.27118644
0.24455206 0.21791768 0.26150122 0.24939467 0.2276029 0.2276029 0.21791768 0.21065375
0.21307506 0.2251816 0.23244552 0.21791768 0.22033899 0.2276029 0.24455206 0.2251816
0.22276029 0.20338982 0.21549636 0.20338982 0.2251816 0.21307506 0.21307506 0.22276029
0.2276029 0.2276029 0.19612591 0.20823245 0.19612591 0.20823245 0.22033899 0.18886198
0.20581114 0.21307506 0.20338982 0.19612591 0.21307506 0.2251816 0.20338982 0.21549636
0.22033899 0.20581114 0.1937046 0.20823245 0.18159807 0.22276029 0.18886198 0.19128329
0.21549636 0.21065375 0.19612591 0.20338982 0.20581114 0.20338982 0.17675544 0.19612591

item_pop_true f4 [1154, 1]
00000000: 0000 803f 1be4 503f aa91 593f c349 5d3f
00000010: 6069 4e3f 6069 4e3f 548d 4c3f ac27 403f
00000020: 2956 393f 1d7a 373f 308f 2d3f bf3c 363f
00000030: f242 243f d98a 203f b999 283f adbd 263f
00000040: e566 223f 6f71 1d3f e566 223f c70b 113f
00000050: 3125 143f e0c3 143f 385e 083f 0c91 0e3f
00000060: 5df2 0d3f c168 033f da20 073f c168 033f
00000070: 06ee 003f 6476 f53e 7de3 053f 13ca 023f
00000080: 06ee 003f 574f 003f bc10 e93e 4cbe f13e
00000090: 13ca 023f 7d2e f93e 13ca 023f 8ba0 e13e
000000a0: e8dd e23e 38a9 fb3e 7d2e f93e da20 073f
000000b0: bc10 e93e bc10 e93e 14ab dc3e 461b e43e
000000c0: 2d63 e03e a458 e53e 1a4e ea3e 788b eb3e
000000d0: 4078 d63e 461b e43e e8dd e23e e8dd e23e
000000e0: d5c8 ec3e a458 e53e 4078 d63e 5930 da3e
000000f0: 3bd5 c83e 72e8 dd3e 9eb5 d73e 14ab dc3e
00000100: 9812 ca3e 548d cc3e 5930 da3e e33a d53e
00000110: 9812 ca3e dd97 c73e ca82 d13e 548d cc3e
00000120: 4eea be3e d025 df3e 9812 ca3e 85fd d33e
00000130: ac27 c03e ca82 d13e f64f cb3e 0f08 cf3e
00000140: dd97 c73e bf3c b63e 7ab7 b83e dd97 c73e
00000150: 4947 b13e 7ab7 b83e c4df c33e 221d c53e
00000160: d8f4 b93e bf3c b63e 936f bc3e 4eea be3e
00000170: d251 ac3e 04c2 b33e d251 ac3e eb09 b03e
00000180: 61ff b43e 7ab7 b83e 17d7 a93e 3532 bb3e
00000190: 308f ad3e 8dcc ae3e bf3c b63e eb09 b03e
000001a0: a684 b23e fe1e a63e a1e1 a43e eb09 b03e
000001b0: 8dcc ae3e a1e1 a43e 7514 ab3e fe1e a63e
000001c0: 1d7a b73e 9b3e 973e a1e1 a43e 43a4 a33e
000001d0: a1e1 a43e 5c5c a73e fe1e a63e 6f71 9d3e
000001e0: e566 a23e a1e1 a43e a1e1 a43e d251 ac3e
000001f0: cdae 9e3e 9b3e 973e e0c3 943e 1134 9c3e
00000200: b4f6 9a3e 8829 a13e e566 a23e 3d01 963e
00000210: e566 a23e c70b 913e f3d8 8a3e 2549 923e
00000220: c70b 913e 56b9 993e e0c3 943e 9b3e 973e
00000230: ae53 8d3e c70b 913e 9b3e 973e 7de3 853e
00000240: 959b 893e c70b 913e f3d8 8a3e 2549 923e
00000250: 5116 8c3e 385e 883e 5161 7f3e 0c91 8e3e
00000260: c70b 913e 8829 a13e c70b 913e c70b 913e
00000270: ae53 8d3e c168 833e f3d8 8a3e f3d8 8a3e
00000280: 9b3e 973e e0c3 943e 0c91 8e3e 385e 883e
00000290: 2549 923e f3d8 8a3e 642b 823e ae53 8d3e
000002a0: 5161 7f3e e0c3 943e 69ce 8f3e 56b9 993e
000002b0: 642b 823e 959b 893e c168 833e 9b3e 973e
000002c0: 5116 8c3e 1fa6 843e 1fa6 843e 0c91 8e3e
000002d0: 96e6 7c3e 3306 6e3e 5161 7f3e db6b 7a3e
000002e0: 96e6 7c3e ae53 8d3e 385e 883e 788b 6b3e
000002f0: db6b 7a3e 96e6 7c3e 1fa6 843e f3d8 8a3e
00000300: 959b 893e da20 873e b1ca 4d3e 20f1 773e
00000310: 14ab 5c3e 642b 823e c168 833e f3d8 8a3e
00000320: db6b 7a3e d025 5f3e 7de3 853e 5161 7f3e
00000330: bc10 693e bc10 693e d025 5f3e 9eb5 573e
00000340: 5930 5a3e 0196 663e 3306 6e3e d025 5f3e
00000350: 8ba0 613e bc10 693e db6b 7a3e 0196 663e
00000360: 461b 643e 6c45 503e 14ab 5c3e 6c45 503e
00000370: 0196 663e 5930 5a3e 5930 5a3e 461b 643e
00000380: bc10 693e bc10 693e 3bd5 483e e33a 553e
00000390: 3bd5 483e e33a 553e 8ba0 613e 0965 413e
000003a0: 28c0 523e 5930 5a3e 6c45 503e 3bd5 483e
000003b0: 5930 5a3e 0196 663e 6c45 503e 14ab 5c3e
000003c0: 8ba0 613e 28c0 523e 805a 463e e33a 553e
000003d0: d8f4 393e 461b 643e 0965 413e c4df 433e
000003e0: 14ab 5c3e 9eb5 573e 3bd5 483e 6c45 503e
000003f0: 28c0 523e 6c45 503e 61ff 343e 3bd5 483e
1.0 0.8159806 0.8498789 0.86440676 0.8062954 0.8062954 0.7990315 0.75060534
0.72397095 0.71670705 0.6779661 0.7118644 0.6416465 0.62711865 0.6585956 0.6513317
0.63438255 0.6150121 0.63438255 0.56658596 0.5786925 0.5811138 0.53268766 0.55690074
0.5544794 0.51331717 0.527845 0.51331717 0.50363195 0.47941887 0.52300245 0.5108959
0.50363195 0.50121063 0.4552058 0.47215497 0.5108959 0.4866828 0.5108959 0.44067797
0.44309926 0.4915254 0.4866828 0.527845 0.4552058 0.4552058 0.43099272 0.44552058
0.43825665 0.4479419 0.45762712 0.46004844 0.41888618 0.44552058 0.44309926 0.44309926
0.46246973 0.4479419 0.41888618 0.4261501 0.39225182 0.43341404 0.4213075 0.43099272
0.3946731 0.39951575 0.4261501 0.4164649 0.3946731 0.3898305 0.40920097 0.39951575
0.37288135 0.43583536 0.3946731 0.41404358 0.37530267 0.40920097 0.39709443 0.40435836
0.3898305 0.3559322 0.36077482 0.3898305 0.346247 0.36077482 0.38256657 0.3849879
0.36319613 0.3559322 0.36803874 0.37288135 0.33656174 0.3510896 0.33656174 0.34382567
0.3535109 0.36077482 0.33171913 0.36561742 0.33898306 0.34140435 0.3559322 0.34382567
0.34866828 0.3244552 0.3220339 0.34382567 0.34140435 0.3220339 0.33414045 0.3244552
0.35835353 0.29539952 0.3220339 0.3196126 0.3220339 0.32687652 0.3244552 0.30750605
0.31719127 0.3220339 0.3220339 0.33656174 0.30992737 0.29539952 0.2905569 0.30508474
0.30266345 0.31476998 0.31719127 0.2929782 0.31719127 0.28329298 0.27118644 0.2857143
0.28329298 0.30024213 0.2905569 0.29539952 0.27602905 0.28329298 0.29539952 0.26150122
0.26876512 0.28329298 0.27118644 0.2857143 0.27360776 0.26634383 0.24939467 0.27845037
0.28329298 0.31476998 0.28329298 0.28329298 0.27602905 0.25665858 0.27118644 0.27118644
0.29539952 0.2905569 0.27845037 0.26634383 0.2857143 0.27118644 0.2542373 0.27602905
0.24939467 0.2905569 0.28087166 0.30024213 0.2542373 0.26876512 0.25665858 0.29539952
0.27360776 0.2590799 0.2590799 0.27845037 0.24697337 0.23244552 0.24939467 0.24455206
0.24697337 0.27602905 0.26634383 0.23002422 0.24455206 0.24697337 0.2590799 0.27118644
0.26876512 0.2639225 0.20096852 0.24213076 0.21549636 0.2542373 0.25665858 0.27118644
0.24455206 0.21791768 0.26150122 0.24939467 0.2276029 0.2276029 0.21791768 0.21065375
0.21307506 0.2251816 0.23244552 0.21791768 0.22033899 0.2276029 0.24455206 0.2251816
0.22276029 0.20338982 0.21549636 0.20338982 0.2251816 0.21307506 0.21307506 0.22276029
0.2276029 0.2276029 0.19612591 0.20823245 0.19612591 0.20823245 0.22033899 0.18886198
0.20581114 0.21307506 0.20338982 0.19612591 0.21307506 0.2251816 0.20338982 0.21549636
0.22033899 0.20581114 0.1937046 0.20823245 0.18159807 0.22276029 0.18886198 0.19128329
0.21549636 0.21065375 0.19612591 0.20338982 0.20581114 0.20338982 0.17675544 0.19612591

lr1.weight f4 [1, 63]
00000000: c2ff 703d 71de 883c b30e de3d 0319 3bbe
00000010: c398 0c3e 0c08 ee3c 1cb9 043e 4420 40bc
00000020: 5d17 17bc 08cf e7bd cc4e 9dbc 21ea 33be
00000030: 7987 4fbd ce9d 14bd ed4e 1bbb 3fb2 d83a
00000040: 71ee babd d962 eabd 438f 063d 3612 e2bc
00000050: ed48 4f3c c140 2dbd 0f10 6bbd f356 0a3d
00000060: 77a0 883c 57b7 3bbe 2222 443d e5b1 5e3e
00000070: ed35 b6bd 02d6 bcbd f2b9 a03d 8619 2d3e
00000080: 3440 36bd b528 39bd b348 7b3d 3b26 ba3c
00000090: 5ffa 8c3b 4b47 113e 283a 92bd 0844 98bd
000000a0: 1cd2 833d d27f 813d 0e6b 883d 6b01 9fbc
000000b0: 8b15 6dbc 746d c1bd ef05 5bbd 29f9 9ebe
000000c0: 462b 783e 7200 c6bd dd92 f3bd 1234 b53d
000000d0: 24ff 283e f7a6 243e dc6a 89bc 6ce4 4b3e
000000e0: 686a 713b 0c94 78be c638 9cbb b5fc 1bbe
000000f0: d074 173d ceab 13be 73dc ca3b
0.05883766 0.01670763 0.108426474 -0.1827126 0.13730149 0.029056571 0.12961239 -0.011726443
-0.009221879 -0.11318785 -0.019202612 -0.17569782 -0.050666306 -0.036283307 -0.0023698166 0.0016532614
-0.0912751 -0.11444635 0.03285147 -0.027596574 0.012651664 -0.042298082 -0.05738836 0.033774327
0.016678078 -0.18331657 0.047884114 0.21747549 -0.08897004 -0.09220506 0.07847966 0.16904268
-0.044494823 -0.045204837 0.06134863 0.022723308 0.0043023075 0.14187352 -0.07139999 -0.07434851
0.064365596 0.06323208 0.06661044 -0.019409856 -0.014470468 -0.09444705 -0.053472456 -0.3104947
0.24235258 -0.09668054 -0.11893246 0.08847822 0.16503578 0.16079317 -0.016774587 0.19911355
0.0036837105 -0.24275225 -0.00476751 -0.15233119 0.036976635 -0.14421007 0.0061908304
