pid/result/ml100k-PIDMF-debug2023-03-14-10-32-30/ckpt/epoch_24.pth (torch_old, 543278 bytes, 5 tensors)

users f4 [945, 64]
00000000: d7fa 8e3f cf52 86be 56fb d3be 7eed 6a3e
00000010: b52a 173d 2995 2abe b79b c53e 0b84 abbe
00000020: 109b 07bf 9f1c e0bd 9052 043f 516c a7be
00000030: ff03 c4be 57bd 523e 46e9 123f 7944 17be
00000040: e230 763f 8fd0 d13e ac7a 3f3f fbc5 c03e
00000050: db31 0c3f 5db1 89be 3832 29bf fb8d 9abe
00000060: 1cb5 2a3f 9d4d 293f a378 fdba 80e0 5fbe
00000070: 62d6 1fbf 5d84 0ebf e40b e1be 0742 873d
00000080: 33ca fbbe 3dc0 1dbf ab49 b5be e30a ccbe
00000090: fc9e 10bf cb46 adbb bedc f7be 7f32 3dbf
000000a0: 23d9 d9be 5d09 bb3e 0834 aebe 5640 923d
000000b0: aaa6 5cbf 71e1 2bbf 25b5 2a3f e03a e2bd
000000c0: 09e8 923d 79e5 373e f6db 30bf 5b4e 0ebf
000000d0: cdab 2b3f 5160 5ebf 24ba 82bd 312e 513f
000000e0: 295c d33d 0c17 ec3e 4927 043e 8e8e 553f
000000f0: c22c 893e 3912 dcbe 7eac 18be 356c 083e
00000100: 96d2 013f a52c 82be adc7 043e 3ed6 24bf
00000110: 63b7 41bf f3e9 7abe 5331 223f b402 0a3f
00000120: ddd8 c73d b334 35be e706 4ebd 1eb7 29bf
00000130: ad52 adbd 81b8 e2bc 7d8f a13e dc62 89bd
00000140: f6a7 603e f2e9 f6bc ae1c 8d3e c8e1 ea3e
00000150: b566 333e 76e4 bdbd 6ce2 2a3f 3e2f a9be
00000160: 8181 993e f6f7 8f3f fa56 4fbf 9c07 63bf
00000170: b1a0 55bf c6e2 4ebf c2e3 a73e bec6 5ebf
00000180: 8ea0 383f d29c eb3d a357 943e e2d3 c83e
00000190: 46b0 9cbe 84f8 193d 7ce3 32bf df7a 8fbf
000001a0: 3646 6f3e e94b 5ebe 2040 273f 7df5 aabe
000001b0: 9e35 1f3f e2b8 1bbf 1168 bbbe 05d1 03bf
000001c0: 8f82 453e cc11 69bf 01fc 2b3e e22f 17bf
000001d0: cbcb debe 11c1 4a3e dbe5 d2be 5be6 16bf
000001e0: b542 e93e f59e 223e 8fea abbd f162 da3e
000001f0: 7473 b63d 8cea 453f 833d a9be 9e0f 53be
00000200: 38f2 05bf a6ec 6cbe 8954 cdbe 76f8 74be
00000210: 346b e7bd 790b 113f 3671 033f a476 193c
00000220: b162 a83e f099 4abf b6eb bf3e a962 423c
00000230: 730b 09bf 529c 023f b023 d03e 6a57 9dbe
00000240: 3eec 49bf 0ebf 0fbe 8b9f 5b3f dfae 993e
00000250: a0bc d5be 7baf cb3e ac1c 2abf a9c6 373e
00000260: 2afc 70be 3d37 583f 702a 9c3c e517 46bf
00000270: 9954 ccbd c9a1 88be 6822 a0be 663b 36bf
00000280: 6739 24bf 9b05 c0bc ba86 49bf 3c6c c2bd
00000290: a3ef 243f 979f 013e 45ef 8abe 7c13 42bf
000002a0: d47f e03e 9bf1 df3d 030c afbe 0d65 04bf
000002b0: eafd 38bf 5b36 193e ad95 ea3e 9715 6fbf
000002c0: 7981 583e 1733 393e e83e 06be 478b da3d
000002d0: dd8e 53bf 4226 1ebd 37f0 d53e 4186 b3be
000002e0: 0824 c1be c944 783e 4623 6f3e fc2f 6b3d
000002f0: b89e 223e 9b91 273f ed8e c5be 454a ef3d
00000300: 4ea2 ff3e 1941 d4be 1d19 2a3f 0d1d f7bd
00000310: def3 32bf 7305 773d cc26 703f f05a 36be
00000320: 8872 2a3e 6cd5 0b3e df5d 513f ed80 49bf
00000330: 7d48 833c 4154 9f3e 6906 273f cb63 71be
00000340: f74e e33e a241 313c 31b9 c33e 8017 a5bd
00000350: 777e d6bd 73b3 fbbe ef00 00bf f343 3dbe
00000360: 8592 22bf 4a57 88be a2a3 5c3f 3aa8 19bf
00000370: 4093 683e dd9e 15be 3d62 3d3f baeb da3e
00000380: cdca 203f 5d3a 2abf 71af 8abe b931 a0be
00000390: b96b abbd b21a 22bf 071b 1abc a0af 613e
000003a0: ff90 04bf e9a6 cb3d 1fd2 cb3d 2df4 043e
000003b0: 807f 3bbf d726 da3c 11b2 d93e 2c39 ef3c
000003c0: c4fc 293e ddc4 223e 2f85 04be 2169 13bf
000003d0: 1483 b03f 0181 47bf 5b62 b53e a260 40bf
000003e0: 7fd6 13be f624 e13e 99a7 5b3e c282 f93e
000003f0: 3d67 16be 6df0 8b3e 2e51 193e 34b5 c73d
1.11703 -0.26235053 -0.41402692 0.22942159 0.036905963 -0.16658463 0.38595363 -0.33499178
-0.5297098 -0.10942959 0.5168848 -0.32699826 -0.382843 0.2058004 0.57387197 -0.14772214
0.9616834 0.4097943 0.7479656 0.37651047 0.54763573 -0.2689313 -0.6609225 -0.30186448
0.666826 0.66134053 -0.0019338321 -0.21862984 -0.624365 -0.5567072 -0.43954384 0.066043906
-0.49177703 -0.6162146 -0.35407767 -0.39852056 -0.5649259 -0.00528798 -0.484106 -0.73905176
-0.42548475 0.3653058 -0.34024072 0.07141177 -0.8619181 -0.6714087 0.66682655 -0.11046386
0.071731634 0.1795863 -0.69085634 -0.5558831 0.6705902 -0.8686572 -0.0638316 0.8171111
0.103203125 0.46111333 0.12905611 0.83420646 0.2679196 -0.42982653 -0.1490955 0.13322528
0.50711954 -0.25424686 0.12966795 -0.6438941 -0.7567045 -0.24503307 0.6335651 0.53910375
0.0975816 -0.17695884 -0.05029955 -0.6629504 -0.08463035 -0.027675869 0.31554785 -0.06708309
0.21939072 -0.03014085 0.27560943 0.45875382 0.17519648 -0.09272091 0.6675174 -0.33043855
0.29981616 1.1247547 -0.8099209 -0.88683486 -0.8344832 -0.8081478 0.32790953 -0.87022007
0.72119987 0.115045205 0.28973112 0.39224154 -0.30603236 0.03759052 -0.69878364 -1.1209372
0.23366627 -0.21708645 0.6533222 -0.33390418 0.6219119 -0.60828984 -0.36602834 -0.51490813
0.19288085 -0.9104278 0.1679535 -0.5905744 -0.43514857 0.19800211 -0.4119099 -0.58945245
0.45558706 0.1588095 -0.08394348 0.4265361 0.0890874 0.77311015 -0.33054742 -0.20611426
-0.5232272 -0.23137149 -0.40103558 -0.23922905 -0.11299744 0.5665813 0.5134462 0.009366665
0.32887796 -0.7914114 0.3748452 0.011864343 -0.53533095 0.51019776 0.40652227 -0.30730754
-0.788761 -0.14037725 0.8579032 0.3001623 -0.41745472 0.39782318 -0.6645 0.17946877
-0.23533693 0.84459287 0.019063205 -0.7738021 -0.09977073 -0.26685932 -0.3127625 -0.71184385
-0.6415009 -0.023440173 -0.787212 -0.094933 0.64428157 0.12658535 -0.27135673 -0.7581098
0.43847525 0.109347545 -0.34188852 -0.5171669 -0.7226244 0.14962141 0.4581732 -0.9339232
0.2114314 0.18085895 -0.13109934 0.10671096 -0.8263987 -0.038610704 0.41784832 -0.35063365
-0.37722802 0.2424499 0.233533 0.05741881 0.15880859 0.6545655 -0.38585606 0.11684088
0.49928516 -0.41455916 0.6644457 -0.12066088 -0.6990336 0.06030793 0.938092 -0.17808127
0.16645253 0.13655633 0.8178386 -0.7871235 0.016025776 0.31118968 0.65244156 -0.23573224
0.44396183 0.010818871 0.38227227 -0.08061123 -0.1047334 -0.49160346 -0.50001425 -0.18482952
-0.6350482 -0.26629096 0.86187184 -0.6002232 0.22712421 -0.14611383 0.73978025 0.4275797
0.6280945 -0.66495305 -0.27086976 -0.31287935 -0.08370156 -0.63321984 -0.009405858 0.22039652
-0.51783746 0.09943945 0.09952187 0.1298377 -0.73241425 0.026629848 0.42518666 0.029202066
0.16600329 0.1589541 -0.1294143 -0.5758229 1.3790002 -0.7793122 0.35426602 -0.7514745
-0.14437293 0.4397351 0.21450652 0.48732573 -0.1468782 0.27331868 0.14972374 0.09751359

items_id f4 [1154, 63]
00000000: b4e1 093f 6a1c 083f 6421 2a3e acc5 e5bd
00000010: aea3 da3d 5f91 d63e 0a53 ea3e d5c5 013f
00000020: 7b91 073f 2d41 c0be fcb8 123f 9435 d8bd
00000030: 1453 abbe 5603 ec3e 125e d53e 56b6 c1be
00000040: 54a5 c8bd 0a88 86be 8a5e 983e e0e1 203f
00000050: 65a9 103f a2c7 bc3e 77fc 9cbe 1c51 753e
00000060: bb29 72be afc4 f63c a1ea 983e c122 663e
00000070: 6ab9 5dbe dc05 a2be 739c c53e 5c9f 043e
00000080: eaec 0cbe d055 d4be 1d09 653e 0461 663e
00000090: 2d19 343f 2cf5 983e c2ce 93be dc10 47be
000000a0: f707 76be 577f 7e3e f1b9 8c3e 8a96 06bf
000000b0: d1db 07bf e153 68be ab50 d93e 535d 303d
000000c0: e065 be3d 998e 9bbe b26d 90be 78d0 473d
000000d0: f208 4d3e 891a 01bd 49c8 1ebf 6fb4 583e
000000e0: 9707 09bf 8e12 ca3b aa82 98be 20a2 05be
000000f0: f8c3 8e3e 7047 20be 29fa c93e 14e4 283e
00000100: 761d 863e 1bfb 123e 5aaf 1fbd b53d e53e
00000110: ad9f 9b3d f942 033f 3ea9 8a3d cb01 493d
00000120: 5241 66bd a897 a5bb ba6a e0bc eecc 62be
00000130: 4c5c 063d eb63 0a3b 6867 49be 53ec 7ebe
00000140: e8fe 03be f8e6 623e 1148 6b3c f8bf 803e
00000150: 9a81 833e 350e 95bd 87f6 9c3e fe20 43be
00000160: fe57 48be 5348 723d d876 e53c c545 3b3c
00000170: c749 8e3c b069 84bc 314c c53d f3ab 32be
00000180: 64c4 7fbe 0ae1 473e c95b dc3d fbdc 973e
00000190: c0b9 083e c0b6 99bd 37c2 a6bd eaa6 f4bd
000001a0: 0706 673e 5517 c2bc 4fd8 9dbd 994e 5dbe
000001b0: 7f6b 8fbd 7e7e f63b 48e1 f7bd e880 b03d
000001c0: 9316 11bc 30ff 0bbd 91ed 103d 00a1 493e
000001d0: 0750 673e 8936 8b3d d80f 4b3e 050f a5be
000001e0: 8c4b ffbd 4f04 a13c 199a fbbd 5c2f 84bc
000001f0: 47f9 7ebe 888e 573d e0ca 9a3e 2f9f ab3e
00000200: 76df 0e3e 8a4b 0abe 48e3 9c3e db76 773e
00000210: ecaa 1c3e 69f0 ef3d 7586 b53e bf6c 89be
00000220: 58f4 b83e 8aba 81be 9650 83be 96db ef3d
00000230: 8006 183e 9a5f e0bd 0084 37be 50a1 b7ba
00000240: 4b8a 683d a604 473e 5bd8 963e 2aa2 5a3e
00000250: 6a2b 38be f829 503e b8d8 a8bd 70fb 4bbd
00000260: d299 3d3d a0d9 663e 8621 a6bd b3d6 a1bc
00000270: 5bd6 6f3e 3b22 dc3c 4ccc 80be c068 a4be
00000280: df9c f63d 6b01 853d a959 b23e 78c4 9b3d
00000290: bccb adbd 8285 70be 1e8b 04be 05ce 953d
000002a0: 9b4d 713e d46b 99be 6185 6ebe f58f 53be
000002b0: 65c0 ff3d ae63 08be ed50 a93d cd7b 43be
000002c0: c8ac 7cbe 51b9 8e3d 2d48 483e efcc 303e
000002d0: 5890 b7be 6f87 2dbb dee8 63be cf65 2abd
000002e0: e9cd bfbd 7fa5 17be f9fa 323d 036d 07be
000002f0: 0817 873e eedc be3e e1b4 f83d abb4 183e
00000300: 13c4 82be 96ea 513e 6f70 943d 4658 a13e
00000310: f384 953e 8166 b03e af10 7cbe 7a51 f53d
00000320: 372d 67be 5cdd 03be 85f1 733e 296f 1a3e
00000330: 5956 a0be 4e56 49be a2c1 20be 9efd 9b3d
00000340: c017 133e 78c8 ac3e a5a6 ca3d 414f 8cbd
00000350: 1f94 5f3d 0105 a2bd 5878 1cbe c135 3f3e
00000360: e131 263e e5c6 57be b5c7 fcbd ef6b 953e
00000370: 46ec f53d 7499 39bd 8187 6fbe 0b2f 8a3e
00000380: a94a a03d a702 5e3e c5cb 313d 6b9c 62be
00000390: b4da 3dbe 797b 14be 6a25 893d e231 b03d
000003a0: 7eca aebe c72b 0fbe e02b 10bd db8f 843d
000003b0: 6730 b6bc cf79 61bd 528d 5bbe 7047 06be
000003c0: 805f 9e3d 704d ad3d a50c 343e 52fc bbbe
000003d0: 3ab1 573e 6a61 2ebe 9d7e a3bd 5200 0dbd
000003e0: d644 aebd ac2b 0f3e a1cd 7cbe afe5 133e
000003f0: 021e a33e 5b6b 533e a3cc 743e 5400 49bc
0.5386002 0.53168356 0.166143 -0.112193435 0.10675751 0.41907784 0.4576648 0.5069249
0.5295636 -0.37549725 0.57313514 -0.10557094 -0.3346182 0.46096295 0.41673332 -0.37834424
-0.09797159 -0.26275665 0.29759628 0.6284466 0.56508476 0.36871058 -0.30661365 0.23956722
-0.23648731 0.030123083 0.29866508 0.22474195 -0.21652761 -0.31645095 0.38595924 0.12951416
-0.1376225 -0.4147172 0.22366758 0.22497946 0.70350915 0.2987455 -0.2886868 -0.19440025
-0.24026476 0.24853264 0.27485612 -0.52573454 -0.5306979 -0.22688247 0.42444357 0.04305775
0.09296775 -0.3038223 -0.2820869 0.048782796 0.20022944 -0.031519447 -0.6202436 0.2116258
-0.53527206 0.0061667627 -0.2978719 -0.13050127 0.27883887 -0.15652251 0.3944867 0.16493255
0.26194352 0.14353602 -0.038985588 0.4477364 0.07598815 0.5127407 0.06770562 0.049073976
-0.056214638 -0.005053479 -0.027394641 -0.22148487 0.032802865 0.0021116685 -0.19668353 -0.24894838
-0.12890208 0.2215842 0.014360444 0.2514646 0.25684816 -0.072781004 0.30656835 -0.19055554
-0.19564816 0.059151005 0.02801077 0.011430209 0.017369164 -0.016163677 0.09633673 -0.17448406
-0.24977261 0.1951944 0.10759694 0.29660782 0.13352108 -0.0750556 -0.08142512 -0.11945899
0.22560893 -0.023692766 -0.07707273 -0.21612014 -0.07002925 0.0075224033 -0.12103516 0.08618337
-0.00885548 -0.034178913 0.03538281 0.19690323 0.22589122 0.06797511 0.19830263 -0.32238021
-0.12465581 0.019655375 -0.12285251 -0.016135864 -0.2489978 0.052626163 0.30232906 0.33519885
0.13952431 -0.13505378 0.30642152 0.24166434 0.15299577 0.117157765 0.35454145 -0.2684078
0.3612392 -0.2533763 -0.2564742 0.117118046 0.1484623 -0.109557346 -0.17921448 -0.0014009867
0.05677251 0.19435367 0.2946194 0.21350923 -0.17985311 0.2032851 -0.08244461 -0.049800336
0.046289273 0.22543955 -0.08111863 -0.019755697 0.23421614 0.026871791 -0.25155866 -0.32111168
0.120416395 0.06494411 0.3483403 0.07605833 -0.08486125 -0.23488429 -0.12943694 0.07314686
0.2356476 -0.2996508 -0.23293068 -0.20660384 0.12487868 -0.13319275 0.082673885 -0.19090195
-0.24675286 0.0696894 0.19558783 0.17265676 -0.35852313 -0.002647843 -0.222568 -0.041601
-0.09365446 -0.14809225 0.043696377 -0.13225178 0.2638476 0.3727793 0.12143875 0.1491267
-0.25540218 0.20499644 0.072480075 0.3151266 0.29202995 0.34453204 -0.2461574 0.11978431
-0.22575842 -0.1287741 0.23822601 0.15081467 -0.31315878 -0.19661829 -0.15698865 0.07616733
0.14364529 0.33746696 0.09895066 -0.06851054 0.05458462 -0.07911111 -0.15280282 0.18672849
0.16229965 -0.21071966 -0.123427786 0.2918391 0.12007956 -0.04531236 -0.23391534 0.26989016
0.0782674 0.216807 0.04340722 -0.22129981 -0.1854046 -0.14500226 0.06696589 0.086032644
-0.34138864 -0.13981543 -0.035198092 0.06472751 -0.022239877 -0.055047806 -0.21440628 -0.13113189
0.07733059 0.08462036 0.17582949 -0.36715943 0.210637 -0.17029348 -0.07983134 -0.034424134
-0.08509223 0.13981503 -0.24687816 0.14443086 0.31858832 0.20646422 0.23906188 -0.012268145

item_pop f4 [1154, 1]
00000000: 0000 803f 1be4 503f aa91 593f c349 5d3f
00000010: 6069 4e3f 6069 4e3f 548d 4c3f ac27 403f
00000020: 2956 393f 1d7a 373f 308f 2d3f bf3c 363f
00000030: f242 243f d98a 203f b999 283f adbd 263f
00000040: e566 223f 6f71 1d3f e566 223f c70b 113f
00000050: 3125 143f e0c3 143f 385e 083f 0c91 0e3f
00000060: 5df2 0d3f c168 033f da20 073f c168 033f
00000070: 06ee 003f 6476 f53e 7de3 053f 13ca 023f
00000080: 06ee 003f 574f 003f bc10 e93e 4cbe f13e
00000090: 13ca 023f 7d2e f93e 13ca 023f 8ba0 e13e
000000a0: e8dd e23e 38a9 fb3e 7d2e f93e da20 073f
000000b0: bc10 e93e bc10 e93e 14ab dc3e 461b e43e
000000c0: 2d63 e03e a458 e53e 1a4e ea3e 788b eb3e
000000d0: 4078 d63e 461b e43e e8dd e23e e8dd e23e
000000e0: d5c8 ec3e a458 e53e 4078 d63e 5930 da3e
000000f0: 3bd5 c83e 72e8 dd3e 9eb5 d73e 14ab dc3e
00000100: 9812 ca3e 548d cc3e 5930 da3e e33a d53e
00000110: 9812 ca3e dd97 c73e ca82 d13e 548d cc3e
00000120: 4eea be3e d025 df3e 9812 ca3e 85fd d33e
00000130: ac27 c03e ca82 d13e f64f cb3e 0f08 cf3e
00000140: dd97 c73e bf3c b63e 7ab7 b83e dd97 c73e
00000150: 4947 b13e 7ab7 b83e c4df c33e 221d c53e
00000160: d8f4 b93e bf3c b63e 936f bc3e 4eea be3e
00000170: d251 ac3e 04c2 b33e d251 ac3e eb09 b03e
00000180: 61ff b43e 7ab7 b83e 17d7 a93e 3532 bb3e
00000190: 308f ad3e 8dcc ae3e bf3c b63e eb09 b03e
000001a0: a684 b23e fe1e a63e a1e1 a43e eb09 b03e
000001b0: 8dcc ae3e a1e1 a43e 7514 ab3e fe1e a63e
000001c0: 1d7a b73e 9b3e 973e a1e1 a43e 43a4 a33e
000001d0: a1e1 a43e 5c5c a73e fe1e a63e 6f71 9d3e
000001e0: e566 a23e a1e1 a43e a1e1 a43e d251 ac3e
000001f0: cdae 9e3e 9b3e 973e e0c3 943e 1134 9c3e
00000200: b4f6 9a3e 8829 a13e e566 a23e 3d01 963e
00000210: e566 a23e c70b 913e f3d8 8a3e 2549 923e
00000220: c70b 913e 56b9 993e e0c3 943e 9b3e 973e
00000230: ae53 8d3e c70b 913e 9b3e 973e 7de3 853e
00000240: 959b 893e c70b 913e f3d8 8a3e 2549 923e
00000250: 5116 8c3e 385e 883e 5161 7f3e 0c91 8e3e
00000260: c70b 913e 8829 a13e c70b 913e c70b 913e
00000270: ae53 8d3e c168 833e f3d8 8a3e f3d8 8a3e
00000280: 9b3e 973e e0c3 943e 0c91 8e3e 385e 883e
00000290: 2549 923e f3d8 8a3e 642b 823e ae53 8d3e
000002a0: 5161 7f3e e0c3 943e 69ce 8f3e 56b9 993e
000002b0: 642b 823e 959b 893e c168 833e 9b3e 973e
000002c0: 5116 8c3e 1fa6 843e 1fa6 843e 0c91 8e3e
000002d0: 96e6 7c3e 3306 6e3e 5161 7f3e db6b 7a3e
000002e0: 96e6 7c3e ae53 8d3e 385e 883e 788b 6b3e
000002f0: db6b 7a3e 96e6 7c3e 1fa6 843e f3d8 8a3e
00000300: 959b 893e da20 873e b1ca 4d3e 20f1 773e
00000310: 14ab 5c3e 642b 823e c168 833e f3d8 8a3e
00000320: db6b 7a3e d025 5f3e 7de3 853e 5161 7f3e
00000330: bc10 693e bc10 693e d025 5f3e 9eb5 573e
00000340: 5930 5a3e 0196 663e 3306 6e3e d025 5f3e
00000350: 8ba0 613e bc10 693e db6b 7a3e 0196 663e
00000360: 461b 643e 6c45 503e 14ab 5c3e 6c45 503e
00000370: 0196 663e 5930 5a3e 5930 5a3e 461b 643e
00000380: bc10 693e bc10 693e 3bd5 483e e33a 553e
00000390: 3bd5 483e e33a 553e 8ba0 613e 0965 413e
000003a0: 28c0 523e 5930 5a3e 6c45 503e 3bd5 483e
000003b0: 5930 5a3e 0196 663e 6c45 503e 14ab 5c3e
000003c0: 8ba0 613e 28c0 523e 805a 463e e33a 553e
000003d0: d8f4 393e 461b 643e 0965 413e c4df 433e
000003e0: 14ab 5c3e 9eb5 573e 3bd5 483e 6c45 503e
000003f0: 28c0 523e 6c45 503e 61ff 343e 3bd5 483e
1.0 0.8159806 0.8498789 0.86440676 0.8062954 0.8062954 0.7990315 0.75060534
0.72397095 0.71670705 0.6779661 0.7118644 0.6416465 0.62711865 0.6585956 0.6513317
0.63438255 0.6150121 0.63438255 0.56658596 0.5786925 0.5811138 0.53268766 0.55690074
0.5544794 0.51331717 0.527845 0.51331717 0.50363195 0.47941887 0.52300245 0.5108959
0.50363195 0.50121063 0.4552058 0.47215497 0.5108959 0.4866828 0.5108959 0.44067797
0.44309926 0.4915254 0.4866828 0.527845 0.4552058 0.4552058 0.43099272 0.44552058
0.43825665 0.4479419 0.45762712 0.46004844 0.41888618 0.44552058 0.44309926 0.44309926
0.46246973 0.4479419 0.41888618 0.4261501 0.39225182 0.43341404 0.4213075 0.43099272
0.3946731 0.39951575 0.4261501 0.4164649 0.3946731 0.3898305 0.40920097 0.39951575
0.37288135 0.43583536 0.3946731 0.41404358 0.37530267 0.40920097 0.39709443 0.40435836
0.3898305 0.3559322 0.36077482 0.3898305 0.346247 0.36077482 0.38256657 0.3849879
0.36319613 0.3559322 0.36803874 0.37288135 0.33656174 0.3510896 0.33656174 0.34382567
0.3535109 0.36077482 0.33171913 0.36561742 0.33898306 0.34140435 0.3559322 0.34382567
0.34866828 0.3244552 0.3220339 0.34382567 0.34140435 0.3220339 0.33414045 0.3244552
0.35835353 0.29539952 0.3220339 0.3196126 0.3220339 0.32687652 0.3244552 0.30750605
0.31719127 0.3220339 0.3220339 0.33656174 0.30992737 0.29539952 0.2905569 0.30508474
0.30266345 0.31476998 0.31719127 0.2929782 0.31719127 0.28329298 0.27118644 0.2857143
0.28329298 0.30024213 0.2905569 0.29539952 0.27602905 0.28329298 0.29539952 0.26150122
0.26876512 0.28329298 0.27118644 0.2857143 0.27360776 0.26634383 0.24939467 0.27845037
0.28329298 0.31476998 0.28329298 0.28329298 0.27602905 0.25665858 0.27118644 0.27118644
0.29539952 0.2905569 0.27845037 0.26634383 0.2857143 0.27118644 0.2542373 0.27602905
0.24939467 0.2905569 0.28087166 0.30024213 0.2542373 0.26876512 0.25665858 0.29539952
0.27360776 0.2590799 0.2590799 0.27845037 0.24697337 0.23244552 0.24939467 0.24455206
0.24697337 0.27602905 0.26634383 0.23002422 0.24455206 0.24697337 0.2590799 0.27118644
0.26876512 0.2639225 0.20096852 0.24213076 0.21549636 0.2542373 0.25665858 0.27118644
0.24455206 0.21791768 0.26150122 0.24939467 0.2276029 0.2276029 0.21791768 0.21065375
0.21307506 0.2251816 0.23244552 0.21791768 0.22033899 0.2276029 0.24455206 0.2251816
0.22276029 0.20338982 0.21549636 0.20338982 0.2251816 0.21307506 0.21307506 0.22276029
0.2276029 0.2276029 0.19612591 0.20823245 0.19612591 0.20823245 0.22033899 0.18886198
0.20581114 0.21307506 0.20338982 0.19612591 0.21307506 0.2251816 0.20338982 0.21549636
0.22033899 0.20581114 0.1937046 0.20823245 0.18159807 0.22276029 0.18886198 0.19128329
0.21549636 0.21065375 0.19612591 0.20338982 0.20581114 0.20338982 0.17675544 0.19612591

item_pop_true f4 [1154, 1]
00000000: 0000 803f 1be4 503f aa91 593f c349 5d3f
00000010: 6069 4e3f 6069 4e3f 548d 4c3f ac27 403f
00000020: 2956 393f 1d7a 373f 308f 2d3f bf3c 363f
00000030: f242 243f d98a 203f b999 283f adbd 263f
00000040: e566 223f 6f71 1d3f e566 223f c70b 113f
00000050: 3125 143f e0c3 143f 385e 083f 0c91 0e3f
00000060: 5df2 0d3f c168 033f da20 073f c168 033f
00000070: 06ee 003f 6476 f53e 7de3 053f 13ca 023f
00000080: 06ee 003f 574f 003f bc10 e93e 4cbe f13e
00000090: 13ca 023f 7d2e f93e 13ca 023f 8ba0 e13e
000000a0: e8dd e23e 38a9 fb3e 7d2e f93e da20 073f
000000b0: bc10 e93e bc10 e93e 14ab dc3e 461b e43e
000000c0: 2d63 e03e a458 e53e 1a4e ea3e 788b eb3e
000000d0: 4078 d63e 461b e43e e8dd e23e e8dd e23e
000000e0: d5c8 ec3e a458 e53e 4078 d63e 5930 da3e
000000f0: 3bd5 c83e 72e8 dd3e 9eb5 d73e 14ab dc3e
00000100: 9812 ca3e 548d cc3e 5930 da3e e33a d53e
00000110: 9812 ca3e dd97 c73e ca82 d13e 548d cc3e
00000120: 4eea be3e d025 df3e 9812 ca3e 85fd d33e
00000130: ac27 c03e ca82 d13e f64f cb3e 0f08 cf3e
00000140: dd97 c73e bf3c b63e 7ab7 b83e dd97 c73e
00000150: 4947 b13e 7ab7 b83e c4df c33e 221d c53e
00000160: d8f4 b93e bf3c b63e 936f bc3e 4eea be3e
00000170: d251 ac3e 04c2 b33e d251 ac3e eb09 b03e
00000180: 61ff b43e 7ab7 b83e 17d7 a93e 3532 bb3e
00000190: 308f ad3e 8dcc ae3e bf3c b63e eb09 b03e
000001a0: a684 b23e fe1e a63e a1e1 a43e eb09 b03e
000001b0: 8dcc ae3e a1e1 a43e 7514 ab3e fe1e a63e
000001c0: 1d7a b73e 9b3e 973e a1e1 a43e 43a4 a33e
000001d0: a1e1 a43e 5c5c a73e fe1e a63e 6f71 9d3e
000001e0: e566 a23e a1e1 a43e a1e1 a43e d251 ac3e
000001f0: cdae 9e3e 9b3e 973e e0c3 943e 1134 9c3e
00000200: b4f6 9a3e 8829 a13e e566 a23e 3d01 963e
00000210: e566 a23e c70b 913e f3d8 8a3e 2549 923e
00000220: c70b 913e 56b9 993e e0c3 943e 9b3e 973e
00000230: ae53 8d3e c70b 913e 9b3e 973e 7de3 853e
00000240: 959b 893e c70b 913e f3d8 8a3e 2549 923e
00000250: 5116 8c3e 385e 883e 5161 7f3e 0c91 8e3e
00000260: c70b 913e 8829 a13e c70b 913e c70b 913e
00000270: ae53 8d3e c168 833e f3d8 8a3e f3d8 8a3e
00000280: 9b3e 973e e0c3 943e 0c91 8e3e 385e 883e
00000290: 2549 923e f3d8 8a3e 642b 823e ae53 8d3e
000002a0: 5161 7f3e e0c3 943e 69ce 8f3e 56b9 993e
000002b0: 642b 823e 959b 893e c168 833e 9b3e 973e
000002c0: 5116 8c3e 1fa6 843e 1fa6 843e 0c91 8e3e
000002d0: 96e6 7c3e 3306 6e3e 5161 7f3e db6b 7a3e
000002e0: 96e6 7c3e ae53 8d3e 385e 883e 788b 6b3e
000002f0: db6b 7a3e 96e6 7c3e 1fa6 843e f3d8 8a3e
00000300: 959b 893e da20 873e b1ca 4d3e 20f1 773e
00000310: 14ab 5c3e 642b 823e c168 833e f3d8 8a3e
00000320: db6b 7a3e d025 5f3e 7de3 853e 5161 7f3e
00000330: bc10 693e bc10 693e d025 5f3e 9eb5 573e
00000340: 5930 5a3e 0196 663e 3306 6e3e d025 5f3e
00000350: 8ba0 613e bc10 693e db6b 7a3e 0196 663e
00000360: 461b 643e 6c45 503e 14ab 5c3e 6c45 503e
00000370: 0196 663e 5930 5a3e 5930 5a3e 461b 643e
00000380: bc10 693e bc10 693e 3bd5 483e e33a 553e
00000390: 3bd5 483e e33a 553e 8ba0 613e 0965 413e
000003a0: 28c0 523e 5930 5a3e 6c45 503e 3bd5 483e
000003b0: 5930 5a3e 0196 663e 6c45 503e 14ab 5c3e
000003c0: 8ba0 613e 28c0 523e 805a 463e e33a 553e
000003d0: d8f4 393e 461b 643e 0965 413e c4df 433e
000003e0: 14ab 5c3e 9eb5 573e 3bd5 483e 6c45 503e
000003f0: 28c0 523e 6c45 503e 61ff 343e 3bd5 483e
1.0 0.8159806 0.8498789 0.86440676 0.8062954 0.8062954 0.7990315 0.75060534
0.72397095 0.71670705 0.6779661 0.7118644 0.6416465 0.62711865 0.6585956 0.6513317
0.63438255 0.6150121 0.63438255 0.56658596 0.5786925 0.5811138 0.53268766 0.55690074
0.5544794 0.51331717 0.527845 0.51331717 0.50363195 0.47941887 0.52300245 0.5108959
0.50363195 0.50121063 0.4552058 0.47215497 0.5108959 0.4866828 0.5108959 0.44067797
0.44309926 0.4915254 0.4866828 0.527845 0.4552058 0.4552058 0.43099272 0.44552058
0.43825665 0.4479419 0.45762712 0.46004844 0.41888618 0.44552058 0.44309926 0.44309926
0.46246973 0.4479419 0.41888618 0.4261501 0.39225182 0.43341404 0.4213075 0.43099272
0.3946731 0.39951575 0.4261501 0.4164649 0.3946731 0.3898305 0.40920097 0.39951575
0.37288135 0.43583536 0.3946731 0.41404358 0.37530267 0.40920097 0.39709443 0.40435836
0.3898305 0.3559322 0.36077482 0.3898305 0.346247 0.36077482 0.38256657 0.3849879
0.36319613 0.3559322 0.36803874 0.37288135 0.33656174 0.3510896 0.33656174 0.34382567
0.3535109 0.36077482 0.33171913 0.36561742 0.33898306 0.34140435 0.3559322 0.34382567
0.34866828 0.3244552 0.3220339 0.34382567 0.34140435 0.3220339 0.33414045 0.3244552
0.35835353 0.29539952 0.3220339 0.3196126 0.3220339 0.32687652 0.3244552 0.30750605
0.31719127 0.3220339 0.3220339 0.33656174 0.30992737 0.29539952 0.2905569 0.30508474
0.30266345 0.31476998 0.31719127 0.2929782 0.31719127 0.28329298 0.27118644 0.2857143
0.28329298 0.30024213 0.2905569 0.29539952 0.27602905 0.28329298 0.29539952 0.26150122
0.26876512 0.28329298 0.27118644 0.2857143 0.27360776 0.26634383 0.24939467 0.27845037
0.28329298 0.31476998 0.28329298 0.28329298 0.27602905 0.25665858 0.27118644 0.27118644
0.29539952 0.2905569 0.27845037 0.26634383 0.2857143 0.27118644 0.2542373 0.27602905
0.24939467 0.2905569 0.28087166 0.30024213 0.2542373 0.26876512 0.25665858 0.29539952
0.27360776 0.2590799 0.2590799 0.27845037 0.24697337 0.23244552 0.24939467 0.24455206
0.24697337 0.27602905 0.26634383 0.23002422 0.24455206 0.24697337 0.2590799 0.27118644
0.26876512 0.2639225 0.20096852 0.24213076 0.21549636 0.2542373 0.25665858 0.27118644
0.24455206 0.21791768 0.26150122 0.24939467 0.2276029 0.2276029 0.21791768 0.21065375
0.21307506 0.2251816 0.23244552 0.21791768 0.22033899 0.2276029 0.24455206 0.2251816
0.22276029 0.20338982 0.21549636 0.20338982 0.2251816 0.21307506 0.21307506 0.22276029
0.2276029 0.2276029 0.19612591 0.20823245 0.19612591 0.20823245 0.22033899 0.18886198
0.20581114 0.21307506 0.20338982 0.19612591 0.21307506 0.2251816 0.20338982 0.21549636
0.22033899 0.20581114 0.1937046 0.20823245 0.18159807 0.22276029 0.18886198 0.19128329
0.21549636 0.21065375 0.19612591 0.20338982 0.20581114 0.20338982 0.17675544 0.19612591

lr1.weight f4 [1, 63]
00000000: 14fb 703d 7905 ae3c 79dd dd3d 822d 49be
00000010: 7977 1f3e b617 0c3d 5f8d 173e c29d ddbb
00000020: 1eff a13b 14f0 f9bd 2acb 4ebc f744 2dbe
00000030: f6b2 4ebd 740c f9bc 6792 ec3a 10b8 30bc
00000040: c2fb c1bd 80d2 f4bd 6039 fd3c 5c27 ddbc
00000050: 992c b03c acb5 46bd 2e50 81bd 7b70 143d
00000060: 7b0b 153c 78e4 49be 3561 643d 3a91 703e
00000070: e35f a8bd f3c0 c7bd d327 9e3d 9cd6 4c3e
00000080: 8d0a 5ebd 4a24 3cbd d15e 9e3d 5f73 203d
00000090: 0aa3 9e3b 0ac7 163e 52c9 9dbd f95f 93bd
000000a0: 024e 833d b6b3 803d 474b 973d 49be 8bbc
000000b0: 6f33 93bc c1f9 03be f10e 5dbd 6637 a7be
000000c0: 5f43 863e eceb d9bd 48f1 06be 788c c83d
000000d0: 0536 2b3e bb36 363e 8e10 b6bc 7e92 5e3e
000000e0: d7c2 4dba 8768 85be 3623 25bc 2d5f 25be
000000f0: 105b f53c 0193 19be 265a ff3b
0.058833197 0.021242844 0.10833258 -0.19646266 0.15572919 0.0342023 0.14800023 -0.006763191
0.0049437424 -0.122039944 -0.01262168 -0.16920839 -0.05046364 -0.030401446 0.0018049002 -0.010786071
-0.09471847 -0.11954212 0.030911148 -0.026996307 0.02150564 -0.0485131 -0.06314121 0.036240082
0.009096975 -0.1971606 0.055756766 0.234929 -0.08221414 -0.09753599 0.077224396 0.20003742
-0.05420928 -0.045933045 0.077329285 0.039172526 0.004841213 0.14724365 -0.077044144 -0.0719604
0.06411363 0.06284277 0.07387405 -0.017058508 -0.017968861 -0.12888242 -0.053969327 -0.32659453
0.26223275 -0.10640702 -0.13177979 0.09792417 0.16719826 0.17794316 -0.02222469 0.2173557
-0.0007849163 -0.2605631 -0.010079196 -0.16149588 0.029950649 -0.14997484 0.007792729
