pid/result/ml100k-PIDMF-debug2023-03-14-10-32-30/ckpt/epoch_46.pth (torch_old, 543278 bytes, 5 tensors)

users f4 [945, 64]
1.5590634 -0.27019086 -0.6058077 0.3127585 0.10141427 -0.18053995 0.4910747 -0.49986774
-0.62404144 -0.12561001 0.6266296 -0.3583464 -0.52132195 0.27345583 0.7845556 -0.21191697
1.233989 0.52523005 0.863939 0.46180195 0.7384207 -0.29137662 -0.87786835 -0.36580983
0.8652072 0.9347036 -0.032129914 -0.20354182 -0.7562835 -0.6863356 -0.58047396 0.14352404
-0.74259144 -0.6924965 -0.63017887 -0.7101999 -0.8625974 0.008232214 -0.6413077 -1.0692425
-0.40352148 0.62606424 -0.4866356 0.04427803 -1.1709359 -0.725871 0.7164988 -0.15083261
0.20423067 0.22863129 -0.9956422 -0.76084954 0.9153949 -0.9528964 -0.060450256 0.89401674
0.23911306 0.47007492 0.24956936 1.102775 0.34153202 -0.5421543 -0.1796183 0.18006432
0.576153 -0.27869162 0.15402412 -0.76229894 -0.8018924 -0.42567223 0.97595733 0.8540874
0.07626361 -0.11286051 -0.059031766 -0.93148345 -0.07631895 0.04159969 0.37048045 -0.20373398
0.179605 0.10355099 0.27539113 0.52155393 0.21395698 -0.021535529 0.83731496 -0.3825472
0.33634028 1.2447964 -0.93227583 -1.046246 -1.0536898 -1.1619498 0.377815 -1.0096658
0.7872711 0.01819408 0.47924894 0.58047247 -0.36643773 0.22080767 -0.89557695 -1.4481192
0.19613594 -0.27874133 0.7313476 -0.27284184 0.8179381 -0.7389253 -0.43693167 -0.65972024
0.22777219 -1.123859 0.31239212 -0.9193436 -0.5789259 0.3480968 -0.45093465 -0.9270449
0.5361702 0.1985979 -0.020301338 0.47243324 0.06967566 0.87853926 -0.452489 -0.16021006
-0.74604964 -0.46456596 -0.48647442 -0.34055763 -0.15443836 0.7771684 0.43761173 0.038738836
0.3854805 -1.0303795 0.51159847 0.04563986 -0.632006 0.5648163 0.45159343 -0.4105101
-1.0141631 -0.12541097 1.2877002 0.47074515 -0.5427893 0.51027876 -0.81831264 0.09288001
-0.24109548 1.1399754 -0.1307725 -0.95116246 -0.2545636 -0.3110164 -0.39349854 -0.8520169
-1.00722 -0.031855524 -1.1229337 -0.171781 0.9554188 0.14867748 -0.27203345 -0.9721362
0.6562386 0.086731605 -0.6013951 -0.7069674 -0.8987746 0.113455355 0.59259456 -1.2406838
0.23981315 0.24745594 -0.31119478 0.2729265 -1.2029711 -0.12254333 0.46075422 -0.35573274
-0.38986486 0.21978067 0.36037508 -0.2040342 0.05752479 0.7694497 -0.45932746 0.09419024
0.6834464 -0.5263363 0.9387533 -0.18726833 -0.98155767 -0.010295662 1.1976175 -0.32777253
0.20212491 0.28287843 1.0257422 -1.0788968 0.053535163 0.21316043 0.67121917 -0.3430356
0.55164665 0.22144355 0.5821601 -0.23575701 -0.14324471 -0.41436714 -0.57989025 -0.43351442
-0.81919986 -0.37752828 1.0329995 -0.716268 0.20131707 -0.22437236 1.0650865 0.5998561
1.0003462 -1.0437002 -0.29294106 -0.42803898 -0.13933118 -0.87519777 0.058355037 0.3414189
-0.564585 0.12529896 0.10870894 0.17786057 -0.8757544 -0.013944337 0.4919916 -0.026091227
0.3953207 0.3051149 -0.074359916 -0.62268114 1.7688717 -1.1305637 0.44729444 -0.8707157
-0.3001431 0.5121531 0.24141784 0.5483219 -0.22265817 0.2793826 0.21057157 0.12438533
00000000: 648f c73f 7556 8abe 3716 1bbf e221 a03e
00000010: 49b2 cf3d 77df 38be 256e fb3e aaee ffbe
00000020: 2ec1 1fbf e99f 00be cc6a 203f 2e79 b7be
00000030: 5b75 05bf 6702 8c3e a3d8 483f c300 59be
00000040: 5af3 9d3f 7a75 063f 1b2b 5d3f 4e71 ec3e
00000050: 2409 3d3f 512f 95be fbbb 60bf 6d4b bbbe
00000060: 387e 5d3f bc48 6f3f a89a 03bd 446d 50be
00000070: cc9b 41bf b1b3 2fbf f199 14bf f7f7 123e
00000080: 791a 3ebf 7347 31bf 6753 21bf a9cf 35bf
00000090: 2fd3 5cbf 68e0 063c be2c 24bf f0dc 88bf
000000a0: 5e9a cebe bf45 203f 4d28 f9be e15c 353d
000000b0: 3ae1 95bf afd2 39bf 776c 373f dd73 1abe
000000c0: d821 513e 521e 6a3e 68e2 7ebf 09c7 42bf
000000d0: 5257 6a3f 05f1 73bf b09a 77bd 48de 643f
000000e0: 0eda 743e a9ad f03e 1c8f 7f3e bb27 8d3f
000000f0: 49dd ae3e a0ca 0abf dced 37be c862 383e
00000100: c37e 133f abb0 8ebe 80b8 1d3e 0626 43bf
00000110: d248 4dbf b6f1 d9be 57d8 793f 79a5 5a3f
00000120: 1830 9c3d 6923 e7bd 4bcb 71bd b375 6ebf
00000130: 1c4d 9cbd 7064 2a3d 9daf bd3e a49f 50be
00000140: 60ea 373e 8b12 d43d 1100 8d3e 8f84 053f
00000150: 8a17 5b3e 476b b0bc 465a 563f 3add c3be
00000160: cb34 ac3e 7d55 9f3f a1a9 6ebf 64eb 85bf
00000170: 4fdf 86bf c5ba 94bf f870 c13e bb3c 81bf
00000180: 998a 493f c00b 953c 1e60 f53e d899 143f
00000190: ba9d bbbe 681b 623e 8844 65bf f85b b9bf
000001a0: dcd7 483e 2fb7 8ebe 9939 3b3f edb1 8bbe
000001b0: 6464 513f 352a 3dbf 82b5 dfbe 6de3 28bf
000001c0: 1d3d 693e 9dda 8fbf dcf1 9f3e 1a5a 6bbf
000001d0: 7d34 14bf be39 b23e e8e0 e6be d152 6dbf
000001e0: 7342 093f 3f5d 4b3e fe4e a6bc c5e2 f13e
000001f0: 1db2 8e3d f3e7 603f a3ac e7be 1b0e 24be
00000200: 1cfd 3ebf 97db edbe 2d13 f9be 925d aebe
00000210: 1725 1ebe 82f4 463f a50e e03e 9dac 1e3d
00000220: b35d c53e 7ae3 83bf 1ef8 023f ddf0 3a3d
00000230: 25cb 21bf cd97 103f 4137 e73e 612e d2be
00000240: 19d0 81bf bc6b 00be 5cd3 a43f 8205 f13e
00000250: 3df4 0abf a1a1 023f f07c 51bf e037 be3d
00000260: bce1 76be b7ea 913f 3ae9 05be 627f 73bf
00000270: 2956 82be 8b3d 9fbe a478 c9be c81d 5abf
00000280: 96ec 80bf f07a 02bd 4bbc 8fbf 5ce7 2fbe
00000290: 5496 743f e93e 183e f847 8bbe ebdd 78bf
000002a0: 41ff 273f 57a0 b13d 07f5 19bf d1fb 34bf
000002b0: 1816 66bf 485b e83d 47b4 173f bace 9ebf
000002c0: 9491 753e 1765 7d3e ec54 9fbe 06bd 8b3e
000002d0: f5fa 99bf fff7 fabd fae7 eb3e 9a22 b6be
000002e0: 5e9c c7be 2f0e 613e 1583 b83e 57ee 50be
000002f0: 1d9f 6b3d a8fa 443f f82c ebbe d0e6 c03d
00000300: 58f6 2e3f fabd 06bf 2352 703f 45c3 3fbe
00000310: 5d47 7bbf 23af 28bc 884b 993f cdd1 a7be
00000320: d5f9 4e3e 71d5 903e 854b 833f 4a19 8abf
00000330: b047 5b3d ba46 5a3e 05d5 2b3f 5da2 afbe
00000340: b738 0d3f 19c2 623e 7208 153f 496a 71be
00000350: beae 12be ee27 d4be b073 14bf 9af5 ddbe
00000360: 15b7 51bf 634b c1be 5439 843f 575d 37bf
00000370: 1026 4e3e dec1 65be c154 883f 2b90 193f
00000380: 580b 803f f897 85bf 5ffc 95be ed27 dbbe
00000390: d5ac 0ebe f60c 60bf b105 6f3d 75ce ae3e
000003a0: a488 10bf 5f4e 003e cba2 de3d 1521 363e
000003b0: 7131 60bf ca76 64bc 53e6 fb3e 45bd d5bc
000003c0: 7a67 ca3e 0538 9c3e 034a 98bd 0868 1fbf
000003d0: 636a e23f 50b6 90bf c703 e53e 39e7 5ebf
000003e0: 5bac 99be 771c 033f 3d36 773e d35e 0c3f
000003f0: 8100 64be 3c0b 8f3e 13a0 573e bcbd fe3d

items_id f4 [1154, 63]
0.6027437 0.5657131 0.19763644 -0.11767294 0.17016892 0.4452962 0.618582 0.60976774
0.57997155 -0.42082387 0.6569406 -0.1130359 -0.3921551 0.5340096 0.46812412 -0.42184997
-0.19107665 -0.30389276 0.3278712 0.70084256 0.7017021 0.43825385 -0.35679075 0.3203363
-0.2711682 0.034769885 0.33431923 0.24399734 -0.23327872 -0.35302517 0.44381857 0.1490214
-0.17494163 -0.4870647 0.28597844 0.2631654 0.7540594 0.35757306 -0.3061571 -0.23448414
-0.29965758 0.26623812 0.2904381 -0.5722834 -0.6372157 -0.23818816 0.47958547 0.075234696
0.10735057 -0.3391668 -0.30268615 0.029091042 0.21457854 0.00030118812 -0.6705308 0.20382826
-0.6017094 0.03838786 -0.3298269 -0.12751633 0.32303783 -0.17506157 0.4960757 0.20183843
0.324981 0.13761255 0.02921929 0.6195529 0.078523204 0.7001964 0.118611276 0.03977343
-0.051898804 0.019849127 -0.04099894 -0.26120868 0.0845791 0.034693982 -0.24942283 -0.33359793
-0.12251249 0.25504312 0.024062755 0.29581764 0.31449676 -0.10206887 0.3719106 -0.20151435
-0.18818524 0.05779009 0.04615126 0.02415917 -0.0027047186 -0.040977694 0.08540703 -0.19808593
-0.2904306 0.25436744 0.12744308 0.353015 0.13597809 -0.10675201 -0.102150805 -0.18262608
0.24460849 -0.021340214 -0.053284436 -0.2266941 -0.070896335 0.027628968 -0.10432076 0.100050695
0.0030219166 -0.035864864 0.052535743 0.19399822 0.19907144 0.07285648 0.21396656 -0.414366
-0.10280938 -0.006093187 -0.14493349 0.00836472 -0.29468325 0.10196168 0.33134317 0.38687977
0.15522113 -0.07622553 0.3660821 0.2699076 0.094592154 0.19397971 0.37981075 -0.29482308
0.41126308 -0.26179406 -0.29136112 0.1708868 0.17327516 -0.16926225 -0.28893948 0.008801244
0.09651386 0.2504527 0.36819407 0.40976778 -0.21262841 0.26969087 -0.108567625 -0.06425611
0.08347851 0.23872395 -0.11278702 -0.04560438 0.25318575 0.053779896 -0.28653464 -0.38084325
0.14184244 0.08747246 0.44201195 0.13236503 -0.124160185 -0.2679198 -0.2038967 0.128029
0.25802195 -0.36756632 -0.265946 -0.21085322 0.20583099 -0.13270777 0.080707274 -0.1877651
-0.2622497 0.09847 0.2037688 0.18679245 -0.3961462 0.0076677357 -0.31312957 -0.060544904
-0.11898682 -0.16258666 0.075124145 -0.17019646 0.2966555 0.42923185 0.16833796 0.18399417
-0.20887874 0.22564097 0.111791655 0.3763506 0.34016946 0.4005358 -0.26699716 0.17866167
-0.24280755 -0.15782331 0.26853195 0.19671927 -0.41773048 -0.22956124 -0.16142426 0.11004869
0.1982252 0.41478893 0.15476485 -0.105621845 0.08662351 -0.0903853 -0.15476502 0.22275281
0.17381206 -0.21784331 -0.14935826 0.32761914 0.15089698 -0.078894965 -0.2860138 0.3061365
0.11706501 0.30267832 0.08669779 -0.24731888 -0.21557671 -0.20012355 0.08867671 0.10829913
-0.3717785 -0.21481177 -0.053673103 0.10532747 0.00848985 -0.07590831 -0.23211685 -0.1546223
0.071021564 0.10450786 0.16865972 -0.4106103 0.2144102 -0.2199747 -0.08135642 -0.068675116
-0.10554833 0.17419988 -0.3145825 0.19432245 0.3959139 0.2747332 0.25799465 0.08044798
00000000: 694d 1a3f 93d2 103f 3561 4a3e 83fe f0bd
00000010: c340 2e3e ddfd e33e 645b 1e3f bd19 1c3f
00000020: 0479 143f 3a76 d7be 422d 283f 5e7f e7bd
00000030: 8ec8 c8be dab4 083f f7ad ef3e b8fc d7be
00000040: 99a9 43be d597 9bbe bcde a73e 6b6a 333f
00000050: c0a2 333f cf62 e03e 47ad b6be 1f03 a43e
00000060: 8fd6 8abe de6a 0e3d e42b ab3e 70da 793e
00000070: 9ee0 6ebe b7bf b4be 303c e33e 1199 183e
00000080: e623 33be 8b60 f9be c46b 923e 9ebd 863e
00000090: 090a 413f d113 b73e a0c0 9cbe 9c1c 70be
000000a0: b86c 99be 5d50 883e 4db4 943e 2a81 12bf
000000b0: 9120 23bf 99e7 73be 3a8c f53e a614 9a3d
000000c0: 9eda db3d 45a7 adbe aef9 9abe 5650 ee3c
000000d0: 7aba 5b3e c9e8 9d39 e8a7 2bbf 5bb8 503e
000000e0: a109 1abf 973c 1d3d 12df a8be a493 02be
000000f0: 3765 a53e 5743 33be a2fd fd3e bcae 4e3e
00000100: e963 a63e 4eea 0c3e 4b5d ef3c 059b 1e3f
00000110: c6d0 a03d 1240 333f 78ea f23d 77e9 223d
00000120: d793 54bd a39a a23c 81ee 27bd 25bd 85be
00000130: cf37 ad3d 471b 0e3d b368 7fbe 59cd aabe
00000140: d4e7 fabd 0395 823e 411f c53c 6975 973e
00000150: b805 a13e 7c09 d1bd 116b be3e c759 4ebe
00000160: a2b3 40be 4db5 6c3d 1b09 3d3d 74e9 c53c
00000170: a641 31bb 3ad8 27bd e2e9 ae3d 0ad7 4abe
00000180: 52b3 94be 733c 823e 7080 023e 62be b43e
00000190: d73d 0b3e cca0 dabd 7134 d1bd 5502 3bbe
000001a0: a67a 7a3e acd1 aebc c840 5abd 8022 68be
000001b0: 1932 91bd 2556 e23c 1fa6 d5bd 61e7 cc3d
000001c0: 590b 463b 09e7 12bd b82f 573d 78a7 463e
000001d0: 62d9 4b3e c735 953d 0d1a 5b3e c827 d4be
000001e0: b98d d2bd 5ba9 c7bb 7269 14be 2e0c 093c
000001f0: b9e0 96be 49d1 d03d d0a5 a93e 1b15 c63e
00000200: 4af2 1e3e 211c 9cbd 1d6f bb3e 5431 8a3e
00000210: 88b9 c13d 9ea2 463e 8e76 c23e 0df3 96be
00000220: 1391 d23e df09 86be 492d 95be f3fc 2e3e
00000230: 0b6f 313e 1553 2dbe e0ef 93be 1833 103c
00000240: 0fa9 c53d 563b 803e ef83 bc3e 15cd d13e
00000250: 43bb 59be ec14 8a3e b458 debd b598 83bd
00000260: c8f6 aa3d 0d74 743e e2fc e6bd a9cb 3abd
00000270: 90a1 813e 4f48 5c3d abb4 92be e3fd c2be
00000280: 253f 113e c324 b33d 644f e23e b38a 073e
00000290: b247 febd c92c 89be 4cca 50be 091a 033e
000002a0: 741b 843e a731 bcbe 132a 88be e8e9 57be
000002b0: 5cc5 523e 8ce4 07be db49 a53d 7f45 40be
000002c0: 9845 86be a4aa c93d c5a8 503e 8546 3f3e
000002d0: add3 cabe a141 fb3b 8552 a0be effd 77bd
000002e0: 5daf f3bd 1e7d 26be b0da 993d fb47 2ebe
000002f0: 3be3 973e 47c4 db3e c960 2c3e f868 3c3e
00000300: 4fe4 55be 6d0e 673e 06f3 e43d 07b1 c03e
00000310: b12a ae3e 0713 cd3e dab3 88be 16f3 363e
00000320: 8ba2 78be 6f9c 21be 057d 893e c770 493e
00000330: c5e0 d5be 1a12 6bbe 674c 25be 3561 e13d
00000340: 8cfb 4a3e 375f d43e ad7a 1e3e 4450 d8bd
00000350: ab67 b13d ee1b b9bd b97a 1ebe 5019 643e
00000360: cafb 313e 5112 5fbe 5ff1 18be b2bd a73e
00000370: bd84 1a3e af93 a1bd 6770 92be ecbd 9c3e
00000380: c8bf ef3d a7f8 9a3e 9c8e b13d 2941 7dbe
00000390: 24c0 5cbe 30ed 4cbe 239c b53d efcb dd3d
000003a0: c059 bebe 9ef7 5bbe 54d8 5bbd eeb5 d73d
000003b0: 0319 0b3c d175 9bbd 0ab0 6dbe 4f55 1ebe
000003c0: c173 913d 3808 d63d 22b5 2c3e 833b d2be
000003d0: 598e 5b3e 0c41 61be 329e a6bd 8aa5 8cbd
000003e0: b929 d8bd 7461 323e f510 a1be 77fc 463e
000003f0: 3ab5 ca3e d4a9 8c3e e017 843e e9c1 a43d

item_pop f4 [1154, 1]
1.0 0.8159806 0.8498789 0.86440676 0.8062954 0.8062954 0.7990315 0.75060534
0.72397095 0.71670705 0.6779661 0.7118644 0.6416465 0.62711865 0.6585956 0.6513317
0.63438255 0.6150121 0.63438255 0.56658596 0.5786925 0.5811138 0.53268766 0.55690074
0.5544794 0.51331717 0.527845 0.51331717 0.50363195 0.47941887 0.52300245 0.5108959
0.50363195 0.50121063 0.4552058 0.47215497 0.5108959 0.4866828 0.5108959 0.44067797
0.44309926 0.4915254 0.4866828 0.527845 0.4552058 0.4552058 0.43099272 0.44552058
0.43825665 0.4479419 0.45762712 0.46004844 0.41888618 0.44552058 0.44309926 0.44309926
0.46246973 0.4479419 0.41888618 0.4261501 0.39225182 0.43341404 0.4213075 0.43099272
0.3946731 0.39951575 0.4261501 0.4164649 0.3946731 0.3898305 0.40920097 0.39951575
0.37288135 0.43583536 0.3946731 0.41404358 0.37530267 0.40920097 0.39709443 0.40435836
0.3898305 0.3559322 0.36077482 0.3898305 0.346247 0.36077482 0.38256657 0.3849879
0.36319613 0.3559322 0.36803874 0.37288135 0.33656174 0.3510896 0.33656174 0.34382567
0.3535109 0.36077482 0.33171913 0.36561742 0.33898306 0.34140435 0.3559322 0.34382567
0.34866828 0.3244552 0.3220339 0.34382567 0.34140435 0.3220339 0.33414045 0.3244552
0.35835353 0.29539952 0.3220339 0.3196126 0.3220339 0.32687652 0.3244552 0.30750605
0.31719127 0.3220339 0.3220339 0.33656174 0.30992737 0.29539952 0.2905569 0.30508474
0.30266345 0.31476998 0.31719127 0.2929782 0.31719127 0.28329298 0.27118644 0.2857143
0.28329298 0.30024213 0.2905569 0.29539952 0.27602905 0.28329298 0.29539952 0.26150122
0.26876512 0.28329298 0.27118644 0.2857143 0.27360776 0.26634383 0.24939467 0.27845037
0.28329298 0.31476998 0.28329298 0.28329298 0.27602905 0.25665858 0.27118644 0.27118644
0.29539952 0.2905569 0.27845037 0.26634383 0.2857143 0.27118644 0.2542373 0.27602905
0.24939467 0.2905569 0.28087166 0.30024213 0.2542373 0.26876512 0.25665858 0.29539952
0.27360776 0.2590799 0.2590799 0.27845037 0.24697337 0.23244552 0.24939467 0.24455206
0.24697337 0.27602905 0.26634383 0.23002422 0.24455206 0.24697337 0.2590799 0.27118644
0.26876512 0.2639225 0.20096852 0.24213076 0.21549636 0.2542373 0.25665858 0.27118644
0.24455206 0.21791768 0.26150122 0.24939467 0.2276029 0.2276029 0.21791768 0.21065375
0.21307506 0.2251816 0.23244552 0.21791768 0.22033899 0.2276029 0.24455206 0.2251816
0.22276029 0.20338982 0.21549636 0.20338982 0.2251816 0.21307506 0.21307506 0.22276029
0.2276029 0.2276029 0.19612591 0.20823245 0.19612591 0.20823245 0.22033899 0.18886198
0.20581114 0.21307506 0.20338982 0.19612591 0.21307506 0.2251816 0.20338982 0.21549636
0.22033899 0.20581114 0.1937046 0.20823245 0.18159807 0.22276029 0.18886198 0.19128329
0.21549636 0.21065375 0.19612591 0.20338982 0.20581114 0.20338982 0.17675544 0.19612591
00000000: 0000 803f 1be4 503f aa91 593f c349 5d3f
00000010: 6069 4e3f 6069 4e3f 548d 4c3f ac27 403f
00000020: 2956 393f 1d7a 373f 308f 2d3f bf3c 363f
00000030: f242 243f d98a 203f b999 283f adbd 263f
00000040: e566 223f 6f71 1d3f e566 223f c70b 113f
00000050: 3125 143f e0c3 143f 385e 083f 0c91 0e3f
00000060: 5df2 0d3f c168 033f da20 073f c168 033f
00000070: 06ee 003f 6476 f53e 7de3 053f 13ca 023f
00000080: 06ee 003f 574f 003f bc10 e93e 4cbe f13e
00000090: 13ca 023f 7d2e f93e 13ca 023f 8ba0 e13e
000000a0: e8dd e23e 38a9 fb3e 7d2e f93e da20 073f
000000b0: bc10 e93e bc10 e93e 14ab dc3e 461b e43e
000000c0: 2d63 e03e a458 e53e 1a4e ea3e 788b eb3e
000000d0: 4078 d63e 461b e43e e8dd e23e e8dd e23e
000000e0: d5c8 ec3e a458 e53e 4078 d63e 5930 da3e
000000f0: 3bd5 c83e 72e8 dd3e 9eb5 d73e 14ab dc3e
00000100: 9812 ca3e 548d cc3e 5930 da3e e33a d53e
00000110: 9812 ca3e dd97 c73e ca82 d13e 548d cc3e
00000120: 4eea be3e d025 df3e 9812 ca3e 85fd d33e
00000130: ac27 c03e ca82 d13e f64f cb3e 0f08 cf3e
00000140: dd97 c73e bf3c b63e 7ab7 b83e dd97 c73e
00000150: 4947 b13e 7ab7 b83e c4df c33e 221d c53e
00000160: d8f4 b93e bf3c b63e 936f bc3e 4eea be3e
00000170: d251 ac3e 04c2 b33e d251 ac3e eb09 b03e
00000180: 61ff b43e 7ab7 b83e 17d7 a93e 3532 bb3e
00000190: 308f ad3e 8dcc ae3e bf3c b63e eb09 b03e
000001a0: a684 b23e fe1e a63e a1e1 a43e eb09 b03e
000001b0: 8dcc ae3e a1e1 a43e 7514 ab3e fe1e a63e
000001c0: 1d7a b73e 9b3e 973e a1e1 a43e 43a4 a33e
000001d0: a1e1 a43e 5c5c a73e fe1e a63e 6f71 9d3e
000001e0: e566 a23e a1e1 a43e a1e1 a43e d251 ac3e
000001f0: cdae 9e3e 9b3e 973e e0c3 943e 1134 9c3e
00000200: b4f6 9a3e 8829 a13e e566 a23e 3d01 963e
00000210: e566 a23e c70b 913e f3d8 8a3e 2549 923e
00000220: c70b 913e 56b9 993e e0c3 943e 9b3e 973e
00000230: ae53 8d3e c70b 913e 9b3e 973e 7de3 853e
00000240: 959b 893e c70b 913e f3d8 8a3e 2549 923e
00000250: 5116 8c3e 385e 883e 5161 7f3e 0c91 8e3e
00000260: c70b 913e 8829 a13e c70b 913e c70b 913e
00000270: ae53 8d3e c168 833e f3d8 8a3e f3d8 8a3e
00000280: 9b3e 973e e0c3 943e 0c91 8e3e 385e 883e
00000290: 2549 923e f3d8 8a3e 642b 823e ae53 8d3e
000002a0: 5161 7f3e e0c3 943e 69ce 8f3e 56b9 993e
000002b0: 642b 823e 959b 893e c168 833e 9b3e 973e
000002c0: 5116 8c3e 1fa6 843e 1fa6 843e 0c91 8e3e
000002d0: 96e6 7c3e 3306 6e3e 5161 7f3e db6b 7a3e
000002e0: 96e6 7c3e ae53 8d3e 385e 883e 788b 6b3e
000002f0: db6b 7a3e 96e6 7c3e 1fa6 843e f3d8 8a3e
00000300: 959b 893e da20 873e b1ca 4d3e 20f1 773e
00000310: 14ab 5c3e 642b 823e c168 833e f3d8 8a3e
00000320: db6b 7a3e d025 5f3e 7de3 853e 5161 7f3e
00000330: bc10 693e bc10 693e d025 5f3e 9eb5 573e
00000340: 5930 5a3e 0196 663e 3306 6e3e d025 5f3e
00000350: 8ba0 613e bc10 693e db6b 7a3e 0196 663e
00000360: 461b 643e 6c45 503e 14ab 5c3e 6c45 503e
00000370: 0196 663e 5930 5a3e 5930 5a3e 461b 643e
00000380: bc10 693e bc10 693e 3bd5 483e e33a 553e
00000390: 3bd5 483e e33a 553e 8ba0 613e 0965 413e
000003a0: 28c0 523e 5930 5a3e 6c45 503e 3bd5 483e
000003b0: 5930 5a3e 0196 663e 6c45 503e 14ab 5c3e
000003c0: 8ba0 613e 28c0 523e 805a 463e e33a 553e
000003d0: d8f4 393e 461b 643e 0965 413e c4df 433e
000003e0: 14ab 5c3e 9eb5 573e 3bd5 483e 6c45 503e
000003f0: 28c0 523e 6c45 503e 61ff 343e 3bd5 483e

item_pop_true f4 [1154, 1]
1.0 0.8159806 0.8498789 0.86440676 0.8062954 0.8062954 0.7990315 0.75060534
0.72397095 0.71670705 0.6779661 0.7118644 0.6416465 0.62711865 0.6585956 0.6513317
0.63438255 0.6150121 0.63438255 0.56658596 0.5786925 0.5811138 0.53268766 0.55690074
0.5544794 0.51331717 0.527845 0.51331717 0.50363195 0.47941887 0.52300245 0.5108959
0.50363195 0.50121063 0.4552058 0.47215497 0.5108959 0.4866828 0.5108959 0.44067797
0.44309926 0.4915254 0.4866828 0.527845 0.4552058 0.4552058 0.43099272 0.44552058
0.43825665 0.4479419 0.45762712 0.46004844 0.41888618 0.44552058 0.44309926 0.44309926
0.46246973 0.4479419 0.41888618 0.4261501 0.39225182 0.43341404 0.4213075 0.43099272
0.3946731 0.39951575 0.4261501 0.4164649 0.3946731 0.3898305 0.40920097 0.39951575
0.37288135 0.43583536 0.3946731 0.41404358 0.37530267 0.40920097 0.39709443 0.40435836
0.3898305 0.3559322 0.36077482 0.3898305 0.346247 0.36077482 0.38256657 0.3849879
0.36319613 0.3559322 0.36803874 0.37288135 0.33656174 0.3510896 0.33656174 0.34382567
0.3535109 0.36077482 0.33171913 0.36561742 0.33898306 0.34140435 0.3559322 0.34382567
0.34866828 0.3244552 0.3220339 0.34382567 0.34140435 0.3220339 0.33414045 0.3244552
0.35835353 0.29539952 0.3220339 0.3196126 0.3220339 0.32687652 0.3244552 0.30750605
0.31719127 0.3220339 0.3220339 0.33656174 0.30992737 0.29539952 0.2905569 0.30508474
0.30266345 0.31476998 0.31719127 0.2929782 0.31719127 0.28329298 0.27118644 0.2857143
0.28329298 0.30024213 0.2905569 0.29539952 0.27602905 0.28329298 0.29539952 0.26150122
0.26876512 0.28329298 0.27118644 0.2857143 0.27360776 0.26634383 0.24939467 0.27845037
0.28329298 0.31476998 0.28329298 0.28329298 0.27602905 0.25665858 0.27118644 0.27118644
0.29539952 0.2905569 0.27845037 0.26634383 0.2857143 0.27118644 0.2542373 0.27602905
0.24939467 0.2905569 0.28087166 0.30024213 0.2542373 0.26876512 0.25665858 0.29539952
0.27360776 0.2590799 0.2590799 0.27845037 0.24697337 0.23244552 0.24939467 0.24455206
0.24697337 0.27602905 0.26634383 0.23002422 0.24455206 0.24697337 0.2590799 0.27118644
0.26876512 0.2639225 0.20096852 0.24213076 0.21549636 0.2542373 0.25665858 0.27118644
0.24455206 0.21791768 0.26150122 0.24939467 0.2276029 0.2276029 0.21791768 0.21065375
0.21307506 0.2251816 0.23244552 0.21791768 0.22033899 0.2276029 0.24455206 0.2251816
0.22276029 0.20338982 0.21549636 0.20338982 0.2251816 0.21307506 0.21307506 0.22276029
0.2276029 0.2276029 0.19612591 0.20823245 0.19612591 0.20823245 0.22033899 0.18886198
0.20581114 0.21307506 0.20338982 0.19612591 0.21307506 0.2251816 0.20338982 0.21549636
0.22033899 0.20581114 0.1937046 0.20823245 0.18159807 0.22276029 0.18886198 0.19128329
0.21549636 0.21065375 0.19612591 0.20338982 0.20581114 0.20338982 0.17675544 0.19612591
00000000: 0000 803f 1be4 503f aa91 593f c349 5d3f
00000010: 6069 4e3f 6069 4e3f 548d 4c3f ac27 403f
00000020: 2956 393f 1d7a 373f 308f 2d3f bf3c 363f
00000030: f242 243f d98a 203f b999 283f adbd 263f
00000040: e566 223f 6f71 1d3f e566 223f c70b 113f
00000050: 3125 143f e0c3 143f 385e 083f 0c91 0e3f
00000060: 5df2 0d3f c168 033f da20 073f c168 033f
00000070: 06ee 003f 6476 f53e 7de3 053f 13ca 023f
00000080: 06ee 003f 574f 003f bc10 e93e 4cbe f13e
00000090: 13ca 023f 7d2e f93e 13ca 023f 8ba0 e13e
000000a0: e8dd e23e 38a9 fb3e 7d2e f93e da20 073f
000000b0: bc10 e93e bc10 e93e 14ab dc3e 461b e43e
000000c0: 2d63 e03e a458 e53e 1a4e ea3e 788b eb3e
000000d0: 4078 d63e 461b e43e e8dd e23e e8dd e23e
000000e0: d5c8 ec3e a458 e53e 4078 d63e 5930 da3e
000000f0: 3bd5 c83e 72e8 dd3e 9eb5 d73e 14ab dc3e
00000100: 9812 ca3e 548d cc3e 5930 da3e e33a d53e
00000110: 9812 ca3e dd97 c73e ca82 d13e 548d cc3e
00000120: 4eea be3e d025 df3e 9812 ca3e 85fd d33e
00000130: ac27 c03e ca82 d13e f64f cb3e 0f08 cf3e
00000140: dd97 c73e bf3c b63e 7ab7 b83e dd97 c73e
00000150: 4947 b13e 7ab7 b83e c4df c33e 221d c53e
00000160: d8f4 b93e bf3c b63e 936f bc3e 4eea be3e
00000170: d251 ac3e 04c2 b33e d251 ac3e eb09 b03e
00000180: 61ff b43e 7ab7 b83e 17d7 a93e 3532 bb3e
00000190: 308f ad3e 8dcc ae3e bf3c b63e eb09 b03e
000001a0: a684 b23e fe1e a63e a1e1 a43e eb09 b03e
000001b0: 8dcc ae3e a1e1 a43e 7514 ab3e fe1e a63e
000001c0: 1d7a b73e 9b3e 973e a1e1 a43e 43a4 a33e
000001d0: a1e1 a43e 5c5c a73e fe1e a63e 6f71 9d3e
000001e0: e566 a23e a1e1 a43e a1e1 a43e d251 ac3e
000001f0: cdae 9e3e 9b3e 973e e0c3 943e 1134 9c3e
00000200: b4f6 9a3e 8829 a13e e566 a23e 3d01 963e
00000210: e566 a23e c70b 913e f3d8 8a3e 2549 923e
00000220: c70b 913e 56b9 993e e0c3 943e 9b3e 973e
00000230: ae53 8d3e c70b 913e 9b3e 973e 7de3 853e
00000240: 959b 893e c70b 913e f3d8 8a3e 2549 923e
00000250: 5116 8c3e 385e 883e 5161 7f3e 0c91 8e3e
00000260: c70b 913e 8829 a13e c70b 913e c70b 913e
00000270: ae53 8d3e c168 833e f3d8 8a3e f3d8 8a3e
00000280: 9b3e 973e e0c3 943e 0c91 8e3e 385e 883e
00000290: 2549 923e f3d8 8a3e 642b 823e ae53 8d3e
000002a0: 5161 7f3e e0c3 943e 69ce 8f3e 56b9 993e
000002b0: 642b 823e 959b 893e c168 833e 9b3e 973e
000002c0: 5116 8c3e 1fa6 843e 1fa6 843e 0c91 8e3e
000002d0: 96e6 7c3e 3306 6e3e 5161 7f3e db6b 7a3e
000002e0: 96e6 7c3e ae53 8d3e 385e 883e 788b 6b3e
000002f0: db6b 7a3e 96e6 7c3e 1fa6 843e f3d8 8a3e
00000300: 959b 893e da20 873e b1ca 4d3e 20f1 773e
00000310: 14ab 5c3e 642b 823e c168 833e f3d8 8a3e
00000320: db6b 7a3e d025 5f3e 7de3 853e 5161 7f3e
00000330: bc10 693e bc10 693e d025 5f3e 9eb5 573e
00000340: 5930 5a3e 0196 663e 3306 6e3e d025 5f3e
00000350: 8ba0 613e bc10 693e db6b 7a3e 0196 663e
00000360: 461b 643e 6c45 503e 14ab 5c3e 6c45 503e
00000370: 0196 663e 5930 5a3e 5930 5a3e 461b 643e
00000380: bc10 693e bc10 693e 3bd5 483e e33a 553e
00000390: 3bd5 483e e33a 553e 8ba0 613e 0965 413e
000003a0: 28c0 523e 5930 5a3e 6c45 503e 3bd5 483e
000003b0: 5930 5a3e 0196 663e 6c45 503e 14ab 5c3e
000003c0: 8ba0 613e 28c0 523e 805a 463e e33a 553e
000003d0: d8f4 393e 461b 643e 0965 413e c4df 433e
000003e0: 14ab 5c3e 9eb5 573e 3bd5 483e 6c45 503e
000003f0: 28c0 523e 6c45 503e 61ff 343e 3bd5 483e

lr1.weight f4 [1, 63]
0.05864298 0.016558861 0.1081859 -0.18118665 0.13546814 0.028825684 0.12890413 -0.011250204
-0.009717388 -0.11258604 -0.019727021 -0.1763716 -0.050227728 -0.036714546 -0.0026538891 0.0024166848
-0.091175444 -0.11399256 0.033114355 -0.027876148 0.011756318 -0.041509576 -0.05676596 0.033958096
0.017583013 -0.1815925 0.04672986 0.21528363 -0.089683585 -0.091487855 0.078206114 0.16767439
-0.0435892 -0.04516264 0.061084162 0.021715155 0.0043799984 0.14122798 -0.07095974 -0.07438958
0.0640248 0.06330348 0.065994754 -0.019413702 -0.013920736 -0.09283141 -0.05294198 -0.30880675
0.24046127 -0.09596833 -0.1180016 0.08849983 0.16502833 0.15967643 -0.016182136 0.19762726
0.004007142 -0.24061951 -0.0046538855 -0.15226308 0.037280884 -0.14320306 0.006331475
00000000: 9f33 703d 73a6 873c 9290 dd3d fe88 39be
00000010: 29b8 0a3e d723 ec3c 72ff 033e c752 38bc
00000020: ae35 1fbc 8293 e6bd 909a a1bc c29a 34be
00000030: 97bb 4dbd fe61 16bd dfec 2dbb 3e61 1e3b
00000040: 31ba babd ee74 e9bd eba2 073d 855c e4bc
00000050: 929d 403c f205 2abd 6c83 68bd a517 0b3d
00000060: 400a 903c 62f3 39be cf67 3f3d 5073 5c3e
00000070: 07ac b7bd fc5d bbbd 872a a03d d6b2 2b3e
00000080: 978a 32bd 76fc 38bd 6333 7a3d fbe3 b13c
00000090: 1786 8f3b 119e 103e 5753 91bd 9059 98bd
000000a0: 6f1f 833d 41a5 813d 4228 873d 7c09 9fbc
000000b0: cc13 64bc 651e bebd b1d9 58bd eb1b 9ebe
000000c0: 7b3b 763e 0b8b c4bd d3aa f1bd 663f b53d
000000d0: 30fd 283e 3882 233e 6690 84bc cd5e 4a3e
000000e0: 584e 833b f664 76be 9f7f 98bb daea 1bbe
000000f0: d7b3 183d d3a3 12be 4378 cf3b
