pid/result/ml100k-PIDMF-debug2023-03-14-10-32-30/ckpt/epoch_15.pth (torch_old, 543278 bytes, 5 tensors)

users f4 [945, 64]
0	0x3f4a02a2	0.7891027
1	0xbe2af0ef	-0.16693471
2	0xbe792bbd	-0.24333091
3	0x3e73704b	0.23773305
4	0x3cc27d8f	0.023741512
5	0xbdd8509e	-0.105622515
6	0x3e8f97d4	0.28045523
7	0xbe48bd0a	-0.19603363
8	0xbed32b5b	-0.41244015
9	0xbdbd20d3	-0.09234776
10	0x3ec5717d	0.38563147
11	0xbe8697b6	-0.2628762
12	0xbe98108c	-0.29700124
13	0x3e35f97d	0.17770953
14	0x3ee5f71c	0.44915092
15	0xbe2d35c3	-0.1691504
16	0x3f29b3f0	0.6629019
17	0x3eac56ef	0.33660075
18	0x3f1c766d	0.61118203
19	0x3ea26ede	0.3172521
20	0x3eda8c12	0.4268499
21	0xbe0ce900	-0.13760757
22	0xbee96c85	-0.45590606
23	0xbe6ae53b	-0.22939007
24	0x3edec35f	0.4350843
25	0x3eeac33c	0.45852077
26	0x3ced73bd	0.028985852
27	0xbe07bdc9	-0.13255991
28	0xbf03e771	-0.51525027
29	0xbede76ba	-0.43449956
30	0xbea95256	-0.3307063
31	0x3d00b4e2	0.031422503
32	0xbebdc7c2	-0.37066466
33	0xbf05af32	-0.5222045
34	0xbe622480	-0.22084236
35	0xbe6841e2	-0.22681382
36	0xbea31b08	-0.3185656
37	0x3b169904	0.0022979388
38	0xbec15003	-0.37756357
39	0xbefba1b7	-0.49146816
40	0xbec75c99	-0.38937834
41	0x3e7d52e2	0.24738649
42	0xbe4027c5	-0.18765171
43	0x3d3a8325	0.045535225
44	0xbf11e411	-0.56988627
45	0xbf0275d8	-0.50961065
46	0x3f0a4538	0.5401187
47	0x3cba0d57	0.022711439
48	0xbd851d7b	-0.064997636
49	0x3e2e0832	0.16995314
50	0xbef9c778	-0.48784995
51	0xbee59633	-0.44841155
52	0x3ef16b23	0.4715205
53	0xbf26839f	-0.6504459
54	0xbd92ac70	-0.07161796
55	0x3f172a8a	0.59049284
56	0x3d41373f	0.047171827
57	0x3eb13e1e	0.34617704
58	0x3cc50297	0.024049086
59	0x3f0a5809	0.5404058
60	0x3e6263e6	0.2210842
61	0xbecac932	-0.39606625
62	0xbd8bddaf	-0.06829392
63	0x3e009cb2	0.12559775
64	0x3ee747e0	0.45172024
65	0xbe2df876	-0.16989312
66	0x3e0893f5	0.13337691
67	0xbf0183fb	-0.5059201
68	0xbf2c301f	-0.67260927
69	0xbe132ac9	-0.1437179
70	0x3ec2040c	0.37893713
71	0x3eaeb808	0.3412478
72	0x3dace5b6	0.084422514
73	0xbe55b335	-0.20869143
74	0xbd01bbcc	-0.031673238
75	0xbeeccdcd	-0.46250764
76	0xbdcc4bf4	-0.099754244
77	0xbcf10b8a	-0.029424448
78	0x3e8e9f3d	0.27855864
79	0x3ba49418	0.005022537
80	0x3e7e28c6	0.24820241
81	0xbdeaaa69	-0.114582844
82	0x3e6bb4fe	0.23018262
83	0x3ed3e51e	0.4138574
84	0x3e1448e7	0.14480935
85	0xbe03aed6	-0.12859663
86	0x3f062788	0.5240407
87	0xbe90547d	-0.2818946
88	0x3e66920f	0.22516654
89	0x3f6eaf43	0.9323618
90	0xbf316cbb	-0.69306535
91	0xbf326e74	-0.6969979
92	0xbf2b079f	-0.66808504
93	0xbf1a68c5	-0.60316116
94	0x3ea34170	0.31885862
95	0xbf2f92e9	-0.6858354
96	0x3f1cbeca	0.6122862
97	0x3decc9f3	0.11561956
98	0x3e20df22	0.15710118
99	0x3e84082e	0.2578749
100	0xbe449856	-0.19198737
101	0xbd9cccaa	-0.07656224
102	0xbf0cf6d2	-0.5506412
103	0xbf546759	-0.82970196
104	0x3e4718c8	0.19443047
105	0xbe2615cf	-0.16219257
106	0x3f0f5b93	0.55999106
107	0xbeae75b1	-0.34074166
108	0x3eec04b7	0.46097347
109	0xbf0129c8	-0.5045438
110	0xbe9ccc92	-0.30624825
111	0xbe9f3a6b	-0.31099257
112	0x3e052b21	0.13004734
113	0xbf3a28d0	-0.72718525
114	0x3d9cfff7	0.07666009
115	0xbec59b61	-0.38595107
116	0xbe94933d	-0.29018584
117	0x3dba4d80	0.09096813
118	0xbeccff6e	-0.40038627
119	0xbeca4cde	-0.3951177
120	0x3ed0eab7	0.40804073
121	0x3db3d87c	0.087815255
122	0xbdeeecda	-0.116662696
123	0x3ea5036f	0.32229182
124	0x3dd59cda	0.10430308
125	0x3f203bc4	0.62591195
126	0xbe43a8c7	-0.19107352
127	0xbe4ca5ce	-0.19985124
128	0xbeaf16dc	-0.34197128
129	0xbde56fed	-0.11202989
130	0xbe9500ed	-0.2910227
131	0xbe5a8a38	-0.21341789
132	0xbdcb0fe4	-0.0991514
133	0x3ee5f884	0.44916165
134	0x3ed31ce3	0.41232976
135	0x3d2a787c	0.04161881
136	0x3e9c7aa8	0.3056233
137	0xbf0e6d83	-0.5563585
138	0x3ec09a6e	0.3761782
139	0xbd8af691	-0.0678531
140	0xbed2744c	-0.41104352
141	0x3ee77b45	0.45211235
142	0x3ec1c8f5	0.3784863
143	0xbe6ca98f	-0.23111556
144	0xbf0cec66	-0.55048215
145	0xbe1defd8	-0.15423524
146	0x3f048cd9	0.51777416
147	0x3e6478d4	0.22311717
148	0xbe9c492b	-0.30524573
149	0x3e60d899	0.21957625
150	0xbf08ac7d	-0.53388196
151	0x3e9d86aa	0.30766803
152	0xbe57179b	-0.21005099
153	0x3f0a6854	0.5406544
154	0x3e051c2a	0.12999025
155	0xbf21a019	-0.63134915
156	0xbbcacf09	-0.0061892313
157	0xbe2c8b4e	-0.16850016
158	0xbe5d2ae7	-0.21598397
159	0xbf04371f	-0.5164661
160	0xbeec8abc	-0.46199596
161	0x3b533e20	0.0032233074
162	0xbefca692	-0.49345833
163	0xbcbe5be3	-0.023237174
164	0x3eca8a40	0.395586
165	0x3e0e8cae	0.13920853
166	0xbe3d94f6	-0.18513855
167	0xbf17183b	-0.5902135
168	0x3e7972d4	0.2436021
169	0x3e28217e	0.16419026
170	0xbe62c9e6	-0.2214733
171	0xbece8747	-0.40337583
172	0xbf18dd97	-0.5971312
173	0x3e36aca6	0.17839298
174	0x3ed59df7	0.4172208
175	0xbf277a3c	-0.6542089
176	0x3e51f52b	0.2050368
177	0x3d5aba26	0.05340018
178	0xbcb57d21	-0.022154393
179	0x3da1f7a2	0.0790856
180	0xbf0c6a6b	-0.5484988
181	0xbc1d8d42	-0.009616198
182	0x3ea8d5cd	0.32975617
183	0xbe98f819	-0.29876783
184	0xbea1e319	-0.31618574
185	0x3e87e385	0.2654077
186	0x3e4fea45	0.2030421
187	0x3e65c321	0.22437717
188	0x3e2a834b	0.16651647
189	0x3f1b708c	0.6071861
190	0xbe90dcfc	-0.28293598
191	0x3e28f061	0.16497947
192	0x3ebdbefe	0.37059778
193	0xbe8ec786	-0.278866
194	0x3efe09e5	0.49616924
195	0xbdc7698f	-0.097369306
196	0xbf103faf	-0.56347173
197	0x3e063e93	0.13109808
198	0x3f23a968	0.6393037
199	0xbd7a0684	-0.06104137
200	0x3e44a0af	0.19201921
201	0x3d0ba0ca	0.034088887
202	0x3f2fce95	0.68674594
203	0xbf173bfd	-0.5907591
204	0xbcb21d8f	-0.02174261
205	0x3e9c5dc4	0.30540287
206	0x3f10e60c	0.56601024
207	0xbe0125be	-0.12612054
208	0x3ea7bef5	0.32762876
209	0xbd92bb07	-0.07164579
210	0x3e813b52	0.2524057
211	0x3c4d68f7	0.012537233
212	0xbd3fe6e6	-0.04685106
213	0xbec21439	-0.37906054
214	0xbeca7a21	-0.39546302
215	0xbd46d549	-0.04854325
216	0xbef86e60	-0.4852171
217	0xbe2d2ff9	-0.16912831
218	0x3f2deb8f	0.6793756
219	0xbefc3f8a	-0.49267226
220	0x3e27e13e	0.16394517
221	0xbdc5de09	-0.096614905
222	0x3f0f43c0	0.55962753
223	0x3e914b4f	0.28377768
224	0x3ec4f0e1	0.38465026
225	0xbef701a6	-0.48243445
226	0xbe60ece4	-0.21965367
227	0xbe6527e5	-0.223785
228	0xbd741989	-0.059594665
229	0xbec9b62c	-0.393968
230	0x3c02115a	0.007938707
231	0x3da14a03	0.07875445
232	0xbee3e7e6	-0.44512862
233	0x3df58ed9	0.11990137
234	0x3da78c23	0.08181026
235	0x3cecc76d	0.028903687
236	0xbf0c3b38	-0.5477786
237	0x3d8a978f	0.06767189
238	0x3ece3083	0.40271387
239	0x3d3a6548	0.045506746
240	0x3dc4f6ed	0.0961741
241	0x3d2a7c07	0.041622188
242	0xbdc683a1	-0.09693075
243	0xbec9919d	-0.39368907
244	0x3f797da0	0.97457314
245	0xbf0de0f6	-0.5542139
246	0x3e66e0bf	0.22546671
247	0xbf163673	-0.5867683
248	0xbdfdbd8f	-0.12389671
249	0x3ec3eef5	0.38268247
250	0x3e394f65	0.18096693
251	0x3edfba59	0.4369686
252	0xbdce55d7	-0.100749664
253	0x3e9e7776	0.30950516
254	0x3d6d65a5	0.057958264
255	0x3dc23c2c	0.09484133

items_id f4 [1154, 63]
0	0x3eeec1f5	0.46632352
1	0x3ef6727f	0.4813423
2	0x3e0b2fa8	0.13592398
3	0xbde80fca	-0.113311365
4	0x3dbc52b3	0.09195461
5	0x3ec15da9	0.3776677
6	0x3ec2b606	0.38029498
7	0x3edf9be7	0.43673632
8	0x3eee8c94	0.46591628
9	0xbeb043a9	-0.3442662
10	0x3efd80aa	0.49512225
11	0xbdb75781	-0.08952237
12	0xbe91d3c3	-0.28481874
13	0x3eca134f	0.39467856
14	0x3ebae89b	0.3650559
15	0xbea83672	-0.32854038
16	0xbd5d3687	-0.05400708
17	0xbe735742	-0.23763755
18	0x3e843297	0.25819847
19	0x3f0d3271	0.5515509
20	0x3ef13211	0.4710851
21	0x3e8e7ee4	0.27831185
22	0xbe8e0e87	-0.27745458
23	0x3e42e72b	0.19033496
24	0xbe4cf0f9	-0.20013799
25	0x3ce59259	0.028023886
26	0x3e8b0c41	0.27157786
27	0x3e5b2a6f	0.21402906
28	0xbe446289	-0.19178213
29	0xbe93d754	-0.2887522
30	0x3eaa52e2	0.3326636
31	0x3e03274c	0.1280796
32	0xbdd92e9f	-0.106045954
33	0xbeb41a6a	-0.35176402
34	0x3e4418a6	0.19150028
35	0x3e47d60a	0.19515243
36	0x3f1f17b9	0.6214557
37	0x3e8b3fd9	0.2719715
38	0xbe84f88f	-0.25970885
39	0xbe236763	-0.15957408
40	0xbe3dc97b	-0.1853389
41	0x3e63244a	0.22181812
42	0x3e7fda86	0.24985704
43	0xbee9e318	-0.4568107
44	0xbee9e62e	-0.45683426
45	0xbe5794a7	-0.210528
46	0x3ebdab0c	0.3704456
47	0x3c966efb	0.018363466
48	0x3dd4a803	0.10383608
49	0xbe902bc5	-0.28158394
50	0xbe84e015	-0.2595221
51	0x3d51bbdd	0.05120455
52	0x3e3cf5f0	0.18453193
53	0xbd10241f	-0.035190698
54	0xbf0ba4f4	-0.54548573
55	0x3e536582	0.20644191
56	0xbeee2f9f	-0.46520707
57	0xbb62e51d	-0.0034621425
58	0xbe8572d8	-0.2606418
59	0xbdf4ee55	-0.11959521
60	0x3e75802d	0.23974676
61	0xbe129538	-0.14314735
62	0x3ea616f6	0.32439393
63	0x3e2980de	0.16553065
64	0x3e750f90	0.23931718
65	0x3e1a7b2d	0.1508605
66	0xbda0f148	-0.07858521
67	0x3eb03359	0.34414175
68	0x3db0f976	0.08641331
69	0x3ec786ea	0.3897012
70	0x3d583f9f	0.05279505
71	0x3d8fabf0	0.07015216
72	0xbd707e8f	-0.058714446
73	0xbc173200	-0.0092282295
74	0xbce318b6	-0.027721744
75	0xbe539547	-0.20662414
76	0x3c620d80	0.013797164
77	0xbba36b25	-0.004987138
78	0xbe25e04e	-0.16198847
79	0xbe3c2d11	-0.18376566
80	0xbe10f720	-0.1415677
81	0x3e4998d0	0.196872
82	0x3cd25d34	0.025679208
83	0x3e7637b2	0.24044684
84	0x3e5de4d9	0.2166933
85	0xbd6fae4a	-0.058515824
86	0x3e8eb8fa	0.278755
87	0xbe420c34	-0.18949968
88	0xbe460bf1	-0.19340493
89	0x3d66ff8b	0.05639605
90	0x3c8d9447	0.017282618
91	0x3b95503d	0.0045566843
92	0x3ccabdc0	0.024748683
93	0x3c0bc9a3	0.008531961
94	0x3dc9c854	0.09852663
95	0xbe25461d	-0.16140027
96	0xbe6bbaf8	-0.23020542
97	0x3e2276c6	0.15865621
98	0x3dc65c23	0.096855424
99	0x3e8b115e	0.27161688
100	0x3e026765	0.12734754
101	0xbd818ee1	-0.0632608
102	0xbda21bc4	-0.07915452
103	0xbdbfc603	-0.093639396
104	0x3e60529f	0.21906517
105	0xbcb21017	-0.021736188
106	0xbdc94051	-0.098267205
107	0xbe512885	-0.20425613
108	0xbd8eb8d5	-0.06968848
109	0xbc003456	-0.007824978
110	0xbe012687	-0.12612353
111	0x3d9f4a60	0.07777858
112	0xbcba1efc	-0.022719853
113	0xbd17fc93	-0.037106108
114	0x3d17c982	0.037057407
115	0x3e4beaaf	0.19913743
116	0x3e68673b	0.2269563
117	0x3d246afa	0.040141083
118	0x3e411cf5	0.18858702
119	0xbe8d4a47	-0.27595732
120	0xbe06bd66	-0.13158187
121	0x3cd9a83e	0.026569482
122	0xbde4b055	-0.11166445
123	0xbce653b7	-0.02811609
124	0xbe55645c	-0.20839065
125	0x3cfb6a8c	0.030690454
126	0x3e8b2d0e	0.27182811
127	0x3e9a2a07	0.3011019
128	0x3e016a2e	0.1263816
129	0xbe24a3ca	-0.16078106
130	0x3e8dcef3	0.27696952
131	0x3e61971f	0.22030304
132	0x3e2763b5	0.16346629
133	0x3d9b0972	0.07570161
134	0x3ea64665	0.32475582
135	0xbe81acd9	-0.25327185
136	0x3ea6b7bd	0.32562056
137	0xbe78a35e	-0.2428107
138	0xbe6b7a9a	-0.22995988
139	0x3da92362	0.08258702
140	0x3e03a79b	0.12856905
141	0xbd933848	-0.07188469
142	0xbdf037f5	-0.11729423
143	0xbb4f7461	-0.003165506
144	0x3cf281db	0.029602936
145	0x3e233240	0.15937138
146	0x3e7dd26f	0.24787305
147	0x3de486e5	0.111585416
148	0xbe285632	-0.16439131
149	0x3e2e9c7d	0.17051883
150	0xbd82f1e8	-0.06393796
151	0xbd379861	-0.044823054
152	0x3cd9b22b	0.026574215
153	0x3e60cc9f	0.21953057
154	0xbd833ebb	-0.06408449
155	0xbb996b88	-0.004682008
156	0x3e5d3cec	0.21605271
157	0x3c9cf01a	0.019157458
158	0xbe6d7756	-0.23190054
159	0xbe923bf8	-0.28561378
160	0x3dd872b9	0.105687566
161	0x3d610fc5	0.05494668
162	0x3e92430a	0.28566772
163	0x3d4da017	0.0502015
164	0xbd8821d3	-0.066470765
165	0xbe5c7aad	-0.21531172
166	0xbdbacd1d	-0.091211535
167	0x3d35b4f7	0.044362035
168	0x3e6150b7	0.22003447
169	0xbe855117	-0.2603843
170	0xbe52531d	-0.20539518
171	0xbe4da34e	-0.20081827
172	0x3da9d647	0.08292823
173	0xbe09f909	-0.13473906
174	0x3dac5612	0.08414854
175	0xbe42ccef	-0.19023488
176	0xbe73f126	-0.2382246
177	0x3d502d8c	0.050824687
178	0x3e41679b	0.18887179
179	0x3e2f5ab5	0.17124446
180	0xbea7bd84	-0.32761776
181	0xbbab6f5c	-0.005231781
182	0xbe248ede	-0.16070125
183	0xbd0a7e14	-0.033811644
184	0xbd9646a4	-0.073376924
185	0xbe0d6449	-0.13807787
186	0x3ca3fe2a	0.020018656
187	0xbde97060	-0.11398387
188	0x3e71fe7a	0.23632231
189	0x3ead56cd	0.33855286
190	0x3dbe78dd	0.093003966
191	0x3e040a5f	0.12894581
192	0xbe865405	-0.26235977
193	0x3e43187e	0.19052312
194	0x3d43680a	0.04770664
195	0x3e8b0b19	0.27156904
196	0x3e867f4c	0.26268995
197	0x3e9a62b0	0.30153418
198	0xbe6e0032	-0.23242262
199	0x3da27af7	0.0793361
200	0xbe599379	-0.21247663
201	0xbddef853	-0.10887208
202	0x3e57d147	0.21075927
203	0x3df765f5	0.12079994
204	0xbe85ec5b	-0.26156887
205	0xbe24d27b	-0.16095917
206	0xbe1a870c	-0.15090579
207	0x3d665928	0.05623737
208	0x3dddbd11	0.10827077
209	0x3e95ae26	0.29234427
210	0x3d752f43	0.059859525
211	0xbd50a779	-0.050940964
212	0x3d17f836	0.037101947
213	0xbd88f1d7	-0.06686752
214	0xbe1760c6	-0.1478301
215	0x3e2abccf	0.16673587
216	0x3e225db1	0.15856053
217	0xbe4fca85	-0.20292099
218	0xbde37c63	-0.11107709
219	0x3e8b7d2f	0.27243945
220	0x3dde8568	0.10865289
221	0xbcd130cb	-0.025535962
222	0xbe52dc41	-0.20591833
223	0x3e7e0eb9	0.24810304
224	0x3d784b93	0.06061895
225	0x3e249385	0.16071899
226	0x3ce0e69b	0.027453711
227	0xbe4f8b1d	-0.20267911
228	0xbe2e11be	-0.16998956
229	0xbde69e34	-0.112606436
230	0x3d57030a	0.052493133
231	0x3d95753a	0.0729775
232	0xbea1f0ea	-0.31629115
233	0xbdb85bf3	-0.09001913
234	0xbce0c513	-0.027437722
235	0x3d1a9f7c	0.037749752
236	0xbd0df2dc	-0.034655437
237	0xbd32096f	-0.043466028
238	0xbe532321	-0.2061887
239	0xbdf2b015	-0.11849991
240	0x3da72833	0.08161964
241	0x3d985985	0.074389495
242	0x3e36808d	0.17822476
243	0xbeac4d35	-0.33652654
244	0x3e5685be	0.20949456
245	0xbe049cdf	-0.12950467
246	0xbda0a24c	-0.07843456
247	0xbc802295	-0.01564149
248	0xbd953165	-0.07284812
249	0x3df382ab	0.11890157
250	0xbe635779	-0.22201337
251	0x3de50b43	0.111837886
252	0x3e930a40	0.28718758
253	0x3e2dba7b	0.16965668
254	0x3e6b31dc	0.22968239
255	0xbda2eb70	-0.079550624

item_pop f4 [1154, 1]
0	0x3f800000	1.0
1	0x3f50e41b	0.8159806
2	0x3f5991aa	0.8498789
3	0x3f5d49c3	0.86440676
4	0x3f4e6960	0.8062954
5	0x3f4e6960	0.8062954
6	0x3f4c8d54	0.7990315
7	0x3f4027ac	0.75060534
8	0x3f395629	0.72397095
9	0x3f377a1d	0.71670705
10	0x3f2d8f30	0.6779661
11	0x3f363cbf	0.7118644
12	0x3f2442f2	0.6416465
13	0x3f208ad9	0.62711865
14	0x3f2899b9	0.6585956
15	0x3f26bdad	0.6513317
16	0x3f2266e5	0.63438255
17	0x3f1d716f	0.6150121
18	0x3f2266e5	0.63438255
19	0x3f110bc7	0.56658596
20	0x3f142531	0.5786925
21	0x3f14c3e0	0.5811138
22	0x3f085e38	0.53268766
23	0x3f0e910c	0.55690074
24	0x3f0df25d	0.5544794
25	0x3f0368c1	0.51331717
26	0x3f0720da	0.527845
27	0x3f0368c1	0.51331717
28	0x3f00ee06	0.50363195
29	0x3ef57664	0.47941887
30	0x3f05e37d	0.52300245
31	0x3f02ca13	0.5108959
32	0x3f00ee06	0.50363195
33	0x3f004f57	0.50121063
34	0x3ee910bc	0.4552058
35	0x3ef1be4c	0.47215497
36	0x3f02ca13	0.5108959
37	0x3ef92e7d	0.4866828
38	0x3f02ca13	0.5108959
39	0x3ee1a08b	0.44067797
40	0x3ee2dde8	0.44309926
41	0x3efba938	0.4915254
42	0x3ef92e7d	0.4866828
43	0x3f0720da	0.527845
44	0x3ee910bc	0.4552058
45	0x3ee910bc	0.4552058
46	0x3edcab14	0.43099272
47	0x3ee41b46	0.44552058
48	0x3ee0632d	0.43825665
49	0x3ee558a4	0.4479419
50	0x3eea4e1a	0.45762712
51	0x3eeb8b78	0.46004844
52	0x3ed67840	0.41888618
53	0x3ee41b46	0.44552058
54	0x3ee2dde8	0.44309926
55	0x3ee2dde8	0.44309926
56	0x3eecc8d5	0.46246973
57	0x3ee558a4	0.4479419
58	0x3ed67840	0.41888618
59	0x3eda3059	0.4261501
60	0x3ec8d53b	0.39225182
61	0x3edde872	0.43341404
62	0x3ed7b59e	0.4213075
63	0x3edcab14	0.43099272
64	0x3eca1298	0.3946731
65	0x3ecc8d54	0.39951575
66	0x3eda3059	0.4261501
67	0x3ed53ae3	0.4164649
68	0x3eca1298	0.3946731
69	0x3ec797dd	0.3898305
70	0x3ed182ca	0.40920097
71	0x3ecc8d54	0.39951575
72	0x3ebeea4e	0.37288135
73	0x3edf25d0	0.43583536
74	0x3eca1298	0.3946731
75	0x3ed3fd85	0.41404358
76	0x3ec027ac	0.37530267
77	0x3ed182ca	0.40920097
78	0x3ecb4ff6	0.39709443
79	0x3ecf080f	0.40435836
80	0x3ec797dd	0.3898305
81	0x3eb63cbf	0.3559322
82	0x3eb8b77a	0.36077482
83	0x3ec797dd	0.3898305
84	0x3eb14749	0.346247
85	0x3eb8b77a	0.36077482
86	0x3ec3dfc4	0.38256657
87	0x3ec51d22	0.3849879
88	0x3eb9f4d8	0.36319613
89	0x3eb63cbf	0.3559322
90	0x3ebc6f93	0.36803874
91	0x3ebeea4e	0.37288135
92	0x3eac51d2	0.33656174
93	0x3eb3c204	0.3510896
94	0x3eac51d2	0.33656174
95	0x3eb009eb	0.34382567
96	0x3eb4ff61	0.3535109
97	0x3eb8b77a	0.36077482
98	0x3ea9d717	0.33171913
99	0x3ebb3235	0.36561742
100	0x3ead8f30	0.33898306
101	0x3eaecc8d	0.34140435
102	0x3eb63cbf	0.3559322
103	0x3eb009eb	0.34382567
104	0x3eb284a6	0.34866828
105	0x3ea61efe	0.3244552
106	0x3ea4e1a1	0.3220339
107	0x3eb009eb	0.34382567
108	0x3eaecc8d	0.34140435
109	0x3ea4e1a1	0.3220339
110	0x3eab1475	0.33414045
111	0x3ea61efe	0.3244552
112	0x3eb77a1d	0.35835353
113	0x3e973e9b	0.29539952
114	0x3ea4e1a1	0.3220339
115	0x3ea3a443	0.3196126
116	0x3ea4e1a1	0.3220339
117	0x3ea75c5c	0.32687652
118	0x3ea61efe	0.3244552
119	0x3e9d716f	0.30750605
120	0x3ea266e5	0.31719127
121	0x3ea4e1a1	0.3220339
122	0x3ea4e1a1	0.3220339
123	0x3eac51d2	0.33656174
124	0x3e9eaecd	0.30992737
125	0x3e973e9b	0.29539952
126	0x3e94c3e0	0.2905569
127	0x3e9c3411	0.30508474
128	0x3e9af6b4	0.30266345
129	0x3ea12988	0.31476998
130	0x3ea266e5	0.31719127
131	0x3e96013d	0.2929782
132	0x3ea266e5	0.31719127
133	0x3e910bc7	0.28329298
134	0x3e8ad8f3	0.27118644
135	0x3e924925	0.2857143
136	0x3e910bc7	0.28329298
137	0x3e99b956	0.30024213
138	0x3e94c3e0	0.2905569
139	0x3e973e9b	0.29539952
140	0x3e8d53ae	0.27602905
141	0x3e910bc7	0.28329298
142	0x3e973e9b	0.29539952
143	0x3e85e37d	0.26150122
144	0x3e899b95	0.26876512
145	0x3e910bc7	0.28329298
146	0x3e8ad8f3	0.27118644
147	0x3e924925	0.2857143
148	0x3e8c1651	0.27360776
149	0x3e885e38	0.26634383
150	0x3e7f6151	0.24939467
151	0x3e8e910c	0.27845037
152	0x3e910bc7	0.28329298
153	0x3ea12988	0.31476998
154	0x3e910bc7	0.28329298
155	0x3e910bc7	0.28329298
156	0x3e8d53ae	0.27602905
157	0x3e8368c1	0.25665858
158	0x3e8ad8f3	0.27118644
159	0x3e8ad8f3	0.27118644
160	0x3e973e9b	0.29539952
161	0x3e94c3e0	0.2905569
162	0x3e8e910c	0.27845037
163	0x3e885e38	0.26634383
164	0x3e924925	0.2857143
165	0x3e8ad8f3	0.27118644
166	0x3e822b64	0.2542373
167	0x3e8d53ae	0.27602905
168	0x3e7f6151	0.24939467
169	0x3e94c3e0	0.2905569
170	0x3e8fce69	0.28087166
171	0x3e99b956	0.30024213
172	0x3e822b64	0.2542373
173	0x3e899b95	0.26876512
174	0x3e8368c1	0.25665858
175	0x3e973e9b	0.29539952
176	0x3e8c1651	0.27360776
177	0x3e84a61f	0.2590799
178	0x3e84a61f	0.2590799
179	0x3e8e910c	0.27845037
180	0x3e7ce696	0.24697337
181	0x3e6e0633	0.23244552
182	0x3e7f6151	0.24939467
183	0x3e7a6bdb	0.24455206
184	0x3e7ce696	0.24697337
185	0x3e8d53ae	0.27602905
186	0x3e885e38	0.26634383
187	0x3e6b8b78	0.23002422
188	0x3e7a6bdb	0.24455206
189	0x3e7ce696	0.24697337
190	0x3e84a61f	0.2590799
191	0x3e8ad8f3	0.27118644
192	0x3e899b95	0.26876512
193	0x3e8720da	0.2639225
194	0x3e4dcab1	0.20096852
195	0x3e77f120	0.24213076
196	0x3e5cab14	0.21549636
197	0x3e822b64	0.2542373
198	0x3e8368c1	0.25665858
199	0x3e8ad8f3	0.27118644
200	0x3e7a6bdb	0.24455206
201	0x3e5f25d0	0.21791768
202	0x3e85e37d	0.26150122
203	0x3e7f6151	0.24939467
204	0x3e6910bc	0.2276029
205	0x3e6910bc	0.2276029
206	0x3e5f25d0	0.21791768
207	0x3e57b59e	0.21065375
208	0x3e5a3059	0.21307506
209	0x3e669601	0.2251816
210	0x3e6e0633	0.23244552
211	0x3e5f25d0	0.21791768
212	0x3e61a08b	0.22033899
213	0x3e6910bc	0.2276029
214	0x3e7a6bdb	0.24455206
215	0x3e669601	0.2251816
216	0x3e641b46	0.22276029
217	0x3e50456c	0.20338982
218	0x3e5cab14	0.21549636
219	0x3e50456c	0.20338982
220	0x3e669601	0.2251816
221	0x3e5a3059	0.21307506
222	0x3e5a3059	0.21307506
223	0x3e641b46	0.22276029
224	0x3e6910bc	0.2276029
225	0x3e6910bc	0.2276029
226	0x3e48d53b	0.19612591
227	0x3e553ae3	0.20823245
228	0x3e48d53b	0.19612591
229	0x3e553ae3	0.20823245
230	0x3e61a08b	0.22033899
231	0x3e416509	0.18886198
232	0x3e52c028	0.20581114
233	0x3e5a3059	0.21307506
234	0x3e50456c	0.20338982
235	0x3e48d53b	0.19612591
236	0x3e5a3059	0.21307506
237	0x3e669601	0.2251816
238	0x3e50456c	0.20338982
239	0x3e5cab14	0.21549636
240	0x3e61a08b	0.22033899
241	0x3e52c028	0.20581114
242	0x3e465a80	0.1937046
243	0x3e553ae3	0.20823245
244	0x3e39f4d8	0.18159807
245	0x3e641b46	0.22276029
246	0x3e416509	0.18886198
247	0x3e43dfc4	0.19128329
248	0x3e5cab14	0.21549636
249	0x3e57b59e	0.21065375
250	0x3e48d53b	0.19612591
251	0x3e50456c	0.20338982
252	0x3e52c028	0.20581114
253	0x3e50456c	0.20338982
254	0x3e34ff61	0.17675544
255	0x3e48d53b	0.19612591

item_pop_true f4 [1154, 1]
0	0x3f800000	1.0
1	0x3f50e41b	0.8159806
2	0x3f5991aa	0.8498789
3	0x3f5d49c3	0.86440676
4	0x3f4e6960	0.8062954
5	0x3f4e6960	0.8062954
6	0x3f4c8d54	0.7990315
7	0x3f4027ac	0.75060534
8	0x3f395629	0.72397095
9	0x3f377a1d	0.71670705
10	0x3f2d8f30	0.6779661
11	0x3f363cbf	0.7118644
12	0x3f2442f2	0.6416465
13	0x3f208ad9	0.62711865
14	0x3f2899b9	0.6585956
15	0x3f26bdad	0.6513317
16	0x3f2266e5	0.63438255
17	0x3f1d716f	0.6150121
18	0x3f2266e5	0.63438255
19	0x3f110bc7	0.56658596
20	0x3f142531	0.5786925
21	0x3f14c3e0	0.5811138
22	0x3f085e38	0.53268766
23	0x3f0e910c	0.55690074
24	0x3f0df25d	0.5544794
25	0x3f0368c1	0.51331717
26	0x3f0720da	0.527845
27	0x3f0368c1	0.51331717
28	0x3f00ee06	0.50363195
29	0x3ef57664	0.47941887
30	0x3f05e37d	0.52300245
31	0x3f02ca13	0.5108959
32	0x3f00ee06	0.50363195
33	0x3f004f57	0.50121063
34	0x3ee910bc	0.4552058
35	0x3ef1be4c	0.47215497
36	0x3f02ca13	0.5108959
37	0x3ef92e7d	0.4866828
38	0x3f02ca13	0.5108959
39	0x3ee1a08b	0.44067797
40	0x3ee2dde8	0.44309926
41	0x3efba938	0.4915254
42	0x3ef92e7d	0.4866828
43	0x3f0720da	0.527845
44	0x3ee910bc	0.4552058
45	0x3ee910bc	0.4552058
46	0x3edcab14	0.43099272
47	0x3ee41b46	0.44552058
48	0x3ee0632d	0.43825665
49	0x3ee558a4	0.4479419
50	0x3eea4e1a	0.45762712
51	0x3eeb8b78	0.46004844
52	0x3ed67840	0.41888618
53	0x3ee41b46	0.44552058
54	0x3ee2dde8	0.44309926
55	0x3ee2dde8	0.44309926
56	0x3eecc8d5	0.46246973
57	0x3ee558a4	0.4479419
58	0x3ed67840	0.41888618
59	0x3eda3059	0.4261501
60	0x3ec8d53b	0.39225182
61	0x3edde872	0.43341404
62	0x3ed7b59e	0.4213075
63	0x3edcab14	0.43099272
64	0x3eca1298	0.3946731
65	0x3ecc8d54	0.39951575
66	0x3eda3059	0.4261501
67	0x3ed53ae3	0.4164649
68	0x3eca1298	0.3946731
69	0x3ec797dd	0.3898305
70	0x3ed182ca	0.40920097
71	0x3ecc8d54	0.39951575
72	0x3ebeea4e	0.37288135
73	0x3edf25d0	0.43583536
74	0x3eca1298	0.3946731
75	0x3ed3fd85	0.41404358
76	0x3ec027ac	0.37530267
77	0x3ed182ca	0.40920097
78	0x3ecb4ff6	0.39709443
79	0x3ecf080f	0.40435836
80	0x3ec797dd	0.3898305
81	0x3eb63cbf	0.3559322
82	0x3eb8b77a	0.36077482
83	0x3ec797dd	0.3898305
84	0x3eb14749	0.346247
85	0x3eb8b77a	0.36077482
86	0x3ec3dfc4	0.38256657
87	0x3ec51d22	0.3849879
88	0x3eb9f4d8	0.36319613
89	0x3eb63cbf	0.3559322
90	0x3ebc6f93	0.36803874
91	0x3ebeea4e	0.37288135
92	0x3eac51d2	0.33656174
93	0x3eb3c204	0.3510896
94	0x3eac51d2	0.33656174
95	0x3eb009eb	0.34382567
96	0x3eb4ff61	0.3535109
97	0x3eb8b77a	0.36077482
98	0x3ea9d717	0.33171913
99	0x3ebb3235	0.36561742
100	0x3ead8f30	0.33898306
101	0x3eaecc8d	0.34140435
102	0x3eb63cbf	0.3559322
103	0x3eb009eb	0.34382567
104	0x3eb284a6	0.34866828
105	0x3ea61efe	0.3244552
106	0x3ea4e1a1	0.3220339
107	0x3eb009eb	0.34382567
108	0x3eaecc8d	0.34140435
109	0x3ea4e1a1	0.3220339
110	0x3eab1475	0.33414045
111	0x3ea61efe	0.3244552
112	0x3eb77a1d	0.35835353
113	0x3e973e9b	0.29539952
114	0x3ea4e1a1	0.3220339
115	0x3ea3a443	0.3196126
116	0x3ea4e1a1	0.3220339
117	0x3ea75c5c	0.32687652
118	0x3ea61efe	0.3244552
119	0x3e9d716f	0.30750605
120	0x3ea266e5	0.31719127
121	0x3ea4e1a1	0.3220339
122	0x3ea4e1a1	0.3220339
123	0x3eac51d2	0.33656174
124	0x3e9eaecd	0.30992737
125	0x3e973e9b	0.29539952
126	0x3e94c3e0	0.2905569
127	0x3e9c3411	0.30508474
128	0x3e9af6b4	0.30266345
129	0x3ea12988	0.31476998
130	0x3ea266e5	0.31719127
131	0x3e96013d	0.2929782
132	0x3ea266e5	0.31719127
133	0x3e910bc7	0.28329298
134	0x3e8ad8f3	0.27118644
135	0x3e924925	0.2857143
136	0x3e910bc7	0.28329298
137	0x3e99b956	0.30024213
138	0x3e94c3e0	0.2905569
139	0x3e973e9b	0.29539952
140	0x3e8d53ae	0.27602905
141	0x3e910bc7	0.28329298
142	0x3e973e9b	0.29539952
143	0x3e85e37d	0.26150122
144	0x3e899b95	0.26876512
145	0x3e910bc7	0.28329298
146	0x3e8ad8f3	0.27118644
147	0x3e924925	0.2857143
148	0x3e8c1651	0.27360776
149	0x3e885e38	0.26634383
150	0x3e7f6151	0.24939467
151	0x3e8e910c	0.27845037
152	0x3e910bc7	0.28329298
153	0x3ea12988	0.31476998
154	0x3e910bc7	0.28329298
155	0x3e910bc7	0.28329298
156	0x3e8d53ae	0.27602905
157	0x3e8368c1	0.25665858
158	0x3e8ad8f3	0.27118644
159	0x3e8ad8f3	0.27118644
160	0x3e973e9b	0.29539952
161	0x3e94c3e0	0.2905569
162	0x3e8e910c	0.27845037
163	0x3e885e38	0.26634383
164	0x3e924925	0.2857143
165	0x3e8ad8f3	0.27118644
166	0x3e822b64	0.2542373
167	0x3e8d53ae	0.27602905
168	0x3e7f6151	0.24939467
169	0x3e94c3e0	0.2905569
170	0x3e8fce69	0.28087166
171	0x3e99b956	0.30024213
172	0x3e822b64	0.2542373
173	0x3e899b95	0.26876512
174	0x3e8368c1	0.25665858
175	0x3e973e9b	0.29539952
176	0x3e8c1651	0.27360776
177	0x3e84a61f	0.2590799
178	0x3e84a61f	0.2590799
179	0x3e8e910c	0.27845037
180	0x3e7ce696	0.24697337
181	0x3e6e0633	0.23244552
182	0x3e7f6151	0.24939467
183	0x3e7a6bdb	0.24455206
184	0x3e7ce696	0.24697337
185	0x3e8d53ae	0.27602905
186	0x3e885e38	0.26634383
187	0x3e6b8b78	0.23002422
188	0x3e7a6bdb	0.24455206
189	0x3e7ce696	0.24697337
190	0x3e84a61f	0.2590799
191	0x3e8ad8f3	0.27118644
192	0x3e899b95	0.26876512
193	0x3e8720da	0.2639225
194	0x3e4dcab1	0.20096852
195	0x3e77f120	0.24213076
196	0x3e5cab14	0.21549636
197	0x3e822b64	0.2542373
198	0x3e8368c1	0.25665858
199	0x3e8ad8f3	0.27118644
200	0x3e7a6bdb	0.24455206
201	0x3e5f25d0	0.21791768
202	0x3e85e37d	0.26150122
203	0x3e7f6151	0.24939467
204	0x3e6910bc	0.2276029
205	0x3e6910bc	0.2276029
206	0x3e5f25d0	0.21791768
207	0x3e57b59e	0.21065375
208	0x3e5a3059	0.21307506
209	0x3e669601	0.2251816
210	0x3e6e0633	0.23244552
211	0x3e5f25d0	0.21791768
212	0x3e61a08b	0.22033899
213	0x3e6910bc	0.2276029
214	0x3e7a6bdb	0.24455206
215	0x3e669601	0.2251816
216	0x3e641b46	0.22276029
217	0x3e50456c	0.20338982
218	0x3e5cab14	0.21549636
219	0x3e50456c	0.20338982
220	0x3e669601	0.2251816
221	0x3e5a3059	0.21307506
222	0x3e5a3059	0.21307506
223	0x3e641b46	0.22276029
224	0x3e6910bc	0.2276029
225	0x3e6910bc	0.2276029
226	0x3e48d53b	0.19612591
227	0x3e553ae3	0.20823245
228	0x3e48d53b	0.19612591
229	0x3e553ae3	0.20823245
230	0x3e61a08b	0.22033899
231	0x3e416509	0.18886198
232	0x3e52c028	0.20581114
233	0x3e5a3059	0.21307506
234	0x3e50456c	0.20338982
235	0x3e48d53b	0.19612591
236	0x3e5a3059	0.21307506
237	0x3e669601	0.2251816
238	0x3e50456c	0.20338982
239	0x3e5cab14	0.21549636
240	0x3e61a08b	0.22033899
241	0x3e52c028	0.20581114
242	0x3e465a80	0.1937046
243	0x3e553ae3	0.20823245
244	0x3e39f4d8	0.18159807
245	0x3e641b46	0.22276029
246	0x3e416509	0.18886198
247	0x3e43dfc4	0.19128329
248	0x3e5cab14	0.21549636
249	0x3e57b59e	0.21065375
250	0x3e48d53b	0.19612591
251	0x3e50456c	0.20338982
252	0x3e52c028	0.20581114
253	0x3e50456c	0.20338982
254	0x3e34ff61	0.17675544
255	0x3e48d53b	0.19612591

lr1.weight f4 [1, 63]
0	0x3d697c5b	0.05700336
1	0x3cd11265	0.025521467
2	0x3ddc00ae	0.10742317
3	0xbe56e1e1	-0.20984603
4	0x3e2d9ba2	0.169539
5	0x3d1e5b02	0.03866101
6	0x3e2837b4	0.16427499
7	0x3b9bba8a	0.004752462
8	0x3ca424c4	0.020037062
9	0xbdff2173	-0.12457552
10	0xbc06a85b	-0.00821885
11	0xbe238907	-0.1597024
12	0xbd394aa6	-0.045237206
13	0xbcbbaba8	-0.022909
14	0x3b9f9616	0.0048701866
15	0xbcd75083	-0.026283508
16	0xbdd23c85	-0.102654494
17	0xbdfd42c9	-0.12366254
18	0x3ce29f19	0.027663754
19	0xbcee372f	-0.029079048
20	0x3ce4ee1b	0.027945569
21	0xbd452267	-0.04812851
22	0xbd993190	-0.074801564
23	0x3d3596e9	0.044333372
24	0xbb0bbf5e	-0.002132378
25	0xbe510aaa	-0.20414224
26	0x3d821c86	0.06353097
27	0x3e7b44d7	0.24537979
28	0xbd9a6e45	-0.075405635
29	0xbdc2ecc8	-0.09517819
30	0x3d96d667	0.07365113
31	0x3e66c169	0.22534718
32	0xbd7355f4	-0.059408143
33	0xbd3b523b	-0.045732718
34	0x3dcda1d2	0.100406304
35	0x3d6e49c0	0.058175802
36	0x3bc7616a	0.0060846107
37	0x3e14bba8	0.1452471
38	0xbda2c50e	-0.079477414
39	0xbd8efe29	-0.06982071
40	0x3d79d114	0.060990408
41	0x3d811907	0.06303602
42	0x3da422ba	0.08014436
43	0xbc8672a0	-0.01641208
44	0xbca5704a	-0.020195145
45	0xbe1f2514	-0.15541488
46	0xbd448715	-0.047980387
47	0xbea6e390	-0.3259549
48	0x3e8b2190	0.27174044
49	0xbdf9bb39	-0.12193913
50	0xbe0a5962	-0.1351066
51	0x3de5a1d2	0.112125054
52	0x3e31457f	0.17311667
53	0x3e4be48c	0.19911402
54	0xbcbba34f	-0.02290502
55	0x3e6bd378	0.23029888
56	0xbbf23353	-0.007391372
57	0xbe86f5b8	-0.26359344
58	0xbc7a08d7	-0.015260897
59	0xbe367215	-0.17816956
60	0x3cc8732a	0.024468977
61	0xbe20566e	-0.1565797
62	0x3c360b51	0.0111110965
