pid/result/ml100k-PIDMF-debug2023-03-14-10-32-30/ckpt/epoch_36.pth (torch_old, 543278 bytes, 5 tensors)

users f4 [945, 64]
1.401248 -0.28290677 -0.5430871 0.2816836 0.080774926 -0.18662032 0.45560753 -0.43976393
-0.594466 -0.12465283 0.607823 -0.3673441 -0.4714085 0.23997863 0.6956027 -0.18458481
1.1516916 0.48414952 0.8327265 0.43439528 0.675394 -0.2930092 -0.8213342 -0.33768985
0.80783325 0.8270845 -0.008551862 -0.2173861 -0.70788157 -0.64858437 -0.530625 0.11610098
-0.6527966 -0.6730159 -0.5261392 -0.5863986 -0.7635215 0.015254051 -0.5664469 -0.96458614
-0.420359 0.5287755 -0.43985152 0.06290752 -1.0733825 -0.71492827 0.7307193 -0.14555068
0.16689791 0.20517375 -0.8755344 -0.68152833 0.82510716 -0.965548 -0.05203205 0.8901384
0.1815947 0.4803037 0.21244487 1.0303432 0.32178897 -0.49070737 -0.19301146 0.1609362
0.5502681 -0.28103796 0.14708392 -0.7216138 -0.79565835 -0.35177064 0.8617414 0.7447508
0.0864208 -0.137076 -0.052453723 -0.8552002 -0.08537739 0.011395727 0.35269898 -0.16444415
0.18368107 0.06428078 0.28345442 0.49558833 0.2062744 -0.05594822 0.76236385 -0.34750152
0.32278877 1.2195648 -0.89505255 -1.0022311 -0.98314124 -1.0341268 0.3473047 -0.9795344
0.77183247 0.061879896 0.4092815 0.51147765 -0.35387084 0.16236411 -0.8169246 -1.337875
0.20946759 -0.25584066 0.71264285 -0.30603516 0.74312615 -0.68773323 -0.40609193 -0.620637
0.21003705 -1.0340575 0.2537952 -0.81313896 -0.54078597 0.29080746 -0.42680645 -0.80222565
0.50723165 0.18871482 -0.051070172 0.46462816 0.08033264 0.838857 -0.41194293 -0.18525936
-0.6552857 -0.36877918 -0.46270975 -0.30818027 -0.13536488 0.7011362 0.4936127 0.030861866
0.36432078 -0.96254635 0.45338434 0.041129287 -0.609913 0.56181437 0.4444153 -0.37534836
-0.93576413 -0.13309038 1.1230954 0.40968505 -0.48842323 0.49094868 -0.7889579 0.12807278
-0.23577659 1.0450679 -0.07069898 -0.8948937 -0.20079084 -0.2911473 -0.3682073 -0.82451385
-0.86574256 -0.0438898 -1.0042851 -0.14075431 0.8483868 0.13926475 -0.29044545 -0.91552675
0.57845384 0.09975258 -0.4850825 -0.63240385 -0.85191005 0.12136712 0.55528164 -1.1452106
0.22629352 0.22479753 -0.23811512 0.20984611 -1.0713843 -0.095967084 0.44803783 -0.34826848
-0.39382786 0.22904278 0.3003602 -0.1063151 0.11945492 0.7307181 -0.44084862 0.10973015
0.6141033 -0.50096613 0.8436288 -0.15571761 -0.87839735 0.002386144 1.1275309 -0.261859
0.18262428 0.23679332 0.9415635 -0.9700062 0.04107579 0.25567955 0.6721492 -0.27975038
0.52399635 0.12084229 0.49342832 -0.17417729 -0.13841856 -0.47711486 -0.54601717 -0.36557886
-0.7408954 -0.3422361 0.967816 -0.67893213 0.22309947 -0.20515439 0.9322192 0.5578861
0.8599706 -0.8848427 -0.2870905 -0.39893726 -0.13074037 -0.7821155 0.032468997 0.3212129
-0.5553622 0.09881849 0.1131785 0.17236446 -0.8368229 0.007396579 0.46042603 -0.01657593
0.30151302 0.26980305 -0.10885703 -0.631848 1.6481835 -1.0501652 0.4250372 -0.8314723
-0.22431116 0.5074558 0.22560419 0.54256266 -0.20269595 0.27464902 0.18395308 0.10359487
00000000: 185c b33f 28d9 90be c207 0bbf d538 903e
00000010: 536d a53d 6619 3fbe 6445 e93e bd28 e1be
00000020: ec2e 18bf fc49 ffbd 4a9a 1b3f 8714 bcbe
00000030: 745c f1be f5bc 753e 0513 323f cd03 3dbe
00000040: a16a 933f 72e2 f73e 902d 553f 0f69 de3e
00000050: 9fe6 2c3f 4d05 96be f542 52bf afe5 acbe
00000060: 29ce 4e3f cfbb 533f 1c1d 0cbc 769a 5ebe
00000070: ba37 35bf a009 26bf 0ad7 07bf 5ac6 ed3d
00000080: ae1d 27bf c54a 2cbf 0fb1 06bf 381e 16bf
00000090: 2576 43bf 21ec 793c aa02 11bf 1eef 76bf
000000a0: 4b39 d7be d55d 073f 3834 e1be a8d5 803d
000000b0: 9964 89bf 8a05 37bf 6c10 3b3f 3d0b 15be
000000c0: 49e7 2a3e 1119 523e 0623 60bf a478 2ebf
000000d0: 393a 533f 272e 77bf 8f1f 55bd 1ce0 633f
000000e0: f6f3 393e 5eea f53e 268b 593e 49e2 833f
000000f0: 86c1 a43e ff3d fbbe cca4 45be 76cc 243e
00000100: 5fde 0c3f 35e4 8fbe 2b9d 163e afbb 38bf
00000110: 44b0 4bbf 481b b4be 169b 5c3f fda7 3e3f
00000120: 63fd b03d a75d 0cbe b7d9 56bd 66ee 5abf
00000130: 57da aebd 25b5 3a3c f694 b43e 0c64 28be
00000140: e416 3c3e a4a5 833d f020 913e c1bd fd3e
00000150: 9939 533e f629 65bd 472a 433f b8eb b1be
00000160: 9244 a53e b31a 9c3f 2a22 65bf 1c49 80bf
00000170: 25af 7bbf 445e 84bf ecd1 b13e c4c2 7abf
00000180: d096 453f c675 7d3d 588d d13e 33f0 023f
00000190: 8f2e b5be c742 263e f821 51bf 7d3f abbf
000001a0: ac7e 563e 8cfd 82be c36f 363f a4b0 9cbe
000001b0: 843d 3e3f 490f 30bf 48eb cfbe 11e2 1ebf
000001c0: f413 573e ff5b 84bf 72f1 813e e029 50bf
000001d0: f370 0abf b7e4 943e 6086 dabe a95e 4dbf
000001e0: efd9 013f 753e 413e f52e 51bd bee3 ed3e
000001f0: 7085 a43d 55bf 563f 2fea d2be a1b4 3dbe
00000200: cec0 27bf a0d0 bcbe 4be8 ecbe cec9 9dbe
00000210: 179d 0abe a97d 333f ceba fc3e 06d2 fc3c
00000220: 4188 ba3e 7069 76bf fe21 e83e 2f77 283d
00000230: 4223 1cbf 11d3 0f3f 678a e33e a92d c0be
00000240: 3d8e 6fbf d848 08be 97c1 8f3f 3dc2 d13e
00000250: 9c12 fabe a05d fb3e 25f9 49bf 8325 033e
00000260: 6b6f 71be c9c4 853f a0ca 90bd c117 65bf
00000270: 1d9c 4dbe 4211 95be ab85 bcbe 5713 53bf
00000280: 4ea1 5dbf cac5 33bd 6a8c 80bf e621 10be
00000290: e12f 593f 6b9b 0e3e 44b5 94be f65f 6abf
000002a0: 8d15 143f 154b cc3d bc5c f8be 38e5 21bf
000002b0: c716 5abf 538f f83d f026 0e3f 4396 92bf
000002c0: 7db9 673e 5331 663e 73d4 73be e6e1 563e
000002d0: 1f23 89bf 648a c4bd 3765 e53e 3f50 b2be
000002e0: cea3 c9be 318a 6a3e d0c8 993e bbbb d9bd
000002f0: c8a4 f43d 5710 3b3f e9b6 e1be 33ba e03d
00000300: e035 1d3f 513f 00bf 0ff8 573f 7074 1fbe
00000310: a6de 60bf da60 1c3b ef52 903f 6212 86be
00000320: dc01 3b3e f379 723e 4e0a 713f 5452 78bf
00000330: 163f 283d 6ee8 823e f811 2c3f 713b 8fbe
00000340: a024 063f 2a7c f73d a3a2 fc3e 885b 32be
00000350: 98bd 0dbe 6648 f4be c8c7 0bbf 272d bbbe
00000360: 52ab 3dbf 9239 afbe cac2 773f 7fce 2dbf
00000370: 3074 643e fe13 52be eba5 6e3f a0d1 0e3f
00000380: 0927 5c3f 0d85 62bf 87fd 92be 8141 ccbe
00000390: cee0 05be b938 48bf 36fe 043d 0476 a43e
000003a0: 382c 0ebf 5961 ca3d 21ca e73d 4f80 303e
000003b0: 073a 56bf 005f f23b f6bc eb3e 3fca 87bc
000003c0: ea5f 9a3e a023 8a3e 6ff0 debd cac0 21bf
000003d0: adf7 d23f d06b 86bf 7a9e d93e 5edb 54bf
000003e0: d3b1 65be a0e8 013f c904 673e 63e5 0a3f
000003f0: 878f 4fbe cc9e 8c3e 325e 3c3e 8c29 d43d

items_id f4 [1154, 63]
0.5838261 0.55903375 0.18641219 -0.11403431 0.13993661 0.43695685 0.54400665 0.56660527
0.5670708 -0.40460244 0.6280019 -0.11313764 -0.37184724 0.5088567 0.4500327 -0.41307673
-0.16155742 -0.28362033 0.3195642 0.6786634 0.6507377 0.4245556 -0.33482543 0.28630787
-0.26095805 0.032859184 0.32230908 0.23603527 -0.23115465 -0.33908767 0.42449632 0.13971218
-0.16062132 -0.45840076 0.2608695 0.24792266 0.74774545 0.33174378 -0.3029595 -0.22070055
-0.28257522 0.2641719 0.28725988 -0.5602694 -0.5991108 -0.23573114 0.46170026 0.06192347
0.09748915 -0.3264092 -0.2951269 0.043588832 0.2105463 -0.014468146 -0.6596616 0.20748694
-0.5769874 0.02268384 -0.3209884 -0.13218214 0.30913395 -0.16778271 0.46080214 0.17628375
0.29689527 0.13703807 0.003976442 0.5510949 0.073969714 0.62356794 0.09404113 0.039575726
-0.054131728 0.00085817935 -0.033912003 -0.24332656 0.057701815 0.015833927 -0.22870708 -0.30615205
-0.12348243 0.24226694 0.01590745 0.27284786 0.29327172 -0.08847111 0.34446546 -0.19515531
-0.19334517 0.05820901 0.03975035 0.019329386 0.0072541614 -0.03610203 0.08987963 -0.189414
-0.2710459 0.22876385 0.11769376 0.32466885 0.13645333 -0.09176149 -0.091505 -0.15301348
0.23466696 -0.024035372 -0.060035516 -0.21731736 -0.06835889 0.018284714 -0.114485264 0.09367928
0.0013700918 -0.033823006 0.044214774 0.19438592 0.21825017 0.07874826 0.20759572 -0.37246552
-0.11346945 0.0077200998 -0.13461986 -0.001866746 -0.27999434 0.079977386 0.32738367 0.36860952
0.15106097 -0.10201053 0.3377037 0.2606518 0.11211833 0.16372846 0.3756463 -0.28382614
0.39332235 -0.25906667 -0.2798287 0.14952506 0.1644333 -0.14930883 -0.24920136 0.0040350384
0.083242826 0.22904134 0.34368947 0.3328403 -0.19666992 0.2390829 -0.09888617 -0.05973823
0.06886048 0.23423141 -0.10151573 -0.036235362 0.24850051 0.039380293 -0.27616248 -0.3586199
0.13566753 0.077273145 0.41020954 0.10832652 -0.10787894 -0.25542733 -0.17408305 0.10381136
0.25005153 -0.3386047 -0.25364968 -0.20957088 0.17121993 -0.1298117 0.07899184 -0.18843418
-0.2566187 0.084494874 0.20111027 0.18178828 -0.3886467 0.0016358558 -0.2756016 -0.051669434
-0.11252345 -0.15786347 0.06783638 -0.1598481 0.28592676 0.41069052 0.15186714 0.17025232
-0.23230901 0.21924174 0.09599221 0.35502338 0.320131 0.37830085 -0.26128355 0.16346057
-0.23572394 -0.14464696 0.26065817 0.18097766 -0.37464267 -0.2155858 -0.16051723 0.0968743
0.17694125 0.385059 0.13535471 -0.09074944 0.07533182 -0.08801838 -0.15423755 0.20916001
0.16775982 -0.21569365 -0.1383902 0.31647825 0.13594209 -0.06620735 -0.26797828 0.29125726
0.10139603 0.2728514 0.06603553 -0.23966472 -0.2042461 -0.1792421 0.08019759 0.09844645
-0.36363217 -0.19238348 -0.04641017 0.092506334 -0.0034469503 -0.067557335 -0.22613996 -0.14508452
0.07284294 0.096157916 0.1705617 -0.40212166 0.21309559 -0.20368536 -0.07979803 -0.056527294
-0.09741151 0.16263394 -0.2813787 0.1801728 0.35841444 0.24812952 0.24941234 0.050748132
00000000: a175 153f d61c 0f3f d6e2 3e3e d28a e9bd
00000010: 8b4b 0f3e cfb8 df3e 0544 0b3f 0b0d 113f
00000020: 8d2b 113f 0d28 cfbe bcc4 203f b5b4 e7bd
00000030: c362 bebe 6f44 023f b06a e63e cb7e d3be
00000040: 4f6f 25be af36 91be eb9d a33e e2bc 2d3f
00000050: bf96 263f 5a5f d93e 3d6e abbe f296 923e
00000060: 4b9c 85be 5a97 063d b205 a53e 3bb3 713e
00000070: ceb3 6cbe e69c adbe 9557 d93e b610 0f3e
00000080: ea79 24be 81b3 eabe b090 853e 70df 7d3e
00000090: 3f6c 3f3f 52da a93e 821d 9bbe 53ff 61be
000000a0: b3ad 90be 8a41 873e ba13 933e d16d 0fbf
000000b0: 535f 19bf 8163 71be fa63 ec3e 77a3 7d3d
000000c0: 64a8 c73d 1b1f a7be df1a 97be 348a 323d
000000d0: 7399 573e cd0b 6dbc 95df 28bf 7577 543e
000000e0: 72b5 13bf 76d3 b93c 9758 a4be c15a 07be
000000f0: ce46 9e3e 3bcf 2bbe 42ee eb3e ba83 343e
00000100: a802 983e b553 0c3e d04c 823b 8e14 0d3f
00000110: 6f7d 973d 26a2 1f3f a398 c03d 281a 223d
00000120: 3bb9 5dbd 71f7 603a 50e7 0abd 992a 79be
00000130: bd58 6c3d 27b6 813c 3032 6abe f6bf 9cbe
00000140: 5be4 fcbd d314 783e 5750 823c b7b2 8b3e
00000150: b627 963e 5730 b5bd c75d b03e cbd6 47be
00000160: 47fc 45be 926c 6e3d 43d1 223d a958 9e3c
00000170: 51b4 ed3b b9df 13bd d012 b83d bef5 41be
00000180: 87c6 8abe 1241 6a3e 6d09 f13d ff3a a63e
00000190: 6cba 0b3e 73ed bbbd f966 bbbd 91af 1cbe
000001a0: 894c 703e d4e5 c4bc cde7 75bd 7188 5ebe
000001b0: bfff 8bbd d3c9 953c 4077 eabd ecda bf3d
000001c0: a794 b33a fe89 0abd 8d1a 353d 1a0d 473e
000001d0: f97c 5f3e c546 a13d f993 543e cdb3 bebe
000001e0: ac62 e8bd e4f8 fc3b cad9 09be 9aad f4ba
000001f0: 6b5b 8fbe 2fcb a33d d59e a73e 63ba bc3e
00000200: baaf 1a3e e6ea d0bd 80e7 ac3e 2774 853e
00000210: 4c9e e53d 6fa8 273e b654 c03e a951 91be
00000220: 8c61 c93e 63a4 84be b545 8fbe 191d 193e
00000230: 3461 283e 6ae4 18be a42e 7fbe 5b38 843b
00000240: 377b aa3d d089 6a3e 11f8 af3e 0b6a aa3e
00000250: d763 49be 26d2 743e d584 cabd 13b0 74bd
00000260: b906 8d3d 5cda 6f3e 7be7 cfbd 886b 14bd
00000270: eb76 7e3e 3b4d 213d 2b65 8dbe 079d b7be
00000280: 6eec 0a3e 6241 9e3d fc06 d23e 4bda dd3d
00000290: a2ef dcbd 5fc7 82be d442 32be 0d9b d43d
000002a0: c106 803e 985d adbe 5fde 81be c099 56be
000002b0: 4754 2f3e 5ced 04be 79c6 a13d e4f4 40be
000002c0: 8763 83be a60b ad3d daef 4d3e b526 3a3e
000002d0: b3fc c6be 366a d63a a71b 8dbe 54a3 53bd
000002e0: b272 e6bd f6a6 21be cded 8a3d 38af 23be
000002f0: fe64 923e 0746 d23e 0f83 1b3e a056 2e3e
00000300: 6ae2 6dbe e880 603e 9097 c43d a0c5 b53e
00000310: 36e8 a33e a6b0 c13e f5c6 85be 3562 273e
00000320: 9e61 71be 551e 14be fd74 853e 3552 393e
00000330: 2ad1 bfbe 86c2 5cbe a15e 24be 0866 c63d
00000340: 1630 353e 7426 c53e 6d9a 0a3e d8da b9bd
00000350: 9247 9a3d fb42 b4bd 73f0 1dbe 0b2e 563e
00000360: 3bc9 2b3e ccde 5cbe 29b6 0dbe 7009 a23e
00000370: 6734 0b3e b897 87bd 7334 89be ac1f 953e
00000380: b9a8 cf3d 2eb3 8b3e a33d 873d ab6a 75be
00000390: e425 51be 3e8b 37be a23e a43d 4b9e c93d
000003a0: ff2d babe 2d00 45be 9718 3ebd f673 bd3d
000003b0: 3be6 61bb 805b 8abd 3c91 67be 0991 14be
000003c0: ae2e 953d 71ee c43d baa7 2e3e e4e2 cdbe
000003d0: bb35 5a3e e592 50be 266d a3bd 2a89 67bd
000003e0: b07f c7bd 8389 263e de10 90be 387f 383e
000003f0: 1982 b73e aa15 7e3e f365 7f3e 46dd 4f3d

item_pop f4 [1154, 1]
1.0 0.8159806 0.8498789 0.86440676 0.8062954 0.8062954 0.7990315 0.75060534
0.72397095 0.71670705 0.6779661 0.7118644 0.6416465 0.62711865 0.6585956 0.6513317
0.63438255 0.6150121 0.63438255 0.56658596 0.5786925 0.5811138 0.53268766 0.55690074
0.5544794 0.51331717 0.527845 0.51331717 0.50363195 0.47941887 0.52300245 0.5108959
0.50363195 0.50121063 0.4552058 0.47215497 0.5108959 0.4866828 0.5108959 0.44067797
0.44309926 0.4915254 0.4866828 0.527845 0.4552058 0.4552058 0.43099272 0.44552058
0.43825665 0.4479419 0.45762712 0.46004844 0.41888618 0.44552058 0.44309926 0.44309926
0.46246973 0.4479419 0.41888618 0.4261501 0.39225182 0.43341404 0.4213075 0.43099272
0.3946731 0.39951575 0.4261501 0.4164649 0.3946731 0.3898305 0.40920097 0.39951575
0.37288135 0.43583536 0.3946731 0.41404358 0.37530267 0.40920097 0.39709443 0.40435836
0.3898305 0.3559322 0.36077482 0.3898305 0.346247 0.36077482 0.38256657 0.3849879
0.36319613 0.3559322 0.36803874 0.37288135 0.33656174 0.3510896 0.33656174 0.34382567
0.3535109 0.36077482 0.33171913 0.36561742 0.33898306 0.34140435 0.3559322 0.34382567
0.34866828 0.3244552 0.3220339 0.34382567 0.34140435 0.3220339 0.33414045 0.3244552
0.35835353 0.29539952 0.3220339 0.3196126 0.3220339 0.32687652 0.3244552 0.30750605
0.31719127 0.3220339 0.3220339 0.33656174 0.30992737 0.29539952 0.2905569 0.30508474
0.30266345 0.31476998 0.31719127 0.2929782 0.31719127 0.28329298 0.27118644 0.2857143
0.28329298 0.30024213 0.2905569 0.29539952 0.27602905 0.28329298 0.29539952 0.26150122
0.26876512 0.28329298 0.27118644 0.2857143 0.27360776 0.26634383 0.24939467 0.27845037
0.28329298 0.31476998 0.28329298 0.28329298 0.27602905 0.25665858 0.27118644 0.27118644
0.29539952 0.2905569 0.27845037 0.26634383 0.2857143 0.27118644 0.2542373 0.27602905
0.24939467 0.2905569 0.28087166 0.30024213 0.2542373 0.26876512 0.25665858 0.29539952
0.27360776 0.2590799 0.2590799 0.27845037 0.24697337 0.23244552 0.24939467 0.24455206
0.24697337 0.27602905 0.26634383 0.23002422 0.24455206 0.24697337 0.2590799 0.27118644
0.26876512 0.2639225 0.20096852 0.24213076 0.21549636 0.2542373 0.25665858 0.27118644
0.24455206 0.21791768 0.26150122 0.24939467 0.2276029 0.2276029 0.21791768 0.21065375
0.21307506 0.2251816 0.23244552 0.21791768 0.22033899 0.2276029 0.24455206 0.2251816
0.22276029 0.20338982 0.21549636 0.20338982 0.2251816 0.21307506 0.21307506 0.22276029
0.2276029 0.2276029 0.19612591 0.20823245 0.19612591 0.20823245 0.22033899 0.18886198
0.20581114 0.21307506 0.20338982 0.19612591 0.21307506 0.2251816 0.20338982 0.21549636
0.22033899 0.20581114 0.1937046 0.20823245 0.18159807 0.22276029 0.18886198 0.19128329
0.21549636 0.21065375 0.19612591 0.20338982 0.20581114 0.20338982 0.17675544 0.19612591
00000000: 0000 803f 1be4 503f aa91 593f c349 5d3f
00000010: 6069 4e3f 6069 4e3f 548d 4c3f ac27 403f
00000020: 2956 393f 1d7a 373f 308f 2d3f bf3c 363f
00000030: f242 243f d98a 203f b999 283f adbd 263f
00000040: e566 223f 6f71 1d3f e566 223f c70b 113f
00000050: 3125 143f e0c3 143f 385e 083f 0c91 0e3f
00000060: 5df2 0d3f c168 033f da20 073f c168 033f
00000070: 06ee 003f 6476 f53e 7de3 053f 13ca 023f
00000080: 06ee 003f 574f 003f bc10 e93e 4cbe f13e
00000090: 13ca 023f 7d2e f93e 13ca 023f 8ba0 e13e
000000a0: e8dd e23e 38a9 fb3e 7d2e f93e da20 073f
000000b0: bc10 e93e bc10 e93e 14ab dc3e 461b e43e
000000c0: 2d63 e03e a458 e53e 1a4e ea3e 788b eb3e
000000d0: 4078 d63e 461b e43e e8dd e23e e8dd e23e
000000e0: d5c8 ec3e a458 e53e 4078 d63e 5930 da3e
000000f0: 3bd5 c83e 72e8 dd3e 9eb5 d73e 14ab dc3e
00000100: 9812 ca3e 548d cc3e 5930 da3e e33a d53e
00000110: 9812 ca3e dd97 c73e ca82 d13e 548d cc3e
00000120: 4eea be3e d025 df3e 9812 ca3e 85fd d33e
00000130: ac27 c03e ca82 d13e f64f cb3e 0f08 cf3e
00000140: dd97 c73e bf3c b63e 7ab7 b83e dd97 c73e
00000150: 4947 b13e 7ab7 b83e c4df c33e 221d c53e
00000160: d8f4 b93e bf3c b63e 936f bc3e 4eea be3e
00000170: d251 ac3e 04c2 b33e d251 ac3e eb09 b03e
00000180: 61ff b43e 7ab7 b83e 17d7 a93e 3532 bb3e
00000190: 308f ad3e 8dcc ae3e bf3c b63e eb09 b03e
000001a0: a684 b23e fe1e a63e a1e1 a43e eb09 b03e
000001b0: 8dcc ae3e a1e1 a43e 7514 ab3e fe1e a63e
000001c0: 1d7a b73e 9b3e 973e a1e1 a43e 43a4 a33e
000001d0: a1e1 a43e 5c5c a73e fe1e a63e 6f71 9d3e
000001e0: e566 a23e a1e1 a43e a1e1 a43e d251 ac3e
000001f0: cdae 9e3e 9b3e 973e e0c3 943e 1134 9c3e
00000200: b4f6 9a3e 8829 a13e e566 a23e 3d01 963e
00000210: e566 a23e c70b 913e f3d8 8a3e 2549 923e
00000220: c70b 913e 56b9 993e e0c3 943e 9b3e 973e
00000230: ae53 8d3e c70b 913e 9b3e 973e 7de3 853e
00000240: 959b 893e c70b 913e f3d8 8a3e 2549 923e
00000250: 5116 8c3e 385e 883e 5161 7f3e 0c91 8e3e
00000260: c70b 913e 8829 a13e c70b 913e c70b 913e
00000270: ae53 8d3e c168 833e f3d8 8a3e f3d8 8a3e
00000280: 9b3e 973e e0c3 943e 0c91 8e3e 385e 883e
00000290: 2549 923e f3d8 8a3e 642b 823e ae53 8d3e
000002a0: 5161 7f3e e0c3 943e 69ce 8f3e 56b9 993e
000002b0: 642b 823e 959b 893e c168 833e 9b3e 973e
000002c0: 5116 8c3e 1fa6 843e 1fa6 843e 0c91 8e3e
000002d0: 96e6 7c3e 3306 6e3e 5161 7f3e db6b 7a3e
000002e0: 96e6 7c3e ae53 8d3e 385e 883e 788b 6b3e
000002f0: db6b 7a3e 96e6 7c3e 1fa6 843e f3d8 8a3e
00000300: 959b 893e da20 873e b1ca 4d3e 20f1 773e
00000310: 14ab 5c3e 642b 823e c168 833e f3d8 8a3e
00000320: db6b 7a3e d025 5f3e 7de3 853e 5161 7f3e
00000330: bc10 693e bc10 693e d025 5f3e 9eb5 573e
00000340: 5930 5a3e 0196 663e 3306 6e3e d025 5f3e
00000350: 8ba0 613e bc10 693e db6b 7a3e 0196 663e
00000360: 461b 643e 6c45 503e 14ab 5c3e 6c45 503e
00000370: 0196 663e 5930 5a3e 5930 5a3e 461b 643e
00000380: bc10 693e bc10 693e 3bd5 483e e33a 553e
00000390: 3bd5 483e e33a 553e 8ba0 613e 0965 413e
000003a0: 28c0 523e 5930 5a3e 6c45 503e 3bd5 483e
000003b0: 5930 5a3e 0196 663e 6c45 503e 14ab 5c3e
000003c0: 8ba0 613e 28c0 523e 805a 463e e33a 553e
000003d0: d8f4 393e 461b 643e 0965 413e c4df 433e
000003e0: 14ab 5c3e 9eb5 573e 3bd5 483e 6c45 503e
000003f0: 28c0 523e 6c45 503e 61ff 343e 3bd5 483e

item_pop_true f4 [1154, 1]
1.0 0.8159806 0.8498789 0.86440676 0.8062954 0.8062954 0.7990315 0.75060534
0.72397095 0.71670705 0.6779661 0.7118644 0.6416465 0.62711865 0.6585956 0.6513317
0.63438255 0.6150121 0.63438255 0.56658596 0.5786925 0.5811138 0.53268766 0.55690074
0.5544794 0.51331717 0.527845 0.51331717 0.50363195 0.47941887 0.52300245 0.5108959
0.50363195 0.50121063 0.4552058 0.47215497 0.5108959 0.4866828 0.5108959 0.44067797
0.44309926 0.4915254 0.4866828 0.527845 0.4552058 0.4552058 0.43099272 0.44552058
0.43825665 0.4479419 0.45762712 0.46004844 0.41888618 0.44552058 0.44309926 0.44309926
0.46246973 0.4479419 0.41888618 0.4261501 0.39225182 0.43341404 0.4213075 0.43099272
0.3946731 0.39951575 0.4261501 0.4164649 0.3946731 0.3898305 0.40920097 0.39951575
0.37288135 0.43583536 0.3946731 0.41404358 0.37530267 0.40920097 0.39709443 0.40435836
0.3898305 0.3559322 0.36077482 0.3898305 0.346247 0.36077482 0.38256657 0.3849879
0.36319613 0.3559322 0.36803874 0.37288135 0.33656174 0.3510896 0.33656174 0.34382567
0.3535109 0.36077482 0.33171913 0.36561742 0.33898306 0.34140435 0.3559322 0.34382567
0.34866828 0.3244552 0.3220339 0.34382567 0.34140435 0.3220339 0.33414045 0.3244552
0.35835353 0.29539952 0.3220339 0.3196126 0.3220339 0.32687652 0.3244552 0.30750605
0.31719127 0.3220339 0.3220339 0.33656174 0.30992737 0.29539952 0.2905569 0.30508474
0.30266345 0.31476998 0.31719127 0.2929782 0.31719127 0.28329298 0.27118644 0.2857143
0.28329298 0.30024213 0.2905569 0.29539952 0.27602905 0.28329298 0.29539952 0.26150122
0.26876512 0.28329298 0.27118644 0.2857143 0.27360776 0.26634383 0.24939467 0.27845037
0.28329298 0.31476998 0.28329298 0.28329298 0.27602905 0.25665858 0.27118644 0.27118644
0.29539952 0.2905569 0.27845037 0.26634383 0.2857143 0.27118644 0.2542373 0.27602905
0.24939467 0.2905569 0.28087166 0.30024213 0.2542373 0.26876512 0.25665858 0.29539952
0.27360776 0.2590799 0.2590799 0.27845037 0.24697337 0.23244552 0.24939467 0.24455206
0.24697337 0.27602905 0.26634383 0.23002422 0.24455206 0.24697337 0.2590799 0.27118644
0.26876512 0.2639225 0.20096852 0.24213076 0.21549636 0.2542373 0.25665858 0.27118644
0.24455206 0.21791768 0.26150122 0.24939467 0.2276029 0.2276029 0.21791768 0.21065375
0.21307506 0.2251816 0.23244552 0.21791768 0.22033899 0.2276029 0.24455206 0.2251816
0.22276029 0.20338982 0.21549636 0.20338982 0.2251816 0.21307506 0.21307506 0.22276029
0.2276029 0.2276029 0.19612591 0.20823245 0.19612591 0.20823245 0.22033899 0.18886198
0.20581114 0.21307506 0.20338982 0.19612591 0.21307506 0.2251816 0.20338982 0.21549636
0.22033899 0.20581114 0.1937046 0.20823245 0.18159807 0.22276029 0.18886198 0.19128329
0.21549636 0.21065375 0.19612591 0.20338982 0.20581114 0.20338982 0.17675544 0.19612591
00000000: 0000 803f 1be4 503f aa91 593f c349 5d3f
00000010: 6069 4e3f 6069 4e3f 548d 4c3f ac27 403f
00000020: 2956 393f 1d7a 373f 308f 2d3f bf3c 363f
00000030: f242 243f d98a 203f b999 283f adbd 263f
00000040: e566 223f 6f71 1d3f e566 223f c70b 113f
00000050: 3125 143f e0c3 143f 385e 083f 0c91 0e3f
00000060: 5df2 0d3f c168 033f da20 073f c168 033f
00000070: 06ee 003f 6476 f53e 7de3 053f 13ca 023f
00000080: 06ee 003f 574f 003f bc10 e93e 4cbe f13e
00000090: 13ca 023f 7d2e f93e 13ca 023f 8ba0 e13e
000000a0: e8dd e23e 38a9 fb3e 7d2e f93e da20 073f
000000b0: bc10 e93e bc10 e93e 14ab dc3e 461b e43e
000000c0: 2d63 e03e a458 e53e 1a4e ea3e 788b eb3e
000000d0: 4078 d63e 461b e43e e8dd e23e e8dd e23e
000000e0: d5c8 ec3e a458 e53e 4078 d63e 5930 da3e
000000f0: 3bd5 c83e 72e8 dd3e 9eb5 d73e 14ab dc3e
00000100: 9812 ca3e 548d cc3e 5930 da3e e33a d53e
00000110: 9812 ca3e dd97 c73e ca82 d13e 548d cc3e
00000120: 4eea be3e d025 df3e 9812 ca3e 85fd d33e
00000130: ac27 c03e ca82 d13e f64f cb3e 0f08 cf3e
00000140: dd97 c73e bf3c b63e 7ab7 b83e dd97 c73e
00000150: 4947 b13e 7ab7 b83e c4df c33e 221d c53e
00000160: d8f4 b93e bf3c b63e 936f bc3e 4eea be3e
00000170: d251 ac3e 04c2 b33e d251 ac3e eb09 b03e
00000180: 61ff b43e 7ab7 b83e 17d7 a93e 3532 bb3e
00000190: 308f ad3e 8dcc ae3e bf3c b63e eb09 b03e
000001a0: a684 b23e fe1e a63e a1e1 a43e eb09 b03e
000001b0: 8dcc ae3e a1e1 a43e 7514 ab3e fe1e a63e
000001c0: 1d7a b73e 9b3e 973e a1e1 a43e 43a4 a33e
000001d0: a1e1 a43e 5c5c a73e fe1e a63e 6f71 9d3e
000001e0: e566 a23e a1e1 a43e a1e1 a43e d251 ac3e
000001f0: cdae 9e3e 9b3e 973e e0c3 943e 1134 9c3e
00000200: b4f6 9a3e 8829 a13e e566 a23e 3d01 963e
00000210: e566 a23e c70b 913e f3d8 8a3e 2549 923e
00000220: c70b 913e 56b9 993e e0c3 943e 9b3e 973e
00000230: ae53 8d3e c70b 913e 9b3e 973e 7de3 853e
00000240: 959b 893e c70b 913e f3d8 8a3e 2549 923e
00000250: 5116 8c3e 385e 883e 5161 7f3e 0c91 8e3e
00000260: c70b 913e 8829 a13e c70b 913e c70b 913e
00000270: ae53 8d3e c168 833e f3d8 8a3e f3d8 8a3e
00000280: 9b3e 973e e0c3 943e 0c91 8e3e 385e 883e
00000290: 2549 923e f3d8 8a3e 642b 823e ae53 8d3e
000002a0: 5161 7f3e e0c3 943e 69ce 8f3e 56b9 993e
000002b0: 642b 823e 959b 893e c168 833e 9b3e 973e
000002c0: 5116 8c3e 1fa6 843e 1fa6 843e 0c91 8e3e
000002d0: 96e6 7c3e 3306 6e3e 5161 7f3e db6b 7a3e
000002e0: 96e6 7c3e ae53 8d3e 385e 883e 788b 6b3e
000002f0: db6b 7a3e 96e6 7c3e 1fa6 843e f3d8 8a3e
00000300: 959b 893e da20 873e b1ca 4d3e 20f1 773e
00000310: 14ab 5c3e 642b 823e c168 833e f3d8 8a3e
00000320: db6b 7a3e d025 5f3e 7de3 853e 5161 7f3e
00000330: bc10 693e bc10 693e d025 5f3e 9eb5 573e
00000340: 5930 5a3e 0196 663e 3306 6e3e d025 5f3e
00000350: 8ba0 613e bc10 693e db6b 7a3e 0196 663e
00000360: 461b 643e 6c45 503e 14ab 5c3e 6c45 503e
00000370: 0196 663e 5930 5a3e 5930 5a3e 461b 643e
00000380: bc10 693e bc10 693e 3bd5 483e e33a 553e
00000390: 3bd5 483e e33a 553e 8ba0 613e 0965 413e
000003a0: 28c0 523e 5930 5a3e 6c45 503e 3bd5 483e
000003b0: 5930 5a3e 0196 663e 6c45 503e 14ab 5c3e
000003c0: 8ba0 613e 28c0 523e 805a 463e e33a 553e
000003d0: d8f4 393e 461b 643e 0965 413e c4df 433e
000003e0: 14ab 5c3e 9eb5 573e 3bd5 483e 6c45 503e
000003f0: 28c0 523e 6c45 503e 61ff 343e 3bd5 483e

lr1.weight f4 [1, 63]
0.05897106 0.018406468 0.10893327 -0.18756875 0.14368707 0.030447181 0.13546316 -0.010762133
-0.0046468833 -0.11668352 -0.017117409 -0.17364131 -0.051573135 -0.03450478 -0.0015383878 -0.0017104209
-0.09191701 -0.11569869 0.032754425 -0.02843307 0.016073272 -0.04475009 -0.059224818 0.03386873
0.015573306 -0.18869562 0.04953901 0.22356082 -0.086939126 -0.094742075 0.0783163 0.17920387
-0.047182858 -0.04561752 0.06474714 0.027851416 0.0050623002 0.14628616 -0.07304598 -0.0738339
0.0642015 0.06323786 0.06923473 -0.018348126 -0.015654286 -0.10553093 -0.054197032 -0.31697986
0.24905838 -0.098221 -0.12409507 0.09111631 0.16587943 0.1665129 -0.018716868 0.20558408
0.0027049347 -0.25017688 -0.005991222 -0.1530235 0.034634985 -0.14520904 0.0062995763
00000000: a38b 713d 29c9 963c 6818 df3d 0612 40be
00000010: b422 133e 5e6c f93c dbb6 0a3e a853 30bc
00000020: e244 98bb c5f7 eebd cf39 8cbc 07cf 31be
00000030: 5a3e 53bd e254 0dbd bba3 c9ba 3430 e0ba
00000040: fc3e bcbd 6ff3 ecbd 8129 063d 78ec e8bc
00000050: 18ac 833c df4b 37bd b995 72bd f0b9 0a3d
00000060: 2e27 7f3c 6d39 41be 6be9 4a3d 21ed 643e
00000070: 240d b2bd 2208 c2bd 4c64 a03d 3881 373e
00000080: d042 41bd 70d9 3abd 269a 843d a728 e43c
00000090: a7e1 a53b 0acc 153e 2199 95bd 3a36 97bd
000000a0: 137c 833d da82 813d f0ca 8d3d cf4e 96bc
000000b0: 6b3d 80bc 9a20 d8bd b5fd 5dbd 2f4b a2be
000000c0: 2909 7f3e 1728 c9bd 8e25 febd 309b ba3d
000000d0: 4cdc 293e 5c82 2a3e 1e54 99bc a284 523e
000000e0: 4645 313b 2f17 80be 0352 c4bb 31b2 1cbe
000000f0: 6add 0d3d aeb1 14be ad6c ce3b
