pid/result/ml100k-PIDMF-debug2023-03-14-10-32-30/ckpt/epoch_43.pth (torch_old, 543278 bytes, 5 tensors)

users f4 [945, 64]
1.5097193 -0.27577323 -0.5965041 0.30652136 0.101554476 -0.18914995 0.48802632 -0.48790166
-0.62097377 -0.13324527 0.61648405 -0.3555018 -0.5081013 0.26467204 0.7566912 -0.19675885
1.219001 0.5192775 0.85290855 0.450141 0.7198307 -0.29422134 -0.86243474 -0.36532298
0.8535191 0.9115167 -0.02592567 -0.2079813 -0.74817145 -0.68077695 -0.5714049 0.13431129
-0.70986927 -0.6842073 -0.6009921 -0.6769314 -0.83814764 0.0029203012 -0.6156105 -1.0467148
-0.4022047 0.5982608 -0.47577626 0.055247843 -1.1449417 -0.72679347 0.7181845 -0.15688832
0.19481538 0.22556403 -0.95758617 -0.7433486 0.88090974 -0.9637108 -0.052872404 0.89611673
0.22319873 0.4644757 0.24217507 1.088652 0.33159298 -0.5230312 -0.19353211 0.1700871
0.57347524 -0.28205028 0.14427367 -0.7552145 -0.803547 -0.40904343 0.94382846 0.81998754
0.07828395 -0.11608178 -0.06277195 -0.9049532 -0.07893517 0.037552666 0.36314318 -0.19985485
0.1875179 0.09845063 0.28630555 0.51425356 0.21327053 -0.028440526 0.8188014 -0.3727807
0.338715 1.2414882 -0.9221107 -1.0388155 -1.0440711 -1.1351129 0.36485007 -0.99243605
0.7877287 0.0319369 0.45502624 0.56204444 -0.35932904 0.20650116 -0.88054967 -1.4172701
0.2016632 -0.27938467 0.7256713 -0.27855197 0.7993418 -0.7311223 -0.42586082 -0.6538444
0.22215232 -1.0965197 0.29994875 -0.89383805 -0.5695827 0.32975683 -0.43964794 -0.89337236
0.5338725 0.19307706 -0.024062576 0.46484303 0.070250995 0.8620978 -0.45243347 -0.1680088
-0.7263661 -0.43775347 -0.48608226 -0.3428094 -0.14699233 0.75829136 0.45054978 0.03521368
0.3857453 -1.0114629 0.48860967 0.045268785 -0.62630016 0.5588868 0.44809973 -0.4057714
-0.9917503 -0.12635611 1.2397246 0.45368028 -0.531464 0.5032504 -0.81053245 0.10468877
-0.23397543 1.1074685 -0.1123707 -0.9400053 -0.236669 -0.29715177 -0.38669023 -0.85065585
-0.9769116 -0.037184697 -1.08905 -0.17396545 0.9235392 0.14340231 -0.2770916 -0.94899994
0.6362823 0.09314431 -0.57232803 -0.6880488 -0.896665 0.113939375 0.59062594 -1.2160642
0.23837516 0.2421191 -0.28714427 0.26072213 -1.1728779 -0.10481481 0.4610304 -0.35036978
-0.40108413 0.22502106 0.34760147 -0.17294529 0.076403156 0.7602857 -0.4599738 0.098069265
0.66451913 -0.520263 0.91247314 -0.17564704 -0.95108545 -0.014116172 1.1766034 -0.31093642
0.19658145 0.2803441 0.9992014 -1.0588914 0.051784452 0.21657808 0.6695288 -0.336877
0.5562384 0.19627047 0.5678785 -0.22494286 -0.14253981 -0.4285592 -0.5591892 -0.41998464
-0.7920821 -0.36258325 1.0164291 -0.696752 0.21213232 -0.22174816 1.0200942 0.584214
0.9751535 -0.9953759 -0.28421545 -0.43015733 -0.14229548 -0.8547589 0.05888288 0.3471618
-0.55924225 0.1152281 0.110818766 0.17966314 -0.87807304 -0.016417958 0.47648683 -0.02697718
0.37261727 0.29528543 -0.08060247 -0.6259443 1.7478871 -1.109648 0.44240877 -0.8613041
-0.27843747 0.5171658 0.23352514 0.5493629 -0.21772121 0.27270696 0.19964106 0.116625525
00000000: 7b3e c13f 2632 8dbe 7eb4 18bf 5ef0 9c3e
00000010: cbfb cf3d 86b0 41be 96de f93e 3fce f9be
00000020: 23f8 1ebf 7371 08be e6d1 1d3f 5504 b6be
00000030: ed12 02bf 1883 873e 84b6 413f 277b 49be
00000040: 3a08 9c3f 5fef 043f 3758 5a3f e278 e63e
00000050: d346 383f 2ea4 96be 86c8 5cbf 9d0b bbbe
00000060: 3a80 5a3f 2959 693f 1262 d4bc 0df9 54be
00000070: 2a88 3fbf 6647 2ebf 9747 12bf e688 093e
00000080: feb9 35bf 3628 2fbf 9eda 19bf 604b 2dbf
00000090: d890 56bf 8662 3f3b a698 1dbf c0fa 85bf
000000a0: c6ed cdbe 9f27 193f f298 f3be 904b 623d
000000b0: 738d 92bf 230f 3abf f0da 373f 55a7 20be
000000c0: af7d 473e 42fa 663e 5e24 75bf 184c 3ebf
000000d0: 4d83 613f c0b5 76bf bc90 58bd e867 653f
000000e0: 358e 643e c2cf ed3e befc 773e f358 8b3f
000000f0: 8ec6 a93e 5fe5 05bf 482d 46be 502b 2e3e
00000100: 46cf 123f e568 90be 7abc 133e bd55 41bf
00000110: 42b5 4dbf 246e d1be be9e 713f b4ea 513f
00000120: 5653 a03d 49bc edbd 958e 80bd 03ab 67bf
00000130: c3a8 a1bd d3d0 193d e7ed b93e c0a6 4cbe
00000140: b104 403e 7ca0 c93d a496 923e 1fa6 033f
00000150: 9763 5a3e 1bfc e8bc f89c 513f 1ddd bebe
00000160: 0d6c ad3e 16e9 9e3f 720f 6cbf e8f7 84bf
00000170: 1fa4 85bf 614b 91bf a1cd ba3e 4a10 7ebf
00000180: 97a8 493f 44d0 023d 33f9 e83e 25e2 0f3f
00000190: faf9 b7be 0a75 533e b46b 61bf 1b69 b5bf
000001a0: cc80 4e3e 820b 8fbe 98c5 393f 5d9e 8ebe
000001b0: aaa1 4c3f d52a 3bbf 6e0a dabe 5962 27bf
000001c0: e67b 633e c25a 8cbf e292 993e 92d2 64bf
000001d0: 2cd0 11bf e3d5 a83e 8919 e1be 0db4 64bf
000001e0: deab 083f feb5 453e e11e c5bc e8ff ed3e
000001f0: c1df 8f3d 71b2 5c3f 5ca5 e7be 800a 2cbe
00000200: 21f3 39bf 3921 e0be c6df f8be b784 afbe
00000210: 2885 16be 621f 423f 76ae e63e 383c 103d
00000220: 6880 c53e 9e77 81bf 0c2b fa3e c36b 393d
00000230: 3555 20bf 3513 0f3f 546d e53e 45c1 cfbe
00000240: 59e3 7dbf 7f63 01be 4caf 9e3f c848 e83e
00000250: 060e 08bf 05d5 003f 0e7f 4fbf 1167 d63d
00000260: 4197 6fbe 87c1 8d3f 9c22 e6bd 30a4 70bf
00000270: 5c59 72be 4724 98be 43fc c5be 95c4 59bf
00000280: e116 7abf fb4e 18bd fe65 8bbf 0024 32be
00000290: 116d 6c3f 0ed8 123e f3de 8dbe a9f1 72bf
000002a0: 66e3 223f 72c2 be3d 1784 12bf f723 30bf
000002b0: d68b 65bf 0c59 e93d 4333 173f fea7 9bbf
000002c0: 9e18 743e 12ee 773e 9304 93be 5f7d 853e
000002d0: dd20 96bf 26a9 d6bd 2d0c ec3e ab63 b3be
000002e0: e65a cdbe ec6b 663e d2f8 b13e 9218 31be
000002f0: 4279 9c3d 15a2 423f b081 ebbe 8ad8 c83d
00000300: ed1d 2a3f f52f 05bf d797 693f d1dc 33be
00000310: 567a 73bf 8447 67bc f19a 963f 0f33 9fbe
00000320: a64c 493e 4389 8f3e aacb 7f3f c189 87bf
00000330: ef1b 543d a5c6 5d3e 3d66 2b3f 247b acbe
00000340: a465 0e3f 20fb 483e 7c60 113f 6c57 66be
00000350: f5f5 11be 1d6c dbbe 0627 0fbf 3a08 d7be
00000360: e4c5 4abf 83a4 b9be 591a 823f 575e 32bf
00000370: 3739 593e f311 63be 7292 823f 0c8f 153f
00000380: a9a3 793f f4d0 7ebf b084 91be 953d dcbe
00000390: e8b5 11be 7bd1 5abf 2d2f 713d 31bf b13e
000003a0: 802a 0fbf b6fc eb3d f3f4 e23d 9df9 373e
000003b0: 65c9 60bf f47e 86bc 15f6 f33e 3fff dcbc
000003c0: b1c7 be3e a72f 973e e812 a5bd e33d 20bf
000003d0: c4ba df3f f208 8ebf 6783 e23e 6d7e 5cbf
000003e0: 5b8f 8ebe fa64 043f 3721 6f3e 0ca3 0c3f
000003f0: 4ff2 5ebe 3fa0 8b3e b56e 4c3e 5dd9 ee3d

items_id f4 [1154, 63]
0.5990594 0.56551945 0.19511694 -0.11668353 0.15462825 0.44428888 0.59309113 0.59463716
0.5783154 -0.41693938 0.6496597 -0.114452355 -0.38730365 0.52673715 0.46433616 -0.4185935
-0.18093774 -0.29952615 0.32911494 0.6974696 0.68698335 0.43307123 -0.3513132 0.30897996
-0.26972046 0.03372239 0.33231053 0.24237902 -0.23265125 -0.34866008 0.44056848 0.1450576
-0.1719201 -0.48148054 0.277771 0.260486 0.7560773 0.3489253 -0.30624977 -0.23095849
-0.29691038 0.2666064 0.2912097 -0.57281625 -0.6314645 -0.23689157 0.47472668 0.071536854
0.10460933 -0.33748004 -0.30119172 0.033657175 0.21391754 -0.003958851 -0.6724475 0.20562111
-0.59332055 0.03416916 -0.3285586 -0.12974621 0.31852698 -0.1714214 0.4868318 0.19484544
0.31542814 0.13803177 0.025627067 0.59996647 0.07792242 0.68192416 0.11048762 0.04014961
-0.052310307 0.016002977 -0.0397245 -0.25623915 0.07689434 0.030999798 -0.24351257 -0.3258613
-0.12167758 0.25283393 0.021033982 0.2891732 0.31272033 -0.098323144 0.3634825 -0.20024993
-0.18953194 0.05858562 0.044193313 0.022567673 -0.00038173283 -0.038982466 0.08609131 -0.19580944
-0.28505296 0.2467586 0.12516491 0.3469255 0.13643706 -0.10217606 -0.09956234 -0.17555203
0.2418597 -0.021653006 -0.05582765 -0.22520025 -0.070115425 0.026115768 -0.108306944 0.09694209
0.0030474334 -0.034844164 0.051009245 0.19495456 0.20437247 0.076323 0.21101983 -0.40366676
-0.1050055 -0.0035511835 -0.14212978 0.005512285 -0.29142895 0.09575384 0.33054724 0.380707
0.15485802 -0.082605585 0.3572961 0.26752573 0.10495715 0.18715179 0.37511268 -0.29218778
0.4069661 -0.2606674 -0.28831807 0.16487867 0.17009065 -0.160393 -0.27638286 0.008896773
0.093517736 0.24499 0.35817257 0.3880042 -0.20831826 0.2605461 -0.10586795 -0.062658526
0.0775974 0.2375321 -0.109516755 -0.042280093 0.25273022 0.049377266 -0.28318524 -0.3758091
0.13872318 0.08455171 0.4329288 0.12488087 -0.11945428 -0.26508537 -0.1938125 0.12010211
0.25492796 -0.3588041 -0.2604487 -0.21027572 0.19591172 -0.13197035 0.08143889 -0.18844716
-0.26136166 0.09284705 0.20216349 0.1841057 -0.39475566 0.005419006 -0.2990094 -0.059108574
-0.11697169 -0.16096088 0.074230835 -0.16726844 0.29464412 0.42468685 0.16331856 0.1807061
-0.2177516 0.2221184 0.107110776 0.3693447 0.33504447 0.3957817 -0.26563373 0.17674097
-0.2411776 -0.15514271 0.26728418 0.1935973 -0.4063718 -0.2243816 -0.16133764 0.10618926
0.19224225 0.40639886 0.14585063 -0.10132357 0.08380037 -0.08962243 -0.15489389 0.21915713
0.17065457 -0.21701449 -0.14665195 0.32462433 0.14561126 -0.07619559 -0.28059766 0.30213138
0.11250618 0.29471612 0.08111637 -0.24633251 -0.21320766 -0.19479801 0.08708583 0.1056053
-0.3704504 -0.21075355 -0.05198571 0.103362225 0.005217183 -0.07466281 -0.23124644 -0.15152375
0.06974613 0.10150546 0.16931902 -0.4086194 0.21458974 -0.21913907 -0.080659784 -0.06365545
-0.10245747 0.17185974 -0.30298063 0.1885957 0.3838342 0.26754805 0.25506267 0.07298253
00000000: f55b 193f e2c5 103f bccc 473e c6f7 eebd
00000010: de56 1e3e d579 e33e d2d4 173f 243a 183f
00000020: 7a0c 143f 1479 d5be 1950 263f ff65 eabd
00000030: aa4c c6be 3fd8 063f 78bd ed3e e351 d6be
00000040: be47 39be 7e5b 99be c181 a83e 5e8d 323f
00000050: 24de 2f3f 83bb dd3e 53df b3be 9f32 9e3e
00000060: cd18 8abe 7d20 0a3d 9b24 aa3e 3532 783e
00000070: 213c 6ebe 9383 b2be 3192 e13e fb89 143e
00000080: d30b 30be 9e84 f6be 0038 8e3e 6c5e 853e
00000090: 488e 413f 56a6 b23e c5cc 9cbe 6280 6cbe
000000a0: a304 98be a280 883e 7019 953e 16a4 12bf
000000b0: a8a7 21bf b493 72be 600f f33e ea81 923d
000000c0: 6b3d d63d 2fca acbe cd35 9abe 1bdc 093d
000000d0: 330d 5b3e 40b9 81bb 8525 2cbf 578e 523e
000000e0: dbe3 17bf f6f4 0b3d d538 a8be 31dc 04be
000000f0: f815 a33e 1789 2fbe 0542 f93e 9085 473e
00000100: cc7f a13e 3358 0d3e dbef d13c 6797 193f
00000110: ca95 9f3d 9592 2e3f 5547 e23d eb73 243d
00000120: 5543 56bd ad18 833c 28b6 22bd c731 83be
00000130: c87a 9d3d 4af3 fd3c 5c5b 79be 4bd7 a6be
00000140: 1832 f9bd 7373 813e 754f ac3c 820e 943e
00000150: e11c a03e a55d c9bd 611a ba3e 510e 4dbe
00000160: a914 42be 7af7 6f3d 0c04 353d d7df b83c
00000170: 5023 c8b9 14ac 1fbd a450 b03d 4582 48be
00000180: 76f2 91be 49ae 7c3e 3b2b 003e 38a0 b13e
00000190: 28b6 0b3e af41 d1bd 57e7 cbbd e9c3 33be
000001a0: 12aa 773e a561 b1bc 89ab 64bd e59a 66be
000001b0: ad98 8fbd bcf0 d53c 08d0 ddbd 9389 c63d
000001c0: 73b7 473b c1b8 0ebd 12ef 503d 2ba2 473e
000001d0: 0447 513e 3c4f 9c3d 9515 583e 69ad cebe
000001e0: 200d d7bd f9ba 68bb 788a 11be 66a0 b43b
000001f0: 2d36 95be 971a c43d 7d3d a93e 07ec c23e
00000200: 1a93 1e3e 1e2d a9bd 84ef b63e 22f9 883e
00000210: c6f3 d63d b8a4 3f3e c50e c03e a399 95be
00000220: dc5d d03e 3376 85be 6d9e 93be f4d5 283e
00000230: 3e2c 2e3e 103e 24be 0e82 8dbe c5c3 113c
00000240: 3a86 bf3d a9de 7a3e 6562 b73e 7da8 c63e
00000250: 6251 55be 4c66 853e 4cd1 d8bd 1d53 80bd
00000260: 63eb 9e3d 9d3b 733e 524a e0bd e42d 2dbd
00000270: db65 813e d13f 4a3d a8fd 90be 0d6a c0be
00000280: 730d 0e3e 7229 ad3d d8a8 dd3e 8bc1 ff3d
00000290: 72a4 f4bd 45b9 87be c976 46be 18f8 f53d
000002a0: eb85 823e 2cb5 b7be 8859 85be 8552 57be
000002b0: 159d 483e 3c23 07be 6fc9 a63d 4bf8 40be
000002c0: 32d1 85be 9826 be3d f203 4f3e 3486 3c3e
000002d0: 6a1d cabe eb91 b13b c317 99be d51b 72bd
000002e0: da8e efbd eed2 24be 5606 983d 6b48 2bbe
000002f0: 98db 963e 8e70 d93e fb3c 273e 050b 393e
00000300: 47fa 5ebe 0173 633e e55c db3d c01a bd3e
00000310: f38a ab3e e6a3 ca3e 2501 88be 96fb 343e
00000320: 43f7 76be bbdd 1ebe 79d9 883e 5f3e 463e
00000330: f70f d0be 4ac4 65be b235 25be c179 d93d
00000340: 27db 443e 8313 d03e de59 153e bb82 cfbd
00000350: 879f ab3d f78b b7bd 819c 1ebe ba6a 603e
00000360: 12c0 2e3e 0c39 5ebe ee2b 16be 2935 a63e
00000370: 1e1b 153e 6f0c 9cbd 7faa 8fbe f7b0 9a3e
00000380: a469 e63d 08e5 963e 5720 a63d 973e 7cbe
00000390: 1c53 5abe 2179 47be 0e5a b23d 9747 d83d
000003a0: adab bdbe c7cf 57be f8ee 54bd 93af d33d
000003b0: e7f4 aa3b d1e8 98bd decb 6cbe 0b29 1bbe
000003c0: 0fd7 8e3d 18e2 cf3d f761 2d3e 9036 d1be
000003d0: 6abd 5b3e fe65 60be f530 a5bd ca5d 82bd
000003e0: 39d5 d1bd 00fc 2f3e 4720 9bbe 3b1f 413e
000003f0: eb85 c43e 0ffc 883e 9397 823e dd77 953d

item_pop f4 [1154, 1]
1.0 0.8159806 0.8498789 0.86440676 0.8062954 0.8062954 0.7990315 0.75060534
0.72397095 0.71670705 0.6779661 0.7118644 0.6416465 0.62711865 0.6585956 0.6513317
0.63438255 0.6150121 0.63438255 0.56658596 0.5786925 0.5811138 0.53268766 0.55690074
0.5544794 0.51331717 0.527845 0.51331717 0.50363195 0.47941887 0.52300245 0.5108959
0.50363195 0.50121063 0.4552058 0.47215497 0.5108959 0.4866828 0.5108959 0.44067797
0.44309926 0.4915254 0.4866828 0.527845 0.4552058 0.4552058 0.43099272 0.44552058
0.43825665 0.4479419 0.45762712 0.46004844 0.41888618 0.44552058 0.44309926 0.44309926
0.46246973 0.4479419 0.41888618 0.4261501 0.39225182 0.43341404 0.4213075 0.43099272
0.3946731 0.39951575 0.4261501 0.4164649 0.3946731 0.3898305 0.40920097 0.39951575
0.37288135 0.43583536 0.3946731 0.41404358 0.37530267 0.40920097 0.39709443 0.40435836
0.3898305 0.3559322 0.36077482 0.3898305 0.346247 0.36077482 0.38256657 0.3849879
0.36319613 0.3559322 0.36803874 0.37288135 0.33656174 0.3510896 0.33656174 0.34382567
0.3535109 0.36077482 0.33171913 0.36561742 0.33898306 0.34140435 0.3559322 0.34382567
0.34866828 0.3244552 0.3220339 0.34382567 0.34140435 0.3220339 0.33414045 0.3244552
0.35835353 0.29539952 0.3220339 0.3196126 0.3220339 0.32687652 0.3244552 0.30750605
0.31719127 0.3220339 0.3220339 0.33656174 0.30992737 0.29539952 0.2905569 0.30508474
0.30266345 0.31476998 0.31719127 0.2929782 0.31719127 0.28329298 0.27118644 0.2857143
0.28329298 0.30024213 0.2905569 0.29539952 0.27602905 0.28329298 0.29539952 0.26150122
0.26876512 0.28329298 0.27118644 0.2857143 0.27360776 0.26634383 0.24939467 0.27845037
0.28329298 0.31476998 0.28329298 0.28329298 0.27602905 0.25665858 0.27118644 0.27118644
0.29539952 0.2905569 0.27845037 0.26634383 0.2857143 0.27118644 0.2542373 0.27602905
0.24939467 0.2905569 0.28087166 0.30024213 0.2542373 0.26876512 0.25665858 0.29539952
0.27360776 0.2590799 0.2590799 0.27845037 0.24697337 0.23244552 0.24939467 0.24455206
0.24697337 0.27602905 0.26634383 0.23002422 0.24455206 0.24697337 0.2590799 0.27118644
0.26876512 0.2639225 0.20096852 0.24213076 0.21549636 0.2542373 0.25665858 0.27118644
0.24455206 0.21791768 0.26150122 0.24939467 0.2276029 0.2276029 0.21791768 0.21065375
0.21307506 0.2251816 0.23244552 0.21791768 0.22033899 0.2276029 0.24455206 0.2251816
0.22276029 0.20338982 0.21549636 0.20338982 0.2251816 0.21307506 0.21307506 0.22276029
0.2276029 0.2276029 0.19612591 0.20823245 0.19612591 0.20823245 0.22033899 0.18886198
0.20581114 0.21307506 0.20338982 0.19612591 0.21307506 0.2251816 0.20338982 0.21549636
0.22033899 0.20581114 0.1937046 0.20823245 0.18159807 0.22276029 0.18886198 0.19128329
0.21549636 0.21065375 0.19612591 0.20338982 0.20581114 0.20338982 0.17675544 0.19612591
00000000: 0000 803f 1be4 503f aa91 593f c349 5d3f
00000010: 6069 4e3f 6069 4e3f 548d 4c3f ac27 403f
00000020: 2956 393f 1d7a 373f 308f 2d3f bf3c 363f
00000030: f242 243f d98a 203f b999 283f adbd 263f
00000040: e566 223f 6f71 1d3f e566 223f c70b 113f
00000050: 3125 143f e0c3 143f 385e 083f 0c91 0e3f
00000060: 5df2 0d3f c168 033f da20 073f c168 033f
00000070: 06ee 003f 6476 f53e 7de3 053f 13ca 023f
00000080: 06ee 003f 574f 003f bc10 e93e 4cbe f13e
00000090: 13ca 023f 7d2e f93e 13ca 023f 8ba0 e13e
000000a0: e8dd e23e 38a9 fb3e 7d2e f93e da20 073f
000000b0: bc10 e93e bc10 e93e 14ab dc3e 461b e43e
000000c0: 2d63 e03e a458 e53e 1a4e ea3e 788b eb3e
000000d0: 4078 d63e 461b e43e e8dd e23e e8dd e23e
000000e0: d5c8 ec3e a458 e53e 4078 d63e 5930 da3e
000000f0: 3bd5 c83e 72e8 dd3e 9eb5 d73e 14ab dc3e
00000100: 9812 ca3e 548d cc3e 5930 da3e e33a d53e
00000110: 9812 ca3e dd97 c73e ca82 d13e 548d cc3e
00000120: 4eea be3e d025 df3e 9812 ca3e 85fd d33e
00000130: ac27 c03e ca82 d13e f64f cb3e 0f08 cf3e
00000140: dd97 c73e bf3c b63e 7ab7 b83e dd97 c73e
00000150: 4947 b13e 7ab7 b83e c4df c33e 221d c53e
00000160: d8f4 b93e bf3c b63e 936f bc3e 4eea be3e
00000170: d251 ac3e 04c2 b33e d251 ac3e eb09 b03e
00000180: 61ff b43e 7ab7 b83e 17d7 a93e 3532 bb3e
00000190: 308f ad3e 8dcc ae3e bf3c b63e eb09 b03e
000001a0: a684 b23e fe1e a63e a1e1 a43e eb09 b03e
000001b0: 8dcc ae3e a1e1 a43e 7514 ab3e fe1e a63e
000001c0: 1d7a b73e 9b3e 973e a1e1 a43e 43a4 a33e
000001d0: a1e1 a43e 5c5c a73e fe1e a63e 6f71 9d3e
000001e0: e566 a23e a1e1 a43e a1e1 a43e d251 ac3e
000001f0: cdae 9e3e 9b3e 973e e0c3 943e 1134 9c3e
00000200: b4f6 9a3e 8829 a13e e566 a23e 3d01 963e
00000210: e566 a23e c70b 913e f3d8 8a3e 2549 923e
00000220: c70b 913e 56b9 993e e0c3 943e 9b3e 973e
00000230: ae53 8d3e c70b 913e 9b3e 973e 7de3 853e
00000240: 959b 893e c70b 913e f3d8 8a3e 2549 923e
00000250: 5116 8c3e 385e 883e 5161 7f3e 0c91 8e3e
00000260: c70b 913e 8829 a13e c70b 913e c70b 913e
00000270: ae53 8d3e c168 833e f3d8 8a3e f3d8 8a3e
00000280: 9b3e 973e e0c3 943e 0c91 8e3e 385e 883e
00000290: 2549 923e f3d8 8a3e 642b 823e ae53 8d3e
000002a0: 5161 7f3e e0c3 943e 69ce 8f3e 56b9 993e
000002b0: 642b 823e 959b 893e c168 833e 9b3e 973e
000002c0: 5116 8c3e 1fa6 843e 1fa6 843e 0c91 8e3e
000002d0: 96e6 7c3e 3306 6e3e 5161 7f3e db6b 7a3e
000002e0: 96e6 7c3e ae53 8d3e 385e 883e 788b 6b3e
000002f0: db6b 7a3e 96e6 7c3e 1fa6 843e f3d8 8a3e
00000300: 959b 893e da20 873e b1ca 4d3e 20f1 773e
00000310: 14ab 5c3e 642b 823e c168 833e f3d8 8a3e
00000320: db6b 7a3e d025 5f3e 7de3 853e 5161 7f3e
00000330: bc10 693e bc10 693e d025 5f3e 9eb5 573e
00000340: 5930 5a3e 0196 663e 3306 6e3e d025 5f3e
00000350: 8ba0 613e bc10 693e db6b 7a3e 0196 663e
00000360: 461b 643e 6c45 503e 14ab 5c3e 6c45 503e
00000370: 0196 663e 5930 5a3e 5930 5a3e 461b 643e
00000380: bc10 693e bc10 693e 3bd5 483e e33a 553e
00000390: 3bd5 483e e33a 553e 8ba0 613e 0965 413e
000003a0: 28c0 523e 5930 5a3e 6c45 503e 3bd5 483e
000003b0: 5930 5a3e 0196 663e 6c45 503e 14ab 5c3e
000003c0: 8ba0 613e 28c0 523e 805a 463e e33a 553e
000003d0: d8f4 393e 461b 643e 0965 413e c4df 433e
000003e0: 14ab 5c3e 9eb5 573e 3bd5 483e 6c45 503e
000003f0: 28c0 523e 6c45 503e 61ff 343e 3bd5 483e

item_pop_true f4 [1154, 1]
1.0 0.8159806 0.8498789 0.86440676 0.8062954 0.8062954 0.7990315 0.75060534
0.72397095 0.71670705 0.6779661 0.7118644 0.6416465 0.62711865 0.6585956 0.6513317
0.63438255 0.6150121 0.63438255 0.56658596 0.5786925 0.5811138 0.53268766 0.55690074
0.5544794 0.51331717 0.527845 0.51331717 0.50363195 0.47941887 0.52300245 0.5108959
0.50363195 0.50121063 0.4552058 0.47215497 0.5108959 0.4866828 0.5108959 0.44067797
0.44309926 0.4915254 0.4866828 0.527845 0.4552058 0.4552058 0.43099272 0.44552058
0.43825665 0.4479419 0.45762712 0.46004844 0.41888618 0.44552058 0.44309926 0.44309926
0.46246973 0.4479419 0.41888618 0.4261501 0.39225182 0.43341404 0.4213075 0.43099272
0.3946731 0.39951575 0.4261501 0.4164649 0.3946731 0.3898305 0.40920097 0.39951575
0.37288135 0.43583536 0.3946731 0.41404358 0.37530267 0.40920097 0.39709443 0.40435836
0.3898305 0.3559322 0.36077482 0.3898305 0.346247 0.36077482 0.38256657 0.3849879
0.36319613 0.3559322 0.36803874 0.37288135 0.33656174 0.3510896 0.33656174 0.34382567
0.3535109 0.36077482 0.33171913 0.36561742 0.33898306 0.34140435 0.3559322 0.34382567
0.34866828 0.3244552 0.3220339 0.34382567 0.34140435 0.3220339 0.33414045 0.3244552
0.35835353 0.29539952 0.3220339 0.3196126 0.3220339 0.32687652 0.3244552 0.30750605
0.31719127 0.3220339 0.3220339 0.33656174 0.30992737 0.29539952 0.2905569 0.30508474
0.30266345 0.31476998 0.31719127 0.2929782 0.31719127 0.28329298 0.27118644 0.2857143
0.28329298 0.30024213 0.2905569 0.29539952 0.27602905 0.28329298 0.29539952 0.26150122
0.26876512 0.28329298 0.27118644 0.2857143 0.27360776 0.26634383 0.24939467 0.27845037
0.28329298 0.31476998 0.28329298 0.28329298 0.27602905 0.25665858 0.27118644 0.27118644
0.29539952 0.2905569 0.27845037 0.26634383 0.2857143 0.27118644 0.2542373 0.27602905
0.24939467 0.2905569 0.28087166 0.30024213 0.2542373 0.26876512 0.25665858 0.29539952
0.27360776 0.2590799 0.2590799 0.27845037 0.24697337 0.23244552 0.24939467 0.24455206
0.24697337 0.27602905 0.26634383 0.23002422 0.24455206 0.24697337 0.2590799 0.27118644
0.26876512 0.2639225 0.20096852 0.24213076 0.21549636 0.2542373 0.25665858 0.27118644
0.24455206 0.21791768 0.26150122 0.24939467 0.2276029 0.2276029 0.21791768 0.21065375
0.21307506 0.2251816 0.23244552 0.21791768 0.22033899 0.2276029 0.24455206 0.2251816
0.22276029 0.20338982 0.21549636 0.20338982 0.2251816 0.21307506 0.21307506 0.22276029
0.2276029 0.2276029 0.19612591 0.20823245 0.19612591 0.20823245 0.22033899 0.18886198
0.20581114 0.21307506 0.20338982 0.19612591 0.21307506 0.2251816 0.20338982 0.21549636
0.22033899 0.20581114 0.1937046 0.20823245 0.18159807 0.22276029 0.18886198 0.19128329
0.21549636 0.21065375 0.19612591 0.20338982 0.20581114 0.20338982 0.17675544 0.19612591
00000000: 0000 803f 1be4 503f aa91 593f c349 5d3f
00000010: 6069 4e3f 6069 4e3f 548d 4c3f ac27 403f
00000020: 2956 393f 1d7a 373f 308f 2d3f bf3c 363f
00000030: f242 243f d98a 203f b999 283f adbd 263f
00000040: e566 223f 6f71 1d3f e566 223f c70b 113f
00000050: 3125 143f e0c3 143f 385e 083f 0c91 0e3f
00000060: 5df2 0d3f c168 033f da20 073f c168 033f
00000070: 06ee 003f 6476 f53e 7de3 053f 13ca 023f
00000080: 06ee 003f 574f 003f bc10 e93e 4cbe f13e
00000090: 13ca 023f 7d2e f93e 13ca 023f 8ba0 e13e
000000a0: e8dd e23e 38a9 fb3e 7d2e f93e da20 073f
000000b0: bc10 e93e bc10 e93e 14ab dc3e 461b e43e
000000c0: 2d63 e03e a458 e53e 1a4e ea3e 788b eb3e
000000d0: 4078 d63e 461b e43e e8dd e23e e8dd e23e
000000e0: d5c8 ec3e a458 e53e 4078 d63e 5930 da3e
000000f0: 3bd5 c83e 72e8 dd3e 9eb5 d73e 14ab dc3e
00000100: 9812 ca3e 548d cc3e 5930 da3e e33a d53e
00000110: 9812 ca3e dd97 c73e ca82 d13e 548d cc3e
00000120: 4eea be3e d025 df3e 9812 ca3e 85fd d33e
00000130: ac27 c03e ca82 d13e f64f cb3e 0f08 cf3e
00000140: dd97 c73e bf3c b63e 7ab7 b83e dd97 c73e
00000150: 4947 b13e 7ab7 b83e c4df c33e 221d c53e
00000160: d8f4 b93e bf3c b63e 936f bc3e 4eea be3e
00000170: d251 ac3e 04c2 b33e d251 ac3e eb09 b03e
00000180: 61ff b43e 7ab7 b83e 17d7 a93e 3532 bb3e
00000190: 308f ad3e 8dcc ae3e bf3c b63e eb09 b03e
000001a0: a684 b23e fe1e a63e a1e1 a43e eb09 b03e
000001b0: 8dcc ae3e a1e1 a43e 7514 ab3e fe1e a63e
000001c0: 1d7a b73e 9b3e 973e a1e1 a43e 43a4 a33e
000001d0: a1e1 a43e 5c5c a73e fe1e a63e 6f71 9d3e
000001e0: e566 a23e a1e1 a43e a1e1 a43e d251 ac3e
000001f0: cdae 9e3e 9b3e 973e e0c3 943e 1134 9c3e
00000200: b4f6 9a3e 8829 a13e e566 a23e 3d01 963e
00000210: e566 a23e c70b 913e f3d8 8a3e 2549 923e
00000220: c70b 913e 56b9 993e e0c3 943e 9b3e 973e
00000230: ae53 8d3e c70b 913e 9b3e 973e 7de3 853e
00000240: 959b 893e c70b 913e f3d8 8a3e 2549 923e
00000250: 5116 8c3e 385e 883e 5161 7f3e 0c91 8e3e
00000260: c70b 913e 8829 a13e c70b 913e c70b 913e
00000270: ae53 8d3e c168 833e f3d8 8a3e f3d8 8a3e
00000280: 9b3e 973e e0c3 943e 0c91 8e3e 385e 883e
00000290: 2549 923e f3d8 8a3e 642b 823e ae53 8d3e
000002a0: 5161 7f3e e0c3 943e 69ce 8f3e 56b9 993e
000002b0: 642b 823e 959b 893e c168 833e 9b3e 973e
000002c0: 5116 8c3e 1fa6 843e 1fa6 843e 0c91 8e3e
000002d0: 96e6 7c3e 3306 6e3e 5161 7f3e db6b 7a3e
000002e0: 96e6 7c3e ae53 8d3e 385e 883e 788b 6b3e
000002f0: db6b 7a3e 96e6 7c3e 1fa6 843e f3d8 8a3e
00000300: 959b 893e da20 873e b1ca 4d3e 20f1 773e
00000310: 14ab 5c3e 642b 823e c168 833e f3d8 8a3e
00000320: db6b 7a3e d025 5f3e 7de3 853e 5161 7f3e
00000330: bc10 693e bc10 693e d025 5f3e 9eb5 573e
00000340: 5930 5a3e 0196 663e 3306 6e3e d025 5f3e
00000350: 8ba0 613e bc10 693e db6b 7a3e 0196 663e
00000360: 461b 643e 6c45 503e 14ab 5c3e 6c45 503e
00000370: 0196 663e 5930 5a3e 5930 5a3e 461b 643e
00000380: bc10 693e bc10 693e 3bd5 483e e33a 553e
00000390: 3bd5 483e e33a 553e 8ba0 613e 0965 413e
000003a0: 28c0 523e 5930 5a3e 6c45 503e 3bd5 483e
000003b0: 5930 5a3e 0196 663e 6c45 503e 14ab 5c3e
000003c0: 8ba0 613e 28c0 523e 805a 463e e33a 553e
000003d0: d8f4 393e 461b 643e 0965 413e c4df 433e
000003e0: 14ab 5c3e 9eb5 573e 3bd5 483e 6c45 503e
000003f0: 28c0 523e 6c45 503e 61ff 343e 3bd5 483e

lr1.weight f4 [1, 63]
0.05889788 0.016802477 0.10838799 -0.18337907 0.13819541 0.0291991 0.13022709 -0.011461458
-0.008579012 -0.11346416 -0.01893637 -0.17559509 -0.05092694 -0.03614431 -0.002116332 0.0014422607
-0.09092237 -0.11474109 0.032396812 -0.027756553 0.013016772 -0.04214873 -0.0577481 0.033849664
0.016706636 -0.18332787 0.04818511 0.21814562 -0.089016855 -0.092668556 0.07858788 0.17084537
-0.044734098 -0.04531564 0.061584342 0.023255056 0.004225554 0.14176661 -0.07164515 -0.07413508
0.063909255 0.063318774 0.06688432 -0.019366693 -0.014335284 -0.095498785 -0.053553894 -0.31171712
0.24276823 -0.09651331 -0.119250745 0.08876071 0.16481839 0.16167136 -0.017072065 0.20016533
0.0035624474 -0.24400388 -0.004867703 -0.15251252 0.037028696 -0.14459118 0.0062743872
00000000: e73e 713d 59a5 893c 86fa dd3d b9c7 3bbe
00000010: 1983 0d3e f332 ef3c 405a 053e d7c8 3bbc
00000020: fc8e 0cbc e65f e8bd 7220 9bbc 33cf 33be
00000030: c498 50bd 0e0c 14bd 29b2 0abb 3d0a bd3a
00000040: 8235 babd 60fd eabd 85b2 043d b661 e3bc
00000050: 4d44 553c 26a4 2cbd 4689 6cbd f2a5 0a3d
00000060: 5bdc 883c 4dba 3bbe c05d 453d 9161 5f3e
00000070: 784e b6bd 03c9 bdbd aff2 a03d 17f2 2e3e
00000080: 1a3b 37bd e49c 39bd dd3f 7c3d 6381 be3c
00000090: 8476 8a3b 442b 113e b1ba 92bd 22d4 97bd
000000a0: dbe2 823d 46ad 813d a5fa 883d e6a6 9ebc
000000b0: 8ade 6abc de94 c3bd 545b 5bbd 6399 9fbe
000000c0: 3c98 783e c5a8 c5bd bc39 f4bd 2dc8 b53d
000000d0: 27c6 283e 2d8d 253e b7da 8bbc 24f8 4c3e
000000e0: f377 693b 27dc 79be 4181 9fbb 3e2c 1cbe
000000f0: 67ab 173d b60f 14be 6099 cd3b
