pid/result/ml100k-PIDMF-debug2023-03-14-10-32-30/ckpt/epoch_6.pth (torch_old, 543278 bytes, 5 tensors)

users f4 [945, 64]
0	0x3eea1d10	0.45725298
1	0x3c59934d	0.013279748
2	0x3b8a5493	0.004221508
3	0x3e2e87a3	0.17043929
4	0xbd7b46ae	-0.061346702
5	0x3d935dd2	0.07195629
6	0x3da9118e	0.082553014
7	0x3b94730a	0.0045303153
8	0xbe18c430	-0.1491859
9	0xbe0ad48a	-0.1355764
10	0x3e9cd7cc	0.3063339
11	0xbe6d71b8	-0.23187912
12	0xbe7cf630	-0.24703288
13	0x3e59342f	0.21211313
14	0x3ebc7c35	0.36813512
15	0xbe069c28	-0.13145506
16	0x3ea90563	0.33011922
17	0x3e11bf63	0.14233164
18	0x3eb9e5bf	0.36308095
19	0x3e9df4e2	0.30850893
20	0x3e9b1ca8	0.302953
21	0x3d1221b9	0.03567669
22	0xbe52512d	-0.20538779
23	0xbdc8931c	-0.09793684
24	0x3dc4b75b	0.09605285
25	0x3e56872e	0.20950004
26	0x3dd45fa0	0.103698015
27	0xbd86ca12	-0.065815106
28	0xbeb80137	-0.35938427
29	0xbe8210f6	-0.25403565
30	0xbdc17da9	-0.09447796
31	0x3c018993	0.007906335
32	0xbe65b873	-0.22433643
33	0xbeb57ad4	-0.35445273
34	0xbe12eff8	-0.14349353
35	0xbd4e1034	-0.05030842
36	0xbcc0a3e0	-0.023515642
37	0xbc3def8c	-0.011592757
38	0xbe7fcb3a	-0.24979869
39	0xbe8c883f	-0.27447698
40	0xbea406aa	-0.32036334
41	0x3e48c404	0.19606024
42	0x3c41ac29	0.011820831
43	0xbda0b801	-0.07847596
44	0xbe8eb21b	-0.2787026
45	0xbe7124ce	-0.23549196
46	0x3eb4864c	0.3525871
47	0x3e240eb0	0.16021228
48	0xbe4222f2	-0.18958643
49	0x3d36e418	0.04465112
50	0xbe829db0	-0.2551093
51	0xbe6d70d6	-0.23187575
52	0x3e916d23	0.28403577
53	0xbe9556ef	-0.29167888
54	0xbe210f74	-0.15728551
55	0x3e5b9be3	0.21446185
56	0x3c09d0d1	0.008411602
57	0x3e10b813	0.14132719
58	0xbde3ff2e	-0.11132656
59	0x3e541c69	0.20713963
60	0x3e440e6e	0.1914613
61	0xbe6706be	-0.22561166
62	0x3da3193d	0.07963798
63	0x3e47b886	0.19503984
64	0x3eabc87e	0.335514
65	0xbcaa58f7	-0.020794375
66	0x3e0cca48	0.13749039
67	0xbe40b78e	-0.1882002
68	0xbebaa643	-0.36454973
69	0xbd257f2d	-0.040404487
70	0x3e0a818d	0.13525982
71	0x3e5c3f89	0.21508612
72	0x3dae4396	0.08508985
73	0xbe4db17a	-0.20087233
74	0x3d580cb0	0.052746475
75	0xbe6626aa	-0.22475687
76	0xbe086820	-0.1332097
77	0x3db36d99	0.087611385
78	0x3e88fe8b	0.267567
79	0xbdd1c44d	-0.102425195
80	0x3d4b0320	0.049563527
81	0xbd93c790	-0.07215798
82	0x3e4ed7bf	0.20199488
83	0x3ea7c2dc	0.32765853
84	0x3e305e17	0.17223392
85	0x3d39a2b2	0.045321174
86	0x3e67b367	0.2262703
87	0xbd55879c	-0.05213128
88	0x3d7dbb61	0.061946277
89	0x3ef9864d	0.48735276
90	0xbea2b54b	-0.3177894
91	0xbeb048ab	-0.3443044
92	0xbecdcc99	-0.40195158
93	0xbea8a4df	-0.32938287
94	0x3e61a6e9	0.22036327
95	0xbeaa930d	-0.33315316
96	0x3e9f503e	0.31115907
97	0xbcff7b03	-0.031186586
98	0x3da0864d	0.07838116
99	0x3e1094a5	0.14119203
100	0x3d80783a	0.062729314
101	0x3b8a3b97	0.0042185294
102	0xbe9f54ca	-0.31119376
103	0xbede4b85	-0.43416992
104	0xbd1588a5	-0.036507268
105	0xbae65a4f	-0.0017574521
106	0x3eb0774c	0.34466016
107	0xbe9aec17	-0.30258247
108	0x3e1c6855	0.15274175
109	0xbe62f735	-0.22164614
110	0xbda1e3fa	-0.07904811
111	0xbc93ef91	-0.01805857
112	0xbb988a92	-0.0046551907
113	0xbeb3c5fb	-0.35111985
114	0x3d7c7caa	0.061642326
115	0xbe2505a4	-0.16115433
116	0xbda99847	-0.08280998
117	0xbc6c4ce8	-0.014422633
118	0xbe9c11fe	-0.30482477
119	0xbe65b1ab	-0.22431056
120	0x3e3c1af4	0.18369657
121	0x3d2f2ead	0.042769123
122	0xbe035759	-0.12826289
123	0x3dd742d0	0.1051079
124	0x3e2a32b9	0.16620912
125	0x3e8e3f3d	0.27782622
126	0x3b1f630b	0.0024320509
127	0xbc2e30df	-0.010631769
128	0xbdc1c4f6	-0.094613954
129	0x3cd34c16	0.025793117
130	0xbdadad0b	-0.08480271
131	0xbe1de24c	-0.15418357
132	0xbe0e0f20	-0.13872957
133	0x3eac1513	0.33609828
134	0x3e3855b8	0.18001449
135	0x3d7aeb48	0.061259538
136	0x3e7badd2	0.24578026
137	0xbe880b51	-0.26571134
138	0x3eaa5ddb	0.3327473
139	0xbdc72e98	-0.09725684
140	0xbe829800	-0.25506592
141	0x3e91cea7	0.28477976
142	0x3e9e354f	0.30900046
143	0xbe0d875d	-0.13821168
144	0xbe3e426a	-0.18580022
145	0xbe0e56c1	-0.13900281
146	0x3e783fe5	0.24243124
147	0x3e2e8596	0.17043146
148	0xbde1347d	-0.109963395
149	0x3d882e04	0.06649402
150	0xbe8b6697	-0.27226707
151	0x3e6c596a	0.23080984
152	0xbe3f70b4	-0.18695337
153	0x3e6a2449	0.22865404
154	0x3e0eb616	0.13936648
155	0xbeae4409	-0.34036282
156	0xbcc68983	-0.024235493
157	0xbdcbb0f4	-0.099458605
158	0xbcb110c3	-0.021614438
159	0xbe831bd8	-0.2560718
160	0xbe5b6496	-0.21425089
161	0xbcbdf9f9	-0.023190485
162	0xbe488d89	-0.19585241
163	0x3ce02654	0.027362026
164	0x3e6a4cdb	0.2288088
165	0x3d979b57	0.074026756
166	0xbde71e1a	-0.11285038
167	0xbeb18afa	-0.34676343
168	0x3d050da7	0.032483723
169	0x3e30dd02	0.17271808
170	0xbd44ca73	-0.048044633
171	0xbe9f5a9d	-0.3112382
172	0xbea2e994	-0.3181883
173	0x3d9bb582	0.07602979
174	0x3e8941b3	0.26807937
175	0xbe94e521	-0.2908106
176	0x3da6536d	0.08121381
177	0xbda045d2	-0.07825817
178	0xbcc00bad	-0.023443067
179	0x3ce8a9e6	0.028401326
180	0xbe62b347	-0.22138701
181	0xbc1d6f44	-0.009609047
182	0x3de0f7fd	0.109848
183	0xbe232f1f	-0.15935944
184	0xbe03f9c1	-0.12888242
185	0x3e278191	0.1635802
186	0x3db13bbb	0.08653971
187	0x3e53e7b7	0.20693861
188	0x3e2745b9	0.16335191
189	0x3ed0d821	0.40789893
190	0xbd7d31cf	-0.06181508
191	0x3e88dd96	0.26731557
192	0x3e8e2e8c	0.27769887
193	0xbd3f76a8	-0.04674402
194	0x3e9c73ae	0.30557007
195	0x3c914e86	0.017737638
196	0xbeb214ea	-0.3478158
197	0x3e410ae2	0.18851808
198	0x3e7bcccf	0.24589847
199	0x3d7a5717	0.06111821
200	0x3e2a898d	0.16654034
201	0xbd71c793	-0.05902822
202	0x3eef0d3b	0.46689782
203	0xbea240fa	-0.31690198
204	0xbe08d08f	-0.13360809
205	0x3e767c2b	0.24070804
206	0x3ec89fae	0.39184326
207	0xbd870944	-0.06593564
208	0x3e2aaeda	0.16668263
209	0xbd7d1705	-0.06178953
210	0x3e52c74f	0.20583843
211	0x3e150174	0.14551336
212	0x3d281710	0.04103762
213	0xbde00ae0	-0.10939574
214	0xbe55c5d6	-0.2087625
215	0x3cb6119a	0.02222519
216	0xbe95e7b0	-0.29278326
217	0xbc0fffef	-0.008789047
218	0x3ea93977	0.33051655
219	0xbe843a8e	-0.25825924
220	0x3c457a18	0.012053035
221	0xbe1c738b	-0.15278451
222	0x3eb55851	0.35418943
223	0x3d537a3c	0.051630244
224	0x3dde9d72	0.10869874
225	0xbeabeb64	-0.33578026
226	0xbde5724e	-0.112034425
227	0xbd8fe2e3	-0.07025697
228	0x3d361f39	0.04446337
229	0xbe12dc81	-0.14341928
230	0xbda0a505	-0.07843975
231	0xbd9afc3c	-0.07567641
232	0xbea2511a	-0.317025
233	0x3df13f6d	0.11779676
234	0x3e070783	0.13186459
235	0xbde373ea	-0.11106093
236	0xbe8d1dd0	-0.27561808
237	0x3c5c12f2	0.013432251
238	0x3e99097d	0.2989005
239	0x3d8c8bd1	0.06862605
240	0xbd43f153	-0.047837567
241	0xbbee07e1	-0.007264123
242	0xbdc04373	-0.09387865
243	0xbe0cc83e	-0.13748261
244	0x3edf0268	0.43556523
245	0xbea0911e	-0.31360716
246	0x3c80499e	0.015660103
247	0xbe83f901	-0.25775912
248	0xbe214e59	-0.15752544
249	0x3e7487ec	0.23879975
250	0x3c118810	0.0088825375
251	0x3e6e652e	0.23280784
252	0x3d32c1d0	0.043641865
253	0x3e4b3bca	0.19847026
254	0x3d2d54c4	0.042317167
255	0x3e27115b	0.16315214

items_id f4 [1154, 63]
0	0x3e8f1710	0.27947283
1	0x3eb7e711	0.35918477
2	0x3d8dc06f	0.069214694
3	0xbdde721e	-0.1086161
4	0x3de2a9c0	0.110675335
5	0x3e88a75f	0.26690194
6	0x3e933eef	0.28758952
7	0x3ea02ad6	0.3128268
8	0x3e9a8e98	0.30186915
9	0xbe8d6492	-0.27615792
10	0x3ea9f965	0.33198085
11	0xbd43670d	-0.0477057
12	0xbe31fe14	-0.1738208
13	0x3e834c8f	0.25644347
14	0x3e7ec95e	0.24881503
15	0xbe6b10b6	-0.22955593
16	0xbcd0587a	-0.025432814
17	0xbe3c5dca	-0.18395153
18	0x3e2b8ccc	0.16752928
19	0x3ebab0a5	0.36462894
20	0x3e9289bc	0.28620708
21	0x3ddbd6f9	0.10734362
22	0xbe6af7c8	-0.22946084
23	0x3de0f3a1	0.109839685
24	0xbdf793b9	-0.12088723
25	0x3cbf28ca	0.02333488
26	0x3e5bc270	0.21460891
27	0x3e4ef6b1	0.20211293
28	0xbe0bf66b	-0.1366822
29	0xbe6a1756	-0.22860464
30	0x3e531c93	0.20616369
31	0x3e06d6ca	0.13167873
32	0xbd506b2e	-0.050883465
33	0xbe6a4ddf	-0.22881268
34	0x3e154c71	0.14579941
35	0x3e0e0333	0.13868408
36	0x3eda344a	0.42618018
37	0x3e6c0a64	0.23050839
38	0xbe3d8318	-0.1850704
39	0xbdb52d3a	-0.08846517
40	0xbd948291	-0.07251466
41	0x3e1db695	0.15401681
42	0x3e403f6f	0.18774198
43	0xbe8f2740	-0.27959633
44	0xbea0760a	-0.31340057
45	0xbe335f4b	-0.1751682
46	0x3e7d65ec	0.24745911
47	0xbca97ce9	-0.020689445
48	0x3e08afc3	0.13348298
49	0xbe6faf7f	-0.2340679
50	0xbe560d68	-0.20903552
51	0x3d0ca6c4	0.034338728
52	0x3e163c78	0.14671504
53	0xbcaa966d	-0.020823682
54	0xbeb4aa83	-0.3528634
55	0x3e4297bd	0.19003196
56	0xbea1360f	-0.31486556
57	0xbc4f2105	-0.01264215
58	0xbe30dfec	-0.1727292
59	0xbdc7cafd	-0.09755514
60	0x3e197e54	0.14989597
61	0xbdfe2c03	-0.12410738
62	0x3e457fc5	0.19287021
63	0x3e3c5632	0.18392256
64	0x3e6f91cc	0.23395461
65	0x3e260186	0.16211519
66	0xbdc12a12	-0.094318524
67	0x3e504208	0.20337689
68	0x3dd7595c	0.10515091
69	0x3e7df477	0.24800287
70	0x3d347595	0.044057447
71	0x3dd6accb	0.104821764
72	0xbd8027c3	-0.06257584
73	0xbac2a9bf	-0.0014851614
74	0xbcd50e44	-0.026007779
75	0xbe510bf6	-0.20414719
76	0x3b8aac38	0.004231956
77	0xba3da10c	-0.00072337757
78	0xbe045297	-0.1292213
79	0xbdba97d9	-0.09110994
80	0xbe220c69	-0.15825047
81	0x3e3b0d2c	0.18266743
82	0x3d714e73	0.058912706
83	0x3e77a9f1	0.24185921
84	0x3e453718	0.19259298
85	0xbd22548e	-0.03963142
86	0x3e7abada	0.2448534
87	0xbe44fb25	-0.19236429
88	0xbe362807	-0.17788707
89	0x3d56c439	0.052433226
90	0xbb1bf49b	-0.002379692
91	0xbb531ef2	-0.003221449
92	0x3ce0b991	0.027432235
93	0x3d450cbb	0.048107844
94	0x3db0cd6d	0.08632932
95	0xbe1a6a4b	-0.1507961
96	0xbe60912a	-0.21930376
97	0x3deafe1a	0.11474247
98	0x3dae7084	0.085175544
99	0x3e86af29	0.26305512
100	0x3de97ae1	0.114003904
101	0xbd6f2279	-0.058382485
102	0xbda3e337	-0.08002322
103	0xbd9d5f36	-0.07684176
104	0x3e5e3eef	0.21703695
105	0xbc7119c8	-0.014715619
106	0xbe11c996	-0.14237055
107	0xbe48e54c	-0.1961872
108	0xbd89597c	-0.06706521
109	0xbc350371	-0.011048184
110	0xbde58480	-0.11206913
111	0x3d5e755f	0.054311153
112	0xbd1a2f2d	-0.037642647
113	0xbd228a32	-0.039682575
114	0x3d0a1304	0.03370954
115	0x3e4a21b7	0.19739424
116	0x3e5723f9	0.21009816
117	0xbc7df276	-0.015499702
118	0x3e3239dc	0.17404884
119	0xbe757aa5	-0.23972566
120	0xbdff33d3	-0.124610566
121	0x3cd4475d	0.025912935
122	0xbdb9429a	-0.09045906
123	0xbd059fb8	-0.032623023
124	0xbe14570f	-0.14486335
125	0x3c9c767e	0.01909947
126	0x3e5c849d	0.21534963
127	0x3e81a41b	0.25320515
128	0x3dd5b799	0.10435409
129	0xbe30d970	-0.17270446
130	0x3e8546d5	0.26030603
131	0x3e374d57	0.17900597
132	0x3e2e4892	0.17019871
133	0x3cec9702	0.0288806
134	0x3e88a424	0.2668773
135	0xbe6a7140	-0.22894764
136	0x3e889351	0.26674893
137	0xbe673c7f	-0.22581671
138	0xbe47150c	-0.19441622
139	0x3d0bee0b	0.034162562
140	0x3dbeeb07	0.09322172
141	0xbcfc007d	-0.030761952
142	0xbd90a3e1	-0.070625074
143	0x3bf35a12	0.0074265087
144	0xbb545351	-0.0032398293
145	0x3dc4ded1	0.09612811
146	0x3e3a04b0	0.1816585
147	0x3c5b9405	0.01340199
148	0xbe1423e0	-0.1446681
149	0x3e0cca01	0.13748933
150	0xbd137503	-0.036000263
151	0xbd204868	-0.039131552
152	0x3b663fc3	0.003513322
153	0x3e5a1dc3	0.21300416
154	0xbd284be2	-0.041087992
155	0x3c76463f	0.015031396
156	0x3e34f408	0.17671216
157	0x3c36b0cb	0.011150549
158	0xbe52c32e	-0.20582268
159	0xbe768809	-0.24075331
160	0x3dbb2eb7	0.091397695
161	0x3d0c8c9d	0.034313787
162	0x3e4ef680	0.2021122
163	0x3cf5b4bf	0.029993413
164	0xbd1a7a40	-0.037714243
165	0xbe415a6f	-0.18882154
166	0xbd324fdb	-0.043533187
167	0x3c4597a1	0.012060077
168	0x3e4a5e8b	0.19762628
169	0xbe476324	-0.19471413
170	0xbe25e8a1	-0.16202022
171	0xbe40ebab	-0.188399
172	0x3cfa8ef3	0.030585742
173	0xbe112146	-0.14172849
174	0x3dbc9972	0.09208955
175	0xbe37e1bf	-0.17957209
176	0xbe62b0ad	-0.22137709
177	0x3d0901a7	0.03344884
178	0x3e34e8ec	0.17666978
179	0x3e2e40c6	0.17016897
180	0xbe84f0a0	-0.25964832
181	0xbc32217a	-0.010872239
182	0xbdc94639	-0.09827847
183	0xbcd8a3d3	-0.026445305
184	0xbd284548	-0.041081697
185	0xbe0015ab	-0.12508266
186	0xbc45db33	-0.012076187
187	0xbdcef632	-0.10105552
188	0x3e426d75	0.18987067
189	0x3e8f168e	0.27946895
190	0x3d546cff	0.05186176
191	0x3dd2043f	0.10254716
192	0xbe87666d	-0.26445332
193	0x3e43eccd	0.19133301
194	0x3c60c231	0.013718174
195	0x3e715c39	0.23570336
196	0x3e68bebb	0.22729008
197	0x3e832e67	0.2562134
198	0xbe5b1d3f	-0.21397875
199	0x3cf16c83	0.029470688
200	0xbe4a4b6f	-0.19755338
201	0xbda9236c	-0.08258709
202	0x3e34bb78	0.17649639
203	0x3dada74a	0.084791735
204	0xbe5ac0e0	-0.21362638
205	0xbe15a3f8	-0.1461333
206	0xbe0ea3bd	-0.13929649
207	0x3cf0f690	0.029414445
208	0x3d6a9c43	0.05727793
209	0x3e6c297b	0.23062699
210	0x3bf9f2ce	0.0076278215
211	0xbd12b5e8	-0.03581801
212	0x3cbdeff9	0.023185717
213	0xbd42d035	-0.047561843
214	0xbe128149	-0.14307131
215	0x3e1611c8	0.1465522
216	0x3e1af0f0	0.15130973
217	0xbe4070e3	-0.18793063
218	0xbdbd2a45	-0.09236578
219	0x3e6baa71	0.23014237
220	0x3dc97c7f	0.09838199
221	0xbc106566	-0.008813238
222	0xbe2c2958	-0.16812646
223	0x3e69d8a6	0.22836551
224	0x3d296d3e	0.041363947
225	0x3dba0c97	0.090844326
226	0x3c35da9b	0.011099483
227	0xbe34e157	-0.17664085
228	0xbe192140	-0.1495409
229	0xbd9fa9a1	-0.07796026
230	0x3d0f450b	0.034977954
231	0x3d549d7e	0.05190801
232	0xbe89451f	-0.26810548
233	0xbd39449b	-0.045231443
234	0xbc242cc3	-0.010020438
235	0x3c106a5c	0.008814421
236	0xbd3614f5	-0.04445358
237	0xbd0527be	-0.032508604
238	0xbe424e00	-0.18975067
239	0xbdca535a	-0.09879179
240	0x3da357bf	0.079757206
241	0x3d6e8ac9	0.058237825
242	0x3e38564b	0.18001668
243	0xbe8d6041	-0.27612498
244	0x3e4c5d21	0.19957401
245	0xbdb615df	-0.0889089
246	0xbd97323d	-0.07382629
247	0x3c62412b	0.013809483
248	0xbd6aa498	-0.057285875
249	0x3db92c56	0.090416595
250	0xbe4558a5	-0.19272096
251	0x3d8deb68	0.06929666
252	0x3e819941	0.25312236
253	0x3e08332a	0.13300768
254	0x3e607c83	0.21922497
255	0xbdf102b9	-0.117680974

item_pop f4 [1154, 1]
0	0x3f800000	1.0
1	0x3f50e41b	0.8159806
2	0x3f5991aa	0.8498789
3	0x3f5d49c3	0.86440676
4	0x3f4e6960	0.8062954
5	0x3f4e6960	0.8062954
6	0x3f4c8d54	0.7990315
7	0x3f4027ac	0.75060534
8	0x3f395629	0.72397095
9	0x3f377a1d	0.71670705
10	0x3f2d8f30	0.6779661
11	0x3f363cbf	0.7118644
12	0x3f2442f2	0.6416465
13	0x3f208ad9	0.62711865
14	0x3f2899b9	0.6585956
15	0x3f26bdad	0.6513317
16	0x3f2266e5	0.63438255
17	0x3f1d716f	0.6150121
18	0x3f2266e5	0.63438255
19	0x3f110bc7	0.56658596
20	0x3f142531	0.5786925
21	0x3f14c3e0	0.5811138
22	0x3f085e38	0.53268766
23	0x3f0e910c	0.55690074
24	0x3f0df25d	0.5544794
25	0x3f0368c1	0.51331717
26	0x3f0720da	0.527845
27	0x3f0368c1	0.51331717
28	0x3f00ee06	0.50363195
29	0x3ef57664	0.47941887
30	0x3f05e37d	0.52300245
31	0x3f02ca13	0.5108959
32	0x3f00ee06	0.50363195
33	0x3f004f57	0.50121063
34	0x3ee910bc	0.4552058
35	0x3ef1be4c	0.47215497
36	0x3f02ca13	0.5108959
37	0x3ef92e7d	0.4866828
38	0x3f02ca13	0.5108959
39	0x3ee1a08b	0.44067797
40	0x3ee2dde8	0.44309926
41	0x3efba938	0.4915254
42	0x3ef92e7d	0.4866828
43	0x3f0720da	0.527845
44	0x3ee910bc	0.4552058
45	0x3ee910bc	0.4552058
46	0x3edcab14	0.43099272
47	0x3ee41b46	0.44552058
48	0x3ee0632d	0.43825665
49	0x3ee558a4	0.4479419
50	0x3eea4e1a	0.45762712
51	0x3eeb8b78	0.46004844
52	0x3ed67840	0.41888618
53	0x3ee41b46	0.44552058
54	0x3ee2dde8	0.44309926
55	0x3ee2dde8	0.44309926
56	0x3eecc8d5	0.46246973
57	0x3ee558a4	0.4479419
58	0x3ed67840	0.41888618
59	0x3eda3059	0.4261501
60	0x3ec8d53b	0.39225182
61	0x3edde872	0.43341404
62	0x3ed7b59e	0.4213075
63	0x3edcab14	0.43099272
64	0x3eca1298	0.3946731
65	0x3ecc8d54	0.39951575
66	0x3eda3059	0.4261501
67	0x3ed53ae3	0.4164649
68	0x3eca1298	0.3946731
69	0x3ec797dd	0.3898305
70	0x3ed182ca	0.40920097
71	0x3ecc8d54	0.39951575
72	0x3ebeea4e	0.37288135
73	0x3edf25d0	0.43583536
74	0x3eca1298	0.3946731
75	0x3ed3fd85	0.41404358
76	0x3ec027ac	0.37530267
77	0x3ed182ca	0.40920097
78	0x3ecb4ff6	0.39709443
79	0x3ecf080f	0.40435836
80	0x3ec797dd	0.3898305
81	0x3eb63cbf	0.3559322
82	0x3eb8b77a	0.36077482
83	0x3ec797dd	0.3898305
84	0x3eb14749	0.346247
85	0x3eb8b77a	0.36077482
86	0x3ec3dfc4	0.38256657
87	0x3ec51d22	0.3849879
88	0x3eb9f4d8	0.36319613
89	0x3eb63cbf	0.3559322
90	0x3ebc6f93	0.36803874
91	0x3ebeea4e	0.37288135
92	0x3eac51d2	0.33656174
93	0x3eb3c204	0.3510896
94	0x3eac51d2	0.33656174
95	0x3eb009eb	0.34382567
96	0x3eb4ff61	0.3535109
97	0x3eb8b77a	0.36077482
98	0x3ea9d717	0.33171913
99	0x3ebb3235	0.36561742
100	0x3ead8f30	0.33898306
101	0x3eaecc8d	0.34140435
102	0x3eb63cbf	0.3559322
103	0x3eb009eb	0.34382567
104	0x3eb284a6	0.34866828
105	0x3ea61efe	0.3244552
106	0x3ea4e1a1	0.3220339
107	0x3eb009eb	0.34382567
108	0x3eaecc8d	0.34140435
109	0x3ea4e1a1	0.3220339
110	0x3eab1475	0.33414045
111	0x3ea61efe	0.3244552
112	0x3eb77a1d	0.35835353
113	0x3e973e9b	0.29539952
114	0x3ea4e1a1	0.3220339
115	0x3ea3a443	0.3196126
116	0x3ea4e1a1	0.3220339
117	0x3ea75c5c	0.32687652
118	0x3ea61efe	0.3244552
119	0x3e9d716f	0.30750605
120	0x3ea266e5	0.31719127
121	0x3ea4e1a1	0.3220339
122	0x3ea4e1a1	0.3220339
123	0x3eac51d2	0.33656174
124	0x3e9eaecd	0.30992737
125	0x3e973e9b	0.29539952
126	0x3e94c3e0	0.2905569
127	0x3e9c3411	0.30508474
128	0x3e9af6b4	0.30266345
129	0x3ea12988	0.31476998
130	0x3ea266e5	0.31719127
131	0x3e96013d	0.2929782
132	0x3ea266e5	0.31719127
133	0x3e910bc7	0.28329298
134	0x3e8ad8f3	0.27118644
135	0x3e924925	0.2857143
136	0x3e910bc7	0.28329298
137	0x3e99b956	0.30024213
138	0x3e94c3e0	0.2905569
139	0x3e973e9b	0.29539952
140	0x3e8d53ae	0.27602905
141	0x3e910bc7	0.28329298
142	0x3e973e9b	0.29539952
143	0x3e85e37d	0.26150122
144	0x3e899b95	0.26876512
145	0x3e910bc7	0.28329298
146	0x3e8ad8f3	0.27118644
147	0x3e924925	0.2857143
148	0x3e8c1651	0.27360776
149	0x3e885e38	0.26634383
150	0x3e7f6151	0.24939467
151	0x3e8e910c	0.27845037
152	0x3e910bc7	0.28329298
153	0x3ea12988	0.31476998
154	0x3e910bc7	0.28329298
155	0x3e910bc7	0.28329298
156	0x3e8d53ae	0.27602905
157	0x3e8368c1	0.25665858
158	0x3e8ad8f3	0.27118644
159	0x3e8ad8f3	0.27118644
160	0x3e973e9b	0.29539952
161	0x3e94c3e0	0.2905569
162	0x3e8e910c	0.27845037
163	0x3e885e38	0.26634383
164	0x3e924925	0.2857143
165	0x3e8ad8f3	0.27118644
166	0x3e822b64	0.2542373
167	0x3e8d53ae	0.27602905
168	0x3e7f6151	0.24939467
169	0x3e94c3e0	0.2905569
170	0x3e8fce69	0.28087166
171	0x3e99b956	0.30024213
172	0x3e822b64	0.2542373
173	0x3e899b95	0.26876512
174	0x3e8368c1	0.25665858
175	0x3e973e9b	0.29539952
176	0x3e8c1651	0.27360776
177	0x3e84a61f	0.2590799
178	0x3e84a61f	0.2590799
179	0x3e8e910c	0.27845037
180	0x3e7ce696	0.24697337
181	0x3e6e0633	0.23244552
182	0x3e7f6151	0.24939467
183	0x3e7a6bdb	0.24455206
184	0x3e7ce696	0.24697337
185	0x3e8d53ae	0.27602905
186	0x3e885e38	0.26634383
187	0x3e6b8b78	0.23002422
188	0x3e7a6bdb	0.24455206
189	0x3e7ce696	0.24697337
190	0x3e84a61f	0.2590799
191	0x3e8ad8f3	0.27118644
192	0x3e899b95	0.26876512
193	0x3e8720da	0.2639225
194	0x3e4dcab1	0.20096852
195	0x3e77f120	0.24213076
196	0x3e5cab14	0.21549636
197	0x3e822b64	0.2542373
198	0x3e8368c1	0.25665858
199	0x3e8ad8f3	0.27118644
200	0x3e7a6bdb	0.24455206
201	0x3e5f25d0	0.21791768
202	0x3e85e37d	0.26150122
203	0x3e7f6151	0.24939467
204	0x3e6910bc	0.2276029
205	0x3e6910bc	0.2276029
206	0x3e5f25d0	0.21791768
207	0x3e57b59e	0.21065375
208	0x3e5a3059	0.21307506
209	0x3e669601	0.2251816
210	0x3e6e0633	0.23244552
211	0x3e5f25d0	0.21791768
212	0x3e61a08b	0.22033899
213	0x3e6910bc	0.2276029
214	0x3e7a6bdb	0.24455206
215	0x3e669601	0.2251816
216	0x3e641b46	0.22276029
217	0x3e50456c	0.20338982
218	0x3e5cab14	0.21549636
219	0x3e50456c	0.20338982
220	0x3e669601	0.2251816
221	0x3e5a3059	0.21307506
222	0x3e5a3059	0.21307506
223	0x3e641b46	0.22276029
224	0x3e6910bc	0.2276029
225	0x3e6910bc	0.2276029
226	0x3e48d53b	0.19612591
227	0x3e553ae3	0.20823245
228	0x3e48d53b	0.19612591
229	0x3e553ae3	0.20823245
230	0x3e61a08b	0.22033899
231	0x3e416509	0.18886198
232	0x3e52c028	0.20581114
233	0x3e5a3059	0.21307506
234	0x3e50456c	0.20338982
235	0x3e48d53b	0.19612591
236	0x3e5a3059	0.21307506
237	0x3e669601	0.2251816
238	0x3e50456c	0.20338982
239	0x3e5cab14	0.21549636
240	0x3e61a08b	0.22033899
241	0x3e52c028	0.20581114
242	0x3e465a80	0.1937046
243	0x3e553ae3	0.20823245
244	0x3e39f4d8	0.18159807
245	0x3e641b46	0.22276029
246	0x3e416509	0.18886198
247	0x3e43dfc4	0.19128329
248	0x3e5cab14	0.21549636
249	0x3e57b59e	0.21065375
250	0x3e48d53b	0.19612591
251	0x3e50456c	0.20338982
252	0x3e52c028	0.20581114
253	0x3e50456c	0.20338982
254	0x3e34ff61	0.17675544
255	0x3e48d53b	0.19612591

item_pop_true f4 [1154, 1]
0	0x3f800000	1.0
1	0x3f50e41b	0.8159806
2	0x3f5991aa	0.8498789
3	0x3f5d49c3	0.86440676
4	0x3f4e6960	0.8062954
5	0x3f4e6960	0.8062954
6	0x3f4c8d54	0.7990315
7	0x3f4027ac	0.75060534
8	0x3f395629	0.72397095
9	0x3f377a1d	0.71670705
10	0x3f2d8f30	0.6779661
11	0x3f363cbf	0.7118644
12	0x3f2442f2	0.6416465
13	0x3f208ad9	0.62711865
14	0x3f2899b9	0.6585956
15	0x3f26bdad	0.6513317
16	0x3f2266e5	0.63438255
17	0x3f1d716f	0.6150121
18	0x3f2266e5	0.63438255
19	0x3f110bc7	0.56658596
20	0x3f142531	0.5786925
21	0x3f14c3e0	0.5811138
22	0x3f085e38	0.53268766
23	0x3f0e910c	0.55690074
24	0x3f0df25d	0.5544794
25	0x3f0368c1	0.51331717
26	0x3f0720da	0.527845
27	0x3f0368c1	0.51331717
28	0x3f00ee06	0.50363195
29	0x3ef57664	0.47941887
30	0x3f05e37d	0.52300245
31	0x3f02ca13	0.5108959
32	0x3f00ee06	0.50363195
33	0x3f004f57	0.50121063
34	0x3ee910bc	0.4552058
35	0x3ef1be4c	0.47215497
36	0x3f02ca13	0.5108959
37	0x3ef92e7d	0.4866828
38	0x3f02ca13	0.5108959
39	0x3ee1a08b	0.44067797
40	0x3ee2dde8	0.44309926
41	0x3efba938	0.4915254
42	0x3ef92e7d	0.4866828
43	0x3f0720da	0.527845
44	0x3ee910bc	0.4552058
45	0x3ee910bc	0.4552058
46	0x3edcab14	0.43099272
47	0x3ee41b46	0.44552058
48	0x3ee0632d	0.43825665
49	0x3ee558a4	0.4479419
50	0x3eea4e1a	0.45762712
51	0x3eeb8b78	0.46004844
52	0x3ed67840	0.41888618
53	0x3ee41b46	0.44552058
54	0x3ee2dde8	0.44309926
55	0x3ee2dde8	0.44309926
56	0x3eecc8d5	0.46246973
57	0x3ee558a4	0.4479419
58	0x3ed67840	0.41888618
59	0x3eda3059	0.4261501
60	0x3ec8d53b	0.39225182
61	0x3edde872	0.43341404
62	0x3ed7b59e	0.4213075
63	0x3edcab14	0.43099272
64	0x3eca1298	0.3946731
65	0x3ecc8d54	0.39951575
66	0x3eda3059	0.4261501
67	0x3ed53ae3	0.4164649
68	0x3eca1298	0.3946731
69	0x3ec797dd	0.3898305
70	0x3ed182ca	0.40920097
71	0x3ecc8d54	0.39951575
72	0x3ebeea4e	0.37288135
73	0x3edf25d0	0.43583536
74	0x3eca1298	0.3946731
75	0x3ed3fd85	0.41404358
76	0x3ec027ac	0.37530267
77	0x3ed182ca	0.40920097
78	0x3ecb4ff6	0.39709443
79	0x3ecf080f	0.40435836
80	0x3ec797dd	0.3898305
81	0x3eb63cbf	0.3559322
82	0x3eb8b77a	0.36077482
83	0x3ec797dd	0.3898305
84	0x3eb14749	0.346247
85	0x3eb8b77a	0.36077482
86	0x3ec3dfc4	0.38256657
87	0x3ec51d22	0.3849879
88	0x3eb9f4d8	0.36319613
89	0x3eb63cbf	0.3559322
90	0x3ebc6f93	0.36803874
91	0x3ebeea4e	0.37288135
92	0x3eac51d2	0.33656174
93	0x3eb3c204	0.3510896
94	0x3eac51d2	0.33656174
95	0x3eb009eb	0.34382567
96	0x3eb4ff61	0.3535109
97	0x3eb8b77a	0.36077482
98	0x3ea9d717	0.33171913
99	0x3ebb3235	0.36561742
100	0x3ead8f30	0.33898306
101	0x3eaecc8d	0.34140435
102	0x3eb63cbf	0.3559322
103	0x3eb009eb	0.34382567
104	0x3eb284a6	0.34866828
105	0x3ea61efe	0.3244552
106	0x3ea4e1a1	0.3220339
107	0x3eb009eb	0.34382567
108	0x3eaecc8d	0.34140435
109	0x3ea4e1a1	0.3220339
110	0x3eab1475	0.33414045
111	0x3ea61efe	0.3244552
112	0x3eb77a1d	0.35835353
113	0x3e973e9b	0.29539952
114	0x3ea4e1a1	0.3220339
115	0x3ea3a443	0.3196126
116	0x3ea4e1a1	0.3220339
117	0x3ea75c5c	0.32687652
118	0x3ea61efe	0.3244552
119	0x3e9d716f	0.30750605
120	0x3ea266e5	0.31719127
121	0x3ea4e1a1	0.3220339
122	0x3ea4e1a1	0.3220339
123	0x3eac51d2	0.33656174
124	0x3e9eaecd	0.30992737
125	0x3e973e9b	0.29539952
126	0x3e94c3e0	0.2905569
127	0x3e9c3411	0.30508474
128	0x3e9af6b4	0.30266345
129	0x3ea12988	0.31476998
130	0x3ea266e5	0.31719127
131	0x3e96013d	0.2929782
132	0x3ea266e5	0.31719127
133	0x3e910bc7	0.28329298
134	0x3e8ad8f3	0.27118644
135	0x3e924925	0.2857143
136	0x3e910bc7	0.28329298
137	0x3e99b956	0.30024213
138	0x3e94c3e0	0.2905569
139	0x3e973e9b	0.29539952
140	0x3e8d53ae	0.27602905
141	0x3e910bc7	0.28329298
142	0x3e973e9b	0.29539952
143	0x3e85e37d	0.26150122
144	0x3e899b95	0.26876512
145	0x3e910bc7	0.28329298
146	0x3e8ad8f3	0.27118644
147	0x3e924925	0.2857143
148	0x3e8c1651	0.27360776
149	0x3e885e38	0.26634383
150	0x3e7f6151	0.24939467
151	0x3e8e910c	0.27845037
152	0x3e910bc7	0.28329298
153	0x3ea12988	0.31476998
154	0x3e910bc7	0.28329298
155	0x3e910bc7	0.28329298
156	0x3e8d53ae	0.27602905
157	0x3e8368c1	0.25665858
158	0x3e8ad8f3	0.27118644
159	0x3e8ad8f3	0.27118644
160	0x3e973e9b	0.29539952
161	0x3e94c3e0	0.2905569
162	0x3e8e910c	0.27845037
163	0x3e885e38	0.26634383
164	0x3e924925	0.2857143
165	0x3e8ad8f3	0.27118644
166	0x3e822b64	0.2542373
167	0x3e8d53ae	0.27602905
168	0x3e7f6151	0.24939467
169	0x3e94c3e0	0.2905569
170	0x3e8fce69	0.28087166
171	0x3e99b956	0.30024213
172	0x3e822b64	0.2542373
173	0x3e899b95	0.26876512
174	0x3e8368c1	0.25665858
175	0x3e973e9b	0.29539952
176	0x3e8c1651	0.27360776
177	0x3e84a61f	0.2590799
178	0x3e84a61f	0.2590799
179	0x3e8e910c	0.27845037
180	0x3e7ce696	0.24697337
181	0x3e6e0633	0.23244552
182	0x3e7f6151	0.24939467
183	0x3e7a6bdb	0.24455206
184	0x3e7ce696	0.24697337
185	0x3e8d53ae	0.27602905
186	0x3e885e38	0.26634383
187	0x3e6b8b78	0.23002422
188	0x3e7a6bdb	0.24455206
189	0x3e7ce696	0.24697337
190	0x3e84a61f	0.2590799
191	0x3e8ad8f3	0.27118644
192	0x3e899b95	0.26876512
193	0x3e8720da	0.2639225
194	0x3e4dcab1	0.20096852
195	0x3e77f120	0.24213076
196	0x3e5cab14	0.21549636
197	0x3e822b64	0.2542373
198	0x3e8368c1	0.25665858
199	0x3e8ad8f3	0.27118644
200	0x3e7a6bdb	0.24455206
201	0x3e5f25d0	0.21791768
202	0x3e85e37d	0.26150122
203	0x3e7f6151	0.24939467
204	0x3e6910bc	0.2276029
205	0x3e6910bc	0.2276029
206	0x3e5f25d0	0.21791768
207	0x3e57b59e	0.21065375
208	0x3e5a3059	0.21307506
209	0x3e669601	0.2251816
210	0x3e6e0633	0.23244552
211	0x3e5f25d0	0.21791768
212	0x3e61a08b	0.22033899
213	0x3e6910bc	0.2276029
214	0x3e7a6bdb	0.24455206
215	0x3e669601	0.2251816
216	0x3e641b46	0.22276029
217	0x3e50456c	0.20338982
218	0x3e5cab14	0.21549636
219	0x3e50456c	0.20338982
220	0x3e669601	0.2251816
221	0x3e5a3059	0.21307506
222	0x3e5a3059	0.21307506
223	0x3e641b46	0.22276029
224	0x3e6910bc	0.2276029
225	0x3e6910bc	0.2276029
226	0x3e48d53b	0.19612591
227	0x3e553ae3	0.20823245
228	0x3e48d53b	0.19612591
229	0x3e553ae3	0.20823245
230	0x3e61a08b	0.22033899
231	0x3e416509	0.18886198
232	0x3e52c028	0.20581114
233	0x3e5a3059	0.21307506
234	0x3e50456c	0.20338982
235	0x3e48d53b	0.19612591
236	0x3e5a3059	0.21307506
237	0x3e669601	0.2251816
238	0x3e50456c	0.20338982
239	0x3e5cab14	0.21549636
240	0x3e61a08b	0.22033899
241	0x3e52c028	0.20581114
242	0x3e465a80	0.1937046
243	0x3e553ae3	0.20823245
244	0x3e39f4d8	0.18159807
245	0x3e641b46	0.22276029
246	0x3e416509	0.18886198
247	0x3e43dfc4	0.19128329
248	0x3e5cab14	0.21549636
249	0x3e57b59e	0.21065375
250	0x3e48d53b	0.19612591
251	0x3e50456c	0.20338982
252	0x3e52c028	0.20581114
253	0x3e50456c	0.20338982
254	0x3e34ff61	0.17675544
255	0x3e48d53b	0.19612591

lr1.weight f4 [1, 63]
0	0x3d3ffd39	0.04687235
1	0x3d3523c7	0.044223573
2	0x3dce592c	0.10075602
3	0xbe4110ce	-0.18854067
4	0x3e5185f9	0.20461263
5	0x3d2d7851	0.04235107
6	0x3e399ec6	0.18126974
7	0x3d5402d1	0.0517605
8	0x3d31164d	0.04323416
9	0xbdf48f47	-0.119413905
10	0x3c2dabe3	0.010600063
11	0xbe0f2f70	-0.1398294
12	0xbd2ac899	-0.04169521
13	0x3c7fba33	0.015608358
14	0x3c996b98	0.018728063
15	0xbdae8441	-0.08521319
16	0xbe1e0430	-0.15431285
17	0xbdcc10ae	-0.09964119
18	0x3cfb4ebf	0.030677198
19	0xbd0a0038	-0.033691615
20	0x3d3d616c	0.046235487
21	0xbc2bc639	-0.010484272
22	0xbe03f26b	-0.12885444
23	0x3de4e176	0.11175816
24	0xbd15f628	-0.036611706
25	0xbe6c231e	-0.23060271
26	0x3dde1e7d	0.10845659
27	0x3e89fce1	0.26950744
28	0xbd7d3139	-0.06181452
29	0xbdbf9750	-0.093550324
30	0x3d687b9a	0.0567585
31	0x3e73d46f	0.23811506
32	0xbdc0214d	-0.093813516
33	0xbd71fc8b	-0.059078734
34	0x3e210283	0.15723614
35	0x3dc71e2c	0.09722552
36	0x3cb5277d	0.022113556
37	0x3e2eb670	0.17061782
38	0xbd9c5d30	-0.076349616
39	0xbd940378	-0.07227224
40	0x3c653bbb	0.013991292
41	0x3d9ca545	0.0764871
42	0x3db2b143	0.08725216
43	0xbc44c44b	-0.0120096905
44	0xbd275be8	-0.040859133
45	0xbe21decf	-0.15807651
46	0x3b9c1b7a	0.0047640176
47	0xbe8d53b0	-0.2760291
48	0x3e88301c	0.26599205
49	0xbe0af25e	-0.13569018
50	0xbdfd4b9a	-0.123679355
51	0x3e05bb84	0.13059813
52	0x3e34d2a6	0.17658481
53	0x3e69eb9b	0.22843783
54	0xbba2df04	-0.004970433
55	0x3e62ee69	0.22161259
56	0xbd5bc767	-0.05365696
57	0xbe7a89c8	-0.24466622
58	0xbcf5a709	-0.029986875
59	0xbe5c09a4	-0.21488053
60	0x3d0e17cc	0.034690663
61	0xbe3be4ea	-0.18349043
62	0x3d091972	0.033471532
