pid/result/ml100k-PIDMF-debug2023-03-14-10-32-30/ckpt/epoch_32.pth (torch_old, 543278 bytes, 5 tensors)

users f4 [945, 64]
1.3179063 -0.2852297 -0.509348 0.26793125 0.07496535 -0.18856227 0.4396607 -0.4177247
-0.5854483 -0.11803392 0.5853044 -0.360322 -0.44819972 0.22258025 0.6583576 -0.17403503
1.0958145 0.4678185 0.8124604 0.41591227 0.63509274 -0.29099417 -0.77964425 -0.33441812
0.77341014 0.78082585 -0.010421586 -0.22401819 -0.69287646 -0.62833536 -0.50617117 0.100112334
-0.60279673 -0.65944976 -0.47866803 -0.52585983 -0.70387554 0.008570592 -0.5482622 -0.89486516
-0.4284289 0.47098312 -0.4199131 0.07333846 -1.0111825 -0.7143996 0.71355665 -0.13801995
0.1362004 0.19861345 -0.8265468 -0.65635854 0.77850854 -0.9445387 -0.048407733 0.8811406
0.1586549 0.48070544 0.18844508 0.9700906 0.3017031 -0.47437778 -0.18941693 0.15084845
0.54090816 -0.2799533 0.14347252 -0.6967433 -0.7912492 -0.31696612 0.7935181 0.6918609
0.09820279 -0.15520635 -0.04820563 -0.7948382 -0.08313554 -0.006558831 0.3428031 -0.1323367
0.1945855 0.041973695 0.28780144 0.48827004 0.19702964 -0.06999185 0.72852397 -0.33409026
0.32706302 1.2006764 -0.86470956 -0.98671097 -0.9321335 -0.9644791 0.33503857 -0.9407914
0.7549807 0.07848538 0.37759346 0.46991593 -0.35899767 0.1386782 -0.7814532 -1.2824622
0.22342342 -0.24304357 0.69932914 -0.32319754 0.71084744 -0.65997267 -0.38263687 -0.6088325
0.21533456 -1.0077196 0.22932394 -0.7351225 -0.5165273 0.26439533 -0.41957077 -0.73777133
0.4850337 0.19291435 -0.056534767 0.47814193 0.08165611 0.8279384 -0.40393215 -0.19380473
-0.6213434 -0.32487297 -0.45136982 -0.2865929 -0.13714552 0.6607214 0.50982034 0.028403314
0.36239287 -0.9303863 0.42583573 0.028309992 -0.59599084 0.5467604 0.43751353 -0.36123383
-0.89144397 -0.13695069 1.044779 0.3808964 -0.4646202 0.47547153 -0.7547422 0.14670916
-0.23968172 0.99583364 -0.045698483 -0.8656371 -0.17445092 -0.29043755 -0.35211605 -0.7961631
-0.79319566 -0.037953917 -0.94274807 -0.13750876 0.7874188 0.13522436 -0.2839922 -0.8729109
0.53833413 0.10150205 -0.43444568 -0.5964277 -0.8122914 0.13280635 0.52410597 -1.1010735
0.21941344 0.21572614 -0.20564306 0.18296893 -1.0051379 -0.075449035 0.43990755 -0.3595976
-0.3977691 0.24027866 0.28330457 -0.05482922 0.13387588 0.7111436 -0.42920503 0.109210745
0.57428014 -0.48353428 0.7930153 -0.14191885 -0.82353055 0.017208844 1.0806481 -0.242164
0.175114 0.20985413 0.90936047 -0.9217072 0.035119753 0.27855745 0.6748895 -0.26454592
0.5038887 0.07704196 0.4640474 -0.1447936 -0.1230484 -0.49526444 -0.5246342 -0.32561412
-0.71069515 -0.33648205 0.9410486 -0.6687672 0.22491616 -0.18892276 0.8749807 0.5113364
0.79471815 -0.80543244 -0.27966413 -0.3810365 -0.10866476 -0.74567366 0.020701809 0.30166093
-0.5491353 0.095956735 0.11359596 0.16220994 -0.8035443 0.005063284 0.44175673 0.0014948235
0.2543928 0.23376207 -0.12546542 -0.6293682 1.5795788 -0.9791862 0.40578103 -0.801265
-0.18621345 0.485572 0.22528279 0.52831364 -0.192305 0.26870322 0.18362215 0.10065344
00000000: 27b1 a83f a109 92be a164 02bf 492e 893e
00000010: 6f87 993d 7816 41be 351b e13e 03e0 d5be
00000020: f1df 15bf c5bb f1bd 82d6 153f 207c b8be
00000030: 6f7a e5be 14ec 633e 208a 283f 3d36 32be
00000040: a643 8c3f e885 ef3e 68fd 4f3f 74f2 d43e
00000050: 7095 223f 30fd 94be c496 47bf da38 abbe
00000060: 35fe 453f 34e4 473f 4dbf 2abc 0665 65be
00000070: 5a60 31bf 96da 20bf 6f94 01bf b207 cd3d
00000080: e350 1abf b3d1 28bf fa13 f5be c09e 06bf
00000090: 3031 34bf ab6b 0c3c e95a 0cbf e215 65bf
000000a0: 085b dbbe b324 f13e dafe d6be 7932 963d
000000b0: 6e6e 81bf e4e2 36bf a6ab 363f 1a55 0dbe
000000c0: 1e78 0b3e 5361 4b3e 9298 53bf 1d07 28bf
000000d0: 564c 473f 4acd 71bf 3047 46bd 6e92 613f
000000e0: 6e76 223e 061f f63e bff7 403e dc57 783f
000000f0: d478 9a3e a5e1 f2be 83f6 41be 0478 1a3e
00000100: f578 0a3f 0a56 8fbe 76ea 123e c55d 32bf
00000110: 4f8f 4abf 6249 a2be 0124 4b3f cc1d 313f
00000120: 8b1e c93d 6aee 1ebe 4473 45bd 847a 4bbf
00000130: f742 aabd 76eb d6bb e383 af3e 4683 07be
00000140: 6c41 473e 9cec 2b3d b65a 933e 88fe f93e
00000150: 23c2 493e e357 8fbd 8c80 3a3f e10d abbe
00000160: ce74 a73e c4af 993f 9b5d 5dbf 1799 7cbf
00000170: 4da0 6ebf 1ae8 76bf 2d8a ab3e b5d7 70bf
00000180: 6a46 413f f1bc a03d ee53 c13e d298 f03e
00000190: 8bce b7be a801 0e3e 510d 48bf b927 a4bf
000001a0: 1cc9 643e 6ae0 78be 3c07 333f 267a a5be
000001b0: 19fa 353f f8f3 28bf fbe8 c3be 72dc 1bbf
000001c0: aa80 5c3e f5fc 80bf e5d3 6a3e fd30 3cbf
000001d0: 223b 04bf d35e 873e fbd1 d6be 95de 3cbf
000001e0: 5656 f83e 578b 453e 0091 67bd 05cf f43e
000001f0: 523b a73d c5f3 533f 32d0 cebe bf74 46be
00000200: 5c10 1fbf c055 a6be f219 e7be 4ebc 92be
00000210: e06f 0cbe 0a25 293f 9683 023f 11ae e83c
00000220: 8f8b b93e cc2d 6ebf 2407 da3e 5bea e73c
00000230: db92 18bf 7df8 0b3f c601 e03e a4f3 b8be
00000240: ac35 64bf cd3c 0cbe 51bb 853f da04 c33e
00000250: b3e2 edbe 0171 f33e c936 41bf ed3a 163e
00000260: 206f 75be f4ee 7e3f 552e 3bbd 659a 5dbf
00000270: 43a3 32be 3bb4 94be 8e48 b4be 58d1 4bbf
00000280: df0e 4bbf 9175 1bbd f057 71bf 19cf 0cbe
00000290: 4794 493f 4178 0a3e 6d67 91be 1777 5fbf
000002a0: 44d0 093f 4fe0 cf3d aa6f debe 7caf 18bf
000002b0: 54f2 4fbf 63fe 073e cf2b 063f faef 8cbf
000002c0: ebad 603e 50e7 5c3e 1894 52be 355c 3b3e
000002d0: 5ca8 80bf 0685 9abd 903b e13e 2d1d b8be
000002e0: 64a8 cbbe 9c0b 763e 4c0d 913e 9b94 60bd
000002f0: c216 093e 820d 363f c3c0 dbbe e2a9 df3d
00000300: 0604 133f ce91 f7be 0d03 4b3f 2d53 11be
00000310: e6d2 52bf 90f9 8c3c ad52 8a3f d7f9 77be
00000320: 1651 333e 00e4 563e d9cb 683f 01f5 6bbf
00000330: bbd9 0f3d 159f 8e3e 8fc5 2c3f 9072 87be
00000340: dafe 003f 2dc8 9d3d 9f97 ed3e c644 14be
00000350: cd00 fcbd 4d93 fdbe 6d4e 06bf e5b6 a6be
00000360: 1ef0 35bf 6047 acbe 90e8 703f 5434 2bbf
00000370: 6c50 663e f874 41be bcfe 5f3f f1e6 023f
00000380: a672 4b3f d230 4ebf 2330 8fbe 3717 c3be
00000390: a18b debd 78e4 3ebf d796 a93c 4d73 9a3e
000003a0: 2294 0cbf f784 c43d 00a5 e83d 5d1a 263e
000003b0: 14b5 4dbf e8e9 a53b f02d e23e f4ed c33a
000003c0: c63f 823e 535f 6f3e 027a 00be 461e 21bf
000003d0: a32f ca3f f2ab 7abf 88c2 cf3e b41f 4dbf
000003e0: bdae 3ebe e59c f83e 88b0 663e 903f 073f
000003f0: 9aeb 44be 7893 893e 7207 3c3e 6423 ce3d

items_id f4 [1154, 63]
0.57510334 0.5527923 0.18115884 -0.11302183 0.12928408 0.4315058 0.5207233 0.547385
0.56043786 -0.3955048 0.6141505 -0.11257531 -0.36072332 0.4941324 0.44179428 -0.4074697
-0.13825472 -0.27771372 0.3147576 0.66596675 0.6199682 0.40480664 -0.32469943 0.2713428
-0.25348705 0.031727012 0.3137325 0.23198324 -0.22664388 -0.33330205 0.41280895 0.13483573
-0.15400021 -0.44631445 0.24987963 0.24209939 0.7342706 0.3184948 -0.3011063 -0.21389233
-0.2671697 0.25842065 0.2839328 -0.5513247 -0.57679826 -0.23404421 0.45100495 0.05746284
0.09630535 -0.31735757 -0.29158324 0.040693067 0.20711587 -0.02014426 -0.6499334 0.209997
-0.5655335 0.017280994 -0.31651667 -0.1335641 0.29909277 -0.16428591 0.4415545 0.1680431
0.28303543 0.13783218 -0.0056393915 0.5237058 0.07276167 0.5855296 0.083285935 0.036626343
-0.053407155 -0.0051707495 -0.03194568 -0.23473191 0.048450585 0.009980228 -0.21847825 -0.2961335
-0.1233492 0.23717187 0.014240533 0.26293486 0.2810624 -0.08298751 0.331487 -0.19245963
-0.19523185 0.059018053 0.0359251 0.016656175 0.011012427 -0.03311159 0.092921 -0.18446998
-0.26396093 0.2175434 0.113075346 0.31365123 0.13807724 -0.08565662 -0.08650594 -0.14074044
0.2307853 -0.024921894 -0.06257789 -0.2165785 -0.06701963 0.014733277 -0.118560135 0.09166258
0.0008345834 -0.033425692 0.039227102 0.19510657 0.22190103 0.08219902 0.20404258 -0.3559046
-0.117749974 0.011565887 -0.1303237 -0.006649418 -0.27318555 0.06892768 0.32277018 0.36164635
0.14848648 -0.1095018 0.32651922 0.255824 0.119284175 0.14848219 0.36832646 -0.27931234
0.38245293 -0.25830558 -0.2745319 0.13921842 0.16015664 -0.13611911 -0.22920766 0.00080545596
0.0740274 0.22024411 0.32872087 0.29237336 -0.19048795 0.22670469 -0.09400688 -0.05631446
0.060223088 0.23218435 -0.096410446 -0.03119592 0.24592899 0.036219846 -0.26846465 -0.3480741
0.13203567 0.073341675 0.39307177 0.098011576 -0.102192566 -0.24829675 -0.16024546 0.09370819
0.24592236 -0.32673556 -0.24572164 -0.20998903 0.15543674 -0.12896983 0.078316815 -0.19097869
-0.25614327 0.07910916 0.19984531 0.17778757 -0.3844337 0.0019198277 -0.2579742 -0.049821265
-0.10752694 -0.15614347 0.060787443 -0.15169588 0.28290156 0.3953469 0.14004645 0.16349445
-0.23922642 0.2153506 0.088181466 0.3404195 0.31029886 0.3670787 -0.25756383 0.14999443
-0.23355131 -0.13962564 0.25588793 0.17051102 -0.35147816 -0.2160446 -0.15886654 0.0876769
0.16297296 0.36584663 0.12473518 -0.08426109 0.07279633 -0.08512844 -0.1549116 0.20217432
0.1655783 -0.21401319 -0.13351908 0.30718538 0.13232988 -0.059417803 -0.25662023 0.28588888
0.09459355 0.2527383 0.06077551 -0.23070063 -0.19861168 -0.16630012 0.07667501 0.0947185
-0.3566628 -0.17666109 -0.041167725 0.083312675 -0.011022394 -0.062323112 -0.22203568 -0.14045711
0.07594632 0.09249614 0.17163771 -0.3876066 0.21105805 -0.19501947 -0.079480484 -0.04883533
-0.0920704 0.1548868 -0.2696263 0.16860956 0.34391776 0.23561542 0.24604571 0.033564713
00000000: f939 133f cc83 0d3f b481 393e fd77 e7bd
00000010: 0c63 043e 54ee dc3e 1f4e 053f 6c21 0c3f
00000020: db78 0f3f 9b7f cabe f838 1d3f e28d e6bd
00000030: bab0 b8be ecfe fc3e dc32 e23e de9f d0be
00000040: a592 0dbe 7e30 8ebe e827 a13e cc7c 2a3f
00000050: 3cb6 1e3f d142 cf3e 013f a6be 72ed 8a3e
00000060: 0ec9 81be 2ff4 013d 8ca1 a03e 048d 6d3e
00000070: 5515 68be 91a6 aabe b25b d33e 6112 0a3e
00000080: 3bb2 1dbe 5483 e4be 72e0 7f3e e7e8 773e
00000090: 28f9 3b3f c011 a33e 9b2a 9abe 9706 5bbe
000000a0: 78ca 88be b64f 843e a45f 913e 9e23 0dbf
000000b0: 0da9 13bf 49a9 6fbe 1fea e63e 285e 6b3d
000000c0: bd3b c53d b17c a2be 664a 95be c6ad 263d
000000d0: 2f16 543e 9305 a5bc 0962 26bf 7409 573e
000000e0: cec6 10bf df90 8d3c 790e a2be 07c5 08be
000000f0: b022 993e 913a 28be 6e13 e23e 7e13 2c3e
00000100: 05ea 903e e123 0d3e a5ca b8bb 9511 063f
00000110: 1204 953d 45e5 153f d191 aa3d 8105 163d
00000120: 76c1 5abd 646f a9bb 79d9 02bd 905d 70be
00000130: 1f74 463d 1c84 233c c3b8 5fbe cf9e 97be
00000140: 819e fcbd 2fdd 723e 2051 693c 669f 863e
00000150: 69e7 8f3e 5bf5 a9bd aab8 a93e 2314 45be
00000160: dcea 47be eabc 713d 3326 133d 8872 883c
00000170: 776d 343c 05a0 07bd 5e4d be3d b3e5 3cbe
00000180: e325 87be b2c3 5e3e 0c94 e73d e596 a03e
00000190: 1f64 0d3e bd6c afbd 072a b1bd 431e 10be
000001a0: fb52 6c3e 0029 ccbc d628 80bd c1c6 5dbe
000001b0: 9641 89bd d863 713c a8cf f2bd 97b9 bb3d
000001c0: f2c7 5a3a 61e9 08bd 99ac 203d 04ca 473e
000001d0: 063a 633e f657 a83d 8af0 503e 2139 b6be
000001e0: e626 f1bd d97e 3d3c 9373 05be 5ce3 d9bb
000001f0: fade 8bbe f529 8d3d 2242 a53e b629 b93e
00000200: d70c 183e 7b42 e0bd 872d a73e 5dfb 823e
00000210: 434b f43d b70b 183e 4995 bc3e 0702 8fbe
00000220: dfd0 c33e a140 84be 728f 8cbe 468f 0e3e
00000230: 1a00 243e cf62 0bbe 6ab5 6abe 3c25 533a
00000240: ad9b 973d ac87 613e 1a4e a83e f6b1 953e
00000250: 460f 43be 4625 683e ae86 c0bd fea9 66bd
00000260: 7cac 763d bcc1 6d3e d772 c5bd 968e ffbc
00000270: cfd4 7b3e 435b 143d 3374 89be c536 b2be
00000280: 5c34 073e 2934 963d b440 c93e 4bba c83d
00000290: 564a d1bd 8141 7ebe 6317 24be 14ea bf3d
000002a0: 12d3 7b3e e249 a7be 749e 7bbe 5d07 57be
000002b0: cf2a 1f3e ab10 04be 9164 a03d eb8f 43be
000002c0: 3625 83be fc03 a23d 40a4 4c3e f20d 363e
000002d0: 7ed4 c4be baa2 fb3a 3215 84be 6211 4cbd
000002e0: 1637 dcbd 13e4 1fbe 41fc 783d 2a56 1bbe
000002f0: 79d8 903e e96a ca3e 5668 0f3e 176b 273e
00000300: c5f7 74be de84 5c3e 7c98 b43d 774b ae3e
00000310: 7edf 9e3e bdf1 bb3e 68df 83be 2498 193e
00000320: 1328 6fbe 06fa 0ebe be03 833e 719a 2e3e
00000330: f2f4 b3be cc3a 5dbe e9ad 22be f28f b33d
00000340: 62e2 263e 4050 bb3e 2875 ff3d 1491 acbd
00000350: 3e16 953d d257 aebd 25a1 1ebe c906 4f3e
00000360: 5c8d 293e 4626 5bbe 3ab9 08be 6747 9d3e
00000370: 7c81 073e 1560 73bd ba63 83be 0760 923e
00000380: 43ba c13d ea66 813e beef 783d c93c 6cbe
00000390: dc60 4bbe 944a 2abe ca07 9d3d c6fb c13d
000003a0: 829c b6be a5e6 34be 7d9f 28bd d69f aa3d
000003b0: 4597 34bc 8546 7fbd 525d 63be fdd3 0fbe
000003c0: bf89 9b3d 9e6e bd3d ccc1 2f3e 5f74 c6be
000003d0: 9a1f 583e 2fb3 47be aac6 a2bd 8e07 48bd
000003e0: 688f bcbd a59a 1e3e 750c 8abe fca7 2c3e
000003f0: fd15 b03e 2b45 713e 68f3 7b3e 277b 093d

item_pop f4 [1154, 1]
1.0 0.8159806 0.8498789 0.86440676 0.8062954 0.8062954 0.7990315 0.75060534
0.72397095 0.71670705 0.6779661 0.7118644 0.6416465 0.62711865 0.6585956 0.6513317
0.63438255 0.6150121 0.63438255 0.56658596 0.5786925 0.5811138 0.53268766 0.55690074
0.5544794 0.51331717 0.527845 0.51331717 0.50363195 0.47941887 0.52300245 0.5108959
0.50363195 0.50121063 0.4552058 0.47215497 0.5108959 0.4866828 0.5108959 0.44067797
0.44309926 0.4915254 0.4866828 0.527845 0.4552058 0.4552058 0.43099272 0.44552058
0.43825665 0.4479419 0.45762712 0.46004844 0.41888618 0.44552058 0.44309926 0.44309926
0.46246973 0.4479419 0.41888618 0.4261501 0.39225182 0.43341404 0.4213075 0.43099272
0.3946731 0.39951575 0.4261501 0.4164649 0.3946731 0.3898305 0.40920097 0.39951575
0.37288135 0.43583536 0.3946731 0.41404358 0.37530267 0.40920097 0.39709443 0.40435836
0.3898305 0.3559322 0.36077482 0.3898305 0.346247 0.36077482 0.38256657 0.3849879
0.36319613 0.3559322 0.36803874 0.37288135 0.33656174 0.3510896 0.33656174 0.34382567
0.3535109 0.36077482 0.33171913 0.36561742 0.33898306 0.34140435 0.3559322 0.34382567
0.34866828 0.3244552 0.3220339 0.34382567 0.34140435 0.3220339 0.33414045 0.3244552
0.35835353 0.29539952 0.3220339 0.3196126 0.3220339 0.32687652 0.3244552 0.30750605
0.31719127 0.3220339 0.3220339 0.33656174 0.30992737 0.29539952 0.2905569 0.30508474
0.30266345 0.31476998 0.31719127 0.2929782 0.31719127 0.28329298 0.27118644 0.2857143
0.28329298 0.30024213 0.2905569 0.29539952 0.27602905 0.28329298 0.29539952 0.26150122
0.26876512 0.28329298 0.27118644 0.2857143 0.27360776 0.26634383 0.24939467 0.27845037
0.28329298 0.31476998 0.28329298 0.28329298 0.27602905 0.25665858 0.27118644 0.27118644
0.29539952 0.2905569 0.27845037 0.26634383 0.2857143 0.27118644 0.2542373 0.27602905
0.24939467 0.2905569 0.28087166 0.30024213 0.2542373 0.26876512 0.25665858 0.29539952
0.27360776 0.2590799 0.2590799 0.27845037 0.24697337 0.23244552 0.24939467 0.24455206
0.24697337 0.27602905 0.26634383 0.23002422 0.24455206 0.24697337 0.2590799 0.27118644
0.26876512 0.2639225 0.20096852 0.24213076 0.21549636 0.2542373 0.25665858 0.27118644
0.24455206 0.21791768 0.26150122 0.24939467 0.2276029 0.2276029 0.21791768 0.21065375
0.21307506 0.2251816 0.23244552 0.21791768 0.22033899 0.2276029 0.24455206 0.2251816
0.22276029 0.20338982 0.21549636 0.20338982 0.2251816 0.21307506 0.21307506 0.22276029
0.2276029 0.2276029 0.19612591 0.20823245 0.19612591 0.20823245 0.22033899 0.18886198
0.20581114 0.21307506 0.20338982 0.19612591 0.21307506 0.2251816 0.20338982 0.21549636
0.22033899 0.20581114 0.1937046 0.20823245 0.18159807 0.22276029 0.18886198 0.19128329
0.21549636 0.21065375 0.19612591 0.20338982 0.20581114 0.20338982 0.17675544 0.19612591
00000000: 0000 803f 1be4 503f aa91 593f c349 5d3f
00000010: 6069 4e3f 6069 4e3f 548d 4c3f ac27 403f
00000020: 2956 393f 1d7a 373f 308f 2d3f bf3c 363f
00000030: f242 243f d98a 203f b999 283f adbd 263f
00000040: e566 223f 6f71 1d3f e566 223f c70b 113f
00000050: 3125 143f e0c3 143f 385e 083f 0c91 0e3f
00000060: 5df2 0d3f c168 033f da20 073f c168 033f
00000070: 06ee 003f 6476 f53e 7de3 053f 13ca 023f
00000080: 06ee 003f 574f 003f bc10 e93e 4cbe f13e
00000090: 13ca 023f 7d2e f93e 13ca 023f 8ba0 e13e
000000a0: e8dd e23e 38a9 fb3e 7d2e f93e da20 073f
000000b0: bc10 e93e bc10 e93e 14ab dc3e 461b e43e
000000c0: 2d63 e03e a458 e53e 1a4e ea3e 788b eb3e
000000d0: 4078 d63e 461b e43e e8dd e23e e8dd e23e
000000e0: d5c8 ec3e a458 e53e 4078 d63e 5930 da3e
000000f0: 3bd5 c83e 72e8 dd3e 9eb5 d73e 14ab dc3e
00000100: 9812 ca3e 548d cc3e 5930 da3e e33a d53e
00000110: 9812 ca3e dd97 c73e ca82 d13e 548d cc3e
00000120: 4eea be3e d025 df3e 9812 ca3e 85fd d33e
00000130: ac27 c03e ca82 d13e f64f cb3e 0f08 cf3e
00000140: dd97 c73e bf3c b63e 7ab7 b83e dd97 c73e
00000150: 4947 b13e 7ab7 b83e c4df c33e 221d c53e
00000160: d8f4 b93e bf3c b63e 936f bc3e 4eea be3e
00000170: d251 ac3e 04c2 b33e d251 ac3e eb09 b03e
00000180: 61ff b43e 7ab7 b83e 17d7 a93e 3532 bb3e
00000190: 308f ad3e 8dcc ae3e bf3c b63e eb09 b03e
000001a0: a684 b23e fe1e a63e a1e1 a43e eb09 b03e
000001b0: 8dcc ae3e a1e1 a43e 7514 ab3e fe1e a63e
000001c0: 1d7a b73e 9b3e 973e a1e1 a43e 43a4 a33e
000001d0: a1e1 a43e 5c5c a73e fe1e a63e 6f71 9d3e
000001e0: e566 a23e a1e1 a43e a1e1 a43e d251 ac3e
000001f0: cdae 9e3e 9b3e 973e e0c3 943e 1134 9c3e
00000200: b4f6 9a3e 8829 a13e e566 a23e 3d01 963e
00000210: e566 a23e c70b 913e f3d8 8a3e 2549 923e
00000220: c70b 913e 56b9 993e e0c3 943e 9b3e 973e
00000230: ae53 8d3e c70b 913e 9b3e 973e 7de3 853e
00000240: 959b 893e c70b 913e f3d8 8a3e 2549 923e
00000250: 5116 8c3e 385e 883e 5161 7f3e 0c91 8e3e
00000260: c70b 913e 8829 a13e c70b 913e c70b 913e
00000270: ae53 8d3e c168 833e f3d8 8a3e f3d8 8a3e
00000280: 9b3e 973e e0c3 943e 0c91 8e3e 385e 883e
00000290: 2549 923e f3d8 8a3e 642b 823e ae53 8d3e
000002a0: 5161 7f3e e0c3 943e 69ce 8f3e 56b9 993e
000002b0: 642b 823e 959b 893e c168 833e 9b3e 973e
000002c0: 5116 8c3e 1fa6 843e 1fa6 843e 0c91 8e3e
000002d0: 96e6 7c3e 3306 6e3e 5161 7f3e db6b 7a3e
000002e0: 96e6 7c3e ae53 8d3e 385e 883e 788b 6b3e
000002f0: db6b 7a3e 96e6 7c3e 1fa6 843e f3d8 8a3e
00000300: 959b 893e da20 873e b1ca 4d3e 20f1 773e
00000310: 14ab 5c3e 642b 823e c168 833e f3d8 8a3e
00000320: db6b 7a3e d025 5f3e 7de3 853e 5161 7f3e
00000330: bc10 693e bc10 693e d025 5f3e 9eb5 573e
00000340: 5930 5a3e 0196 663e 3306 6e3e d025 5f3e
00000350: 8ba0 613e bc10 693e db6b 7a3e 0196 663e
00000360: 461b 643e 6c45 503e 14ab 5c3e 6c45 503e
00000370: 0196 663e 5930 5a3e 5930 5a3e 461b 643e
00000380: bc10 693e bc10 693e 3bd5 483e e33a 553e
00000390: 3bd5 483e e33a 553e 8ba0 613e 0965 413e
000003a0: 28c0 523e 5930 5a3e 6c45 503e 3bd5 483e
000003b0: 5930 5a3e 0196 663e 6c45 503e 14ab 5c3e
000003c0: 8ba0 613e 28c0 523e 805a 463e e33a 553e
000003d0: d8f4 393e 461b 643e 0965 413e c4df 433e
000003e0: 14ab 5c3e 9eb5 573e 3bd5 483e 6c45 503e
000003f0: 28c0 523e 6c45 503e 61ff 343e 3bd5 483e

item_pop_true f4 [1154, 1]
1.0 0.8159806 0.8498789 0.86440676 0.8062954 0.8062954 0.7990315 0.75060534
0.72397095 0.71670705 0.6779661 0.7118644 0.6416465 0.62711865 0.6585956 0.6513317
0.63438255 0.6150121 0.63438255 0.56658596 0.5786925 0.5811138 0.53268766 0.55690074
0.5544794 0.51331717 0.527845 0.51331717 0.50363195 0.47941887 0.52300245 0.5108959
0.50363195 0.50121063 0.4552058 0.47215497 0.5108959 0.4866828 0.5108959 0.44067797
0.44309926 0.4915254 0.4866828 0.527845 0.4552058 0.4552058 0.43099272 0.44552058
0.43825665 0.4479419 0.45762712 0.46004844 0.41888618 0.44552058 0.44309926 0.44309926
0.46246973 0.4479419 0.41888618 0.4261501 0.39225182 0.43341404 0.4213075 0.43099272
0.3946731 0.39951575 0.4261501 0.4164649 0.3946731 0.3898305 0.40920097 0.39951575
0.37288135 0.43583536 0.3946731 0.41404358 0.37530267 0.40920097 0.39709443 0.40435836
0.3898305 0.3559322 0.36077482 0.3898305 0.346247 0.36077482 0.38256657 0.3849879
0.36319613 0.3559322 0.36803874 0.37288135 0.33656174 0.3510896 0.33656174 0.34382567
0.3535109 0.36077482 0.33171913 0.36561742 0.33898306 0.34140435 0.3559322 0.34382567
0.34866828 0.3244552 0.3220339 0.34382567 0.34140435 0.3220339 0.33414045 0.3244552
0.35835353 0.29539952 0.3220339 0.3196126 0.3220339 0.32687652 0.3244552 0.30750605
0.31719127 0.3220339 0.3220339 0.33656174 0.30992737 0.29539952 0.2905569 0.30508474
0.30266345 0.31476998 0.31719127 0.2929782 0.31719127 0.28329298 0.27118644 0.2857143
0.28329298 0.30024213 0.2905569 0.29539952 0.27602905 0.28329298 0.29539952 0.26150122
0.26876512 0.28329298 0.27118644 0.2857143 0.27360776 0.26634383 0.24939467 0.27845037
0.28329298 0.31476998 0.28329298 0.28329298 0.27602905 0.25665858 0.27118644 0.27118644
0.29539952 0.2905569 0.27845037 0.26634383 0.2857143 0.27118644 0.2542373 0.27602905
0.24939467 0.2905569 0.28087166 0.30024213 0.2542373 0.26876512 0.25665858 0.29539952
0.27360776 0.2590799 0.2590799 0.27845037 0.24697337 0.23244552 0.24939467 0.24455206
0.24697337 0.27602905 0.26634383 0.23002422 0.24455206 0.24697337 0.2590799 0.27118644
0.26876512 0.2639225 0.20096852 0.24213076 0.21549636 0.2542373 0.25665858 0.27118644
0.24455206 0.21791768 0.26150122 0.24939467 0.2276029 0.2276029 0.21791768 0.21065375
0.21307506 0.2251816 0.23244552 0.21791768 0.22033899 0.2276029 0.24455206 0.2251816
0.22276029 0.20338982 0.21549636 0.20338982 0.2251816 0.21307506 0.21307506 0.22276029
0.2276029 0.2276029 0.19612591 0.20823245 0.19612591 0.20823245 0.22033899 0.18886198
0.20581114 0.21307506 0.20338982 0.19612591 0.21307506 0.2251816 0.20338982 0.21549636
0.22033899 0.20581114 0.1937046 0.20823245 0.18159807 0.22276029 0.18886198 0.19128329
0.21549636 0.21065375 0.19612591 0.20338982 0.20581114 0.20338982 0.17675544 0.19612591
00000000: 0000 803f 1be4 503f aa91 593f c349 5d3f
00000010: 6069 4e3f 6069 4e3f 548d 4c3f ac27 403f
00000020: 2956 393f 1d7a 373f 308f 2d3f bf3c 363f
00000030: f242 243f d98a 203f b999 283f adbd 263f
00000040: e566 223f 6f71 1d3f e566 223f c70b 113f
00000050: 3125 143f e0c3 143f 385e 083f 0c91 0e3f
00000060: 5df2 0d3f c168 033f da20 073f c168 033f
00000070: 06ee 003f 6476 f53e 7de3 053f 13ca 023f
00000080: 06ee 003f 574f 003f bc10 e93e 4cbe f13e
00000090: 13ca 023f 7d2e f93e 13ca 023f 8ba0 e13e
000000a0: e8dd e23e 38a9 fb3e 7d2e f93e da20 073f
000000b0: bc10 e93e bc10 e93e 14ab dc3e 461b e43e
000000c0: 2d63 e03e a458 e53e 1a4e ea3e 788b eb3e
000000d0: 4078 d63e 461b e43e e8dd e23e e8dd e23e
000000e0: d5c8 ec3e a458 e53e 4078 d63e 5930 da3e
000000f0: 3bd5 c83e 72e8 dd3e 9eb5 d73e 14ab dc3e
00000100: 9812 ca3e 548d cc3e 5930 da3e e33a d53e
00000110: 9812 ca3e dd97 c73e ca82 d13e 548d cc3e
00000120: 4eea be3e d025 df3e 9812 ca3e 85fd d33e
00000130: ac27 c03e ca82 d13e f64f cb3e 0f08 cf3e
00000140: dd97 c73e bf3c b63e 7ab7 b83e dd97 c73e
00000150: 4947 b13e 7ab7 b83e c4df c33e 221d c53e
00000160: d8f4 b93e bf3c b63e 936f bc3e 4eea be3e
00000170: d251 ac3e 04c2 b33e d251 ac3e eb09 b03e
00000180: 61ff b43e 7ab7 b83e 17d7 a93e 3532 bb3e
00000190: 308f ad3e 8dcc ae3e bf3c b63e eb09 b03e
000001a0: a684 b23e fe1e a63e a1e1 a43e eb09 b03e
000001b0: 8dcc ae3e a1e1 a43e 7514 ab3e fe1e a63e
000001c0: 1d7a b73e 9b3e 973e a1e1 a43e 43a4 a33e
000001d0: a1e1 a43e 5c5c a73e fe1e a63e 6f71 9d3e
000001e0: e566 a23e a1e1 a43e a1e1 a43e d251 ac3e
000001f0: cdae 9e3e 9b3e 973e e0c3 943e 1134 9c3e
00000200: b4f6 9a3e 8829 a13e e566 a23e 3d01 963e
00000210: e566 a23e c70b 913e f3d8 8a3e 2549 923e
00000220: c70b 913e 56b9 993e e0c3 943e 9b3e 973e
00000230: ae53 8d3e c70b 913e 9b3e 973e 7de3 853e
00000240: 959b 893e c70b 913e f3d8 8a3e 2549 923e
00000250: 5116 8c3e 385e 883e 5161 7f3e 0c91 8e3e
00000260: c70b 913e 8829 a13e c70b 913e c70b 913e
00000270: ae53 8d3e c168 833e f3d8 8a3e f3d8 8a3e
00000280: 9b3e 973e e0c3 943e 0c91 8e3e 385e 883e
00000290: 2549 923e f3d8 8a3e 642b 823e ae53 8d3e
000002a0: 5161 7f3e e0c3 943e 69ce 8f3e 56b9 993e
000002b0: 642b 823e 959b 893e c168 833e 9b3e 973e
000002c0: 5116 8c3e 1fa6 843e 1fa6 843e 0c91 8e3e
000002d0: 96e6 7c3e 3306 6e3e 5161 7f3e db6b 7a3e
000002e0: 96e6 7c3e ae53 8d3e 385e 883e 788b 6b3e
000002f0: db6b 7a3e 96e6 7c3e 1fa6 843e f3d8 8a3e
00000300: 959b 893e da20 873e b1ca 4d3e 20f1 773e
00000310: 14ab 5c3e 642b 823e c168 833e f3d8 8a3e
00000320: db6b 7a3e d025 5f3e 7de3 853e 5161 7f3e
00000330: bc10 693e bc10 693e d025 5f3e 9eb5 573e
00000340: 5930 5a3e 0196 663e 3306 6e3e d025 5f3e
00000350: 8ba0 613e bc10 693e db6b 7a3e 0196 663e
00000360: 461b 643e 6c45 503e 14ab 5c3e 6c45 503e
00000370: 0196 663e 5930 5a3e 5930 5a3e 461b 643e
00000380: bc10 693e bc10 693e 3bd5 483e e33a 553e
00000390: 3bd5 483e e33a 553e 8ba0 613e 0965 413e
000003a0: 28c0 523e 5930 5a3e 6c45 503e 3bd5 483e
000003b0: 5930 5a3e 0196 663e 6c45 503e 14ab 5c3e
000003c0: 8ba0 613e 28c0 523e 805a 463e e33a 553e
000003d0: d8f4 393e 461b 643e 0965 413e c4df 433e
000003e0: 14ab 5c3e 9eb5 573e 3bd5 483e 6c45 503e
000003f0: 28c0 523e 6c45 503e 61ff 343e 3bd5 483e

lr1.weight f4 [1, 63]
0.05887937 0.0191996 0.10852585 -0.18973427 0.14729401 0.031477123 0.13919936 -0.009915592
-0.0020382777 -0.11837197 -0.01578477 -0.17254698 -0.051398 -0.033896603 -0.0007239726 -0.0041681933
-0.09211056 -0.11744649 0.03206479 -0.027829222 0.017942801 -0.046012465 -0.059824977 0.03492732
0.0144693265 -0.19137025 0.051465906 0.22737564 -0.086020604 -0.095686115 0.077705085 0.1844939
-0.04946699 -0.045971 0.067129895 0.0305943 0.004893165 0.1475198 -0.07414348 -0.07373574
0.064296186 0.06334203 0.070800215 -0.017908456 -0.016741203 -0.11219233 -0.054060336 -0.32008132
0.25285253 -0.100625515 -0.1263143 0.0916306 0.16589499 0.16925617 -0.019960843 0.20847583
0.002071718 -0.2537982 -0.0077144257 -0.15498774 0.033379722 -0.14604436 0.006619235
00000000: 7f2b 713d 7b48 9d3c cd42 de3d b349 42be
00000010: 3ed4 163e 28ee 003d 478a 0e3e 0275 22bc
00000020: a094 05bb 016d f2bd 104f 81bc 28b0 30be
00000030: b686 52bd 2ad7 0abd fbc8 3dba 5795 88bb
00000040: 76a4 bcbd c987 f0bd 5f56 033d 1cfa e3bc
00000050: c8fc 923c 9177 3cbd 090b 75bd f30f 0f3d
00000060: c110 6d3c 90f6 43be eacd 523d 29d5 683e
00000070: 922b b0bd 15f7 c3bd d823 9f3d f8eb 3c3e
00000080: e69d 4abd 164c 3cbd 667b 893d e6a0 fa3c
00000090: d856 a03b 6e0f 173e 89d8 97bd c302 97bd
000000a0: b8ad 833d 77b9 813d b4ff 903d c1b4 92bc
000000b0: d924 89bc 18c5 e5bd 5f6e 5dbd b3e1 a3be
000000c0: e375 813e c014 cebd 8958 01be d3a8 bb3d
000000d0: 60e0 293e 7d51 2d3e ec84 a3bc b07a 553e
000000e0: a9c5 073b d6f1 81be 4bc9 fcbb 1bb5 1ebe
000000f0: 2db9 083d a78c 15be 2be6 d83b
