pid/result/ml100k-PIDMF-debug2023-03-14-10-32-30/ckpt/epoch_28.pth (torch_old, 543278 bytes, 5 tensors)

users f4 [945, 64]
000000 cd c7 9c 3f ad 94 8d be 00 9e e9 be a1 e8 79 3e
       1.2248474 -0.27652493 -0.45628357 0.24405147
000010 2a 04 52 3d 94 61 37 be cc c2 d4 3e 0b 5d c1 be
       0.051273502 -0.17908317 0.41554868 -0.377663
000020 2f 40 0f bf ca 5d f1 bd 4c a0 0f 3f e8 23 b0 be
       -0.5595731 -0.11785467 0.5610397 -0.34402394
000030 80 a1 d5 be 44 27 5d 3e 4d 5b 1f 3f 7d 9a 1d be
       -0.41724777 0.2159701 0.6224869 -0.15390964
000040 f7 da 84 3f b0 d9 e1 3e 2e 89 48 3f 75 20 cd 3e
       1.0379323 0.44111395 0.7833432 0.40063825
000050 e5 30 18 3f 4d bd 91 be e5 78 3a bf bc 32 a4 be
       0.5944961 -0.28464738 -0.7284072 -0.32069957
000060 31 47 38 3f e2 37 39 3f 6d ea 3b bc bf d8 69 be
       0.7198363 0.72350895 -0.011469466 -0.22836588
000070 70 ae 28 bf fb 6a 1b bf 7a 41 f3 be 07 99 b0 3d
       -0.6589117 -0.60710114 -0.47510892 0.08622938
000080 38 77 0c bf 0a 58 23 bf 33 54 d6 be 51 df ed be
       -0.54869413 -0.6380621 -0.41861114 -0.4645944
000090 3f 7e 23 bf ac c1 80 ba 9e 9e 05 bf 1c db 51 bf
       -0.6386451 -0.0009823344 -0.52195156 -0.8197496
0000a0 d1 f5 dc be d5 88 d4 3e 41 28 c3 be 19 f2 93 3d
       -0.43156293 0.41510645 -0.3811665 0.07223911
0000b0 b1 a2 71 bf 62 1e 35 bf 8c ae 30 3f 2a 2f fa bd
       -0.9438887 -0.70749485 0.6901634 -0.12216027
0000c0 c0 f2 d6 3d c1 e1 3e 3e 57 16 46 bf 1b 54 1b bf
       0.1049552 0.18640806 -0.7737784 -0.6067521
0000d0 da d2 39 3f 24 10 6e bf 8b 59 77 bd 2e d5 5e 3f
       0.7258736 -0.9299338 -0.06038813 0.87044036
0000e0 9c 0f 05 3e 9f 12 f4 3e 40 09 23 3e 24 f7 68 3f
       0.12994236 0.47670457 0.15921497 0.91002107
0000f0 9d 57 92 3e fe 93 e3 be d1 78 2b be e6 8d 10 3e
       0.2858247 -0.44448847 -0.16745307 0.1411663
000100 3d fa 06 3f 22 fb 8b be 0f 08 0e 3e e4 19 2b bf
       0.52725583 -0.27340037 0.13870262 -0.6683638
000110 9c 83 47 bf 33 22 90 be 34 e0 36 3f cd e9 1f 3f
       -0.77935195 -0.28151092 0.71435857 0.62466127
000120 c5 07 cc 3d 4e 5c 28 be 99 69 57 bd 5c cd 3b bf
       0.099624194 -0.16441461 -0.05259094 -0.7336023
000130 db 4e b4 bd 49 7e c6 bc 47 90 a9 3e 96 6e bf bd
       -0.08804103 -0.02423014 0.33117887 -0.093472645
000140 0f 4d 54 3e 1c 8c ec 3b 4f 91 93 3e 7e 83 f1 3e
       0.2073252 0.007218851 0.288218 0.47170633
000150 56 7a 3b 3e f2 c8 9c bd 24 8f 35 3f f2 bd ab be
       0.18308386 -0.07655515 0.7092154 -0.33543354
000160 3b 16 a5 3e 27 da 95 3f 65 e6 56 bf 84 45 71 bf
       0.32243523 1.17072 -0.83945304 -0.942467
000170 c7 71 63 bf c8 40 65 bf 4e 8b a8 3e 24 71 6a bf
       -0.88845485 -0.89551973 0.3291878 -0.9157889
000180 bf fa 3d 3f 61 85 bf 3d 6b 39 ae 3e 24 d5 db 3e
       0.74210733 0.09351612 0.3402818 0.4293605
000190 fd af ab be 54 f2 bd 3d e7 82 3e bf 39 17 9b bf
       -0.33532706 0.09274736 -0.7441849 -1.2116462
0001a0 3b 34 6b 3e 71 81 70 be 68 3c 2f 3f fe ec a9 be
       0.22969143 -0.23486878 0.6845155 -0.33188623
0001b0 77 90 2d 3f 73 76 22 bf 4a 6b c0 be 72 e0 10 bf
       0.6779856 -0.6346199 -0.37581855 -0.56592476
0001c0 bd 5f 53 3e 5c c9 75 bf 72 02 4c 3e 2e e9 28 bf
       0.2064199 -0.96010375 0.19922808 -0.65980804
0001d0 cc d3 f7 be 00 12 6e 3e e5 1b d5 be c1 ee 28 bf
       -0.48403776 0.23249054 -0.41622844 -0.6598931
0001e0 43 8e f0 3e bb 0f 42 3e cb 27 96 bd 43 d4 e7 3e
       0.46983537 0.18951313 -0.07331809 0.4527913
0001f0 a8 71 af 3d 71 f6 4d 3f 74 51 be be d4 cc 50 be
       0.085666 0.80454165 -0.3717152 -0.20390636
000200 e9 9a 12 bf 46 df 90 be d6 50 dc be 76 0f 8a be
       -0.57267624 -0.28295344 -0.43030423 -0.2696492
000210 41 15 03 be b1 73 1d 3f 1e 09 04 3f a3 8b 9c 3c
       -0.12801076 0.61504656 0.5157641 0.019109553
000220 e0 1b b3 3e ec e6 5d bf 74 59 ca 3e 08 de c8 3c
       0.34982204 -0.86680484 0.39521372 0.024519935
000230 12 8a 14 bf 46 f9 07 3f cd a7 d8 3e 3a 20 ad be
       -0.5802318 0.53114736 0.42315522 -0.3381365
000240 ca 34 58 bf 70 c8 0a be 49 78 77 3f 1a ba b1 3e
       -0.8445555 -0.13553023 0.96667916 0.34712297
000250 42 fc e1 be a9 60 e6 3e ad f4 33 bf 33 40 1a 3e
       -0.4413777 0.4499562 -0.7029522 0.15063553
000260 62 dc 78 be dc 3c 6d 3f a4 70 e3 bc 55 84 52 bf
       -0.2430282 0.9267099 -0.027763672 -0.8223317
000270 3e dc 15 be 34 c6 93 be cb 0c aa be 01 82 43 bf
       -0.14634797 -0.28862154 -0.33212885 -0.76370245
000280 ef 38 39 bf b5 da 0a bd 40 ab 60 bf c5 a9 fc bd
       -0.723525 -0.03389998 -0.87761307 -0.123370685
000290 28 37 3a 3f 4f 69 fe 3d 45 c5 93 be ea 3a 52 bf
       0.7274041 0.1242243 -0.28861442 -0.82121146
0002a0 eb ea fc 3e 0d 64 cb 3d 8f a0 c5 be 4b 3a 10 bf
       0.49397978 0.099311925 -0.3859906 -0.5633895
0002b0 ea d0 42 bf ff 41 05 3e ba 87 fa 3e 5f 87 83 bf
       -0.7610003 0.13013457 0.48931676 -1.0275687
0002c0 42 e9 5a 3e c3 78 50 3e 91 ee 34 be 8a a4 0c 3e
       0.21378043 0.20358567 -0.17669131 0.13734642
0002d0 22 46 6d bf ac 70 80 bd 17 ac da 3e 61 b4 b8 be
       -0.9268514 -0.062714905 0.4270942 -0.36075118
0002e0 6e 62 c9 be d1 6e 72 3e 90 3b 84 3e 1a 16 45 bc
       -0.39332908 0.23675086 0.25826693 -0.012029195
0002f0 3d 7b 20 3e 26 84 2f 3f c1 34 d2 be 47 52 e9 3d
       0.15672012 0.6856102 -0.41055873 0.11392646
000300 11 0c 0b 3f a2 bb e7 be 0d 20 3b 3f 00 05 fd bd
       0.54315287 -0.4526034 0.7309578 -0.12354469
000310 ff dd 41 bf 03 b1 e5 3c b5 35 83 3f 06 59 5b be
       -0.75729364 0.028038507 1.0250765 -0.21420678
000320 9c f2 2d 3e 21 5e 36 3e 2d af 5e 3f c9 b1 5a bf
       0.1698708 0.17809345 0.8698605 -0.8542753
000330 e1 5d 08 3d 99 a2 97 3e 1d 16 2b 3f 71 3e 82 be
       0.033292655 0.2961624 0.6683062 -0.25438264
000340 89 3b ed 3e 2a 19 41 3d bd 27 dd 3e b9 09 ed bd
       0.46334484 0.04714314 0.4319438 -0.1157412
000350 6d 0c f1 bd 6e 51 fd be 89 99 05 bf e9 55 87 be
       -0.11769948 -0.49476188 -0.521874 -0.26432732
000360 96 c7 2b bf 62 e0 9b be f2 89 66 3f dd 05 1f bf
       -0.6710142 -0.30444628 0.9005424 -0.6211832
000370 35 9d 6a 3e dc 47 33 be 9c ac 4e 3f a3 c8 ef 3e
       0.22911532 -0.17507881 0.8073213 0.4683276
000380 8b c2 38 3f f3 35 3d bf 7b a1 88 be a7 76 b6 be
       0.7217185 -0.73910445 -0.266857 -0.356374
000390 04 db c2 bd 6b 6f 33 bf 6f e8 c0 ba cf e3 88 3e
       -0.0951443 -0.70091885 -0.0014717708 0.26736304
0003a0 b9 36 09 bf d8 c4 b3 3d 13 1c ce 3d c1 68 1d 3e
       -0.53599125 0.08777779 0.100639485 0.15371992
0003b0 b0 d2 44 bf ac cb 94 3c 3e 29 de 3e d7 76 74 3c
       -0.76883984 0.018163525 0.4339084 0.014920912
0003c0 86 b6 56 3e 6c 02 53 3e 3a 3b 04 be 30 12 1d bf
       0.20968065 0.20606393 -0.12913218 -0.61355877
0003d0 10 bc be 3f 72 d4 5e bf da 15 c5 3e 1f 58 47 bf
       1.4901142 -0.87042916 0.38493234 -0.7786884
0003e0 cf 29 2a be a5 e3 ed 3e 61 62 61 3e 12 2d 02 3f
       -0.16617511 0.46462741 0.22010185 0.5085002
0003f0 2d 64 2f be 23 bd 86 3e 37 3c 30 3e 6f 59 cf 3d
       -0.17128058 0.26316175 0.1721047 0.1012448

items_id f4 [1154, 63]
000000 c3 48 0f 3f ee 5b 0b 3f 27 e3 31 3e 92 d2 e6 bd
       0.559704 0.5443715 0.17371808 -0.11270632
000010 92 11 f1 3d aa 1d da 3e 0e 71 fc 3e c1 50 07 3f
       0.117709294 0.42600757 0.49305004 0.52857596
000020 c4 c7 0b 3f bc 13 c5 be d0 27 18 3f a0 22 e0 bd
       0.54601693 -0.3849162 0.5943575 -0.10944104
000030 1d b2 b3 be 9b f5 f5 3e b3 5c dc 3e 76 da c7 be
       -0.35096827 0.48038945 0.43039474 -0.3903386
000040 f7 56 ea bd 1c 2a 8b be a5 15 9d 3e 3f eb 25 3f
       -0.114423685 -0.27180564 0.30680576 0.6481208
000050 6b 82 17 3f ad c7 c7 3e 60 a3 a1 be 4c 3e 83 3e
       0.5918338 0.39019528 -0.31569958 0.25633466
000060 4c 63 7a be 4a 5e fb 3c 17 cc 9c 3e 72 18 6a 3e
       -0.24451941 0.030684609 0.30624458 0.22860888
000070 82 e2 62 be f8 a9 a6 be f4 5f cd 3e fa 3a 07 3e
       -0.22156718 -0.3255155 0.4011227 0.13206092
000080 ab 93 15 be 27 5a dc be c2 91 74 3e 14 c5 6e 3e
       -0.14607112 -0.4303753 0.23883727 0.23317367
000090 c1 29 38 3f f3 87 9e 3e 5e 86 97 be be 08 52 be
       0.7193871 0.30963096 -0.29594702 -0.20511147
0000a0 19 37 82 be 7f 26 82 3e 47 35 8f 3e 91 ce 0a bf
       -0.2543266 0.25419995 0.27970335 -0.54221445
0000b0 bc d7 0e bf b8 17 6c be d2 b6 e1 3e da 41 4c 3d
       -0.55797935 -0.23055923 0.44084793 0.04986749
0000c0 8d e9 c3 3d 35 70 9f be 87 9f 92 be 42 6d 3d 3d
       0.09566031 -0.31140295 -0.28637335 0.046246774
0000d0 a9 16 51 3e c2 27 e1 bc 27 09 23 bf 68 87 59 3e
       0.204188 -0.027484778 -0.6368584 0.2124306
0000e0 31 e7 0d bf b1 d8 37 3c 0c ff 9d be c3 dd 06 be
       -0.55430895 0.011221097 -0.30858648 -0.13170533
0000f0 3e 03 95 3e 09 a0 20 be b1 0b d6 3e a4 2c 2c 3e
       0.29104036 -0.15686049 0.41805795 0.16813904
000100 fa 56 8b 3e 85 2c 0f 3e ec ab aa bc df 37 fa 3e
       0.27214795 0.13981827 -0.020833932 0.4887075
000110 4d 41 9a 3d 7a 71 0d 3f 2c 82 9f 3d d4 d0 29 3d
       0.075319864 0.55251276 0.077885 0.04145892
000120 3c 86 61 bd 4a ab ba bb 26 85 e7 bc 0a 3d 6a be
       -0.055059657 -0.005696689 -0.028261732 -0.22874847
000130 bd 7d 2c 3d 3e bb cf 3b 74 2d 56 be e0 8c 8c be
       0.0421121 0.0063394597 -0.20915776 -0.2745123
000140 63 0c fd bd 42 ae 6c 3e 6f 30 3d 3c 43 43 85 3e
       -0.12355878 0.23113349 0.011547192 0.2602788
000150 5a 28 8b 3e 01 48 a0 bd 38 64 a4 3e a1 e5 44 be
       0.27179223 -0.07826234 0.3210771 -0.19228221
000160 25 45 49 be 76 ab 75 3d f6 10 01 3d ae 6f 6e 3c
       -0.19655283 0.05997797 0.031510316 0.014552994
000170 cc ee 67 3c 8b 02 d7 bc 47 f3 c2 3d f0 e4 38 be
       0.014156055 -0.02624633 0.09519058 -0.18056083
000180 fe 47 84 be 42 22 54 3e 09 ca e1 3d 6a 64 9d 3e
       -0.25836176 0.20716193 0.11024863 0.30740672
000190 35 ad 0b 3e 02 e8 a6 bd 64 51 a9 bd 6a c6 06 be
       0.13640292 -0.08149721 -0.08267477 -0.13161626
0001a0 3e 12 6a 3e 1c 58 d2 bc 28 c3 93 bd 52 17 5f be
       0.22858521 -0.02567678 -0.072149575 -0.2178624
0001b0 ca f7 8c bd 17 97 48 3c 53 de f4 bd e5 04 b5 3d
       -0.068831995 0.012243054 -0.119564675 0.08838824
0001c0 cc e0 6b bb 45 6b 0c bd 39 31 18 3d d8 ea 48 3e
       -0.0035992144 -0.034281988 0.037156317 0.19620836
0001d0 45 32 66 3e 25 28 9b 3d 3f fa 4d 3e b9 93 af be
       0.22480114 0.07576016 0.20114993 -0.3429239
0001e0 5d d7 f6 bd cb f9 77 3c 48 6e 02 be f1 1e 25 bc
       -0.12052796 0.015135239 -0.12737381 -0.010078178
0001f0 f4 ea 86 be 60 61 7e 3d 4d 72 9f 3e 38 3d b2 3e
       -0.2635113 0.062104583 0.31141892 0.3481233
000200 7b fd 12 3e a5 b2 f6 bd 43 84 a3 3e b6 ef 7e 3e
       0.14354508 -0.120457925 0.31936845 0.2489613
000210 6a 59 11 3e 09 b3 05 3e 06 7e b8 3e 22 1c 8d be
       0.14194265 0.13056578 0.36033648 -0.27560526
000220 f7 0b be 3e 85 bb 82 be 61 51 87 be e6 65 02 3e
       0.37118503 -0.2553369 -0.26429275 0.12734184
000230 d3 34 1d 3e 03 12 fc bd bd 05 52 be 16 98 7a b9
       0.15352182 -0.12308123 -0.20510001 -0.00023898514
000240 d0 58 84 3d d3 b5 52 3e 0a b1 9d 3e de 86 80 3e
       0.06462252 0.20577173 0.30799133 0.25102895
000250 56 d0 3e be dc e4 5c 3e 90 42 b3 bd 93 77 57 bd
       -0.18634161 0.21571678 -0.0875293 -0.05260427
000260 1d 20 59 3d ad 49 6a 3e c7 b8 b3 bd 2a 05 ce bc
       0.05300914 0.22879668 -0.08775478 -0.025148947
000270 83 d2 74 3e e5 f8 06 3d e3 34 85 be 2a 63 ab be
       0.23908429 0.032952208 -0.26016912 -0.33474094
000280 23 6e ff 3d 46 99 8d 3d 47 a3 bd 3e a6 56 b0 3d
       0.12472179 0.06914 0.37038633 0.08610277
000290 d4 75 bd bd af 91 76 be 8f 3a 14 be e1 5e a7 3d
       -0.092509896 -0.24079011 -0.14475463 0.081723936
0002a0 3e f7 75 3e 83 9c 9f be 11 91 74 be e8 58 55 be
       0.24020097 -0.31174096 -0.23883463 -0.20834696
0002b0 17 aa 0f 3e f9 3a 06 be a4 2b a6 3d d8 22 43 be
       0.14029728 -0.13108434 0.081137925 -0.1905626
0002c0 7a 79 80 be 06 88 98 3d f9 81 4b 3e 71 37 32 3e
       -0.2509268 0.074478194 0.198738 0.17403962
0002d0 9d da bc be fb bd 79 ba 38 c5 76 be d1 34 39 bd
       -0.3688554 -0.00095269055 -0.2409867 -0.045216385
0002e0 f3 38 ce bd 75 6b 1b be 63 2a 52 3d 93 50 12 be
       -0.10069456 -0.1517771 0.051309954 -0.14288549
0002f0 aa 46 8c 3e e0 73 c5 3e 8f 2e 06 3e 91 0f 21 3e
       0.27397662 0.38564968 0.13103698 0.15728594
000300 a3 d8 7f be 33 08 57 3e 7f 0d a6 3d 74 65 a6 3e
       -0.24984984 0.20999222 0.08108043 0.32499278
000310 2f ec 9a 3e 94 fb b5 3e b0 e0 80 be 11 e4 0b 3e
       0.3025832 0.355435 -0.25171423 0.13661219
000320 0e c9 6b be 2a 94 0a be c9 f1 7e 3e 9f 8b 24 3e
       -0.23025915 -0.13533083 0.24896921 0.16068886
000330 36 10 aa be 42 88 51 be f3 2c 23 be bd a5 a8 3d
       -0.33215493 -0.20462134 -0.15935116 0.08234737
000340 2f d8 1d 3e 37 f6 b3 3e a2 1f e0 3d 06 af 9b bd
       0.15414499 0.35148785 0.109435335 -0.076017424
000350 dd 8f 82 3d 60 08 a7 bd aa 86 1d be 28 aa 47 3e
       0.06375096 -0.08155894 -0.15383402 0.19498503
000360 27 9f 27 3e e7 d7 59 be 22 31 04 be ca 29 9a 3e
       0.16369306 -0.21273766 -0.12909368 0.30110008
000370 c0 dd 00 3e 1c e1 58 bd 90 24 7d be 70 1a 8f 3e
       0.12584591 -0.052949056 -0.24720979 0.27949858
000380 32 e9 b3 3d d5 b6 72 3e ad 01 50 3d 1a e0 67 be
       0.08784713 0.23702557 0.05078285 -0.22644082
000390 f6 66 44 be 0e 79 1f be d4 44 92 3d 7b da b9 3d
       -0.19179901 -0.15573522 0.07142034 0.09074875
0003a0 5e 76 b3 be 54 df 25 be 04 95 20 bd 2f b2 9a 3d
       -0.35051244 -0.16198474 -0.039204612 0.07553517
0003b0 8c a1 86 bc 5b 2d 75 bd 9c 89 5f be 07 20 0b be
       -0.016434453 -0.059857707 -0.21829838 -0.13586436
0003c0 54 59 9c 3d 4c ed b5 3d 81 0d 32 3e 2f 64 c2 be
       0.076342255 0.088831514 0.17387964 -0.3796706
0003d0 41 71 58 3e 52 32 3e be bc e9 a0 bd fe ac 2f bd
       0.21136953 -0.18573883 -0.07857081 -0.042889588
0003e0 2e 8a b4 bd 87 12 17 3e 83 72 84 be 54 2c 22 3e
       -0.08815418 0.14753161 -0.25868616 0.15837222
0003f0 1c 10 aa 3e 3a fc 62 3e 02 ba 78 3e 9e 20 27 3c
       0.33215415 0.2216653 0.24289706 0.010200648

item_pop f4 [1154, 1]
000000 00 00 80 3f 1b e4 50 3f aa 91 59 3f c3 49 5d 3f
       1.0 0.8159806 0.8498789 0.86440676
000010 60 69 4e 3f 60 69 4e 3f 54 8d 4c 3f ac 27 40 3f
       0.8062954 0.8062954 0.7990315 0.75060534
000020 29 56 39 3f 1d 7a 37 3f 30 8f 2d 3f bf 3c 36 3f
       0.72397095 0.71670705 0.6779661 0.7118644
000030 f2 42 24 3f d9 8a 20 3f b9 99 28 3f ad bd 26 3f
       0.6416465 0.62711865 0.6585956 0.6513317
000040 e5 66 22 3f 6f 71 1d 3f e5 66 22 3f c7 0b 11 3f
       0.63438255 0.6150121 0.63438255 0.56658596
000050 31 25 14 3f e0 c3 14 3f 38 5e 08 3f 0c 91 0e 3f
       0.5786925 0.5811138 0.53268766 0.55690074
000060 5d f2 0d 3f c1 68 03 3f da 20 07 3f c1 68 03 3f
       0.5544794 0.51331717 0.527845 0.51331717
000070 06 ee 00 3f 64 76 f5 3e 7d e3 05 3f 13 ca 02 3f
       0.50363195 0.47941887 0.52300245 0.5108959
000080 06 ee 00 3f 57 4f 00 3f bc 10 e9 3e 4c be f1 3e
       0.50363195 0.50121063 0.4552058 0.47215497
000090 13 ca 02 3f 7d 2e f9 3e 13 ca 02 3f 8b a0 e1 3e
       0.5108959 0.4866828 0.5108959 0.44067797
0000a0 e8 dd e2 3e 38 a9 fb 3e 7d 2e f9 3e da 20 07 3f
       0.44309926 0.4915254 0.4866828 0.527845
0000b0 bc 10 e9 3e bc 10 e9 3e 14 ab dc 3e 46 1b e4 3e
       0.4552058 0.4552058 0.43099272 0.44552058
0000c0 2d 63 e0 3e a4 58 e5 3e 1a 4e ea 3e 78 8b eb 3e
       0.43825665 0.4479419 0.45762712 0.46004844
0000d0 40 78 d6 3e 46 1b e4 3e e8 dd e2 3e e8 dd e2 3e
       0.41888618 0.44552058 0.44309926 0.44309926
0000e0 d5 c8 ec 3e a4 58 e5 3e 40 78 d6 3e 59 30 da 3e
       0.46246973 0.4479419 0.41888618 0.4261501
0000f0 3b d5 c8 3e 72 e8 dd 3e 9e b5 d7 3e 14 ab dc 3e
       0.39225182 0.43341404 0.4213075 0.43099272
000100 98 12 ca 3e 54 8d cc 3e 59 30 da 3e e3 3a d5 3e
       0.3946731 0.39951575 0.4261501 0.4164649
000110 98 12 ca 3e dd 97 c7 3e ca 82 d1 3e 54 8d cc 3e
       0.3946731 0.3898305 0.40920097 0.39951575
000120 4e ea be 3e d0 25 df 3e 98 12 ca 3e 85 fd d3 3e
       0.37288135 0.43583536 0.3946731 0.41404358
000130 ac 27 c0 3e ca 82 d1 3e f6 4f cb 3e 0f 08 cf 3e
       0.37530267 0.40920097 0.39709443 0.40435836
000140 dd 97 c7 3e bf 3c b6 3e 7a b7 b8 3e dd 97 c7 3e
       0.3898305 0.3559322 0.36077482 0.3898305
000150 49 47 b1 3e 7a b7 b8 3e c4 df c3 3e 22 1d c5 3e
       0.346247 0.36077482 0.38256657 0.3849879
000160 d8 f4 b9 3e bf 3c b6 3e 93 6f bc 3e 4e ea be 3e
       0.36319613 0.3559322 0.36803874 0.37288135
000170 d2 51 ac 3e 04 c2 b3 3e d2 51 ac 3e eb 09 b0 3e
       0.33656174 0.3510896 0.33656174 0.34382567
000180 61 ff b4 3e 7a b7 b8 3e 17 d7 a9 3e 35 32 bb 3e
       0.3535109 0.36077482 0.33171913 0.36561742
000190 30 8f ad 3e 8d cc ae 3e bf 3c b6 3e eb 09 b0 3e
       0.33898306 0.34140435 0.3559322 0.34382567
0001a0 a6 84 b2 3e fe 1e a6 3e a1 e1 a4 3e eb 09 b0 3e
       0.34866828 0.3244552 0.3220339 0.34382567
0001b0 8d cc ae 3e a1 e1 a4 3e 75 14 ab 3e fe 1e a6 3e
       0.34140435 0.3220339 0.33414045 0.3244552
0001c0 1d 7a b7 3e 9b 3e 97 3e a1 e1 a4 3e 43 a4 a3 3e
       0.35835353 0.29539952 0.3220339 0.3196126
0001d0 a1 e1 a4 3e 5c 5c a7 3e fe 1e a6 3e 6f 71 9d 3e
       0.3220339 0.32687652 0.3244552 0.30750605
0001e0 e5 66 a2 3e a1 e1 a4 3e a1 e1 a4 3e d2 51 ac 3e
       0.31719127 0.3220339 0.3220339 0.33656174
0001f0 cd ae 9e 3e 9b 3e 97 3e e0 c3 94 3e 11 34 9c 3e
       0.30992737 0.29539952 0.2905569 0.30508474
000200 b4 f6 9a 3e 88 29 a1 3e e5 66 a2 3e 3d 01 96 3e
       0.30266345 0.31476998 0.31719127 0.2929782
000210 e5 66 a2 3e c7 0b 91 3e f3 d8 8a 3e 25 49 92 3e
       0.31719127 0.28329298 0.27118644 0.2857143
000220 c7 0b 91 3e 56 b9 99 3e e0 c3 94 3e 9b 3e 97 3e
       0.28329298 0.30024213 0.2905569 0.29539952
000230 ae 53 8d 3e c7 0b 91 3e 9b 3e 97 3e 7d e3 85 3e
       0.27602905 0.28329298 0.29539952 0.26150122
000240 95 9b 89 3e c7 0b 91 3e f3 d8 8a 3e 25 49 92 3e
       0.26876512 0.28329298 0.27118644 0.2857143
000250 51 16 8c 3e 38 5e 88 3e 51 61 7f 3e 0c 91 8e 3e
       0.27360776 0.26634383 0.24939467 0.27845037
000260 c7 0b 91 3e 88 29 a1 3e c7 0b 91 3e c7 0b 91 3e
       0.28329298 0.31476998 0.28329298 0.28329298
000270 ae 53 8d 3e c1 68 83 3e f3 d8 8a 3e f3 d8 8a 3e
       0.27602905 0.25665858 0.27118644 0.27118644
000280 9b 3e 97 3e e0 c3 94 3e 0c 91 8e 3e 38 5e 88 3e
       0.29539952 0.2905569 0.27845037 0.26634383
000290 25 49 92 3e f3 d8 8a 3e 64 2b 82 3e ae 53 8d 3e
       0.2857143 0.27118644 0.2542373 0.27602905
0002a0 51 61 7f 3e e0 c3 94 3e 69 ce 8f 3e 56 b9 99 3e
       0.24939467 0.2905569 0.28087166 0.30024213
0002b0 64 2b 82 3e 95 9b 89 3e c1 68 83 3e 9b 3e 97 3e
       0.2542373 0.26876512 0.25665858 0.29539952
0002c0 51 16 8c 3e 1f a6 84 3e 1f a6 84 3e 0c 91 8e 3e
       0.27360776 0.2590799 0.2590799 0.27845037
0002d0 96 e6 7c 3e 33 06 6e 3e 51 61 7f 3e db 6b 7a 3e
       0.24697337 0.23244552 0.24939467 0.24455206
0002e0 96 e6 7c 3e ae 53 8d 3e 38 5e 88 3e 78 8b 6b 3e
       0.24697337 0.27602905 0.26634383 0.23002422
0002f0 db 6b 7a 3e 96 e6 7c 3e 1f a6 84 3e f3 d8 8a 3e
       0.24455206 0.24697337 0.2590799 0.27118644
000300 95 9b 89 3e da 20 87 3e b1 ca 4d 3e 20 f1 77 3e
       0.26876512 0.2639225 0.20096852 0.24213076
000310 14 ab 5c 3e 64 2b 82 3e c1 68 83 3e f3 d8 8a 3e
       0.21549636 0.2542373 0.25665858 0.27118644
000320 db 6b 7a 3e d0 25 5f 3e 7d e3 85 3e 51 61 7f 3e
       0.24455206 0.21791768 0.26150122 0.24939467
000330 bc 10 69 3e bc 10 69 3e d0 25 5f 3e 9e b5 57 3e
       0.2276029 0.2276029 0.21791768 0.21065375
000340 59 30 5a 3e 01 96 66 3e 33 06 6e 3e d0 25 5f 3e
       0.21307506 0.2251816 0.23244552 0.21791768
000350 8b a0 61 3e bc 10 69 3e db 6b 7a 3e 01 96 66 3e
       0.22033899 0.2276029 0.24455206 0.2251816
000360 46 1b 64 3e 6c 45 50 3e 14 ab 5c 3e 6c 45 50 3e
       0.22276029 0.20338982 0.21549636 0.20338982
000370 01 96 66 3e 59 30 5a 3e 59 30 5a 3e 46 1b 64 3e
       0.2251816 0.21307506 0.21307506 0.22276029
000380 bc 10 69 3e bc 10 69 3e 3b d5 48 3e e3 3a 55 3e
       0.2276029 0.2276029 0.19612591 0.20823245
000390 3b d5 48 3e e3 3a 55 3e 8b a0 61 3e 09 65 41 3e
       0.19612591 0.20823245 0.22033899 0.18886198
0003a0 28 c0 52 3e 59 30 5a 3e 6c 45 50 3e 3b d5 48 3e
       0.20581114 0.21307506 0.20338982 0.19612591
0003b0 59 30 5a 3e 01 96 66 3e 6c 45 50 3e 14 ab 5c 3e
       0.21307506 0.2251816 0.20338982 0.21549636
0003c0 8b a0 61 3e 28 c0 52 3e 80 5a 46 3e e3 3a 55 3e
       0.22033899 0.20581114 0.1937046 0.20823245
0003d0 d8 f4 39 3e 46 1b 64 3e 09 65 41 3e c4 df 43 3e
       0.18159807 0.22276029 0.18886198 0.19128329
0003e0 14 ab 5c 3e 9e b5 57 3e 3b d5 48 3e 6c 45 50 3e
       0.21549636 0.21065375 0.19612591 0.20338982
0003f0 28 c0 52 3e 6c 45 50 3e 61 ff 34 3e 3b d5 48 3e
       0.20581114 0.20338982 0.17675544 0.19612591

item_pop_true f4 [1154, 1]
000000 00 00 80 3f 1b e4 50 3f aa 91 59 3f c3 49 5d 3f
       1.0 0.8159806 0.8498789 0.86440676
000010 60 69 4e 3f 60 69 4e 3f 54 8d 4c 3f ac 27 40 3f
       0.8062954 0.8062954 0.7990315 0.75060534
000020 29 56 39 3f 1d 7a 37 3f 30 8f 2d 3f bf 3c 36 3f
       0.72397095 0.71670705 0.6779661 0.7118644
000030 f2 42 24 3f d9 8a 20 3f b9 99 28 3f ad bd 26 3f
       0.6416465 0.62711865 0.6585956 0.6513317
000040 e5 66 22 3f 6f 71 1d 3f e5 66 22 3f c7 0b 11 3f
       0.63438255 0.6150121 0.63438255 0.56658596
000050 31 25 14 3f e0 c3 14 3f 38 5e 08 3f 0c 91 0e 3f
       0.5786925 0.5811138 0.53268766 0.55690074
000060 5d f2 0d 3f c1 68 03 3f da 20 07 3f c1 68 03 3f
       0.5544794 0.51331717 0.527845 0.51331717
000070 06 ee 00 3f 64 76 f5 3e 7d e3 05 3f 13 ca 02 3f
       0.50363195 0.47941887 0.52300245 0.5108959
000080 06 ee 00 3f 57 4f 00 3f bc 10 e9 3e 4c be f1 3e
       0.50363195 0.50121063 0.4552058 0.47215497
000090 13 ca 02 3f 7d 2e f9 3e 13 ca 02 3f 8b a0 e1 3e
       0.5108959 0.4866828 0.5108959 0.44067797
0000a0 e8 dd e2 3e 38 a9 fb 3e 7d 2e f9 3e da 20 07 3f
       0.44309926 0.4915254 0.4866828 0.527845
0000b0 bc 10 e9 3e bc 10 e9 3e 14 ab dc 3e 46 1b e4 3e
       0.4552058 0.4552058 0.43099272 0.44552058
0000c0 2d 63 e0 3e a4 58 e5 3e 1a 4e ea 3e 78 8b eb 3e
       0.43825665 0.4479419 0.45762712 0.46004844
0000d0 40 78 d6 3e 46 1b e4 3e e8 dd e2 3e e8 dd e2 3e
       0.41888618 0.44552058 0.44309926 0.44309926
0000e0 d5 c8 ec 3e a4 58 e5 3e 40 78 d6 3e 59 30 da 3e
       0.46246973 0.4479419 0.41888618 0.4261501
0000f0 3b d5 c8 3e 72 e8 dd 3e 9e b5 d7 3e 14 ab dc 3e
       0.39225182 0.43341404 0.4213075 0.43099272
000100 98 12 ca 3e 54 8d cc 3e 59 30 da 3e e3 3a d5 3e
       0.3946731 0.39951575 0.4261501 0.4164649
000110 98 12 ca 3e dd 97 c7 3e ca 82 d1 3e 54 8d cc 3e
       0.3946731 0.3898305 0.40920097 0.39951575
000120 4e ea be 3e d0 25 df 3e 98 12 ca 3e 85 fd d3 3e
       0.37288135 0.43583536 0.3946731 0.41404358
000130 ac 27 c0 3e ca 82 d1 3e f6 4f cb 3e 0f 08 cf 3e
       0.37530267 0.40920097 0.39709443 0.40435836
000140 dd 97 c7 3e bf 3c b6 3e 7a b7 b8 3e dd 97 c7 3e
       0.3898305 0.3559322 0.36077482 0.3898305
000150 49 47 b1 3e 7a b7 b8 3e c4 df c3 3e 22 1d c5 3e
       0.346247 0.36077482 0.38256657 0.3849879
000160 d8 f4 b9 3e bf 3c b6 3e 93 6f bc 3e 4e ea be 3e
       0.36319613 0.3559322 0.36803874 0.37288135
000170 d2 51 ac 3e 04 c2 b3 3e d2 51 ac 3e eb 09 b0 3e
       0.33656174 0.3510896 0.33656174 0.34382567
000180 61 ff b4 3e 7a b7 b8 3e 17 d7 a9 3e 35 32 bb 3e
       0.3535109 0.36077482 0.33171913 0.36561742
000190 30 8f ad 3e 8d cc ae 3e bf 3c b6 3e eb 09 b0 3e
       0.33898306 0.34140435 0.3559322 0.34382567
0001a0 a6 84 b2 3e fe 1e a6 3e a1 e1 a4 3e eb 09 b0 3e
       0.34866828 0.3244552 0.3220339 0.34382567
0001b0 8d cc ae 3e a1 e1 a4 3e 75 14 ab 3e fe 1e a6 3e
       0.34140435 0.3220339 0.33414045 0.3244552
0001c0 1d 7a b7 3e 9b 3e 97 3e a1 e1 a4 3e 43 a4 a3 3e
       0.35835353 0.29539952 0.3220339 0.3196126
0001d0 a1 e1 a4 3e 5c 5c a7 3e fe 1e a6 3e 6f 71 9d 3e
       0.3220339 0.32687652 0.3244552 0.30750605
0001e0 e5 66 a2 3e a1 e1 a4 3e a1 e1 a4 3e d2 51 ac 3e
       0.31719127 0.3220339 0.3220339 0.33656174
0001f0 cd ae 9e 3e 9b 3e 97 3e e0 c3 94 3e 11 34 9c 3e
       0.30992737 0.29539952 0.2905569 0.30508474
000200 b4 f6 9a 3e 88 29 a1 3e e5 66 a2 3e 3d 01 96 3e
       0.30266345 0.31476998 0.31719127 0.2929782
000210 e5 66 a2 3e c7 0b 91 3e f3 d8 8a 3e 25 49 92 3e
       0.31719127 0.28329298 0.27118644 0.2857143
000220 c7 0b 91 3e 56 b9 99 3e e0 c3 94 3e 9b 3e 97 3e
       0.28329298 0.30024213 0.2905569 0.29539952
000230 ae 53 8d 3e c7 0b 91 3e 9b 3e 97 3e 7d e3 85 3e
       0.27602905 0.28329298 0.29539952 0.26150122
000240 95 9b 89 3e c7 0b 91 3e f3 d8 8a 3e 25 49 92 3e
       0.26876512 0.28329298 0.27118644 0.2857143
000250 51 16 8c 3e 38 5e 88 3e 51 61 7f 3e 0c 91 8e 3e
       0.27360776 0.26634383 0.24939467 0.27845037
000260 c7 0b 91 3e 88 29 a1 3e c7 0b 91 3e c7 0b 91 3e
       0.28329298 0.31476998 0.28329298 0.28329298
000270 ae 53 8d 3e c1 68 83 3e f3 d8 8a 3e f3 d8 8a 3e
       0.27602905 0.25665858 0.27118644 0.27118644
000280 9b 3e 97 3e e0 c3 94 3e 0c 91 8e 3e 38 5e 88 3e
       0.29539952 0.2905569 0.27845037 0.26634383
000290 25 49 92 3e f3 d8 8a 3e 64 2b 82 3e ae 53 8d 3e
       0.2857143 0.27118644 0.2542373 0.27602905
0002a0 51 61 7f 3e e0 c3 94 3e 69 ce 8f 3e 56 b9 99 3e
       0.24939467 0.2905569 0.28087166 0.30024213
0002b0 64 2b 82 3e 95 9b 89 3e c1 68 83 3e 9b 3e 97 3e
       0.2542373 0.26876512 0.25665858 0.29539952
0002c0 51 16 8c 3e 1f a6 84 3e 1f a6 84 3e 0c 91 8e 3e
       0.27360776 0.2590799 0.2590799 0.27845037
0002d0 96 e6 7c 3e 33 06 6e 3e 51 61 7f 3e db 6b 7a 3e
       0.24697337 0.23244552 0.24939467 0.24455206
0002e0 96 e6 7c 3e ae 53 8d 3e 38 5e 88 3e 78 8b 6b 3e
       0.24697337 0.27602905 0.26634383 0.23002422
0002f0 db 6b 7a 3e 96 e6 7c 3e 1f a6 84 3e f3 d8 8a 3e
       0.24455206 0.24697337 0.2590799 0.27118644
000300 95 9b 89 3e da 20 87 3e b1 ca 4d 3e 20 f1 77 3e
       0.26876512 0.2639225 0.20096852 0.24213076
000310 14 ab 5c 3e 64 2b 82 3e c1 68 83 3e f3 d8 8a 3e
       0.21549636 0.2542373 0.25665858 0.27118644
000320 db 6b 7a 3e d0 25 5f 3e 7d e3 85 3e 51 61 7f 3e
       0.24455206 0.21791768 0.26150122 0.24939467
000330 bc 10 69 3e bc 10 69 3e d0 25 5f 3e 9e b5 57 3e
       0.2276029 0.2276029 0.21791768 0.21065375
000340 59 30 5a 3e 01 96 66 3e 33 06 6e 3e d0 25 5f 3e
       0.21307506 0.2251816 0.23244552 0.21791768
000350 8b a0 61 3e bc 10 69 3e db 6b 7a 3e 01 96 66 3e
       0.22033899 0.2276029 0.24455206 0.2251816
000360 46 1b 64 3e 6c 45 50 3e 14 ab 5c 3e 6c 45 50 3e
       0.22276029 0.20338982 0.21549636 0.20338982
000370 01 96 66 3e 59 30 5a 3e 59 30 5a 3e 46 1b 64 3e
       0.2251816 0.21307506 0.21307506 0.22276029
000380 bc 10 69 3e bc 10 69 3e 3b d5 48 3e e3 3a 55 3e
       0.2276029 0.2276029 0.19612591 0.20823245
000390 3b d5 48 3e e3 3a 55 3e 8b a0 61 3e 09 65 41 3e
       0.19612591 0.20823245 0.22033899 0.18886198
0003a0 28 c0 52 3e 59 30 5a 3e 6c 45 50 3e 3b d5 48 3e
       0.20581114 0.21307506 0.20338982 0.19612591
0003b0 59 30 5a 3e 01 96 66 3e 6c 45 50 3e 14 ab 5c 3e
       0.21307506 0.2251816 0.20338982 0.21549636
0003c0 8b a0 61 3e 28 c0 52 3e 80 5a 46 3e e3 3a 55 3e
       0.22033899 0.20581114 0.1937046 0.20823245
0003d0 d8 f4 39 3e 46 1b 64 3e 09 65 41 3e c4 df 43 3e
       0.18159807 0.22276029 0.18886198 0.19128329
0003e0 14 ab 5c 3e 9e b5 57 3e 3b d5 48 3e 6c 45 50 3e
       0.21549636 0.21065375 0.19612591 0.20338982
0003f0 28 c0 52 3e 6c 45 50 3e 61 ff 34 3e 3b d5 48 3e
       0.20581114 0.20338982 0.17675544 0.19612591

lr1.weight f4 [1, 63]
000000 2b ea 70 3d 18 b9 a4 3c eb 65 dd 3d f4 bd 45 be
       0.05881707 0.02010779 0.10810455 -0.19310743
000010 64 69 1b 3e 96 82 06 3d 42 14 12 3e 0e 25 0d bc
       0.15176922 0.03283938 0.1426554 -0.008614792
000020 2f 09 af 3a 40 39 f6 bd 03 66 63 bc 44 58 2f be
       0.0013354177 -0.12022638 -0.013879302 -0.17123514
000030 1f ce 4f bd 42 48 04 bd a9 6b 15 3a d2 c7 e6 bb
       -0.05073368 -0.032295473 0.00056999415 -0.0070428634
000040 78 fd be bd 96 18 f3 bd 28 1c 01 3d 7a 22 df bc
       -0.09325689 -0.11869924 0.031520993 -0.02723812
000050 28 38 a3 3c b2 58 41 bd 93 2e 78 bd fe aa 10 3d
       0.019924238 -0.047203727 -0.06059129 0.03531932
000060 c4 5c 46 3c 36 0d 47 be 22 ec 5c 3d d2 64 6c 3e
       0.012107078 -0.19438633 0.05393613 0.23085335
000070 3a 29 ad bd e2 67 c7 bd 47 4a 9f 3d fd 49 43 3e
       -0.08455129 -0.09736611 0.07777839 0.19071193
000080 c1 cc 54 bd f7 d7 3c bd f9 ca 92 3d ff 29 0f 3d
       -0.05195308 -0.046104398 0.0716762 0.03495216
000090 b4 fc 8c 3b ca ab 17 3e 36 8e 9b bd e0 5a 95 bd
       0.0043025855 0.14811626 -0.07595484 -0.07292724
0000a0 5e 0f 85 3d 13 b3 80 3d 7b ef 93 3d b7 7b 8d bc
       0.06497072 0.06284156 0.07223412 -0.017270906
0000b0 51 95 8a bc 34 cf f4 bd ae da 5f bd e9 bd a5 be
       -0.016916903 -0.11953583 -0.05465191 -0.32371452
0000c0 1e 72 83 3e 5a b3 d1 bd 95 90 04 be 13 9c c1 3d
       0.25673002 -0.10239287 -0.12945779 0.09453597
0000d0 79 b4 2a 3e bc e5 30 3e a3 86 ac bc cd 08 59 3e
       0.16670407 0.17275137 -0.021060294 0.21194763
0000e0 a7 d7 75 3a 17 9d 83 be de 28 0e bc d8 7e 21 be
       0.0009378143 -0.25705788 -0.008676736 -0.15771043
0000f0 21 74 03 3d 34 a4 17 be 0f 36 ec 3b
       0.03209317 -0.14808732 0.0072085927
