iid/result/ml100k-IIDMF-debug2023-03-30-05-36-11/ckpt/epoch_43.pth (torch_old, 543146 bytes, 4 tensors)

users f4 [945, 64]
00000000: 6507 0940 3c08 4f3f 84d1 ae3f cdf0 c23f
00000010: aefd 313f 1f6e 02bf f048 783f 841e e0bf
00000020: 1612 24bf 578c bfbe fdb6 243f 3366 483e
00000030: 3703 523f 7c79 10bf 4ba8 4ebf 6094 043f
00000040: 7352 8dbf 0f7a c5bf c4b6 953c b9ba 0bbf
00000050: 3db9 73be d292 dcbf 8ee2 973f 6e25 9bbf
00000060: 58df fb3e 8b43 ba3f de98 c33f e18a 3abf
00000070: 0632 163f b715 65bf b3bf 85bf 9ed9 4abf
00000080: 9375 97bf ce75 2c3f 3833 5fbe 7cfb 82bf
00000090: a4da 293e 54d8 223e b1d8 ee3e 201d 8abf
000000a0: 935c 41bf 86e3 9f3f 3afc a2bf 0937 2d3f
000000b0: c850 4dbf 47a6 77bf 5365 e83e 318a 9d3f
000000c0: 921b 613f 5abd 5bbd 406b ae3f d1cc f1be
000000d0: a331 a43f 72a1 b23f 88e5 6dbf db45 babf
000000e0: cb84 ac3f 5814 37bf e420 be3d 5e3f a53f
000000f0: c20c d0be 0c71 2fbe 87fd cfbf 3178 a13e
00000100: dd01 093d 9105 1f3f 3024 393f 125e cd3e
00000110: 8e46 eebd 3c80 39bf 1b67 a93f 64eb 883f
00000120: 46b4 86bf 3680 d1be 2c9b 36bf 9433 0fbf
00000130: 0d91 6b3e 70e5 003f f26f e4bf 53a3 ac3f
00000140: e4ca 9a3f 38f4 51bf 0939 983f 9ff7 903e
00000150: 9a1c 0dbf 2332 68be 7127 87be 0a34 efbd
00000160: 2dc1 3f3f 173b 9fbe 555c 73bf 14a0 81be
00000170: 2ed0 06bf 5c77 ffbe 8695 36bc 826b e13f
00000180: 96a6 78bf a87f f73f dd7e 423f 8afb 0bc0
00000190: a462 ddbf 5e4d fe3e 316a 9abf 6bf0 75bf
000001a0: 6c86 5a3f 5736 93bf dae7 c0bf b09f 973c
000001b0: a51c 85be 883d 123e 0f6b b53f e98e d4bf
000001c0: 42a5 6d3f 7cdb 233f 1dc7 08be 9b7e 5a3f
000001d0: b3f6 cc3f d7bc 423f 1c4a 4b3f f2a3 cebf
000001e0: 6802 dabe 4255 83bf 2931 a4be 1a80 9d3b
000001f0: a82d 343f 3f96 d8bf c1ab 093f 67fd d7bd
00000200: 04a2 1b3f 3d14 69bf 4edf dfbf e098 ccbd
00000210: 98aa 983f 2eb4 aabe 9f29 f6bf e3a9 113f
00000220: e686 82bf e701 393f 7926 6dbf 47fe d8be
00000230: 1f88 ef3d cb1d 88bf 5688 14bc 146c 433e
00000240: ef94 313f 9ded a3bf 9520 1ebe 9a23 a1bf
00000250: cc6f fa3e 3102 a1bf 29ac 003e 9e83 693d
00000260: 14c7 6e3f 0251 11bf 5175 993f ac82 ca3e
00000270: 4597 b53e 187f a33f f1ce d2bf 550f 753e
00000280: 3448 c2bf b2a6 bf3e 3547 c53f e8b4 e6bf
00000290: b9ee 183f f4fa 87bf b246 273e c93c 043f
000002a0: f61e 073f a8e1 dfbc 27af 4ebf d61f 703e
000002b0: 7064 88bf 1259 c73e 658c a73f 34ac 49bc
000002c0: 7f7e 12bf 8942 cabf aa49 45bf f04b 5b3f
000002d0: 5dcd 613f 4b4d 95be 32b6 4c3f 8713 17c0
000002e0: 9841 6f3e 1eb7 f93d ee78 ae3f 8c08 ac3e
000002f0: 2ec0 3cbe 042e 25bf d49c b4bf 934a 93bf
00000300: 89b9 05be b43e f13d 5211 89bf 0e2f d7bd
00000310: 55bc 933f a8ce 543f 5869 a8bf f2c1 a3bf
00000320: 266d 84bf 8d9e 10bf d161 4a3f 7535 dbbf
00000330: 3212 903f 3c93 97bf 33a7 283f ae84 bdbe
00000340: 5278 973f d287 56bf 45c0 383f ce88 b33e
00000350: ff92 99bf d967 213e 3b33 a9bf cb64 34bf
00000360: 36da a83e 8cd6 d63f a2f8 70be d0dd d33e
00000370: 2b4f b5be 036e 51bf 73d1 bd3e 9b86 cb3f
00000380: 0da3 ea3e fef8 f93f 008d 053c 8a29 fabc
00000390: c188 d53f fd04 1cbe c592 2dbf 1798 f0be
000003a0: 7e35 233f 2a32 89bd 1ea1 c0be 7fed 183f
000003b0: 2f4d 943f 3d49 33bf 0c87 10bf e804 9ebf
000003c0: 8674 83be 1943 5ebe ac0a b93f 262f e6bd
000003d0: 41da a93f 6521 a43f b642 52bf 36c2 69bf
000003e0: ba61 b83f 6977 933f 95da aebf 7476 323f
000003f0: e9ef 003f b45a 16bf 887d 79bf c015 89bf
2.1410763 0.8087194 1.3657689 1.5229737 0.6952771 -0.5094928 0.96986294 -1.7509313
-0.64090097 -0.37411758 0.6434172 0.19570236 0.82036155 -0.5643537 -0.80725545 0.517889
-1.1040787 -1.5427874 0.018275626 -0.5458179 -0.23801132 -1.7232306 1.1866014 -1.2120798
0.49193835 1.4551862 1.5281026 -0.7286816 0.5867008 -0.8948626 -1.0449127 -0.7923831
-1.1832756 0.67367256 -0.21796882 -1.0232997 0.16587311 0.15902835 0.46649697 -1.0790138
-0.7553188 1.249131 -1.2733223 0.676621 -0.8020139 -0.96738094 0.45389804 1.2307798
0.87932694 -0.053647377 1.362648 -0.47226575 1.2827648 1.3955519 -0.9292836 -1.4552568
1.3478025 -0.7151542 0.09283617 1.2909963 -0.40634733 -0.17132968 -1.6249245 0.3153701
0.033449043 0.6211787 0.7232084 0.40110832 -0.11634551 -0.72461295 1.323459 1.0696836
-1.0523765 -0.4091813 -0.71330523 -0.55938077 0.23004551 0.50350094 -1.7846663 1.3487343
1.2093167 -0.82013273 1.1892406 0.2831392 -0.5512177 -0.22675376 -0.2639728 -0.116798475
0.7490414 -0.3109977 -0.9506276 -0.25317442 -0.52661407 -0.4989575 -0.011144048 1.7610934
-0.9712919 1.9335833 0.7597483 -2.1872277 -1.7295728 0.496684 -1.2063657 -0.96069974
0.8536136 -1.1500958 -1.5070755 0.018508762 -0.25998417 0.14281285 1.4173297 -1.6606113
0.9283029 0.6400678 -0.13357206 0.85349435 1.6012787 0.76069397 0.79409957 -1.6143782
-0.4257996 -1.0260394 -0.32068756 0.0048065307 0.70382166 -1.6920851 0.537777 -0.105463795
0.6079409 -0.91046506 -1.7490022 -0.09990096 1.1927061 -0.3334059 -1.9231452 0.5689985
-1.0197418 0.7226853 -0.9263683 -0.42381498 0.11695885 -1.0634092 -0.009065708 0.19084197
0.6936788 -1.2806889 -0.15442117 -1.258899 0.4891342 -1.2578794 0.12565674 0.057010286
0.9327252 -0.56764233 1.1988927 0.3955282 0.35466972 1.2773161 -1.6469404 0.2393163
-1.5178285 0.37431866 1.5412356 -1.8023958 0.5973926 -1.062346 0.16335562 0.5165525
0.5278162 -0.027329281 -0.8073601 0.23449644 -1.0655651 0.38935143 1.308972 -0.012309123
-0.5722427 -1.5801555 -0.7706553 0.85662746 0.88203984 -0.29160532 0.7996551 -2.3605669
0.23364866 0.1219313 1.3630655 0.3360027 -0.18432686 -0.6452334 -1.411036 -1.1507133
-0.13059057 0.11779538 -1.0708411 -0.10507022 1.1541849 0.8312783 -1.3157148 -1.2793562
-1.034581 -0.5649193 0.79055506 -1.7125689 1.1255553 -1.1841807 0.65880126 -0.3701529
1.1833594 -0.83800995 0.7216838 0.3506531 -1.1997985 0.15762271 -1.3218759 -0.704663
0.32978982 1.6784225 -0.23532346 0.41380167 -0.35411963 -0.8180849 0.3707386 1.5900453
0.45827523 1.9529111 0.008151293 -0.030537385 1.6682359 -0.15236278 -0.6780208 -0.46991035
0.637535 -0.06699021 -0.37622923 0.5973739 1.1586055 -0.7003363 -0.56456065 -1.2345247
-0.25674838 -0.21705283 1.4456382 -0.112394616 1.3269731 1.2822691 -0.8213304 -0.9131197
1.4404824 1.1520816 -1.3660456 0.69711995 0.50366074 -0.5873215 -0.9745717 -1.0709763

items f4 [1154, 64]
00000000: 0ae4 0abe a232 2b3e ed76 b7bd fb38 353e
00000010: 27e2 853d d69c 153e 6b15 2ebe 616c 3dbe
00000020: 7097 0ebe c97a 913d c3ad a93d 914a 40be
00000030: a154 a73d 35d5 b8bd 954b 12be 4140 33be
00000040: 6754 e6bd 89fa d2bd f186 32be f4e6 80be
00000050: f3ec bfbd 5c04 20be ff5b 20be 02c8 20be
00000060: d816 143d 55d4 06be 038b 2e3e c937 e93d
00000070: 271c 2cbe 68df a53d af2a fbbd 33cd e0bd
00000080: e44e 91be 4936 423e d1d8 c13d 998f 2f3e
00000090: d7c8 66be 03c4 eebc 664b 023e 5d96 3bbe
000000a0: 6363 003e 8938 0b3d 7f9d 54be 02e0 a23d
000000b0: c5bd 473e 1b6b 89bd d4c8 8a3d b36c 62be
000000c0: 27c9 4a3e f0a0 28be d1d0 483e d002 4cbe
000000d0: 2b60 973d 519b 45be 585b 013e 2274 d5bd
000000e0: 0866 18be ce11 c6bd 8e33 ffbd ee9a 12be
000000f0: 4c8c 58bd 08bd 89bd 62d1 34bd 2df1 4abe
00000100: 80d3 d43c 1746 4a3c 8dd6 c6bc 982a bdbb
00000110: 2617 1c3d f16a f03b aeb8 98bc df00 32bd
00000120: 1a9a 8a3b db17 8e3c 352b 503c 8f0f bcbb
00000130: 3989 f03c 5eca 4bbb a678 3c3c 665f 0e3b
00000140: 886a 88bc 9c40 53bc a7e3 3fbd 40b0 2a3d
00000150: 6e0e 41bd cdb9 babb 5a5e 00ba 4ff5 7bbd
00000160: 9db3 4abb 4413 bd3b 9ca2 943c 5d30 19bb
00000170: baeb e3bc 8dfd dd3c 9b3c 39bd ceb8 b6bb
00000180: 100c f3bc d070 42bd dd74 273c 04de 773c
00000190: 8371 3fbd 9adb 6dbd 2d74 343d a0df 973c
000001a0: df7d 003d 66ac ac3c 3e9d 08bd 733e 0c3d
000001b0: 2c01 87ba 6465 7cbc be2e 2c3c 6eda 2cbc
000001c0: 5287 dd3b fcb5 a5bc be42 143b f129 d8bc
000001d0: 6d17 0cbd a129 0b3d be44 84bc 2689 56bd
000001e0: 8a26 3abd 425a d7bc f47f 09bd 4d9b 9dbc
000001f0: abc0 aa3c e7dd f43c f94c 223b 390d bfbb
00000200: 4c6d 96ba 877f 863c 7e39 cfbc 88d6 863c
00000210: 22a8 b5bc a469 45bc 7929 803c 154a 15bd
00000220: bf79 803c 755d 1d3d eb55 363d d7c8 ce3b
00000230: a215 3abd 45c0 2dbb 2362 943c e99d 0cbd
00000240: ab4c 383b 14f6 0fbd cea2 7ebd a0fa bb3b
00000250: 5ef2 ab3c cf5a afbc 2a78 1cbd de06 f1bc
00000260: e0d0 653b 3280 e5bc 3fba 813d 410e 283d
00000270: db1f fcbc b4b6 643d 4637 25bd 6d76 d1bb
00000280: 7976 48bc c219 aabb 9010 f9bb ebb1 b4bc
00000290: 42b0 63bd 29f4 e3bc 8694 1d3d b184 09bc
000002a0: 28f2 f23c 56eb 1e3c 5476 db3c ad24 863c
000002b0: 53ef cabb f6a8 4cbd 8da0 b9bb d726 e3bb
000002c0: cc7c 623c 5cd9 3f3c 8d9b ad3a 6c60 bbbc
000002d0: 81b0 fb3c 54f7 57bc a10a aa3c dc42 65bd
000002e0: e19f bcbb e4a2 cdbc cbcd 59bd 8fbd a4bc
000002f0: e2a2 c33c ea5b e5bb a2e1 19bd ab7d 6bbd
00000300: 2f80 803c e70d 573d 4d9d c7bc 5237 843c
00000310: f2ae c03c b697 113d bfde 05bc ad64 edbc
00000320: f2cc 32bd 7fe0 f6ba e666 043d d6d1 84bc
00000330: 89ff 183c b115 95bc a4c5 58bc a1a2 2fbd
00000340: 14b5 88bc a669 09bd 9a8e 24bd 00fa d9bc
00000350: 68e8 4fb9 95ce 1ebd af9d 73bd b85d ccbc
00000360: 29c6 193c 0fb7 24bd b4bf 2b3c c628 8b3c
00000370: b72d 23bd 5cec 103d 0eca fabc 4091 72bb
00000380: 3a95 f13c ddac eb3a a670 c8bc 0017 c13c
00000390: b02f cdbc 6632 023d 63ef 9f3c 7605 57bc
000003a0: 1de7 863d 3fb9 063d 0156 81bc 3078 a73c
000003b0: 9173 1f3c ec65 81bc d949 223c 7e8c 0cbd
000003c0: c8cd 6f3d 379d 923c e4c0 813c 0180 21bd
000003d0: 450b d23c d579 b2bb e0aa 2a3d db32 88bd
000003e0: b46f 14bc 35d8 17bd 07af 81bd 91d8 3f3b
000003f0: 3922 0abb 4664 17bc 5263 bebc d416 d1bc
-0.13563552 0.16718534 -0.0895823 0.17697518 0.06537276 0.1461061 -0.17000358 -0.18498375
-0.13924956 0.071034975 0.082850955 -0.18778445 0.081704386 -0.09025041 -0.14286645 -0.1750498
-0.11246567 -0.10301692 -0.17434289 -0.25176203 -0.09371366 -0.15626663 -0.15660094 -0.15701297
0.036154598 -0.13166936 0.17045216 0.11387593 -0.16807614 0.08099252 -0.122640006 -0.10976639
-0.283805 0.1896602 0.094651826 0.17144622 -0.22537552 -0.0291462 0.12724075 -0.18319078
0.12537913 0.033989463 -0.20763205 0.07952882 0.19505985 -0.06709882 0.06776586 -0.22111778
0.19803296 -0.16467643 0.19610907 -0.19922948 0.073913895 -0.1929753 0.12632501 -0.10422541
-0.14882672 -0.09671365 -0.12461005 -0.14316913 -0.052868173 -0.06725508 -0.044144996 -0.19818564
0.025979757 0.012345812 -0.024272228 -0.0057729 0.038108014 0.007336967 -0.01864275 -0.043457862
0.004229796 0.01734536 0.012705614 -0.0057391594 0.029362308 -0.0031095962 0.011503374 0.0021724342
-0.01665236 -0.012893822 -0.046847966 0.04167199 -0.0471329 -0.0056984187 -0.0004896872 -0.06151324
-0.0030929812 0.005770119 0.018143944 -0.0023374774 -0.027822364 0.027098441 -0.045223814 -0.0055762297
-0.029668838 -0.047470868 0.0102207335 0.015128616 -0.046739113 -0.058070756 0.044056106 0.01853925
0.03137004 0.0210783 -0.033353083 0.034239244 -0.0010300032 -0.015405033 0.010509191 -0.010550125
0.006760516 -0.020228378 0.002262279 -0.026387187 -0.034202028 0.033975247 -0.01614606 -0.05237689
-0.04544691 -0.026288155 -0.03356929 -0.019239092 0.020843824 0.029890968 0.0024765118 -0.0058304337
-0.0011476665 0.016418232 -0.02529597 0.016459718 -0.022174899 -0.0120491125 0.015644776 -0.036447603
0.015683053 0.038419206 0.04451553 0.006310563 -0.045430787 -0.0026512307 0.018113201 -0.034330282
0.002812187 -0.035146788 -0.06216698 0.005736664 0.020989593 -0.021405606 -0.038200535 -0.02942222
0.0035067126 -0.02801523 0.06334352 0.04102922 -0.030776909 0.0558383 -0.040335916 -0.0063922913
-0.012235277 -0.005191059 -0.0076008514 -0.022057494 -0.055588014 -0.027826386 0.03847172 -0.0083934525
0.029656485 0.009699663 0.026789822 0.01637491 -0.0061930805 -0.04996582 -0.005664891 -0.0069321203
0.013823699 0.011709537 0.001324521 -0.022873126 0.030723812 -0.013181526 0.020757021 -0.055971965
-0.0057563637 -0.025102086 -0.053174775 -0.02010992 0.02388138 -0.0069994824 -0.037568696 -0.057492893
0.015686123 0.052503493 -0.024366999 0.01613966 0.02352092 0.035545073 -0.008170783 -0.02897867
-0.043652482 -0.0018835216 0.032324694 -0.016213339 0.009338268 -0.01819882 -0.013230715 -0.042879704
-0.016687907 -0.03354802 -0.040175058 -0.026608467 -0.00019827636 -0.03877123 -0.05947655 -0.024947032
0.009385624 -0.04021364 0.010482717 0.016987216 -0.03983852 0.03538166 -0.030613925 -0.0037012845
0.029490102 0.0017980594 -0.024467777 0.023570538 -0.025047153 0.031786345 0.019523328 -0.013123861
0.0658705 0.03289151 -0.01578808 0.020443052 0.009732143 -0.01579567 0.009905302 -0.03431367
0.058545858 0.017897232 0.015839048 -0.039428715 0.02564014 -0.0054466524 0.041666865 -0.06650325
-0.009059835 -0.037071425 -0.06332212 0.002927337 -0.0021077527 -0.009240216 -0.023240719 -0.02552358

item_pop f4 [1154, 1]
00000000: 0000 803f 1be4 503f aa91 593f c349 5d3f
00000010: 6069 4e3f 6069 4e3f 548d 4c3f ac27 403f
00000020: 2956 393f 1d7a 373f 308f 2d3f bf3c 363f
00000030: f242 243f d98a 203f b999 283f adbd 263f
00000040: e566 223f 6f71 1d3f e566 223f c70b 113f
00000050: 3125 143f e0c3 143f 385e 083f 0c91 0e3f
00000060: 5df2 0d3f c168 033f da20 073f c168 033f
00000070: 06ee 003f 6476 f53e 7de3 053f 13ca 023f
00000080: 06ee 003f 574f 003f bc10 e93e 4cbe f13e
00000090: 13ca 023f 7d2e f93e 13ca 023f 8ba0 e13e
000000a0: e8dd e23e 38a9 fb3e 7d2e f93e da20 073f
000000b0: bc10 e93e bc10 e93e 14ab dc3e 461b e43e
000000c0: 2d63 e03e a458 e53e 1a4e ea3e 788b eb3e
000000d0: 4078 d63e 461b e43e e8dd e23e e8dd e23e
000000e0: d5c8 ec3e a458 e53e 4078 d63e 5930 da3e
000000f0: 3bd5 c83e 72e8 dd3e 9eb5 d73e 14ab dc3e
00000100: 9812 ca3e 548d cc3e 5930 da3e e33a d53e
00000110: 9812 ca3e dd97 c73e ca82 d13e 548d cc3e
00000120: 4eea be3e d025 df3e 9812 ca3e 85fd d33e
00000130: ac27 c03e ca82 d13e f64f cb3e 0f08 cf3e
00000140: dd97 c73e bf3c b63e 7ab7 b83e dd97 c73e
00000150: 4947 b13e 7ab7 b83e c4df c33e 221d c53e
00000160: d8f4 b93e bf3c b63e 936f bc3e 4eea be3e
00000170: d251 ac3e 04c2 b33e d251 ac3e eb09 b03e
00000180: 61ff b43e 7ab7 b83e 17d7 a93e 3532 bb3e
00000190: 308f ad3e 8dcc ae3e bf3c b63e eb09 b03e
000001a0: a684 b23e fe1e a63e a1e1 a43e eb09 b03e
000001b0: 8dcc ae3e a1e1 a43e 7514 ab3e fe1e a63e
000001c0: 1d7a b73e 9b3e 973e a1e1 a43e 43a4 a33e
000001d0: a1e1 a43e 5c5c a73e fe1e a63e 6f71 9d3e
000001e0: e566 a23e a1e1 a43e a1e1 a43e d251 ac3e
000001f0: cdae 9e3e 9b3e 973e e0c3 943e 1134 9c3e
00000200: b4f6 9a3e 8829 a13e e566 a23e 3d01 963e
00000210: e566 a23e c70b 913e f3d8 8a3e 2549 923e
00000220: c70b 913e 56b9 993e e0c3 943e 9b3e 973e
00000230: ae53 8d3e c70b 913e 9b3e 973e 7de3 853e
00000240: 959b 893e c70b 913e f3d8 8a3e 2549 923e
00000250: 5116 8c3e 385e 883e 5161 7f3e 0c91 8e3e
00000260: c70b 913e 8829 a13e c70b 913e c70b 913e
00000270: ae53 8d3e c168 833e f3d8 8a3e f3d8 8a3e
00000280: 9b3e 973e e0c3 943e 0c91 8e3e 385e 883e
00000290: 2549 923e f3d8 8a3e 642b 823e ae53 8d3e
000002a0: 5161 7f3e e0c3 943e 69ce 8f3e 56b9 993e
000002b0: 642b 823e 959b 893e c168 833e 9b3e 973e
000002c0: 5116 8c3e 1fa6 843e 1fa6 843e 0c91 8e3e
000002d0: 96e6 7c3e 3306 6e3e 5161 7f3e db6b 7a3e
000002e0: 96e6 7c3e ae53 8d3e 385e 883e 788b 6b3e
000002f0: db6b 7a3e 96e6 7c3e 1fa6 843e f3d8 8a3e
00000300: 959b 893e da20 873e b1ca 4d3e 20f1 773e
00000310: 14ab 5c3e 642b 823e c168 833e f3d8 8a3e
00000320: db6b 7a3e d025 5f3e 7de3 853e 5161 7f3e
00000330: bc10 693e bc10 693e d025 5f3e 9eb5 573e
00000340: 5930 5a3e 0196 663e 3306 6e3e d025 5f3e
00000350: 8ba0 613e bc10 693e db6b 7a3e 0196 663e
00000360: 461b 643e 6c45 503e 14ab 5c3e 6c45 503e
00000370: 0196 663e 5930 5a3e 5930 5a3e 461b 643e
00000380: bc10 693e bc10 693e 3bd5 483e e33a 553e
00000390: 3bd5 483e e33a 553e 8ba0 613e 0965 413e
000003a0: 28c0 523e 5930 5a3e 6c45 503e 3bd5 483e
000003b0: 5930 5a3e 0196 663e 6c45 503e 14ab 5c3e
000003c0: 8ba0 613e 28c0 523e 805a 463e e33a 553e
000003d0: d8f4 393e 461b 643e 0965 413e c4df 433e
000003e0: 14ab 5c3e 9eb5 573e 3bd5 483e 6c45 503e
000003f0: 28c0 523e 6c45 503e 61ff 343e 3bd5 483e
1.0 0.8159806 0.8498789 0.86440676 0.8062954 0.8062954 0.7990315 0.75060534
0.72397095 0.71670705 0.6779661 0.7118644 0.6416465 0.62711865 0.6585956 0.6513317
0.63438255 0.6150121 0.63438255 0.56658596 0.5786925 0.5811138 0.53268766 0.55690074
0.5544794 0.51331717 0.527845 0.51331717 0.50363195 0.47941887 0.52300245 0.5108959
0.50363195 0.50121063 0.4552058 0.47215497 0.5108959 0.4866828 0.5108959 0.44067797
0.44309926 0.4915254 0.4866828 0.527845 0.4552058 0.4552058 0.43099272 0.44552058
0.43825665 0.4479419 0.45762712 0.46004844 0.41888618 0.44552058 0.44309926 0.44309926
0.46246973 0.4479419 0.41888618 0.4261501 0.39225182 0.43341404 0.4213075 0.43099272
0.3946731 0.39951575 0.4261501 0.4164649 0.3946731 0.3898305 0.40920097 0.39951575
0.37288135 0.43583536 0.3946731 0.41404358 0.37530267 0.40920097 0.39709443 0.40435836
0.3898305 0.3559322 0.36077482 0.3898305 0.346247 0.36077482 0.38256657 0.3849879
0.36319613 0.3559322 0.36803874 0.37288135 0.33656174 0.3510896 0.33656174 0.34382567
0.3535109 0.36077482 0.33171913 0.36561742 0.33898306 0.34140435 0.3559322 0.34382567
0.34866828 0.3244552 0.3220339 0.34382567 0.34140435 0.3220339 0.33414045 0.3244552
0.35835353 0.29539952 0.3220339 0.3196126 0.3220339 0.32687652 0.3244552 0.30750605
0.31719127 0.3220339 0.3220339 0.33656174 0.30992737 0.29539952 0.2905569 0.30508474
0.30266345 0.31476998 0.31719127 0.2929782 0.31719127 0.28329298 0.27118644 0.2857143
0.28329298 0.30024213 0.2905569 0.29539952 0.27602905 0.28329298 0.29539952 0.26150122
0.26876512 0.28329298 0.27118644 0.2857143 0.27360776 0.26634383 0.24939467 0.27845037
0.28329298 0.31476998 0.28329298 0.28329298 0.27602905 0.25665858 0.27118644 0.27118644
0.29539952 0.2905569 0.27845037 0.26634383 0.2857143 0.27118644 0.2542373 0.27602905
0.24939467 0.2905569 0.28087166 0.30024213 0.2542373 0.26876512 0.25665858 0.29539952
0.27360776 0.2590799 0.2590799 0.27845037 0.24697337 0.23244552 0.24939467 0.24455206
0.24697337 0.27602905 0.26634383 0.23002422 0.24455206 0.24697337 0.2590799 0.27118644
0.26876512 0.2639225 0.20096852 0.24213076 0.21549636 0.2542373 0.25665858 0.27118644
0.24455206 0.21791768 0.26150122 0.24939467 0.2276029 0.2276029 0.21791768 0.21065375
0.21307506 0.2251816 0.23244552 0.21791768 0.22033899 0.2276029 0.24455206 0.2251816
0.22276029 0.20338982 0.21549636 0.20338982 0.2251816 0.21307506 0.21307506 0.22276029
0.2276029 0.2276029 0.19612591 0.20823245 0.19612591 0.20823245 0.22033899 0.18886198
0.20581114 0.21307506 0.20338982 0.19612591 0.21307506 0.2251816 0.20338982 0.21549636
0.22033899 0.20581114 0.1937046 0.20823245 0.18159807 0.22276029 0.18886198 0.19128329
0.21549636 0.21065375 0.19612591 0.20338982 0.20581114 0.20338982 0.17675544 0.19612591

lr1.weight f4 [1, 63]
00000000: 68a6 863c cceb cabd 4827 b03d 7808 00be
00000010: 8084 dd3d 7c54 0a3d 333d 96bd 2031 b6bd
00000020: 324e 893d 7e93 913d 5ebe 6cbd e4a4 f2bc
00000030: 20f9 b63c d205 c2bd 18b9 eb3c e0d3 493c
00000040: 60ca a33d 0471 e7bd 9f3e cabd 2143 93bd
00000050: 54aa 113d be90 ea3d 6cd5 87bd dcd9 16bd
00000060: 8ec2 b03d 2ec6 a63d f0e6 3dbd 3eee 19bd
00000070: 1661 3ebd 3446 46bd d834 473d 72af 993d
00000080: 58b4 073d e846 8ebd d860 2bbc 6096 403c
00000090: 30ba 7bbc ce6b c53d 58e7 0c3d e0ef fa3c
000000a0: 0a1f 8b3d e09d 163c 406f 5b3d da14 aabd
000000b0: 4c23 483d 6428 3cbd 98df f33d e4cf 803d
000000c0: b8fe e53d d866 983c 5e7a 11bd 5e24 b3bd
000000d0: e6e6 8b3d d92e b9bd 44f8 f6bd 1b5f 96bd
000000e0: fca3 2e3d 625a 923d 3eb0 c93d 6e2a 9f3d
000000f0: 1ab3 b63d f00e b13c e84d cf3c
0.01643677 -0.09908256 0.08601242 -0.1250323 0.10816288 0.033771977 -0.073358916 -0.088960886
0.06704368 0.0710821 -0.057798736 -0.029619642 0.022335589 -0.094737664 0.028774783 0.012318581
0.07997584 -0.11300853 -0.09875225 -0.07190538 0.03556283 0.11453389 -0.06632504 -0.03682886
0.08630858 0.081432685 -0.046362817 -0.03758072 -0.046479307 -0.048406795 0.04863438 0.07504167
0.033130974 -0.06947118 -0.010460101 0.011754602 -0.015364215 0.09639703 0.034400314 0.03063196
0.067930296 0.009192914 0.053572893 -0.08304758 0.048861787 -0.045936957 0.119078815 0.06289652
0.11230224 0.018603727 -0.03551709 -0.08747171 0.0683115 -0.090421386 -0.12059072 -0.07342359
0.042636856 0.071461454 0.09848069 0.07771765 0.0892088 0.021613568 0.025305703
